Gibbs_MINE/pw_res/model_lk_b=10_s=0.5_p=6.pth (torch, 174615 bytes, 5 tensors)

weight f4 [400, 6]
00000000: 85a1 f9bc 68da 5b3e 97d2 ba3e 05a5 c2be
00000010: 96d0 053e e743 e43e 6c46 cabd d127 62be
00000020: ad87 dbbe 79ec 81be d9cf fb3c 8a20 05be
00000030: 3cb8 ed3d 6eef ed3d 6684 18bd ed6b 00be
00000040: 0586 a43e 773c 113c 6d84 b0be d107 5fbe
00000050: d038 ba3e bc05 83be fc10 1fbb ae31 8c3e
00000060: 93a0 c7be 8c31 2c3e 84fb e13e b6a6 88be
00000070: 88c9 623d 407c 60bd 7351 8f3e 7f96 493e
00000080: 7772 6e3e 8a44 463e f345 ba3e 09bd 96bd
00000090: b86c 23bd f470 d7bc 5638 ddbe 5538 8ebe
000000a0: 7f0b 253e f879 1a3e 7a5d 8dbe 8703 f23d
000000b0: 2e1d e9be b680 b4be 57e0 853d b41e bbbe
000000c0: 9fc7 a03e 7540 b63e 450d e73e 08ec 703e
000000d0: caa6 893e 60f7 9e3e 91d0 483e 8f6f c1bb
000000e0: 4106 9b3e bea8 e7bd cda0 d9be 0edf 1bbe
000000f0: 09e0 a63e 9a9f c3bc 90f9 edbd d9ee 15be
00000100: 31b4 613e b686 60be 6261 aa3d 1944 43be
00000110: c489 223d f3a1 44be 2176 5f3e 65f3 9d3d
00000120: e9bf ae3e 0438 8d3e 189c 75be 349b c53d
00000130: c1a2 293e 3bd6 d0be 34e0 a03e 4c1b cebe
00000140: eedf a63e a6e7 703d e136 c9be a002 7ebe
00000150: a214 7bbe b229 a53d a447 ac3e 74c9 923e
00000160: 947e 833e c57d ca3e d3c4 063e 2cfe 6bbe
00000170: 7310 193e 4a72 d53c 4876 5fbe 013a c53d
00000180: ac1e 2ebe c9fe 9f3e 3c41 e03e 1cf5 bf3d
00000190: 4b01 71be e331 78be 212e a0bc c813 cebe
000001a0: 7776 a43d c66b fe3d 5507 80be 7c61 c2be
000001b0: 8209 d6bb 256e 7b3e 3c67 de3e bbb1 80bd
000001c0: fd28 ac3e 0f63 66bc 0309 22be 26bb bc3e
000001d0: dc5d 9e3e 65ca 70be 45a1 873b d4f8 8bbe
000001e0: ddb8 9abe e25c 27be dc53 01bf 2ffc a2be
000001f0: 0431 00be 02a9 83be 1c24 b53c 8f2a b2be
00000200: 5138 9e3e 92e8 773e fbfa d5be a7c1 01be
00000210: 9012 c13d f087 d33d 430e 14be 01ac 17bd
00000220: 6b08 87be 93d2 883e 3352 c4be f887 b83e
00000230: 81a8 593e 43bd 7a3e de28 18be dc58 00bd
00000240: 47cb 9fbe 90a9 4e3e 32b0 babe 583d c9be
00000250: 24b1 993d e180 a33d d94e af3d 6afa 6fbe
00000260: cff5 0bbe 2d57 733e 7af1 c73e 2c56 813e
00000270: 0a49 d33e 8166 6fbc 59bf 063e 28c6 773c
00000280: 68ac 8dbe 57fe 893e 2610 30bc 16f9 dd3d
00000290: f971 08be 0053 2cbd 0661 543d 53a9 e73c
000002a0: 397b 293e 1e2e a4be bcf1 0abd c852 d1bc
000002b0: 1900 8d3e d00c 1cbe e507 ca3d 2276 a43e
000002c0: 2162 d03d 3f55 e7bd bebb efbe 6b2c 79be
000002d0: 7e5d cc3e d29a 1bbe 95e0 0abc 6872 b03e
000002e0: 28c3 b6be 29ca 933e 6220 bd3e eb44 093d
000002f0: 23f6 0b3e 1a46 383e b888 bd3e 8f8e 423e
00000300: 8d41 0cbf 4e16 ee3d 31b2 cd3e c323 573d
00000310: 5e5b bfbc 9a13 d6bd d7cf 63be f2bf c4be
00000320: bf3e b73e 8077 3d3e 5111 d8bc e29a 773e
00000330: 6ebd ecbe 92c8 c0be dbac d83e 9f9f cd3d
00000340: 46af 983e 642f 183e 1f9a 733e d308 1dbe
00000350: 3eaa 2d3e ca9d e83e 7404 623d acc2 62bd
00000360: a5d7 bfbe 41e3 b2be 7ead b53d a665 f43d
00000370: a01b 423d 028b 783a ecb3 95bc c607 77be
00000380: 5412 c53c f553 d73e 5843 803e 583b a13e
00000390: d69b b6ba 1753 59be 4731 a1be deeb 2a3e
000003a0: 0f41 c23e 41db 52be 6060 293e e6c3 563d
000003b0: b33b d5be 2e1a 5cbe ba66 253e c6c4 ddbe
000003c0: 7cb6 1f3e a000 8b3e b048 cc3e 4b9d 8e3e
000003d0: 11dc b1be 8636 febb 57d6 8ebe 0ee8 273e
000003e0: 4b3e 74be 34ef cabd c380 cf3d f8df 43bd
000003f0: 5118 0a3e 4e68 873b e28a 15be 94d2 afbe
-0.030472526 0.21470034 0.36488792 -0.38016525 0.1306785 0.44583055 -0.09876713 -0.22085501
-0.4287695 -0.25375727 0.030738758 -0.13000694 0.116074055 0.11617933 -0.03723564 -0.1254117
0.321335 0.008864514 -0.34476033 -0.21780325 0.3637147 -0.25590312 -0.0024271598 0.27381653
-0.38989696 0.16815776 0.44137204 -0.2668969 0.055367976 -0.054805994 0.27991828 0.19686316
0.23285852 0.19362083 0.36381492 -0.07360274 -0.039898604 -0.026298977 -0.43207043 -0.27777353
0.16117667 0.1508559 -0.2761038 0.11817079 -0.45530075 -0.3525445 0.0653693 -0.36546862
0.314023 0.35596052 0.4512731 0.23527539 0.26885062 0.31048107 0.19610812 -0.0059031914
0.3027821 -0.11311482 -0.42505494 -0.15221807 0.325928 -0.023879815 -0.11619866 -0.14641894
0.22041394 -0.21926388 0.083193555 -0.19068946 0.039682165 -0.19202404 0.21822406 0.077124394
0.3413079 0.275818 -0.23985326 0.09648743 0.16565992 -0.40788445 0.31421053 -0.402552
0.3259272 0.058814667 -0.39299682 -0.24805689 -0.2451959 0.080645934 0.33648407 0.28669322
0.2568251 0.3954908 0.1316102 -0.23046178 0.14947681 0.026055474 -0.21822464 0.09630204
-0.17003888 0.31249073 0.4379977 0.09372923 -0.2353565 -0.2423778 -0.019553246 -0.40249467
0.08030408 0.124229 -0.25005594 -0.37965 -0.006531895 0.24553736 0.43438137 -0.062838994
0.33625022 -0.014061703 -0.1582375 0.36861533 0.30930984 -0.23514707 0.004139098 -0.27338278
-0.30219164 -0.16344026 -0.50518584 -0.31833026 -0.12518698 -0.2571488 0.022111945 -0.34798095
0.3090234 0.24209812 -0.41793045 -0.12671529 0.09427369 0.103286624 -0.14458565 -0.03702927
-0.2637361 0.26723155 -0.38343963 0.36041236 0.21255685 0.2448626 -0.1485934 -0.031334743
-0.31209776 0.2018187 -0.3646255 -0.39304614 0.0750449 0.07983566 0.08559961 -0.23435369
-0.13667987 0.23763724 0.3905142 0.25261056 0.41266662 -0.014611841 0.13158931 0.015122928
-0.27670598 0.26951858 -0.010746038 0.10838525 -0.13324727 -0.042071342 0.05185034 0.028278982
0.16550912 -0.32066435 -0.033921942 -0.025552168 0.27539137 -0.15239263 0.09864787 0.32121378
0.101749666 -0.11295556 -0.46822923 -0.2433335 0.3991508 -0.15195778 -0.008476396 0.34462285
-0.35695767 0.28865173 0.3693877 0.03351299 0.13668112 0.17995492 0.3701837 0.18999694
-0.5478752 0.11625348 0.40175012 0.05252434 -0.023358997 -0.104529575 -0.22247253 -0.38427693
0.3579006 0.18502617 -0.026375445 0.24180177 -0.46238273 -0.37653023 0.42319378 0.10040211
0.29821223 0.14861828 0.23789261 -0.15335397 0.16959473 0.45432884 0.055180028 -0.055361435
-0.3746921 -0.34939006 0.08870982 0.119334504 0.047389627 0.0009481163 -0.01827427 -0.24124059
0.024056591 0.42056242 0.2505138 0.31490588 -0.0013931941 -0.21223103 -0.31482908 0.16691539
0.3794026 -0.20591451 0.1654067 0.052432917 -0.4164711 -0.21494362 0.16152468 -0.4331419
0.15596956 0.27148914 0.39899206 0.2785438 -0.3473821 -0.0077579645 -0.27897903 0.16397116
-0.23851888 -0.099089056 0.10131981 -0.047821015 0.13485838 0.004132307 -0.14603761 -0.34340346

bias f4 [400]
00000000: 21b2 163d 4ecc 09be 35d3 3b3e ce7b 083f
00000010: 34ce 853e e2ae 673e 8bd9 8dbe c3a9 1c3d
00000020: 887e 04be d04e 433d d698 323e cea1 b63c
00000030: 73d0 b7bb b6b4 88bd d699 593e 0306 48be
00000040: f40b a2be 9da5 dd3e 90fc a4be 081e 65be
00000050: e451 ce3d be2c 08be 8ff2 503e f142 56be
00000060: 3583 34be 6899 74be 344a aa3e 25ce 913e
00000070: 08c0 bebe f2e4 88be c42b e13c 1c9c 02bf
00000080: 6640 a4be f7be 0b3c 6edf 5bbe 914f d1be
00000090: e3e6 8dbe 7da6 f5bd e201 823d c207 ac3c
000000a0: ba6b 32be eb68 973e 6585 d6be d025 b6be
000000b0: 39c1 7fbe 5a8b 06be 2f0a c6bc 8910 b33e
000000c0: 4985 393d 3e79 a23e 7011 7d3e 6712 94be
000000d0: d515 63be b4d1 e2bb 40c1 bf3e 7a5d 0c3f
000000e0: de50 c73e 0291 023f 2bd8 69be e1d9 07be
000000f0: 03e1 a5be 3d14 7cbe 8b1d 53be 44f0 a83e
00000100: 406c c4be 1cff b5bd ae19 85be 782b 87be
00000110: 5642 e53d 79d4 8f3e be4a 023e a80a 6f3e
00000120: 16fa cd3c c7c9 3ebd df64 e13d 384f 64be
00000130: 9ec0 57be ad97 60be 8e95 e9be 7dd2 b63e
00000140: a710 cbbe 8d84 82be 8bd5 3fbe 96bd 843e
00000150: cd46 6cbe ddfb a83e c093 693e bb00 abbe
00000160: 0ab0 f03d 4912 b4be a665 83be f3d1 0b3d
00000170: ac0c 913c 9a2b d1be 1e24 d1be b01d 953e
00000180: 96cd 9e3e e6c8 7c3d dad0 793d f3d3 063e
00000190: fd2a 83be 7c0e 39be 6114 a33e 4c0f 6a3e
000001a0: 622a 293e 0d14 a23d f89f 9d3e e3b3 b23e
000001b0: b889 e6bd cd62 903e 5e08 95be 5b43 9cbb
000001c0: 3083 c8bc cb51 cebe e38b a93d 0fa7 893e
000001d0: 09cf 2f3e ceaa 543b 7c88 b43d 6dea d53e
000001e0: 616e e0bd ced2 0c3f 3e64 533e 277d 8ebe
000001f0: 3f9c 93be 98c7 84be f45e 79bd 4558 10be
00000200: dfe1 b13e 5988 a43d 51c8 9b3e 5abc 613e
00000210: 7bf8 d8be c98f afbe 5337 473e a3f0 e3be
00000220: b1e6 bcbe 630d 73bd 59b0 923b e490 a43d
00000230: 86f5 babe 6cd7 ec3e 6e2f 8d3e 3390 d3be
00000240: e1ce b23c 9722 573e 3574 9bbd 6e64 afbe
00000250: c34f ac3e aacb b0be 4fb3 dfbe 3362 afbe
00000260: 0fec 3d3e 2543 a93d 528d 9dbd f3c8 7dbd
00000270: 43c6 cabd 0978 62bc d73d 8cbe b436 bf3c
00000280: e4b1 72be 0bf9 223e 5d7b 0e3e 40ae efbc
00000290: 0f57 4f3e 29e2 743e ad19 4d3e 3683 c2be
000002a0: 912b 7d3e 306c febe a7ee 3abe 134a 133e
000002b0: a1d0 79be e510 013e 2fba 3abd 1c47 08bd
000002c0: 30e7 a0be 7fc0 6f3e c19c 8d3e c736 a13d
000002d0: 3604 bebe 1c2f 42be 039d d23e fb9f a9be
000002e0: b49a c9be fb94 07be 6215 c6bd 6baf bbbd
000002f0: 2cd7 9a3d 5e17 6a3d 5846 aebd fe44 80be
00000300: c9c5 8fbd 6b97 07be 1925 e2be a040 cabe
00000310: a2e6 c13e 7b96 c23e 8d32 acbe 6a8b 553d
00000320: c616 8ebe 3de5 8bbe 7bdf 32be 9bf8 bd3e
00000330: e633 24be 46e2 eabe f09b b4be f265 d5be
00000340: 813a 8bbd 4875 973e 73a2 e83e b1d1 1e3e
00000350: db11 03bd 2380 85be 06ba acbd fdd0 173d
00000360: c841 adbe bdb9 99be 3ad7 d2be e9fa 7abe
00000370: d377 9abe ea57 46be 7aae 68bd f40a 7abe
00000380: 7e7f c93d 73f7 05be 4a02 26be bf44 9cbe
00000390: 12ff 8ebd f0ae 1b3e eb11 83bd ae98 013f
000003a0: 7e2c c7be fbca 473e 8832 dbbe 7bfc 773e
000003b0: 9768 833e e010 0ebe 3b1e bdbe a9dc 05be
000003c0: 97b4 8d3e 3ee5 87bc b21c b9bc c4dc a4bd
000003d0: 06f9 8a3e e5ef 13be 7016 583e a3fa e2be
000003e0: b96a 0f3e 4299 b93d e385 4ebe d39a 80be
000003f0: 757d cebd 423f 7c3e 7796 633d 945c 023d
0.03679097 -0.13456842 0.18342288 0.5331391 0.26133883 0.22625306 -0.27705035 0.038247835
-0.12938893 0.047682583 0.17441115 0.022293951 -0.005609566 -0.06675093 0.2125009 -0.19533543
-0.31649745 0.43290415 -0.3222394 -0.22374737 0.10074213 -0.13298318 0.20405029 -0.20923974
-0.17628177 -0.23886645 0.33259737 0.28477588 -0.37255883 -0.2673717 0.02748669 -0.51019454
-0.32080382 0.008529416 -0.2147195 -0.40881017 -0.27715215 -0.11994646 0.06348015 0.020999793
-0.17423907 0.29572234 -0.41898647 -0.35575724 -0.24976052 -0.13139096 -0.024174778 0.34973553
0.045293126 0.31733125 0.24713683 -0.2892029 -0.22176297 -0.006921971 0.37452126 0.54830134
0.38928884 0.51002514 -0.22836368 -0.13266708 -0.32398233 -0.24617095 -0.20616738 0.32995808
-0.38363838 -0.08886549 -0.25996155 -0.26400352 0.11194293 0.2809179 0.12723824 0.23343909
0.025143664 -0.04657915 0.11005568 -0.22295845 -0.21069571 -0.2193286 -0.45621914 0.35707465
-0.39661142 -0.25491753 -0.18733804 0.25925893 -0.23073883 0.33004656 0.22810268 -0.33398995
0.11752327 -0.351702 -0.2566349 0.03413577 0.017706238 -0.40853578 -0.40847868 0.29124212
0.31016225 0.06171503 0.060990192 0.1316679 -0.25618735 -0.18071932 0.31851485 0.22857398
0.16520074 0.07913981 0.3078611 0.34902868 -0.112567365 0.2820038 -0.29107946 -0.0047687716
-0.024476618 -0.40296778 0.082786344 0.26885268 0.17168821 0.003245044 0.08815095 0.41780415
-0.10958553 0.5500916 0.20643708 -0.2782986 -0.28830144 -0.25933528 -0.06088157 -0.14096172
0.34742638 0.08033819 0.30426267 0.22044507 -0.42377076 -0.34289387 0.19454698 -0.4451953
-0.36894754 -0.05933894 0.0044765887 0.08035448 -0.36515445 0.46258104 0.27575248 -0.41320953
0.021827163 0.21009289 -0.07590524 -0.3425631 0.33654603 -0.34530383 -0.4369149 -0.34254608
0.1854708 0.0826476 -0.0769297 -0.06195922 -0.09901097 -0.013822564 -0.2739093 0.023341514
-0.23700672 0.15915315 0.13914247 -0.029257894 0.20248054 0.23914398 0.20029326 -0.3799073
0.2472365 -0.49691916 -0.18255101 0.14383726 -0.24395992 0.12604101 -0.045587715 -0.03327094
-0.31426382 0.23413275 0.27658656 0.07871776 -0.37112588 -0.18963283 0.41135415 -0.33129868
-0.39375842 -0.13240425 -0.09672047 -0.09164318 0.07560572 0.05715119 -0.08509511 -0.25052637
-0.070201464 -0.13241355 -0.44168928 -0.3950243 0.3787127 0.38005432 -0.33632317 0.05213491
-0.2775175 -0.27323332 -0.17468064 0.37103733 -0.16035423 -0.45875758 -0.3527522 -0.4167934
-0.06798268 0.29581666 0.4543644 0.15509678 -0.03199945 -0.26074323 -0.08433919 0.03706454
-0.3383925 -0.3002452 -0.4117983 -0.24509777 -0.30169544 -0.19369474 -0.05680702 -0.24418241
0.0983877 -0.13082676 -0.1621181 -0.305212 -0.069822446 0.15203452 -0.06399902 0.50623596
-0.38901132 0.19511025 -0.4281199 0.24217407 0.25665733 -0.13873625 -0.36937127 -0.13072456
0.27676842 -0.016588803 -0.02259669 -0.0804992 0.27143115 -0.14446981 0.21102309 -0.44331846
0.14005555 0.09062435 -0.20168261 -0.25118122 -0.10082523 0.24633506 0.055563416 0.03182657

weight f4 [100, 400]
00000000: 362c 18bd 0654 cabd 1dc7 08bb b56b a2bd
00000010: 8e8b 71bd 14e6 dc3c b272 b1bd 7f06 5d3d
00000020: 54da eabd a5d0 09bd 6943 8fbc b5b5 923c
00000030: 9e0b 663d d973 80bd ee91 8bbc da66 9bbd
00000040: 2f02 bbbd 2b1a c9bd 8c92 633c 84e1 ddbc
00000050: 04ca 533a b237 3abd 5f98 0dbc f6b3 53bd
00000060: 04a5 87bd f048 7cbd 74ee aabc f97d ad3c
00000070: 8917 a6bd 58d9 2ebd fd8d 4bbd f545 ebbd
00000080: b489 d3bb 688f 75bd f39d fdbd 49cf 71bd
00000090: 4e09 c3bd aa9e 10be 3d51 4abc 2541 08be
000000a0: ec5f e9bd ed4d cf3d 721d 2fbd ccab aebd
000000b0: cc24 ae3b d962 43bd 451a 7ebd c294 533d
000000c0: d808 d43c 6250 cd3b 56cb 7fbd cb12 1dbd
000000d0: 2259 30bd d02e 95bd 0abc 77bc d53e a6bc
000000e0: 5e62 7b3c 8ba9 73bb 9f23 b8bd c223 b5bd
000000f0: f453 bfbd 2941 39bd 47e7 2dbd ecc9 3cbd
00000100: a05c 25bd dddd 023d e876 d1bd c2f2 20bd
00000110: 6c70 17bd 21ae ffbd b940 1ebd de26 733c
00000120: edcc 933c c421 7bbc 3a63 2d3b 8515 5ebd
00000130: b1b7 babc 069b 37bd f4f4 9cbd 0f45 8abd
00000140: 0534 b0bd 35d5 6fbd 92cc b3bd c331 dabc
00000150: 5135 bdbd 017c 603d ab0b 24bd f96e 2abd
00000160: a378 8abd bc4d cdbd 15ff ccbd adf2 87bc
00000170: fe71 643c 2e9f a1bd e356 81bd 97cc 8dbc
00000180: 4f5e b5bb 471d 43bd 857a 94bd e265 a5bd
00000190: eab9 7fbd 6605 98bd f1b2 4fbd 6414 5a3d
000001a0: 1262 9bbd 353e 9abd 056e b93d 1630 afb8
000001b0: 3a35 14bd 790d 92bd 96c4 f5bd 0539 a9bd
000001c0: 3a0c 71bd d5f5 fbbd 24bf dcbc 0eba b4bc
000001d0: c3fd f6bd 7e83 39bd 60e0 a93c 76f9 623d
000001e0: ba61 a6bd 8d86 adbd 6311 7abd 68ef b6bd
000001f0: cf23 99bd 2625 86bd ac61 7d3d f5c2 913d
00000200: 66d7 c3bc c114 66bd 1e34 15bc 7a60 ccbd
00000210: c651 0dbd 5e9f 28bd 6121 4e38 1d35 06bd
00000220: 8e4f 8cbd 8289 10ba b11e 393d 2a42 a5bd
00000230: 65bc 2cbd 79cb d43b e03e aebc fc50 dcbd
00000240: e656 463d 3159 0dbd e734 96bd 842e 74bd
00000250: 0e6d 8ebd 4dfa 81bd 348c 8ebd 438b 0ebd
00000260: a4cb a3bd 8999 7abd 41e9 8dbd fa6b e6bd
00000270: de07 f9bd 6683 54bd 2ae3 babd 0d48 c33a
00000280: 4c40 ecbd cdfe 15bd 3525 17bd 4c35 54bd
00000290: db4e 8b3d 08a9 35bc 2550 a13b 8dbe bfbd
000002a0: abbb 913c 865f 62bd 496a a8bd be71 bdbd
000002b0: 413e f8bd 0f6a babb e8ff a23d 405b f6bd
000002c0: be0a a5bd e883 af3d 009a 21bc c4d5 a6bd
000002d0: 2d4c f5bd f972 b6bd 5ed7 60bd edb9 f03b
000002e0: 1e62 9bbd 4f88 00bd 9027 adbd 2661 bbbd
000002f0: d022 0bbd 154e 73bd 95d2 98bd ce54 cebd
00000300: 7df4 84bc f8ea c2bd a830 e4bd b8a1 09bd
00000310: a0c6 bebd 7268 40bd a2aa cebd 523e 1cbc
00000320: 701a 06be 3635 59bd b0d0 42be 3354 68bd
00000330: 15cf 59bd 1d67 acbd ac93 b7bd cafb ddbd
00000340: c4a7 cebd e07a 55bd 4890 83bd 1cf2 e43d
00000350: 9d53 8fbd a757 eabd b39c 54be f1e0 61bc
00000360: a3c1 abbd f4ec 12be 8088 24be a359 ffbd
00000370: ff05 dbbd 4514 01be 4077 04be 6df7 6a3b
00000380: 58a6 8fbd 65fd bdba 75e3 b8bd 5838 48bd
00000390: ce2e cebd c723 e2bd 03df 0bbe ebfa 3c3d
000003a0: a8bb 5cbd 2cc5 b3bc d776 abbd e015 d7bd
000003b0: dbd2 4f3d 9f59 5abd b596 3e3c 2c62 51bd
000003c0: 1b91 3bbd 7e6a babd ff2b dabd a510 1bbe
000003d0: 8e26 ae3c 6db9 093c 4647 463d e2ff acbd
000003e0: 4e70 ae3d 92a5 85bd b0db 573d 70ab ddbd
000003f0: ef68 17bd 7f2b 30bd 8601 18be 04fc 3cbd
-0.037151538 -0.098793074 -0.0020870634 -0.079307 -0.05897098 0.026965179 -0.086644545 0.053961273
-0.11467424 -0.033646245 -0.017488198 0.01790891 0.056163423 -0.06272096 -0.017037358 -0.07587977
-0.09131276 -0.09819444 0.01388992 -0.027085073 0.0008079114 -0.04546327 -0.008642285 -0.051685296
-0.06623271 -0.061592996 -0.020865656 0.021178233 -0.08109958 -0.042687744 -0.049695957 -0.114879526
-0.0064556245 -0.059951216 -0.12383642 -0.059035573 -0.09523259 -0.14123026 -0.01234847 -0.133061
-0.11395249 0.10122285 -0.04275269 -0.085288614 0.005314445 -0.04770169 -0.06203677 0.05165554
0.025883123 0.006265686 -0.062449776 -0.038348 -0.043053754 -0.072843194 -0.015120516 -0.020293633
0.015343277 -0.0037179913 -0.08991169 -0.08844711 -0.09342185 -0.045228157 -0.04245689 -0.046091005
-0.040371537 0.031949867 -0.10227758 -0.039294012 -0.03697245 -0.12484384 -0.038635943 0.01484081
0.018042052 -0.015327875 0.0026456849 -0.05421974 -0.022792669 -0.044825576 -0.076639086 -0.06751453
-0.08603672 -0.05855294 -0.08779253 -0.026635056 -0.09238685 0.05480576 -0.04005019 -0.041609738
-0.06761291 -0.10024592 -0.100095905 -0.016595209 0.0139431935 -0.07891689 -0.063154005 -0.01730947
-0.005534924 -0.047635343 -0.07249931 -0.08076073 -0.06243316 -0.07422905 -0.05070776 0.053242102
-0.07587065 -0.07531396 0.09054188 -8.353607e-05 -0.036183573 -0.07131476 -0.120003864 -0.08262829
-0.05884955 -0.12302748 -0.026946612 -0.022061374 -0.1206012 -0.045291416 0.020736873 0.055413686
-0.081241086 -0.08472929 -0.061051738 -0.08932382 -0.07477533 -0.06550054 0.061860725 0.07117263
-0.02390642 -0.056172136 -0.009106664 -0.09979339 -0.034501813 -0.04116761 4.9145314e-05 -0.032765497
-0.06851111 -0.00055136543 0.045195285 -0.080692604 -0.042171855 0.0064939824 -0.021270216 -0.10757634
0.048422717 -0.034508888 -0.07334309 -0.059614673 -0.06954394 -0.06346569 -0.069603354 -0.03480078
-0.07997826 -0.06118158 -0.06929255 -0.11251064 -0.12159704 -0.051883124 -0.09125359 0.0014898792
-0.11535701 -0.03661995 -0.036900718 -0.05180864 0.0680215 -0.0110876635 0.004922884 -0.093625166
0.017789682 -0.05526688 -0.08223397 -0.0925021 -0.12121249 -0.0056889127 0.079589665 -0.12029123
-0.080586895 0.08570081 -0.009863377 -0.08146241 -0.1197742 -0.08908648 -0.05489289 0.007346383
-0.07587074 -0.031379994 -0.084548116 -0.09149389 -0.033968747 -0.059400637 -0.0746204 -0.10074769
-0.016229862 -0.09517473 -0.11142093 -0.033601493 -0.093152285 -0.046974607 -0.100911394 -0.009536343
-0.13096023 -0.05302926 -0.1902492 -0.056720924 -0.053176004 -0.08418105 -0.08963713 -0.108390406
-0.100905925 -0.052119136 -0.06424004 0.11178991 -0.0699837 -0.114424996 -0.20762901 -0.01378654
-0.08386543 -0.14348203 -0.16067696 -0.12468269 -0.10694503 -0.12605388 -0.12936115 0.0035853044
-0.070141494 -0.0014495073 -0.09027759 -0.04888186 -0.10067521 -0.1104198 -0.13659291 0.04613773
-0.0538899 -0.021944605 -0.08372276 -0.10502219 0.050738197 -0.053308126 0.011632611 -0.051119015
-0.04579268 -0.09102343 -0.10652923 -0.15143068 0.021258619 0.008406025 0.048407815 -0.08447243
0.08517514 -0.06525721 0.052699745 -0.10823715 -0.036965307 -0.04301023 -0.14844331 -0.04613878

bias f4 [100]
00000000: 256f cebb b9f9 96bd fd57 063e 6bca 4ebc
00000010: cfd0 cfbd 0b88 2ebd b389 41bd d9b4 d3bd
00000020: 4f2c 963d 0cf8 6ebd 128d a03d ba7f 983d
00000030: 055e 01bd 80af de3c 328d 35bc 9e5a c43d
00000040: 44d6 78bc f726 883c c117 fcbd ef55 e3bc
00000050: e8be cf3d bb3d c63c 3634 a6bd 5f69 a6bd
00000060: 70ca ccbd 0f1b fa3d 3055 89bd 5129 acbd
00000070: 65fc c4bd a6bf a8bc 9b5c 843d 3206 b23d
00000080: f2af 8cbc 31f5 d0bd 684c 5b3e 46b7 1fbb
00000090: b578 08bd 0f20 e93d 76da 423d 324c 88bd
000000a0: 4cc6 783d dbdb 263e c9ab 6cbd 15d1 dfbd
000000b0: 313c d7bd 4795 d13c 7cec 00be ab1a a6bd
000000c0: 2970 42bd 054c 7abc e05a 53bd 6d12 b0bd
000000d0: 4bad b3b9 72c8 153c 9a82 933d a994 963c
000000e0: 2708 b9bd 6bba 853c 9a06 253d 6559 073d
000000f0: 80d5 aabc 9157 a13d 3145 07be 07e5 d6bd
00000100: 1f7b 873d 777c 063d 246f 993d 1689 813d
00000110: d4c8 78bc 24aa 9b3d c070 32bd 14e3 cbbd
00000120: e44e 833d 355b bbbd 6fb0 c0bc 81ed babd
00000130: 28a3 f1bc 2f6a 4d3d 60f3 fc3d 6a9f 9dbc
00000140: 2342 da3d 4f75 85bd 091a ae3d 73d1 533d
00000150: b44a 04bd 7e8b 183d a087 81bd 4fd6 ffbc
00000160: a151 0dbe f532 2dbd ff4c 91bd 0d15 06bd
00000170: 3d56 9bbc 41a0 973d e6b6 ffbd b886 d9bd
00000180: dffb fbbd cef2 0d3e 6a9b f9bc 80d2 52bd
-0.0062998706 -0.073718496 0.13119502 -0.012621502 -0.10147249 -0.04261021 -0.04725046 -0.10337228
0.0733267 -0.058342025 0.07839407 0.07446237 -0.031583805 0.027183294 -0.011081027 0.09587596
-0.015187804 0.016620142 -0.12309218 -0.027750937 0.10143834 0.024199357 -0.08115427 -0.08125567
-0.099995494 0.12212192 -0.06705701 -0.08406318 -0.09618453 -0.020599198 0.064629756 0.08692588
-0.017173741 -0.102030165 0.21415865 -0.0024370714 -0.03331824 0.11383068 0.04757162 -0.06655158
0.060735986 0.16294806 -0.057781015 -0.10928551 -0.105095275 0.025583876 -0.12590212 -0.08110555
-0.047470246 -0.0152769135 -0.051600337 -0.085972644 -0.00034270654 0.009142028 0.07202645 0.018381434
-0.09034758 0.016324243 0.0402895 0.033044238 -0.020853758 0.0787803 -0.13209988 -0.10492902
0.0661528 0.032833543 0.074919015 0.06324975 -0.0151846 0.07600811 -0.043564558 -0.09955421
0.064115316 -0.09148256 -0.02352163 -0.091273315 -0.029496744 0.050150093 0.123511076 -0.019241054
0.10657146 -0.065165155 0.085010596 0.05171342 -0.032297805 0.037242405 -0.063246965 -0.03123012
-0.1380067 -0.042284925 -0.07094764 -0.03273492 -0.01896202 0.07403613 -0.12486057 -0.10621399
-0.123039 0.13862154 -0.030469615 -0.05147028

weight f4 [1, 100]
00000000: 06a1 d9bc d454 0abd abbd 163d 5e76 113b
00000010: ad38 413d 453a 613d 106c debd 7790 febb
00000020: 81fd 50bc b347 b43c 86c8 c6bd 0022 3dbd
00000030: 7fb1 e3bb 0774 a33b c96c 273d 5fcf 19be
00000040: abba b1bd 2d75 d4bc 3d1b 9f3a aef3 e8bc
00000050: f8f6 c5bd 8a94 2bbe 4a57 29bd ac18 43bd
00000060: 2837 e43c 8c60 9d3d 846c 2c3d ef98 63bd
00000070: fa27 2abd ff47 5b3d 97ff 11be f10a 49be
00000080: 6f0c a33c 70c5 b7bc d3c2 453d b8bd 5cbe
00000090: 269e ae3a 904c 53be e102 9abd 6beb edbc
000000a0: fc62 57be ab5d 5a3d ed51 fabc 2e0a 0d3d
000000b0: 678e 733c 52c6 4bbd bc7f ccbc 070d aabc
000000c0: 8448 fdbc d5d7 d539 6587 2e3d a675 963c
000000d0: bde7 adbd c975 f6bb 7007 0abe 1757 54be
000000e0: b373 0abd 0cf5 633c 9aa8 373b a7a4 afbd
000000f0: b00b 60bc 86db 26be 7653 a8bd 7b6e 5abd
00000100: 5868 2dbe d52a 3e3c 9132 42be a2a5 94bd
00000110: c11e efbc 8339 e6bd f661 10bd 1d4c a33c
00000120: dbb1 16be 4048 a7bc 7222 863c 46be 053d
00000130: 24bb e3bc 2f2f e3bc ce68 03be 51fe c6bd
00000140: f4a1 3abe 35b9 053d 0af6 3abe fc71 0ebe
00000150: cddc bc3c 2021 fbbd 30f9 2cbc 4f38 92bc
00000160: d5e5 5fbd ff03 c83d fe51 493c 8393 253d
00000170: e841 17bd 05c5 3bbe 4967 0abd 7fde 923c
00000180: 3891 03bd 5f47 f9bc 77b2 febb c307 9bbc
-0.02656604 -0.033772305 0.036801975 0.0022195796 0.04717319 0.05498721 -0.10860455 -0.0077686864
-0.012755753 0.022006845 -0.097062156 -0.046175003 -0.0069486494 0.004988197 0.04087523 -0.15020512
-0.08678182 -0.02593478 0.0012138855 -0.028436508 -0.09666246 -0.16755882 -0.04134301 -0.04763095
0.027858332 0.076844305 0.042095676 -0.05556577 -0.04154203 0.053535458 -0.14257656 -0.1963308
0.01990339 -0.022433013 0.048281502 -0.21556747 0.0013322278 -0.20634675 -0.0752008 -0.02904292
-0.21033853 0.053311985 -0.030556643 0.034433536 0.014865494 -0.04974968 -0.024963252 -0.020758165
-0.030918367 0.00040787333 0.04260959 0.018366646 -0.08491466 -0.0075213653 -0.134794 -0.20736347
-0.033801746 0.013913404 0.0028024078 -0.08576327 -0.0136746615 -0.16294679 -0.08219044 -0.05332802
-0.16934335 0.011606892 -0.18964602 -0.072581545 -0.02918947 -0.11241438 -0.035249673 0.019933755
-0.14716284 -0.020420194 0.016373847 0.032652162 -0.027799197 -0.02773246 -0.12832949 -0.09716476
-0.18225843 0.03264733 -0.18257919 -0.13910669 0.023054505 -0.122621775 -0.010557458 -0.017849116
-0.054662544 0.09766387 0.012287615 0.04042388 -0.036928087 -0.18336876 -0.033789907 0.01792836
-0.032120913 -0.03042954 -0.0077727395 -0.0189246
