Gibbs_MINE/pw_res/model_lk_b=10_s=0.5_p=30.pth (torch, 213015 bytes, 5 tensors)

weight f4 [400, 30]
-0.02910548 0.25252715 0.29230708 -0.15085693 0.11406059 0.32532394 0.08956396 -0.17385267
-0.2036411 -0.37133196 0.15915841 -0.06677544 -0.055479873 0.15856172 0.12320173 -0.030760357
0.10295981 -0.031050056 -0.3461802 -0.31216297 0.41550544 -0.2625335 0.07222749 0.07897912
-0.22085004 0.068695664 0.29864645 -0.2502379 0.15073982 0.058493245 0.19826078 0.1007104
0.10691484 0.14280304 0.1249437 -0.18144903 0.071511716 -0.08239743 -0.18529265 -0.29501107
0.0647863 0.16208407 -0.090778984 0.0325399 -0.18243884 0.13962258 0.14295885 -0.3333274
0.037049696 -0.102178276 0.20766042 -0.19677506 0.08549436 0.07755528 0.17760955 -0.021781467
0.08531675 -0.08092268 -0.24609233 -0.032534234 0.18223873 0.11522921 -0.23402697 -0.26079375
0.05036453 -0.0208502 0.1555278 -0.1379967 0.12020639 -0.31669235 0.1772621 0.016849194
0.22546849 0.16964684 -0.1467945 0.12010647 0.22367805 -0.22542596 0.22563387 -0.34994617
0.26699322 -0.07513918 -0.16359223 -0.18512535 -0.25474787 0.14857602 0.18078008 0.028577818
0.17966567 0.022419367 0.0673771 -0.061131403 -0.0622692 -0.0019290836 -0.11906041 0.010739283
-0.1370448 0.073806405 0.1274762 -0.0358661 -0.15725742 -0.0522145 0.016137948 -0.39841974
0.17178337 0.087348424 0.010642227 -0.21795963 0.05471 -0.051609263 0.21784174 -0.19446997
0.29723418 -0.16474041 -0.22175537 0.29420006 0.2765205 -0.25248656 -0.15846165 -0.19644387
0.105442725 0.002740589 -0.3188001 -0.09822194 0.05984041 -0.37980604 0.044810988 -0.07721492
0.07545142 0.3676968 -0.3142637 -0.014039 -0.010551929 -0.04536998 -0.19332802 -0.3224688
-0.18856585 0.04979169 -0.21315695 0.28305626 -0.00423921 0.4671631 -0.03151007 0.16543914
0.048499025 0.26673958 -0.27218348 -0.13090579 -0.11188354 0.115828834 -0.031841554 -0.2881722
-0.2849894 -0.028907277 -0.11904549 -0.10703764 0.32534027 -0.07270609 0.062835455 0.08261625
-0.22917841 0.01964027 0.0645972 0.024697259 -0.37669602 0.14567336 0.22444443 0.09108026
0.30936077 -0.3544526 -0.053132705 0.10334398 0.07859847 -0.2918438 0.088339634 0.036584824
0.064312786 -0.1256991 -0.36048016 -0.13797075 0.17606553 0.1069023 0.37797278 0.32033297
-0.2930755 0.28316876 0.38316083 0.08575889 0.0938214 -0.12404943 0.26922238 -0.08921027
-0.22109473 0.18150645 0.3099274 0.016763654 -0.15170215 0.108789615 -0.28846928 -0.17286555
0.25135332 -0.18671826 0.13176584 0.14357232 -0.34808466 -0.4769125 0.16448948 0.056343365
0.31588352 0.20843413 0.047463242 -0.19352148 0.116113566 0.21013233 -0.03291498 -0.038996894
-0.20148714 -0.19138266 -0.18670134 0.16440627 -0.109171666 0.16660681 -0.09887659 -0.14922485
-0.17401138 0.38695693 0.09940165 0.29810187 0.05982528 -0.14037697 -0.2286379 0.09914298
0.2779481 -0.2547252 0.036674984 -0.06934163 -0.0780179 -0.14910372 0.061024155 -0.1362922
0.14478733 0.24810259 0.14455406 0.16755438 -0.13079417 -0.024140581 -0.08786313 0.105841935
-0.07982388 0.06544702 0.1748086 -0.0026819305 0.09563025 0.047351297 -0.18921642 -0.21466902
00000000: 9e6e eebc 3d4b 813e 46a9 953e 3d7a 1abe
00000010: 9998 e93d dc90 a63e 4f6d b73d 6f06 32be
00000020: 4b87 50be 391f bebe 6cfa 223e 90c1 88bd
00000030: dd3e 63bd 015e 223e 3051 fc3d 25fd fbbc
00000040: 98dc d23d b05c febc 883e b1be d3d3 9fbe
00000050: 21bd d43e ca6a 86be 02ec 933d cebf a13d
00000060: 8326 62be 50b0 8c3d 30e8 983e 2f1f 80be
00000070: 8a5b 1a3e 9d96 6f3d e004 4b3e 4141 ce3d
00000080: 2bf6 da3d f63a 123e 7ce2 ff3d c6cd 39be
00000090: bc74 923d fcbf a8bd 5bbd 3dbe b10b 97be
000000a0: aeae 843d 5ef9 253e 55ea b9bd 8f48 053d
000000b0: 3fd1 3abe 39f9 0e3e ce63 123e e4a9 aabe
000000c0: 6cc1 173d d842 d1bd efa4 543e 677f 49be
000000d0: ab17 af3d 4dd5 9e3d 47df 353e 0c6f b2bc
000000e0: 8cba ae3d caba a5bd a1ff 7bbe 9e42 05bd
000000f0: ca9c 3a3e 4bfd eb3d c4a4 6fbe c286 85be
00000100: 0a4b 4e3d 0ace aabc ae42 1f3e 024f 0dbe
00000110: c52e f63d 8025 a2be 3284 353e 5207 8a3c
00000120: 36e1 663e e7b7 2d3e 4c51 16be 62fa f53d
00000130: dc0b 653e 10d6 66be 910c 673e 252c b3be
00000140: 56b3 883e 92e2 99bd b984 27be 8091 3dbe
00000150: 506e 82be 5024 183e 6a1e 393e 071c ea3c
00000160: 47fa 373e d2a8 b73c 01fd 893d ec64 7abd
00000170: fd0d 7fbd 4ed9 fcba f2d5 f3bd d1f3 2f3c
00000180: 7955 0cbe d027 973d 1f89 023e 55e8 12bd
00000190: 1708 21be dfde 55bd bb33 843c acfd cbbe
000001a0: fbe7 2f3e bbe3 b23d bc5c 2e3c cf30 5fbe
000001b0: 9817 603d 3c64 53bd e811 5f3e 2323 47be
000001c0: 142f 983e b6b1 28be d713 63be 64a1 963e
000001d0: 1894 8d3e eb45 81be c543 22be 9528 49be
000001e0: 5bf2 d73d 749b 333b c439 a3be 9628 c9bd
000001f0: 381b 753d f075 c2be ba8b 373d db22 9ebd
00000200: 4686 9a3d c142 bc3e 2ce7 a0be d503 66bc
00000210: ffe1 2cbc dfd5 39bd c8f7 45be a11a a5be
00000220: 6817 41be 5ff2 4b3d d145 5abe c0ec 903e
00000230: 12e9 8abb 0030 ef3e b410 01bd e168 293e
00000240: eaa6 463d 1792 883e a25b 8bbe 2b0c 06be
00000250: 3323 e5bd ab37 ed3d 4a6c 02bd 4e8b 93be
00000260: 21ea 91be f4ce ecbc 1fce f3bd 8d36 dbbd
00000270: 0093 a63e eee6 94bd e0af 803d b532 a93d
00000280: bfad 6abe a2e4 a03c 894b 843d e851 ca3c
00000290: 4dde c0be 662b 153e c3d4 653e 4a88 ba3d
000002a0: 8964 9e3e d07a b5be aea1 59bd 02a6 d33d
000002b0: 3cf8 a03d 8d6c 95be 69eb b43d f8d9 153d
000002c0: 6cb6 833d 44b7 00be db90 b8be 3448 0dbe
000002d0: 864a 343e 98ef da3d a685 c13e af02 a43e
000002e0: fe0d 96be 7ffb 903e a82d c43e 5ba2 af3d
000002f0: 6f25 c03d a10d febd 84d7 893e e0b3 b6bd
00000300: a866 62be d4dc 393e ceae 9e3e ee53 893c
00000310: cf57 1bbe 17cd de3d 3fb2 93be ab03 31be
00000320: 62b1 803e 1233 3fbe a0ed 063e 9f04 133e
00000330: 2738 b2be e02d f4be ee6f 283e 4dc8 663d
00000340: 7cbb a13e c26f 553e d168 423d 7f2a 46be
00000350: f3cc ed3d ee2c 573e dcd1 06bd 35bb 1fbd
00000360: a552 4ebe d1f9 43be a32e 3fbe 1e5a 283e
00000370: 6595 dfbd fa9a 2a3e cf7f cabd 66ce 18be
00000380: 0a30 32be 381f c63e 1893 cb3d cfa0 983e
00000390: 5a0b 753d fbbe 0fbe 0e20 6abe 7a0b cb3d
000003a0: 374f 8e3e 576b 82be 8238 163d fc02 8ebd
000003b0: d9c7 9fbd a5ae 18be 77f4 793d 2f90 0bbe
000003c0: 2143 143e 9b0e 7e3e fb05 143e 6093 2b3e
000003d0: e8ee 05be 78c2 c5bc 96f1 b3bd a8c3 d83d
000003e0: b47a a3bd 1609 863d 0701 333e 54c3 2fbb
000003f0: cbd9 c33d 6ff3 413d f3c1 41be 32d2 5bbe

bias f4 [400]
-0.0025891166 -0.23474777 -0.17451362 -0.12506422 -0.33028066 -0.15513204 -0.095301025 -0.2710434
-0.19291532 0.11030779 -0.26915896 -0.17198071 -0.27001196 -0.16913822 -0.080891915 -0.12486184
-0.21139729 -0.15717612 -0.21886413 -0.23918766 -0.2858578 -0.22714938 -0.097128965 -0.2529427
-0.3263931 -0.178927 -0.11003166 -0.39831474 -0.12989406 -0.063764855 -0.16694404 -0.24874775
-0.06261804 -0.058112036 -0.09894312 -0.16541332 -0.18106434 -0.12475287 -0.17816935 -0.026780076
-0.28341872 -0.33570376 -0.19911726 0.054439552 -0.2626717 -0.13054378 -0.19091082 -0.2267846
-0.004587097 -0.18081981 -0.28934896 -0.24145646 -0.11469051 -0.101069644 -0.14476532 -0.1711699
-0.2260862 -0.3305223 -0.16312441 -0.16403294 -0.17383076 -0.1924448 -0.12136289 -0.30252817
-0.0070056533 -0.30057952 -0.0969991 -0.19675034 -0.24239114 -0.035876635 -0.042099334 -0.36838222
-0.082385436 -0.16577163 -0.011926163 -0.12636508 -0.045789428 -0.08247045 -0.19519866 -0.28905126
-0.11601922 -0.071008384 -0.11790091 -0.23853517 -0.14199078 -0.17814001 -0.29467636 -0.19888833
-0.16665173 -0.21294144 -0.45889923 -0.32425347 -0.19138265 -0.17137942 -0.27176118 -0.18439029
-0.1711482 -0.09887442 -0.14355421 -0.19423865 0.050468545 -0.018810434 -0.20796837 -0.0013665681
-0.19273135 -0.12626135 -0.124250405 0.31258297 -0.18929754 -0.22453876 -0.29676357 -0.12457165
-0.33540222 -0.22625475 0.20227183 -0.1659606 -0.2814001 -0.17498633 -0.19353864 -0.019468505
-0.32805762 -0.12745696 -0.27626798 -0.14985503 -0.19043553 -0.11108956 -0.3464572 -0.4615646
-0.36207432 -0.18084465 -0.32631266 -0.1689833 0.20179129 -0.1847541 -0.13450116 -0.10874478
-0.32238406 -0.06278995 -0.24888313 -0.27906996 -0.22295219 -0.2357023 -0.2133378 -0.17469992
-0.13706873 -0.14851157 -0.058835413 -0.25230804 -0.28909278 -0.28260872 -0.3310657 -0.34091225
-0.21247026 0.03525699 -0.19225442 -0.32837594 -0.27699122 -0.23158616 -0.17069246 -0.25406095
-0.18582863 -0.19796032 -0.22401103 -0.25461572 -0.11010314 -0.07864162 -0.042820703 0.095395684
-0.29004565 -0.33327147 -0.2105289 -0.2474503 -0.101495855 -0.27611318 -0.104819305 -0.1912777
-0.31631097 -0.21498838 -0.17973523 -0.27105632 -0.29807922 -0.13236631 -0.22180268 -0.2442102
-0.31734425 -0.2254764 -0.23338652 -0.19034237 -0.16849591 -0.3200855 -0.19880442 -0.09698103
-0.29230574 -0.08558873 -0.20316236 -0.24066995 -0.22835031 -0.1150438 -0.23060292 -0.1618778
0.23759767 -0.17587964 -0.07512401 -0.31086594 -0.2802497 -0.19803455 -0.16148126 -0.059776373
-0.18513858 -0.33276042 -0.02374527 -0.16222166 -0.26930887 -0.2690648 -0.25373593 -0.020902071
-0.056541957 -0.2850357 -0.3717276 -0.103359915 -0.08708856 -0.158881 -0.414123 -0.24697639
0.015686978 -0.15848723 -0.26944837 -0.0041150954 -0.24773459 -0.26610115 -0.023587883 -0.3272304
-0.30790627 -0.02914047 -0.30682316 -0.19308649 -0.20485178 -0.19389237 -0.14926523 -0.28127393
-0.317878 -0.1695742 -0.12813753 -0.19976394 -0.20434858 -0.14055668 -0.10266459 -0.25541735
-0.36196995 -0.2726885 0.071435176 -0.09928229 -0.25419733 -0.15802287 -0.11182813 0.078133285
00000000: 2bae 29bb b861 70be b3b3 32be d610 00be
00000010: 8c1a a9be efda 1ebe 2f2d c3bd 33c6 8abe
00000020: 988b 45be 0de9 e13d 34cf 89be b61b 30be
00000030: 023f 8abe 9232 2dbe a9aa a5bd 90b7 ffbd
00000040: 8878 58be c7f2 20be eb1d 60be 9ced 74be
00000050: f45b 92be d999 68be 8deb c6bd b581 81be
00000060: ff1c a7be a438 37be 4758 e1bd e9ef cbbe
00000070: f302 05be 2697 82bd 61f3 2abe bbb7 7ebe
00000080: e33d 80bd e306 6ebd b1a2 cabd 1c62 29be
00000090: ee68 39be 6f7e ffbd 0772 36be e461 dbbc
000000a0: 421c 91be 5de1 abbe 65e5 4bbe 02fc 5e3d
000000b0: e87c 86be 45ad 05be 207e 43be 393a 68be
000000c0: 5c4f 96bb d428 39be 8c25 94be 5d40 77be
000000d0: dce2 eabd 9afd cebd 5c3d 14be 2a47 2fbe
000000e0: 2483 67be 383a a9be 160a 27be 40f8 27be
000000f0: b100 32be 4010 45be 1b8d f8bd f9e4 9abe
00000100: ae8f e5bb 8fe5 99be 77a7 c6bd ec78 49be
00000110: 6235 78be 61f3 12bd 5a70 2cbd 989c bcbe
00000120: b2b9 a8bd 0ac0 29be f465 43bc d965 01be
00000130: b28d 3bbd 44e6 a8bd 28e2 47be 87fe 93be
00000140: 7c9b edbd d86c 91bd 0876 f1bd 9042 74be
00000150: 0866 11be 566a 36be d2df 96be 62a9 4bbe
00000160: c0a6 2abe 520d 5abe d7f4 eabe 8d04 a6be
00000170: d0f9 43be 167e 2fbe 4824 8bbe cfd0 3cbe
00000180: 7941 2fbe ac7e cabd e0ff 12be 7fe6 46be
00000190: 1bb8 4e3d 5718 9abc a9f5 54be 6b1e b3ba
000001a0: 5e5b 45be a84a 01be ff76 febd e00a a03e
000001b0: 37d7 41be 7ded 65be 65f1 97be 6c1f ffbd
000001c0: d7b9 abbe 53af 67be 5920 4f3e 93f1 29be
000001d0: ad13 90be 9e2f 33be fe2e 46be 6a7c 9fbc
000001e0: 2bf7 a7be 1484 02be ff72 8dbe 9973 19be
000001f0: 8801 43be ec82 e3bd d762 b1be 3252 ecbe
00000200: ce61 b9be 572f 39be 7412 a7be f509 2dbe
00000210: 60a2 4e3e 2e30 3dbe acba 09be 95b5 debd
00000220: 860f a5be 0498 80bd 38db 7ebe 42e2 8ebe
00000230: 944d 64be f25b 71be 3975 5abe 89e4 32be
00000240: bf5b 0cbe 6b13 18be 67fd 70bd 852e 81be
00000250: f803 94be 17b2 90be 7281 a9be 0d8c aebe
00000260: ce91 59be a269 103d 58de 44be e420 a8be
00000270: cbd1 8dbe ec24 6dbe 01ca 2ebe 4714 82be
00000280: dc49 3ebe 1cb6 4abe 2663 65be fe5c 82be
00000290: c17d e1bd dc0e a1bd c364 2fbd d05e c33d
000002a0: dd80 94be 8fa2 aabe e394 57be 9d63 7dbe
000002b0: 0fdd cfbd b55e 8dbe 81ab d6bd 4dde 43be
000002c0: 83f3 a1be ea25 5cbe 830c 38be e5c7 8abe
000002d0: d79d 98be 098b 07be 3e20 63be 3d12 7abe
000002e0: f27a a2be 49e3 66be e0fc 6ebe 1ce9 42be
000002f0: 318a 2cbe 3fe2 a3be 6393 4bbe fe9d c6bd
00000300: 19a9 95be 2549 afbd cb09 50be 2f72 76be
00000310: aad4 69be 159c ebbd 2c23 6cbe 4bc3 25be
00000320: ce4c 733e cb19 34be 9eda 99bd d229 9fbe
00000330: e47c 8fbe 92c9 4abe 585b 25be 12d8 74bd
00000340: f894 3dbe 935f aabe 7185 c2bc 6f1d 26be
00000350: dae2 89be ddc2 89be ade9 81be d23a abbc
00000360: 8a98 67bd 33f0 91be 1453 bebe 5dae d3bd
00000370: 7d5b b2bd b3b1 22be ee07 d4be 61e7 7cbe
00000380: fa81 803c 7a4a 22be 23f5 89be ecd7 86bb
00000390: 23ae 7dbe 693e 88be 603b c1bc be8a a7be
000003a0: e4a5 9dbe ffb7 eebc ed17 9dbe 77b8 45be
000003b0: aac4 51be b98b 46be fcd8 18be 2303 90be
000003c0: e8c0 a2be dca4 2dbe 7c36 03be eb8e 4cbe
000003d0: c140 51be 17ee 0fbe d041 d2bd 10c6 82be
000003e0: 2054 b9be d49d 8bbe 9b4c 923d 8354 cbbd
000003f0: 2726 82be bfd0 21be 2606 e5bd 5804 a03d

weight f4 [100, 400]
0.16887707 0.044390734 0.109632954 0.16586398 0.21509312 0.11864432 0.33882996 0.18666567
0.1329025 0.23563243 0.1617541 0.13687553 0.16819051 0.027686777 0.23472759 0.08587722
0.053057306 0.07091093 0.13533762 0.14562136 0.18477158 0.14633803 0.19486193 0.16917051
0.12251386 0.0259573 0.12647775 0.13802986 0.06926726 0.1190033 0.28697205 0.06893717
0.08819074 0.042920943 0.1133656 0.15355955 0.11161556 0.097181424 0.17401017 0.115088865
0.09260888 0.09340075 0.1257971 0.09847404 0.14206308 0.10031606 0.043114807 0.07936497
0.18786752 0.09930866 0.24755159 0.075463265 0.04832818 0.13318178 0.03574433 0.08063913
0.19616795 0.13046433 0.09405807 0.06209128 0.10504624 0.08262787 0.08002282 0.13596596
0.33694178 0.07372169 0.12296962 0.15156436 0.08903722 0.14741364 0.12080625 0.0757435
0.09794748 0.1476193 0.07179362 0.110274546 0.08254661 0.1017604 0.064671755 0.08524225
0.076805465 0.13278638 0.13427685 0.10013273 0.0866087 0.17235132 0.10187847 0.07293079
0.085503116 0.065964915 0.18412371 0.22044848 0.18360193 0.13205405 0.16804668 0.23083295
0.07028792 0.12669031 0.11027133 0.1410709 0.1563318 0.039604574 0.09775806 0.13137825
0.18117617 0.046335164 0.07946979 0.39572006 0.08718118 0.082145974 0.106538646 0.14878449
0.05944351 0.12557502 0.175372 0.10857607 0.09191945 0.15349132 0.11367574 0.24725188
0.23279457 0.13569738 0.13820942 0.14581318 0.22268322 0.03520922 0.152883 0.40344995
0.15576725 0.10999076 0.10904755 0.13936561 0.28643462 0.095672265 0.0693543 0.04738776
0.18778001 0.15658198 0.19457273 0.34911382 0.090237245 0.107184745 0.065860555 0.10579288
0.07852938 0.15464132 0.030917523 0.13071096 0.05716794 0.1421844 0.13895966 0.1841912
0.12602776 0.084480196 0.1601059 0.16759427 0.23664422 0.15487522 0.12008144 0.12791455
0.024069356 0.07353802 0.10476297 0.109663695 0.07651225 0.12612253 0.074230894 0.17987335
0.062259078 0.24249347 0.099793695 0.07293135 0.12818912 0.035083704 0.051107246 0.093683414
0.028554283 0.12942466 0.0907255 0.18679808 0.09000222 0.119461775 0.18296023 0.2021663
0.14552407 0.14311284 0.088776775 0.1114981 0.1446765 0.11746489 0.22219121 0.1466234
0.19389519 0.1329081 0.13987508 0.16635491 0.13085255 0.14664008 0.18540409 0.13269424
0.22384532 0.07788767 0.20634013 0.14310057 0.07339816 0.10606773 0.12402204 0.10053736
0.1503637 0.1759417 0.12331692 0.069021344 0.09408277 0.11625191 0.28126428 0.061175298
0.07754035 0.18513653 0.14107178 0.08237026 0.055335976 0.09908674 0.1162319 0.08315931
0.13749623 0.16330798 0.13830975 0.01356219 0.089007385 0.08404982 0.16559394 0.043039355
0.117276706 0.07530776 0.11641777 0.28177905 0.09342882 0.16170447 0.08164958 0.0733744
0.101443574 0.09561898 0.06038861 0.08796963 0.04151038 0.088610604 0.21168077 0.08228865
0.11027927 0.10593455 0.17806558 0.08754134 0.09602757 0.16349243 0.09481035 0.13629054
00000000: 1cee 2c3e 0fd3 353d 3e87 e03d 3fd8 293e
00000010: 5f41 5c3e cbfb f23d 1f7b ad3e 4925 3f3e
00000020: 9817 083e a149 713e dea2 253e 1929 0c3e
00000030: 223a 2c3e 61cf e23c 6e5c 703e 65e0 af3d
00000040: 9e52 593d c039 913d f295 0a3e c41d 153e
00000050: c334 3d3e a3d9 153e e389 473e 093b 2d3e
00000060: 8ce8 fa3d 67a4 d43c 6283 013e b357 0d3e
00000070: fedb 8d3d 01b8 f33d 00ee 923e ee2e 8d3d
00000080: 599d b43d dfcd 2f3d 392c e83d b73e 1d3e
00000090: b396 e43d 0e07 c73d b92f 323e b6b3 eb3d
000000a0: b9a9 bd3d e448 bf3d f4d0 003e c2ac c93d
000000b0: fc78 113e 8272 cd3d 2799 303d 1a8a a23d
000000c0: 5860 403e 5762 cb3d 2a7e 7d3e 7c8c 9a3d
000000d0: c5f3 453d ce60 083e a668 123d 2126 a53d
000000e0: 40e0 483e 7198 053e 84a1 c03d 6d53 7e3d
000000f0: 7c22 d73d cd38 a93d 01e3 a33d a93a 0b3e
00000100: a283 ac3e 66fb 963d 7fd7 fb3d b033 1b3e
00000110: 2559 b63d 9af3 163e 4469 f73d 681f 9b3d
00000120: b098 c83d 8429 173e 8908 933d 9fd7 e13d
00000130: 320e a93d c267 d03d a072 843d 7d93 ae3d
00000140: 2f4c 9d3d 27f9 073e df7f 093e 6412 cd3d
00000150: e75f b13d dd7c 303e a9a5 d03d bd5c 953d
00000160: 421c af3d 9d18 873d ed8a 3c3e 3fbd 613e
00000170: 2502 3c3e 2d39 073e 6e14 2c3e 795f 6c3e
00000180: 1df3 8f3d 1bbb 013e efd5 e13d e474 103e
00000190: 7215 203e 6838 223d 6135 c83d 0588 063e
000001a0: 3f86 393e f1c9 3d3d 0fc1 a23d d29b ca3e
000001b0: 0c8c b23d 263c a83d ef30 da3d f65a 183e
000001c0: 0a7b 733d bd96 003e b894 333e 215d de3d
000001d0: 4440 bc3d d42c 1d3e d4ce e83d 992f 7d3e
000001e0: b361 6e3e 41f4 0a3e c586 0d3e 0d50 153e
000001f0: 1207 643e 8b37 103d 5c8d 1c3e fe90 ce3e
00000200: 7381 1f3e d642 e13d 5254 df3d dcb5 0e3e
00000210: 8fa7 923e d2ef c33d a109 8e3d ab19 423d
00000220: 6749 403e 0757 203e 133e 473e 0cbf b23e
00000230: 4ece b83d ad83 db3d e6e1 863d f0a9 d83d
00000240: 03d4 a03d 4b5a 1e3e bf46 fd3c 18d9 053e
00000250: ee28 6a3d ca98 113e 714b 0e3e 9e9c 3c3e
00000260: 6c0d 013e f403 ad3d cdf2 233e d59d 2b3e
00000270: dd52 723e 9c97 1e3e 42ed f53d 08fc 023e
00000280: 192d c53c 1a9b 963d f88d d63d 5c97 e03d
00000290: 74b2 9c3d 4426 013e 5e06 983d b830 383e
000002a0: 6003 7f3d 3550 783e a360 cc3d 085d 953d
000002b0: 0244 033e eeb3 0f3d d555 513d 17dd bf3d
000002c0: acea e93c e687 043e 4ace b93d ff47 3f3e
000002d0: 1553 b83d 60a8 f43d ed59 3b3e af04 4f3e
000002e0: 4304 153e 2c8c 123e 99d0 b53d 1e59 e43d
000002f0: 1426 143e 6f91 f03d 1886 633e 7224 163e
00000300: 768c 463e 1019 083e 6a3b 0f3e f158 2a3e
00000310: 36fe 053e d128 163e 92da 3d3e 00e1 073e
00000320: b537 653e 9283 9f3d d44a 533e f588 123e
00000330: c651 963d 0a3a d93d 44ff fd3d 88e6 cd3d
00000340: f1f8 193e 102a 343e 958d fc3d 105b 8d3d
00000350: 78ae c03d 7b15 ee3d df01 903e f392 7a3d
00000360: 7acd 9e3d 6e94 3d3e 1f75 103e bdb1 a83d
00000370: faa7 623d fded ca3d fe0a ee3d 6e4f aa3d
00000380: d0cb 0c3e 353a 273e 12a1 0d3e f333 5e3c
00000390: 8149 b63d 5022 ac3d 7591 293e 094a 303d
000003a0: c52e f03d f43a 9a3d 716c ee3d 5845 903e
000003b0: 9c57 bf3d db95 253e e537 a73d 5145 963d
000003c0: a6c1 cf3d e2d3 c33d 0c5a 773d 6c29 b43d
000003d0: ca06 2a3d 7a79 b53d d8c2 583e f486 a83d
000003e0: 19da e13d 37f4 d83d d356 363e e048 b33d
000003f0: 1aaa c43d 8f6a 273e ee2b c23d bf8f 0b3e

bias f4 [100]
0.050246224 0.43468115 0.02262658 -0.047850445 -0.13357702 -0.021888083 -0.040249113 0.03396728
-0.1361492 -0.028337184 -0.4173422 -0.28831196 -0.06473438 -0.009405647 -0.09478754 0.10110894
0.044693917 0.04715352 0.009164434 -0.03862704 -0.0065264087 -0.034893498 0.08344399 0.05003108
-0.08167365 -0.017375369 0.024851898 0.026636072 0.052774366 -0.09759871 0.033648197 -0.054317117
-0.06062465 -0.109970786 -0.119862765 -0.06686648 -0.038045708 0.004617578 -0.028890219 -0.06061524
-0.09922356 0.05225921 -0.023071041 0.032701723 -0.12196655 0.061937224 -0.009683585 0.060160767
-0.0499317 -0.19538078 0.11141975 -0.02618513 -0.08957788 -0.031374395 -0.029406667 0.035078883
0.09034616 -0.11490714 0.092853464 -0.032344814 -0.04285273 -0.24926852 0.06559782 0.012231956
-0.04757577 0.104305014 0.07868547 -0.105750926 0.09692166 -0.0245601 -0.04841278 -0.03634323
-0.2631419 0.091841504 -0.064819925 0.047218002 0.056001514 -0.015893582 0.06504695 0.07416295
-0.108961195 0.015837848 -0.22640564 -0.025005285 0.08182817 -0.04420247 0.018878205 -0.09977981
0.054196566 -0.033579297 -0.013943944 0.0060787452 -0.073471814 -0.08709104 -0.034142986 -0.045232356
-0.008868684 -0.12191642 0.061670978 -0.026112683
00000000: fcce 4d3d 878e de3e 615b b93c d4fe 43bd
00000010: 6ac8 08be a34e b3bc 41dc 24bd 4621 0b3d
00000020: b26a 0bbe 6223 e8bc e0ad d5be a09d 93be
00000030: 7593 84bd 251a 1abc f81f c2bd 3412 cf3d
00000040: f810 373d 0d24 413d 6c26 163c 6337 1ebd
00000050: 7cdb d5bb 7cec 0ebd afe4 aa3d 64ed 4c3d
00000060: 8444 a7bd ca56 8ebc 3596 cb3c e433 da3c
00000070: ef29 583d d5e1 c7bd b1d2 093d a07b 5ebd
00000080: 8e51 78bd 5d38 e1bd 9c7a f5bd 4bf1 88bd
00000090: d1d5 1bbd 0d4f 973b 2eab ecbc b047 78bd
000000a0: b935 cbbd c10d 563d 7bff bcbc 3ef2 053d
000000b0: 99c9 f9bd e3b1 7d3d e6a7 1ebc 236b 763d
000000c0: 2f85 4cbd e611 48be 0a30 e43d 3382 d6bc
000000d0: 9c74 b7bd 7082 00bd 40e6 f0bc e0ae 0f3d
000000e0: 6807 b93d 6f54 ebbd f529 be3d ff7b 04bd
000000f0: 5886 2fbd 3f40 7fbe 2658 863d 8b68 483c
00000100: d0de 42bd de9d d53d d925 a13d f193 d8bd
00000110: dd7e c63d 4332 c9bc 7b4c 46bd a4dc 14bd
00000120: 89ba 86be 6617 bc3d 4fc0 84bd aa67 413d
00000130: d861 653d 4233 82bc 5637 853d bfe2 973d
00000140: 0c27 dfbd 60be 813c e1d6 67be e2d7 ccbc
00000150: 8795 a73d a60d 35bd 77a6 9a3c 5b59 ccbd
00000160: 38fd 5d3d 728a 09bd 2475 64bc 3630 c73b
00000170: 6478 96bd ca5c b2bd 84d9 0bbd 9045 39bd
00000180: f54d 11bc 51af f9bd b59a 7c3d 44ea d5bc

weight f4 [1, 100]
-0.13811432 -0.20946454 -0.23750988 0.015831448 0.007213907 -0.057004157 -0.070190646 -0.0242885
-0.08242292 -0.0047531123 -0.06676659 0.0852423 -0.021036414 -0.023042586 -0.016525911 -0.12562655
-0.19472572 -0.16441584 -0.031520046 -0.04240772 0.007779314 -0.030853596 -0.20910834 -0.039517425
-0.09211894 -0.055657234 0.044089906 -0.06534781 -0.022771258 -0.049082696 -0.04841801 -0.05763333
0.0033644815 -0.02499875 -0.046334814 -0.027452547 0.026244372 -0.050657503 0.06300138 0.019795401
-0.00017011023 -0.1372604 0.042745367 -0.15669705 -0.04233531 -0.22354789 -0.16201745 -0.1945743
-0.05574104 -0.046856496 -0.13596357 -0.037640847 0.037989013 0.006123144 -0.023928288 -0.043403577
-0.076451465 -0.054968964 -0.15593272 -0.034419026 -0.016864471 -0.012873036 -0.0616136 -0.25613412
-0.0026583567 -0.17691118 -0.2591789 -0.117991485 -0.17208025 -0.03724168 -0.052655518 -0.086108446
-0.06637466 -0.015210713 -0.050424714 -0.054931834 -0.055318184 -0.0211084 -0.18710174 -0.060073774
-0.056580715 -0.15452652 -0.042673144 0.057964314 -0.047134835 -0.0115204975 -0.2532372 -0.035445176
-0.19408605 -0.08727739 0.026605269 -0.19074023 1.2462481e-05 0.005178143 0.016004257 -0.03492546
0.015783513 -0.032494325 -0.20927966 -0.020360772
00000000: d76d 0dbe df7d 56be ca35 73be f4b0 813c
00000010: a362 ec3b 317d 69bd 1dc0 8fbd adf8 c6bc
00000020: 59cd a8bd ffbf 9bbb ecbc 88bd 8493 ae3d
00000030: 8f54 acbc cec3 bcbc 5961 87bc 3fa4 00be
00000040: 2e66 47be a05c 28be 2a1b 01bd b8b3 2dbd
00000050: 9ee9 fe3b aec0 fcbc 7f20 56be 06dd 21bd
00000060: dba8 bcbd d7f8 63bd 9e97 343d 13d5 85bd
00000070: ca8a babc f00a 49bd f751 46bd ed10 6cbd
00000080: a27e 5c3b 2eca ccbc 93c9 3dbd 2ae4 e0bc
00000090: 70fe d63c 3e7e 4fbd de06 813d f729 a23c
000000a0: 9e5f 32b9 fe8d 0cbe c415 2f3d 3175 20be
000000b0: ca67 2dbd bde9 64be e7e7 25be 7c3e 47be
000000c0: b750 64bd 99ec 3fbd 093a 0bbe 4a2d 1abd
000000d0: 5e9a 1b3d a8a4 c83b 4205 c4bc f3c7 31bd
000000e0: 9692 9cbd 2327 61bd d4ac 1fbe f7fa 0cbd
000000f0: 5c27 8abc 6de9 52bc 8b5e 7cbd 0324 83be
00000100: d337 2ebb 3428 35be 19b3 84be 85a5 f1bd
00000110: ce35 30be bb8a 18bd 50ad 57bd a059 b0bd
00000120: 70ef 87bd 5b36 79bc 258a 4ebd 3400 61bd
00000130: 5295 62bd 86eb acbc 9997 3fbe eb0f 76bd
00000140: 2ec1 67bd 333c 1ebe 09ca 2ebd fd6b 6d3d
00000150: 7510 41bd 78c0 3cbc 4ea8 81be f62e 11bd
00000160: 7ebe 46be 7dbe b2bd 4bf3 d93c 6851 43be
00000170: f315 5137 69ad a93b 5c1b 833c 000e 0fbd
00000180: 6d4c 813c c518 05bd 684d 56be a2cb a6bc
