Gibbs_MINE/pw_res/model_lk_b=10_s=0.5_p=28.pth (torch, 209815 bytes, 5 tensors)

weight f4 [400, 28]
00000000: 8b58 a23c 25c5 cf3d 754f a93e b90d 1dbe
00000010: cebc 05bc ed0c cc3d 6616 f4bc 261f 0fbe
00000020: ee86 35be dbf5 9cbe 888b 2f3e 5ef8 ca3d
00000030: 4cb6 8b3d 2281 87bc 6d72 733d 5331 35bc
00000040: e26e 1a3e d861 e33d 1877 91be 8bbb f2bd
00000050: 31f7 193e b6b9 78be a644 cebd e0af 703e
00000060: 757a 3dbe 8d4a 453e 7470 b13e f56c bdbd
00000070: de6f 703d ec7c 8dbd 9d07 763e 311a b63c
00000080: 1d16 9d3e 1e90 933e b4b0 7e3e 4f2e fcbd
00000090: 763f 7bba e1e6 d4bd 9c4d 65be d0e2 0bbe
000000a0: 0bda 14bd 8dc9 5c3e dbf5 24be 5016 bebb
000000b0: e880 65be 0ecd 37be 89c4 873e 2a93 4ebe
000000c0: b805 1bbe b00b 0d3d 85ed 2b3e 1dd2 6c3d
000000d0: cfca de3d 9653 573d 3e4f a13c b6d0 063e
000000e0: 7278 323e d5f3 82be 5ce8 fcbd d1b9 48be
000000f0: fd16 853e e907 863d 839c a63d 8da6 bcbd
00000100: 5dde 7f3b b5ea b3bd 2368 183e f9ac 57bd
00000110: caab 923d 957c 17be a6d7 2e3e 2bfd 253e
00000120: ddc4 543e 9613 cabb 0c76 60be 4a0a 2abe
00000130: e508 bb3d c855 9bbe 8896 9e3e 165d 65be
00000140: f347 e73d 2bd5 d8bc f84e 8ebd 952c 24be
00000150: e54f 4fbe 352a 76bd b087 ea3d 227e 233e
00000160: 6479 7c3e 92da 443e 8f2f b6bc 7d50 68be
00000170: 379f 353e 9136 323c b01d 823d e585 893d
00000180: 3ddc 1abe 090e 0e3e 545b 313e aeb5 473e
00000190: c4af 09be 2d4e b03d cdc8 75bc 194b d3be
000001a0: 9aca 9dbc 3abd 1dbe 650c 2ebe 971f 97be
000001b0: 7177 b23d 791a ed3d 59d8 2c3e 6be6 f1bc
000001c0: 091b a23e 2fac 0c3e d870 8fbd 9073 b73d
000001d0: 5903 303e 0b46 0bbe 9171 b1bd 3315 04bd
000001e0: d404 0ebe 4977 4e3c 3f8e 55be 7be4 7cbe
000001f0: c6cb 85bb 919a 4abd 9afa 40be c135 03be
00000200: 87e0 0f3e 8d56 773e 0936 b5be 17bb e1bd
00000210: 0e0d 923d af6f e13c 5301 93bd 0973 183d
00000220: a5ff 00be 2708 8d3e 8716 4ebe ff11 963d
00000230: 7df3 0bbe 917d e0bb 86dc 93bd 1d28 9dbe
00000240: 3733 cdbe 681c d53c 9749 f7bd 5bdb 24be
00000250: db86 173e 12d5 4fbe 4866 3e3e c5b6 0abe
00000260: 94d2 4bbd e912 243e a215 7b3e dbc4 463d
00000270: 81c0 423e 8ab1 3abe 7a29 dd3d e0cf a53d
00000280: d24b edbd eaae 313d d9a9 dd3d 708c 06bd
00000290: 9abc 89be b419 07be 0a6d 5e3e f46c 6b3d
000002a0: d6c6 8e3e 5d5f 89be fae9 dc3d ce6a eabb
000002b0: a8dc 6f3d 9883 1ebe c384 b0bb 0e83 893d
000002c0: a346 723e 1cd5 ea3c fc64 97be f78d 20be
000002d0: e265 513e 9575 3dbd d924 bb3c 3235 303e
000002e0: 57e1 9fbe 4b82 553e e1d1 283e dc76 e0bd
000002f0: 302c d53d a627 a8bc 13ee 063e 095e 3e3d
00000300: 6b67 afbe 1f51 8cbc 184d 643e d9b6 1b3c
00000310: 4f57 13be 8d91 e03d 7a5e 21be c103 31be
00000320: 96f7 e0bb 1709 3a3b 5bc9 0d3d 848c 373e
00000330: 0ff0 84be 6253 79be d4bb e03e b350 86bd
00000340: 0d4b 363e 76ea 4e3e 3df6 7e3e 61d1 9e3c
00000350: 3227 b13d 8587 cf3e 2412 81bd 1e00 efbb
00000360: 4b59 55be abed 7dbe c325 4a3e dcac 0e3e
00000370: 315f 09be 8db2 ec3c 460a 32be ef54 b8bd
00000380: f69d cfbd b291 6d3e 2646 0c3e c32b 633e
00000390: 3109 26be 014f 683d f002 f4bd 1308 853d
000003a0: 3cee 6d3e ebf6 09be cb1f fb3b 1f48 ba3d
000003b0: 6e09 3cbb 56ee 5ebe 3408 433d fae9 e2bd
000003c0: 28e3 843d db58 c33e 7272 423e 3755 81bd
000003d0: 4141 75be 3d4b 0bbe f6a1 44bd 3433 693d
000003e0: ced2 68be 6079 063e 42cf 293e 46ad 513d
000003f0: 3ee1 423d 9602 2e3e 4b00 0dbe 8f77 d9be
0.019817611 0.10145024 0.33068433 -0.15337266 -0.00816269 0.09963403 -0.029795837 -0.13976726
-0.17727253 -0.30656323 0.1714307 0.099106535 0.0682188 -0.016541068 0.059435297 -0.011059123
0.15081361 0.111026466 -0.28411174 -0.11852177 0.15035702 -0.24289593 -0.100716874 0.23504591
-0.18503745 0.1926672 0.34656107 -0.092492975 0.058700435 -0.069085926 0.24026342 0.022229286
0.30680934 0.2882089 0.24872094 -0.1231352 -0.00095843466 -0.10395599 -0.22392887 -0.13660741
-0.036340754 0.2156126 -0.16109411 -0.0058009997 -0.22412455 -0.17949316 0.26517132 -0.20173326
-0.151389 0.034434974 0.16789825 0.057817567 0.108785264 0.052569948 0.019691106 0.13165554
0.17428759 -0.25576654 -0.123490065 -0.19602133 0.259941 0.065444775 0.08135321 -0.092114545
0.003904245 -0.08785001 0.14883475 -0.052655194 0.071616724 -0.14793618 0.17074451 0.16209857
0.20778222 -0.0061668856 -0.21920031 -0.16605487 0.09132556 -0.30338883 0.3097422 -0.2239879
0.1129302 -0.026468834 -0.06948656 -0.16032632 -0.20245321 -0.060098846 0.114516616 0.15966085
0.24655682 0.19224003 -0.022239475 -0.22686954 0.17736517 0.010877267 0.06353319 0.067149915
-0.15123077 0.13872541 0.17319995 0.19502899 -0.13445956 0.08608661 -0.015001488 -0.41268232
-0.019261647 -0.15404215 -0.16996916 -0.2951629 0.08714188 0.11577315 0.16879405 -0.029528817
0.3166125 0.13737558 -0.07003945 0.08957589 0.17188777 -0.13600938 -0.08664239 -0.03224678
-0.1386903 0.012601682 -0.20855044 -0.24696533 -0.0040831296 -0.049463812 -0.18845597 -0.12813474
0.14050494 0.2415411 -0.35392788 -0.11022013 0.07131396 0.027519075 -0.07177987 0.03721908
-0.1259752 0.27545282 -0.20125781 0.07327651 -0.13667102 -0.006850906 -0.07219796 -0.30694667
-0.40078136 0.026014522 -0.12074583 -0.16099302 0.14797537 -0.20296124 0.18593705 -0.13546284
-0.04976137 0.16022839 0.24519971 0.04852758 0.19018747 -0.18231788 0.10798927 0.0809629
-0.11586727 0.0433797 0.108234115 -0.032848775 -0.26901704 -0.13193399 0.21721283 0.057476953
0.27886075 -0.2683057 0.10786815 -0.0071538454 0.058560044 -0.15479887 -0.00538692 0.0671445
0.23659758 0.028666072 -0.29569232 -0.15679155 0.20449021 -0.046254713 0.022844719 0.17207792
-0.31226608 0.20850484 0.16486312 -0.109601706 0.10408819 -0.020526718 0.13176756 0.046476398
-0.3425859 -0.017128525 0.22295034 0.0095040435 -0.14388774 0.109652616 -0.15758696 -0.17286588
-0.006865452 0.0028386766 0.034615856 0.17924696 -0.259644 -0.24348214 0.438933 -0.06558361
0.17802067 0.20206627 0.2489862 0.019386949 0.08650054 0.4053308 -0.06302288 -0.007293715
-0.20834844 -0.24797694 0.19740967 0.13933128 -0.13415219 0.028893733 -0.17386732 -0.09000575
-0.101375505 0.2320011 0.13698635 0.22184663 -0.16214444 0.05671597 -0.11914623 0.06495681
0.2323541 -0.13473098 0.007663702 0.09095787 -0.0028692144 -0.21770605 0.047615245 -0.11079784
0.06488639 0.3815373 0.1898897 -0.063150816 -0.23950674 -0.1360292 -0.04800602 0.056933597
-0.22736666 0.13132238 0.16582969 0.051190637 0.04757809 0.16993174 -0.13769643 -0.42474028

bias f4 [400]
00000000: 886d acbd 5fee 4abe 6f6c 80be e045 94bc
00000010: 763a a6be 4eb7 8ebd eb98 9bbe e82f 66be
00000020: ea84 86be 1ca7 5bbe 43d2 2bbe f739 fdbc
00000030: 80e9 e3bd de2c f4bd 657e 1fbe 2909 fcbd
00000040: dc6a d9bc 74ee 19be 7806 97be 2b14 eebd
00000050: 2855 71be d5a1 29be 0139 8abd 2e7d 1cbe
00000060: 540b acbe 9578 b8be 4f42 94be bb7d 63be
00000070: f8af 35be f3df d3be 1f8a 37be f7f7 2d3e
00000080: f902 0ebe 90b2 88be 6673 cabe 915e 87bd
00000090: 0294 57be a213 55be 507f e1bd 546c cabc
000000a0: 3657 2dbd 410a 96be ee98 bebd bf3d 68be
000000b0: 795d 23be e5d7 68be c51a ebbd 3960 39be
000000c0: 06cf 47be d50e 48be e3fb 61be 6ed9 99be
000000d0: 1032 c2be c9f9 71be f684 b0be 3bf1 70be
000000e0: 65fd 11be 5263 cdbd db70 3bbe c0c2 13be
000000f0: b89a e6bd ce11 03be 3199 6bbe 2977 fbbd
00000100: ce79 b0be 21a1 18be a9e5 b6be f566 79be
00000110: c208 41be 83b7 46be 2c1a 41be c823 41be
00000120: a7bc 59be ac62 75be 2cfc 76be 4d77 3d3d
00000130: a10a 24be 703b 93bd be74 84be 10d8 2bbe
00000140: 1e63 54be 9ae6 8abe 7f76 b9be 1b23 6cbe
00000150: dcf5 6cbe 700f c4bd 78af c7bd 8c42 1cbe
00000160: 46de 213d 1f78 cf3c c882 21be 2bde 0cbe
00000170: 9746 a6be d009 d5bd f0d0 58be 6845 d5bd
00000180: a725 51be b255 c2bd 7486 dbbd 1ad4 29be
00000190: cf21 36be 5317 b3be 0e4c 04be bec0 9cbe
000001a0: 45c2 12be 2846 92be c412 4abd bc98 8ebe
000001b0: c106 ccbd d095 c5bd 898b 8fbe d95f 8cbe
000001c0: a89f abbe 76d0 9bbe 03db 7ebe a9d2 7abe
000001d0: c77d a1be ee4b bdbe 82ce 76be ea02 70be
000001e0: 53c7 90be 59a9 a5be 172a 81be 402f e2be
000001f0: 97e8 dabb 0eca 8fbe 7f91 63be 6ac9 b0bd
00000200: 6c64 92be 38d0 66be 5b89 cdbd 19cf afbc
00000210: 0a7b 7fbe 5ae3 3bbe 71f5 e9bd 9f37 91be
00000220: 3a95 25be 2b78 03be db19 81bd ab1c 91be
00000230: 7607 eabd 3172 27be 8607 62be 0962 acbe
00000240: 1093 95bd 3e65 b3be efe3 72be 9318 60be
00000250: 62a6 81be 0316 80be 560b 10be 3f6b 5cbe
00000260: 1d0b 94be e3c5 c7be 7c7f d2bd 3a29 a7bb
00000270: bafa 94be e351 fbbd f944 26be 5c4f ebbc
00000280: bbd0 9cbe c4e9 90be 8ad2 f8bd 0db6 54be
00000290: d243 25be acd1 f8bd da03 2bbe 8213 01be
000002a0: c977 05be a940 86be d593 47be 274e 34bd
000002b0: d9f4 19be 6cda 753d 14c1 46be 52ec 5ebe
000002c0: 363e 2dbe 07f6 22be e2e0 b5be be24 0dbe
000002d0: 0013 45be 6808 59be e4a6 59be 70c7 dbbe
000002e0: 2c8a 8ebe 1149 88be 726d 1cbe ff16 76be
000002f0: a04b 32be f8bd bbbd 4485 cdbd 0de5 69be
00000300: 556f 2cbe 9cab a2bd ac99 a8be 867e bdbd
00000310: 3c56 32bd c5bb 70be 5c7c 07be 0666 7fbd
00000320: ff44 87be ccdb dfbe 95f5 73bd 22f1 8cbe
00000330: ba3d dabd deba 32be c546 45be 1b47 3cbe
00000340: b6eb b4bd b1c6 20be 14d6 35be 6f90 b3bd
00000350: ff3a d13c a5b6 d8bd 2417 19bf 7df9 de3d
00000360: 7f89 58be af7f c4bd f052 9ebe ac1f 0bbe
00000370: a0b0 a2be 0905 0dbe 6277 81be f24c 77be
00000380: 5ece d7bd 8644 03bd 2372 8ebd 76fe 2abe
00000390: 6281 e8bd 80cf 4abe 7c92 90be ebe4 92be
000003a0: 16e6 4dbe 0421 18be 1b5d 5f3d a3d9 51be
000003b0: 5b68 d5be 1c03 9dbe 97a7 b7be 6c15 f9bd
000003c0: 540d 0bbe fbc8 51be 6cce 90be 54d0 e6bd
000003d0: 0663 5bbe 52c5 c2bd 6dec 01be 0486 16bd
000003e0: de8e c3bd 6200 ddbd 8c6a 5cbe b53b 19be
000003f0: b06f 01bf 474c babe 7e34 3abe ad36 49be
-0.08419329 -0.19817494 -0.25082728 -0.018099725 -0.32466477 -0.06968556 -0.30390105 -0.22479212
-0.2627328 -0.21450466 -0.16779427 -0.030911429 -0.11128521 -0.1192262 -0.1557556 -0.12306435
-0.026540212 -0.15032369 -0.29497123 -0.116249405 -0.23567641 -0.1656564 -0.06749154 -0.15282127
-0.33602393 -0.36029497 -0.2895684 -0.22215931 -0.17742908 -0.41381797 -0.17923783 0.16989122
-0.13868321 -0.26698732 -0.39541167 -0.06609834 -0.21052554 -0.2080827 -0.11010611 -0.024709858
-0.0423195 -0.29304698 -0.09306513 -0.22679804 -0.15953626 -0.22738607 -0.11479715 -0.18103112
-0.19512567 -0.19536908 -0.22068743 -0.30048698 -0.3792882 -0.23630442 -0.3447644 -0.23529522
-0.14256819 -0.100287095 -0.1830477 -0.1442976 -0.11259979 -0.1279976 -0.23007657 -0.12278587
-0.3446793 -0.14905216 -0.35722092 -0.24355681 -0.18850997 -0.19405942 -0.1885764 -0.18861306
-0.21263371 -0.23963422 -0.24119633 0.046256352 -0.1601968 -0.07189071 -0.25870317 -0.1678164
-0.20740935 -0.2712906 -0.36223218 -0.23060267 -0.23140663 -0.09573257 -0.09750265 -0.1525976
0.039518617 0.025325833 -0.15772545 -0.13756625 -0.3247573 -0.10402262 -0.21173453 -0.10413629
-0.2042452 -0.09489001 -0.10719004 -0.16584817 -0.17786334 -0.34978732 -0.12919638 -0.306158
-0.1433192 -0.2856915 -0.049334303 -0.27850902 -0.09962226 -0.09647715 -0.28036144 -0.27416876
-0.33520246 -0.3043248 -0.24888234 -0.24494423 -0.31541273 -0.36971992 -0.24102214 -0.23438612
-0.28277072 -0.32355765 -0.25227425 -0.44176674 -0.006680559 -0.28083843 -0.22223471 -0.08632167
-0.2859224 -0.22540367 -0.10035964 -0.021461057 -0.2494928 -0.18348446 -0.11423767 -0.28362748
-0.16170207 -0.12838809 -0.0630376 -0.28342184 -0.11427204 -0.16352154 -0.22073182 -0.33668545
-0.073034406 -0.3503818 -0.23719762 -0.21884374 -0.25322253 -0.25016794 -0.14066824 -0.21525286
-0.2891473 -0.39018163 -0.10278222 -0.00510135 -0.2909754 -0.12271478 -0.16237248 -0.028724365
-0.30628 -0.2830335 -0.12149532 -0.20772572 -0.16139153 -0.12149367 -0.16700688 -0.12605098
-0.13033976 -0.26221207 -0.19489987 -0.044019844 -0.15034808 0.060022756 -0.19409591 -0.21769837
-0.16918263 -0.15914164 -0.35523134 -0.13783547 -0.19245529 -0.21194613 -0.2125507 -0.42925596
-0.27839792 -0.26618245 -0.15276125 -0.2403221 -0.17411661 -0.09167093 -0.10035184 -0.22841282
-0.16839345 -0.07942888 -0.32929742 -0.09252648 -0.04353927 -0.23509128 -0.13231033 -0.062353157
-0.26419827 -0.4372238 -0.059560377 -0.2752772 -0.10656305 -0.17454097 -0.19265278 -0.183865
-0.08834021 -0.15700795 -0.17757446 -0.08767783 0.025540827 -0.10581712 -0.59800935 0.1088743
-0.211462 -0.09594666 -0.3092265 -0.135863 -0.3177538 -0.13771452 -0.25286394 -0.24150446
-0.10537408 -0.03204777 -0.069553636 -0.16698632 -0.11352803 -0.19805717 -0.2823676 -0.28690276
-0.20107302 -0.14856344 0.05453215 -0.20493178 -0.4168118 -0.30666435 -0.35870048 -0.12162289
-0.13579303 -0.20486824 -0.28282487 -0.11270204 -0.21424493 -0.09510292 -0.12687846 -0.0367489
-0.09548734 -0.10791089 -0.2152502 -0.14964183 -0.50561047 -0.3638632 -0.18184087 -0.19649763

weight f4 [100, 400]
00000000: a438 71bd 1e8a 31bd 63d8 31bd b74f 2b3c
00000010: 3354 513d 37f0 8dbd eab3 34bd d908 17bc
00000020: b590 acbc d8d6 e6bd 3c72 e93c 2510 46bd
00000030: 54b7 9ebc 5bb0 3fbd bf42 a7bc 5b98 26bd
00000040: 8e4c 8abc 7056 03bd ab97 a5bd f547 e13d
00000050: a25a 7ebd 5283 29bb bf40 3bbd 7510 bfbd
00000060: 15e1 1fbd c024 b5bd b2e0 d7bd 28cb 593d
00000070: 9f1b a6bc d19e 13bd 62bf 29bd c4c0 3abd
00000080: dd1b 93bd ec17 4fbd 6075 a1bc d1c4 c4bd
00000090: bd12 13bd 0bd3 09bd 9dae 34bd 8e36 16bd
000000a0: b8e1 debb 7400 87bc 0a74 aebc a343 cdbd
000000b0: 5af9 e8bc 0d49 19be f4d9 c0bc 4857 99bd
000000c0: b2c7 adbc 6935 9ebd 1c10 fabd 2422 a9bd
000000d0: 1107 0d3d 0bda e9bd 0357 76bd c602 ccbd
000000e0: 0a9a 94bc 54fc d8bc d2d9 9ebd bb8d fe3d
000000f0: cda0 593c 67ef 51bd 9dc3 43bb 3fc1 73bd
00000100: ebb1 96bd 7036 4e3d 7048 8f3d 18bf 22bd
00000110: 7aba ecbd 905d 2a3c 2634 16be 3109 a1bd
00000120: 9239 8cbd 46d7 ddbb 04f1 c73d f3a4 b5bc
00000130: ca8d 8abd 32f3 d7bc a730 a03c d0bf 08be
00000140: 4c51 933c 0efc 10be ee8a dc3c 80e4 3bbd
00000150: 2bff 7ebd 29e0 dcbd 186b 9cbd 09ec 0ebc
00000160: 7f60 84bd fa5f 8fbd 367e c73d 2703 a5bd
00000170: dc09 babd bc5b 64bd ecd3 8dbb b321 74bd
00000180: d096 e5bd c648 b8bc 6bbe 19bd 622a 5ebc
00000190: 45af b2bd 2ff5 9cbc 5e45 10bd 7f70 37bd
000001a0: 4a38 573d 679b 4b3d 1b4c 34bd ac75 84bd
000001b0: 3133 6a3d 3f51 4bbd 81ff a2bd 4a56 04bd
000001c0: a12f 0fbe 8008 41bc 74e0 d3bd 7c9f 87bd
000001d0: 46ba abbd 1073 7f3d 419d 97bc 9824 87bd
000001e0: 345a dabc 004e 483d dd1e 13bb f753 54bc
000001f0: 58dd 8e3d 5109 dbbc 0d2a d9bd 771b 5cbd
00000200: f5d6 08be 97d8 d53c c638 7bbd b97c ab3d
00000210: 039f 89bc f6b4 9abd 6266 8c3c 89c7 c6bc
00000220: 0dec a7bd 9983 bebd 96a5 bfbd dd6f dcbb
00000230: 3dff 3b3d c434 263d 4ac7 99bd ea32 acbd
00000240: 7cdf d4ba 0132 9dbc fe97 30bd 4c28 ca3c
00000250: 50ff d0bb b24e 0cbd bf66 54bd dd10 883d
00000260: cdd3 c63d 645f bdbd 2c45 2bbd 8134 dc3c
00000270: 7345 9abd 270d 62ba cf00 8c3d 56c5 97bd
00000280: 821a 4bbd 70d2 4f3d 1cde 35bd 2565 d1bd
00000290: 5764 f03c 3df6 86bd 2486 19bc 4ec8 233d
000002a0: 33fc bbbd d1fc 39bc e300 34bd 2361 13bd
000002b0: 1a59 b3bd fa9e 9bbd 0545 733d 35df 23bd
000002c0: 7eb6 c6bd c6d4 a4bd 61bc a13c 6acc b83c
000002d0: c617 eebd ff64 073d 638e 8abd 0d49 4ebd
000002e0: a420 c9bc 2c34 733d 9cd0 64bd 6264 5ebd
000002f0: edb1 1dbd 84e0 a5bd 11eb 853d d26b 1cbd
00000300: 6a25 d23c 23e4 29be 1706 75bd 865a abbd
00000310: 274d ab3d f076 05bd fc6d 703d 4a03 193c
00000320: 7c2c 79bd 577c b1bd c6ad 87bd 69da 77bd
00000330: 57c6 bbbd d412 3cbd 9133 17bc ba6c 083d
00000340: b90c b7bd e83e 47bd 9e6a a1bd a92d 07be
00000350: a34c a43d fff9 fabd 7b0a 46bd 3f7e 6b3c
00000360: 5a4b 643b d8d8 84bc 4876 adbc d98a a0bc
00000370: 2a83 aa3d 1b0d fabd d593 2abd 1682 a7bd
00000380: 8413 ccbc b3bd 783d 4e02 f3bc 85fa 31bd
00000390: e415 4bbd 634d 91bd 6654 02be 3141 40bd
000003a0: 60d1 043b f811 cabd f04d cbbd 7ae9 c7b8
000003b0: eeda 8a3d b9b8 623d 043b 4bbb 6764 043c
000003c0: b0b8 2abd 2dc5 cabd 741e b1bd 0c5f bbbd
000003d0: 8063 e4bd 1100 ccbd d972 3bbc 8ce7 77bd
000003e0: 605d 443d a92a 9f3c 1840 16bd af17 e5bd
000003f0: 9690 4abd bab2 043d 7058 adbd 2824 b1bd
-0.058891907 -0.04334461 -0.043419253 0.010456017 0.05110569 -0.06930583 -0.044116892 -0.009218418
-0.021065095 -0.11271447 0.028496854 -0.04835524 -0.019374527 -0.046799045 -0.02041757 -0.04067264
-0.016882207 -0.032064855 -0.08085569 0.11000053 -0.062098153 -0.0025865627 -0.045716044 -0.09329311
-0.039033014 -0.088449 -0.10540904 0.05317226 -0.020276843 -0.03604013 -0.041442282 -0.045593992
-0.07183049 -0.050559923 -0.01970929 -0.09607852 -0.035906542 -0.033648532 -0.044111837 -0.03667312
-0.00680181 -0.016479708 -0.021295566 -0.10022666 -0.028439213 -0.14969273 -0.023541428 -0.07487351
-0.021213386 -0.07725031 -0.12210104 -0.08258465 0.034430567 -0.114185415 -0.060141575 -0.099614665
-0.018139858 -0.026487507 -0.0775639 0.12429377 0.013282967 -0.051253702 -0.0029871233 -0.059510466
-0.07358154 0.050344884 0.06996238 -0.039733022 -0.11559005 0.010398284 -0.1466833 -0.07863081
-0.06846918 -0.0067700474 0.09762767 -0.02217338 -0.06765325 -0.026361082 0.01955445 -0.1335442
0.017983101 -0.14158651 0.026921716 -0.04587221 -0.062255066 -0.10784943 -0.07637614 -0.008723267
-0.06463718 -0.07000728 0.0974087 -0.08057242 -0.09083912 -0.055751547 -0.0043282416 -0.05960245
-0.11210406 -0.022495639 -0.037535112 -0.01355991 -0.08724836 -0.019159881 -0.035222404 -0.04478502
0.052543916 0.04970875 -0.044017892 -0.06467757 0.057177726 -0.04963803 -0.0795889 -0.032308854
-0.13983013 -0.011781812 -0.103455454 -0.06622216 -0.08385138 0.06236559 -0.018507602 -0.065987766
-0.02665434 0.04890251 -0.0022448816 -0.012959472 0.06975812 -0.02673784 -0.10603724 -0.05373713
-0.1336325 0.026104255 -0.06133344 0.08373398 -0.016799456 -0.07554047 0.017138664 -0.024265068
-0.0819932 -0.09302444 -0.09357755 -0.0067272023 0.04589771 0.040577665 -0.075087145 -0.084081486
-0.001624092 -0.019188883 -0.0431137 0.024677418 -0.006378092 -0.034254737 -0.0518558 0.066438414
0.097083665 -0.0924671 -0.041814014 0.026880505 -0.07532778 -0.00086231757 0.06836092 -0.07410686
-0.049585827 0.0507378 -0.044401273 -0.1022437 0.02934472 -0.06589935 -0.0093703605 0.039985947
-0.091789626 -0.01135178 -0.04394616 -0.03598131 -0.08757229 -0.07598682 0.059391994 -0.04000779
-0.09702776 -0.08048396 0.019743146 0.02255841 -0.11625628 0.0330553 -0.06765439 -0.050362635
-0.024551697 0.059375927 -0.055863008 -0.05429495 -0.03849976 -0.080994636 0.06538976 -0.038188763
0.025652606 -0.16590934 -0.05982026 -0.08366875 0.08364325 -0.03258413 0.05869864 0.009339163
-0.06083344 -0.08666294 -0.066249415 -0.060511027 -0.0916869 -0.045916393 -0.009228603 0.033306815
-0.089379735 -0.048643976 -0.07881664 -0.13201012 0.0802243 -0.12254714 -0.04834984 0.014373361
0.0034834952 -0.01621668 -0.021174565 -0.019597458 0.08325799 -0.12209531 -0.04164489 -0.08179109
-0.02491165 0.060727786 -0.029664185 -0.043451805 -0.049581423 -0.070948385 -0.12727508 -0.04693717
0.0020266399 -0.098667085 -0.09926975 -9.532548e-05 0.06780039 0.055351947 -0.0031010518 0.008080578
-0.041680038 -0.099008895 -0.086483866 -0.09148988 -0.111517906 -0.0996095 -0.011440956 -0.060523555
0.04794061 0.019429522 -0.03668222 -0.11186158 -0.049454294 0.03239701 -0.08464134 -0.086494744

bias f4 [100]
00000000: bc78 c0bd 72de 36bd 1a26 f7bd c2bd 9ebd
00000010: 78d5 b43d 4b03 5ebc b57a 63bd 930e 42bd
00000020: ac0f 79be de8f 47be 29cc c7bd e681 fa3d
00000030: e75e d7bd 89e8 8dbe 4eff 02bd 49b1 76bb
00000040: 9cab 293d 44c2 f8bd dba3 a9bd 284a a5bd
00000050: 628c adbd 87d4 18bc e5f9 3bbd f43f b5bc
00000060: adc0 a63d 22a6 3cbd 07ba a93c 5753 72bd
00000070: 8714 43bd 1d7c 2cbd 332d fbbb 3877 fbbd
00000080: 9755 af3c 7672 f0bd 0a9b e93c 31e4 8ebd
00000090: ea44 bcbc d88e dabd 8225 0ebd c2c1 533c
000000a0: 6cd9 7fbd b74c 90bd ed17 c3bb 4a5d 243d
000000b0: 46b7 1ebd 1c79 33bd 4396 203d 8f34 0d3d
000000c0: d85d 15be ee18 aabd 4d08 03be e595 86bd
000000d0: 2675 a7bd 61ae 443d 263e efbc f4f1 963c
000000e0: 3e93 92bd 4bcd 59bd c16e 873d 3858 2abe
000000f0: 5018 52bd b825 87bc 8835 15bd 8f26 93be
00000100: e758 0b3b 28b5 b9bd 1d3a abbd 020e 79bd
00000110: a76b 2bbe 4445 b2bd ab02 90bd 5a48 01be
00000120: cb38 ddbc c619 b63c 4966 a9be f579 7e3d
00000130: 0c73 25bd afca c33c 06a5 06be 0352 9dbd
00000140: d324 f93c e691 c9bd fa28 0f3e 7edc 903d
00000150: 1d49 a33d 0070 6abe 92b3 0abe 5da6 c4bd
00000160: 746d f7bd 3d2b e7bc a64b e73c adc0 a0bd
00000170: 0792 62bd 6750 11be 0995 0fbd 22fb 7d3c
00000180: 4807 77bd cacb 5ebd c07c 9b3d b0fd d6bd
-0.09398028 -0.044645734 -0.12067814 -0.07751037 0.088297784 -0.01355059 -0.055536944 -0.04737718
-0.24322385 -0.19488475 -0.09755737 0.122318074 -0.10516148 -0.27716473 -0.03198176 -0.0037642291
0.041423425 -0.12146428 -0.08283206 -0.08070785 -0.084740415 -0.009328014 -0.045892615 -0.022125222
0.08142219 -0.046056874 0.020718588 -0.05916151 -0.047627 -0.04211055 -0.0076653003 -0.122785985
0.021403117 -0.11740582 0.028516311 -0.06977118 -0.02298208 -0.106717765 -0.03470374 0.012924613
-0.06246321 -0.07045882 -0.00595378 0.04012803 -0.038749002 -0.04381667 0.0392058 0.034473952
-0.1458658 -0.08305536 -0.12796135 -0.06571559 -0.08176641 0.048017863 -0.02920444 0.01842592
-0.071569905 -0.0531743 0.066129215 -0.16635215 -0.051292717 -0.016497478 -0.036428005 -0.28740355
0.0021262707 -0.09067756 -0.083606936 -0.060804375 -0.16740285 -0.087046176 -0.07031759 -0.12625256
-0.02700462 0.022229087 -0.3308585 0.062128026 -0.04039292 0.023900358 -0.13148889 -0.07681658
0.030413067 -0.09842281 0.13980475 0.070733055 0.079729296 -0.22894287 -0.13545063 -0.09602044
-0.120814234 -0.02821886 0.028234314 -0.0784925 -0.055315044 -0.14190827 -0.03505424 0.015501769
-0.06030968 -0.054393567 0.075921535 -0.10497606

weight f4 [1, 100]
00000000: 2f4e a2bd bb6d edbc 37e5 63bd a6c8 9cbc
00000010: 4f98 85be 4741 c2bc f9fc 9cbd 4b40 67bd
00000020: 89ec 693d 0999 8d3a 7755 83bd d341 38be
00000030: 401a 423c 27e9 3d3d 4fff 44bd a5a9 14bc
00000040: 4c6c efbc 2291 6fbd a5d5 5abd 79ba c13c
00000050: 9498 99bc 5c54 c63c 6e3e f83c ea57 d83b
00000060: 3119 7ebd 81fc 93bd dd6d 3abe 4eb8 28bd
00000070: 7629 40bc 15d8 d3bd f019 1abd 0a09 5bbc
00000080: 69c8 5cbd 2dde 06bd 6011 92be 4744 22bd
00000090: 5067 10bd 4b6b 35bd e489 afbc f3e3 8fbe
000000a0: a375 87bd 460d 96bc 535c d0bc 8659 8fbe
000000b0: d244 6bbd 1b9e 18bd aa67 c0be 385c 35bd
000000c0: 2534 5c3d 9839 cfbd 9251 81bd 837a e0b9
000000d0: 8bd0 3e3d 4f64 44be 69e9 2dbd 4dd7 18be
000000e0: dc33 8cbd c8f5 793c 84bc 00be 9617 79bc
000000f0: d227 56bd 1814 c2bc 23a2 813b ac3c 54bc
00000100: 2685 abbc 32d9 86bd a7e1 bbbd b45e 343c
00000110: 645d 513b 894e 5ebd cfdd abbd d963 fdbc
00000120: b0d0 77bd 646e 05bd 66e9 c43c 2617 12be
00000130: 28cd 60bd 1f27 aabc 2405 19bc f3a9 34bd
00000140: 8e6e bebe bf52 82bd 231d 8dbe 34ae 54be
00000150: 9b99 93be 678e c73b aa19 3cbd 72ba d5bc
00000160: 8936 9b3c 3da7 89bc ef3a bfbd 3b31 14bd
00000170: 1e2b 1abd 1d4e 99bd d6c3 7dbd 47b5 1cbd
00000180: 878c 56bd 0e5c 88bd ee53 5fbe 9b8c aa3c
-0.079250686 -0.028982988 -0.05563852 -0.019138645 -0.26092765 -0.023712767 -0.07665438 -0.0564578
0.057110343 0.0010803054 -0.064127855 -0.1799386 0.011847079 0.04636493 -0.048095044 -0.0090736495
-0.029226445 -0.05848802 -0.053426404 0.023648487 -0.018749513 0.024210148 0.030303206 0.006602277
-0.062035743 -0.07225896 -0.18205972 -0.04119139 -0.011728635 -0.10343949 -0.037622392 -0.013368854
-0.053902064 -0.032926727 -0.2852888 -0.039615896 -0.035254776 -0.044291776 -0.021428056 -0.281036
-0.06614234 -0.018316876 -0.025434649 -0.27997988 -0.05743868 -0.037260156 -0.3757909 -0.0442774
0.053760666 -0.10118407 -0.063143864 -0.00042815888 0.0465856 -0.1917889 -0.042458925 -0.1492588
-0.06845829 0.015256353 -0.12571913 -0.015203377 -0.05228407 -0.023691222 0.003956096 -0.012953918
-0.020937514 -0.065843955 -0.09173899 0.011008907 0.0031946534 -0.054274116 -0.08391916 -0.0309314
-0.060501754 -0.03257598 0.024037074 -0.14266643 -0.054883152 -0.020770608 -0.0093396045 -0.04410739
-0.37193722 -0.06363439 -0.27561292 -0.20769578 -0.2882813 0.0060899737 -0.045922913 -0.02608988
0.018946903 -0.016803378 -0.093374126 -0.036179762 -0.037638776 -0.07485602 -0.06195434 -0.038258817
-0.05238011 -0.06658183 -0.2180936 0.020818999
