Gibbs_MINE/pw_res/model_lk_b=10_s=0.5_p=20.pth (torch, 197015 bytes, 5 tensors)

weight f4 [400, 20]
-0.2504504 0.20430067 0.25989953 -0.047903575 0.10384496 0.42972577 -0.023705866 -0.18529887
-0.21273048 -0.43942487 0.2806559 -0.07962191 0.16476375 0.15854266 -0.008217387 -0.0061141434
0.14268465 -0.03006722 -0.22235247 -0.23422717 -0.06187359 -0.121849634 0.09390786 -0.08926414
-0.35861915 0.11224601 0.36272785 -0.30163935 0.26883298 -0.27138758 0.32383204 0.22240956
0.06596547 0.23846605 0.2449931 -0.15621443 -0.019678138 0.06288571 -0.12286837 -0.2543361
0.07032705 0.26567304 0.095067576 0.06982394 -0.25085872 -0.2482999 0.4671343 -0.2906464
0.20720322 0.05116033 0.19953404 0.033112023 0.032110136 0.2417247 0.25487807 -0.18046914
0.10867724 0.07120347 -0.26426148 0.10054371 -0.0035049918 -0.049667854 -0.15261573 -0.05626815
0.22795355 -0.14320818 0.08820791 -0.0901133 0.11423698 -0.1721237 0.014478353 0.20427212
0.3142606 0.15785338 -0.13734837 0.13859595 0.17098634 -0.036704045 0.25819764 -0.38405186
0.20068036 0.026258832 -0.19039066 -0.0162437 -0.173527 -0.030099329 0.21017534 0.20660825
0.24654129 0.2364114 0.0031604297 -0.041765 0.120727874 -0.025073778 -0.12583545 -0.08063848
-0.102488466 0.25093752 0.22520173 0.013564611 -0.2935972 -0.17935261 -0.03551248 -0.12653781
0.23355204 0.14680238 -0.17600031 -0.15340355 0.043071404 0.12260983 0.14990635 -0.08832433
0.2812747 -0.08078515 -0.11698041 0.35390744 0.14859925 -0.14389257 0.0014975206 -0.12302925
0.10134786 0.11117766 -0.30280012 -0.15178476 -0.1471627 -0.332274 0.09374417 -0.16863519
0.23722641 0.44138932 -0.2710162 -0.0011094277 0.17390907 0.16388443 -0.22795962 -0.18522426
-0.0023860252 0.28235543 -0.14474678 0.50136524 0.083722025 0.16265003 -0.11586021 -0.14687295
-0.31172127 0.1495771 -0.14781442 -0.31122467 0.09937298 0.022552 0.08740427 -0.05107743
-0.14798273 0.069450356 0.22770554 0.09763071 0.27197126 -0.09362344 0.15405679 -0.08957532
-0.29054764 0.094510294 0.14080936 0.15594824 -0.027428808 0.13399814 0.03485798 0.031939074
0.08492531 -0.440818 0.22121158 -0.018788494 0.011523849 -0.09176215 0.24083547 0.27766106
-0.02342926 -0.0001452131 -0.20526318 -0.2234806 0.12402367 -0.05808667 0.21683304 0.17014377
-0.18090872 0.27612928 0.12523673 -0.04150307 0.095306225 -0.20918597 0.2061451 0.117328346
-0.26705137 0.11006001 0.19109842 0.024741339 -0.054563977 -0.006646133 -0.23407243 -0.34284976
-0.0055503636 0.110629104 -0.08449051 0.039248317 -0.31522605 -0.25411692 0.31626698 -0.00848173
0.23397517 0.16803998 0.23541732 -0.01082588 0.2010306 0.32526276 -0.0348252 -0.18703958
-0.24086729 -0.12536004 -0.06723756 0.08402522 -0.04196637 -0.15921146 -0.15202203 -0.13651156
-0.18052675 0.1272782 -0.020197209 0.052523114 0.10856461 -0.3474233 -0.08685184 0.24876437
0.0062498264 -0.06935084 0.086300716 -0.064996436 -0.014798399 -0.21312134 0.08212026 -0.37957954
0.19189246 0.21949466 0.1355987 0.24223468 -0.17950779 -0.029341685 -0.19339079 0.114879
-0.2692315 0.009251293 0.11806397 0.060975105 -0.08367434 0.07970122 -0.10574034 -0.15172465
00000000: 093b 80be 3234 513e 8d11 853e 8a36 44bd
00000010: abac d43d 0405 dc3e ce32 c2bc fdbe 3dbe
00000020: 05d6 59be 4cfc e0be 21b2 8f3e d010 a3bd
00000030: d4b7 283e 0259 223e 38a2 06bc 2759 c8bb
00000040: ed1b 123e 884f f6bc 5eb0 63be 3fd9 6fbe
00000050: 296f 7dbd 4d8c f9bd c452 c03d 1ed0 b6bd
00000060: ee9c b7be 3ce1 e53d 77b7 b93e 7970 9abe
00000070: 7aa4 893e 50f3 8abe 50cd a53e 55bf 633e
00000080: e818 873d 7230 743e 79df 7a3e adf6 1fbe
00000090: 0c34 a1bc 39ca 803d 69a2 fbbd 5738 82be
000000a0: a107 903d 4c06 883e cab2 c23d dbff 8e3d
000000b0: 8e70 80be 5442 7ebe 3a2c ef3e 9bcf 94be
000000c0: 152d 543e 7f8d 513d a752 4c3e 79a0 073d
000000d0: eb85 033d ae86 773e 617f 823e e7cc 38be
000000e0: 2c92 de3d 20d3 913d 484d 87be dce9 cd3d
000000f0: 01b4 65bb 8570 4bbd 4c47 1cbe 6f79 66bd
00000100: a86c 693e 2aa5 12be 59a6 b43d 528d b8bd
00000110: 14f5 e93d 3241 30be 9d36 6d3c b62c 513e
00000120: c4e6 a03e 51a4 213e 0da5 0cbe 19ec 0d3e
00000130: 0b17 2f3e fb56 16bd 7b32 843e 72a2 c4be
00000140: 277f 4d3e c31c d73c c5f5 42be 8211 85bc
00000150: 10b1 31be de92 f6bc 3438 573e 1d91 533e
00000160: 5275 7c3e d415 723e 361f 4f3b c711 2bbd
00000170: 2d40 f73d 8667 cdbc 02db 00be ca25 a5bd
00000180: 79e5 d1bd e27a 803e 489b 663e 1a3e 5e3c
00000190: 5f52 96be 36a8 37be 8975 11bd 2193 01be
000001a0: 4428 6f3e 5d53 163e 6d39 34be d215 1dbe
000001b0: a46b 303d dd1a fb3d 0d81 193e 63e3 b4bd
000001c0: 3d03 903e af72 a5bd 6d93 efbd 5b33 b53e
000001d0: 672a 183e 9358 13be 7448 c43a c2f6 fbbd
000001e0: 788f cf3d 1db1 e33d 9e08 9bbe 776d 1bbe
000001f0: d2b1 16be d11f aabe f2fc bf3d b4ae 2cbe
00000200: 7beb 723e c8fd e13e a3c2 8abe 376a 91ba
00000210: 3815 323e 52d1 273e 3f6e 69be 6eab 3dbe
00000220: dc5e 1cbb e490 903e 8038 14be 7959 003f
00000230: 7476 ab3d bb8d 263e 1e48 edbd dd65 16be
00000240: ee99 9fbe bd2a 193e aa5c 17be d758 9fbe
00000250: 1084 cb3d f9be b83c 0301 b33d 9136 51bd
00000260: c988 17be fd3b 8e3d a42b 693e 9cf2 c73d
00000270: d13f 8b3e a5bd bfbd 10c1 1d3e 4473 b7bd
00000280: a9c2 94be 9d8e c13d 5430 103e e5b0 1f3e
00000290: 61b2 e0bc cf36 093e 3ec7 0e3d 8cd2 023d
000002a0: 52ed ad3d e6b2 e1be 4a85 623e 54ea 99bc
000002b0: 87ce 3c3c cbed bbbd 939d 763e 9729 8e3e
000002c0: b8ee bfbc 5844 18b9 8330 52be 19d8 64be
000002d0: 1f00 fe3d 4aec 6dbd 7b09 5e3e 2b3a 2e3e
000002e0: 2340 39be d160 8d3e 0f3e 003e 20ff 29bd
000002f0: e92f c33d d934 56be b317 533e d849 f03d
00000300: f5ba 88be 2467 e13d 4eaf 433e 59ae ca3c
00000310: 7a7e 5fbd cec7 d9bb afb0 6fbe 018a afbe
00000320: d3df b5bb 8391 e23d 5c09 adbd d8c2 203d
00000330: 4f65 a1be 9d1b 82be bfed a13e f4f6 0abc
00000340: 3097 6f3e ac12 2c3e 3d11 713e 085f 31bc
00000350: f7da 4d3e d788 a63e dea4 0ebd 4e87 3fbe
00000360: eaa5 76be 625e 00be d9b3 89bd 6a15 ac3d
00000370: eee4 2bbd 5408 23be aaab 1bbe b0c9 0bbe
00000380: 01dc 38be 3755 023e 9e74 a5bc 7a22 573d
00000390: 1f57 de3d 77e1 b1be 61df b1bd 16bc 7e3e
000003a0: 58cb cc3b d007 8ebd 6ebe b03d da1c 85bd
000003b0: fc74 72bc 7b3c 5abe ab2e a83d 4058 c2be
000003c0: 757f 443e 35c3 603e 63da 0a3e 5e0c 783e
000003d0: e4d0 37be f95d f0bc 3c08 46be ae45 eb3d
000003e0: b6d8 89be bc92 173c 86cb f13d 08c1 793d
000003f0: 745d abbd 653a a33d 648e d8bd b55d 1bbe

bias f4 [400]
-0.16058993 0.21309084 -0.041192163 0.048498847 -0.4053135 0.19962366 -0.15757163 0.027079968
0.016970372 -0.09643345 -0.13543242 -0.0910102 -0.026646808 -0.098566346 -0.18280706 -0.29047814
-0.08574076 -0.22327442 -0.40487722 -0.2087134 -0.14520627 0.015030609 -0.3422876 -0.077273354
-0.21212015 -0.29145434 -0.3013766 -0.057419304 0.118757814 -0.11701064 -0.13397853 -0.10657989
-0.020522764 -0.046185095 -0.19496343 0.06944923 -0.11176759 -0.19130108 -0.1636752 -0.24496508
-0.22064018 -0.2603378 0.028135654 -0.24246278 -0.0038910368 -0.291703 -0.29810792 0.018713672
-0.100094445 -0.004084738 0.03061804 0.1792582 -0.1158117 -0.039628632 -0.21377762 0.0006294856
0.022524921 -0.20458868 -0.28428316 -0.16825846 -0.033178627 0.048469905 0.16855238 -0.40139186
-0.11548481 -0.09223253 -0.12195522 -0.16437183 -0.23339528 -0.23526277 -0.2941709 -0.2515114
-0.075071655 -0.3494739 -0.0829508 -0.4011525 -0.04787436 -0.23172052 -0.3058554 -0.1782896
-0.26677138 -0.44757584 -0.23108183 0.013561166 -0.3390448 -0.21231158 -0.15292712 -0.24578823
-0.17710112 -0.35070145 0.111517474 0.052918784 -0.3117381 -0.22438551 -0.06881663 -0.178936
-0.0145492405 -0.27014697 -0.18412998 -0.29539096 -0.13445637 -0.17266203 -0.13857307 0.12869199
0.08016221 0.12771273 -0.2352341 -0.28393182 0.10016024 -0.2021088 -0.10561196 -0.2202385
-0.23130672 -0.37460127 -0.001529652 -0.13942118 -0.21106352 -0.3830193 -0.22778705 0.11774579
-0.36699247 -0.38442183 -0.012837613 0.1499212 -0.20885974 -0.37678894 -0.1974857 -0.059136696
-0.13628112 -0.10309938 0.0009965403 -0.08687877 -0.22148915 -0.24525115 0.105477266 -0.3097402
-0.14314654 -0.10798417 -0.20787646 -0.16635215 -0.27813032 -0.14014234 -0.33296877 -0.09076136
-0.15340509 0.051691797 -0.18318565 -0.1494714 0.08440935 -0.2306355 0.087038785 0.035996787
-0.29165488 -0.40007064 -0.4149255 0.078623995 -0.038322177 -0.32328406 -0.009058422 -0.056511328
-0.06839746 -0.04480353 0.08362532 -0.15045051 -0.19865261 -0.26437354 -0.17520149 0.11222586
0.015105594 -0.085181326 -0.27320427 -0.118184395 -0.088700615 -0.11961134 -0.28902954 -0.27971143
0.06541272 -0.32157442 -0.22440541 -0.07176566 -0.4462231 -0.11336122 -0.05037697 -0.018366802
-0.37484127 -0.1553007 -0.19072509 0.16978589 -0.18939847 -0.24246238 -0.27016672 -0.3110342
-0.19987936 0.018210003 -0.18557686 0.11147591 -0.16299388 -0.07242464 0.110791795 -0.2754454
-0.07180198 -0.23484856 -0.14222491 -0.28666165 0.036254674 -0.048767015 0.17723508 0.047277186
-0.19822085 -0.22364205 -0.10692697 -0.06476881 -0.3079749 -0.19977254 -0.17468953 -0.35307735
-0.006146403 -0.30144632 -0.19711857 0.013790331 -0.088602714 -0.07731191 -0.2911641 -0.14662214
-0.20062207 -0.24917078 -0.14724326 -0.038145404 -0.14379933 -0.08634245 0.036729213 -0.049311344
-0.1828676 -0.025970379 -0.2238421 -0.2061303 -0.10481112 -0.010703395 0.17936084 -0.32021874
-0.10508445 -0.15631922 -0.05617438 -0.23972629 -0.05826495 -0.42669615 -0.11562853 -0.43042755
-0.0807856 -0.060942292 -0.24004099 0.06374876 -0.12578028 -0.33582425 -0.1649063 -0.27216417
00000000: b071 24be 7c34 5a3e 1db9 28bd baa6 463d
00000010: 4085 cfbe 256a 4c3e 755a 21be cfd6 dd3c
00000020: 7305 8b3c e77e c5bd ccae 0abe 8e63 babd
00000030: 684a dabc 27dd c9bd c631 3bbe 8db9 94be
00000040: da98 afbd 0da2 64be 114c cfbe f7b8 55be
00000050: f4b0 14be f242 763c 5240 afbe 7e41 9ebd
00000060: 0636 59be 8139 95be 094e 9abe 8130 6bbd
00000070: 4c37 f33d 46a3 efbd ab31 09be 8f46 dabd
00000080: 5b1f a8bc 952c 3dbd 7ea4 47be 663b 8e3d
00000090: 68e6 e4bd 6ee4 43be 799a 27be 20d8 7abe
000000a0: 80ef 61be ff4a 85be be7c e63c 2a48 78be
000000b0: c400 7fbb 185a 95be 9aa1 98be 6a4d 993c
000000c0: 51fe ccbd 44d9 85bb afd2 fa3c 768f 373e
000000d0: af2e edbd a251 22bd 85e8 5abe 1004 253a
000000e0: 2f86 b83c b27f 51be 908d 91be f24b 2cbe
000000f0: 50e6 07bd 6188 463d ff98 2c3e 3c83 cdbe
00000100: 4d83 ecbd 69e4 bcbd a9c3 f9bd 1751 28be
00000110: 2cff 6ebe b9e8 70be 919d 96be 1ac6 80be
00000120: 2bbf 99bd 3eee b2be 1ce2 a9bd dc63 cdbe
00000130: e817 44bd 2548 6dbe 1499 9cbe 8d91 36be
00000140: 4296 88be a928 e5be b7a0 6cbe a72f 5e3c
00000150: 4897 adbe 3568 59be ed98 1cbe e9af 7bbe
00000160: ff59 35be 248f b3be 4663 e43d 5ec1 583d
00000170: 239c 9fbe 51c5 65be bcef 8cbd 003b 37be
00000180: f05f 6ebc b450 8abe 928c 3cbe 7c3d 97be
00000190: eeae 09be 51ce 30be 19e6 0dbe d5c7 033e
000001a0: 162c a43d 20c7 023e 35e1 70be 835f 91be
000001b0: d020 cd3d 9cf5 4ebe 154b d8bd 3486 61be
000001c0: abdb 6cbe bdcb bfbe 9b7e c8ba 6dc4 0ebe
000001d0: 0921 58be 1b1b c4be 0241 69be b424 f13d
000001e0: 70e6 bbbe f0d2 c4be da54 52bc f184 193e
000001f0: 54df 55be 7bea c0be b139 4abe 5239 72bd
00000200: 478d 0bbe c525 d3bd 589e 823a 7fed b1bd
00000210: 0dce 62be 1e23 7bbe 7704 d83d 4496 9ebe
00000220: 0295 12be ce26 ddbd 91dd 54be 3858 2abe
00000230: 1967 8ebe 7981 0fbe e27a aabe 18e1 b9bd
00000240: 3916 1dbe c7ba 533d 0595 3bbe 080f 19be
00000250: cfde ac3d b62b 6cbe 6441 b23d 5e71 133d
00000260: ca53 95be 0fd6 ccbe 1d71 d4be 9e05 a13d
00000270: b7f7 1cbd 7d85 a5be c769 14bc 6c78 67bd
00000280: f813 8cbd e883 37bd c043 ab3d b30f 1abe
00000290: 976b 4bbe f85b 87be 0568 33be acd6 e53d
000002a0: 747d 773c 8c73 aebd 6ee1 8bbe a90a f2bd
000002b0: aba8 b5bd caf6 f4bd aefb 93be 5636 8fbe
000002c0: 1bf7 853d 67a5 a4be 88ca 65be e0f9 92bd
000002d0: 5b77 e4be ed29 e8bd 1558 4ebd fa75 96bc
000002e0: 32eb bfbe 2607 1fbe 704d 43be 5adc 2d3e
000002f0: acf1 41be 0f48 78be 4b53 8abe e03f 9fbe
00000300: 2dad 4cbe 252d 953c dc07 3ebe 7b4d e43d
00000310: dee7 26be 5f53 94bd cfe6 e23d 2e07 8dbe
00000320: eb0c 93bd 247c 70be 68a3 11be 51c5 92be
00000330: c87f 143d ecbf 47bd 1d7d 353e b9a5 413d
00000340: 68fa 4abe 6c02 65be 87fc dabd 83a5 84bd
00000350: e3ae 9dbe 2c91 4cbe d0e1 32be 8ec6 b4be
00000360: c467 c9bb 2c57 9abe 73d9 49be d7f0 613c
00000370: 5775 b5bd b555 9ebd 7613 95be 1d24 16be
00000380: df6f 4dbe a026 7fbe f0c6 16be 5b3e 1cbd
00000390: 2240 13be 4fd4 b0bd 5f71 163d b1fa 49bd
000003a0: a541 3bbe d5bf d4bc dd36 65be d213 53be
000003b0: 36a7 d6bd 4b5d 2fbc 5eaa 373e b6f3 a3be
000003c0: 8436 d7bd 2512 20be 1b17 66bd cf7a 75be
000003d0: 3aa7 6ebd eb77 dabe a7ce ecbd 0061 dcbe
000003e0: ec72 a5bd a09e 79bd 4ecd 75be b68e 823d
000003f0: 8ccc 00be 28f1 abbe 32dd 28be 1a59 8bbe

weight f4 [100, 400]
0.015064693 0.13734192 0.08241517 -0.08421175 0.13097873 0.0059525147 0.17834374 0.11068619
0.05190837 0.03734592 0.13882285 0.055902958 -0.039502297 0.035978664 0.08220025 0.060625844
0.12782207 0.041656256 0.096127 -0.00311523 0.11559919 -0.0037721053 0.11387234 0.09807183
0.103848815 0.05739838 0.088989824 0.03156278 0.021063594 0.04360578 -0.029202214 -0.09454964
0.027346969 0.05816405 0.10030129 0.01858115 0.052043628 0.14204146 0.0028725965 0.17829743
0.07313871 0.04699897 -0.032080065 0.05111596 0.032217763 0.14550343 0.1999254 -0.011949555
0.052864816 0.15811914 0.09299014 0.009416855 0.09572772 -0.037072722 -0.09086467 -0.016467143
-0.023276921 0.10809031 0.14919414 0.09173625 0.06327268 0.09337196 0.14554429 0.08309946
-0.061271824 -0.067829736 0.006555508 0.12835895 -0.042775564 0.07412998 0.14074631 0.0531838
0.07085923 0.112794876 0.13188407 0.03362506 -0.010011347 0.06459375 0.08243973 -0.04822624
0.07064942 0.19867203 0.09257522 0.013135728 0.07069979 -0.016456356 0.031073151 0.020751033
0.010181837 0.06338833 0.08761034 0.023889305 0.18550983 0.07446641 0.030647906 0.08516166
0.25646907 0.03097991 0.10947357 0.008752132 0.035997536 0.03369076 0.028801225 0.09151126
-0.079033606 0.030114649 0.10358601 0.13123026 0.05579813 -0.13851434 0.07440011 0.12916607
-0.01868314 0.07805686 -0.05528755 0.020430306 0.06629045 0.12516169 0.064348444 0.082261056
0.15620285 0.033414062 0.021034144 0.020591885 0.037861872 0.091101654 0.07129677 0.127041
0.014067882 -0.0039873845 0.036943182 -0.0036666933 0.03265549 0.16276626 0.06464912 -0.005829241
0.061809637 0.11214515 -0.044584185 0.034563404 0.13911664 0.10482551 0.119407274 0.01338787
-0.002362504 0.07461043 -0.01719771 0.0098168105 0.0025178243 0.03026637 0.024377158 -0.017876212
0.023684021 0.16632077 -0.033092506 0.06557896 -0.018698348 0.11958384 0.054295376 0.0002713336
0.043005414 0.03975563 0.018333009 -0.035186335 0.09645231 0.08723284 0.05922239 0.020729737
-0.0214018 -0.007957681 -0.016584372 -0.009755345 0.048623525 0.0575162 0.08532387 0.01141185
-0.042159744 -0.015702935 0.004215372 -0.036027852 0.2998104 0.096595064 -0.059702255 0.044129916
0.10692258 -0.083371915 0.09588872 0.32841572 0.10073083 0.040819038 0.18174678 0.052968957
0.11546405 -0.01089848 0.17216936 0.07238273 0.09150453 0.005625194 0.1315201 0.025208242
0.12377928 0.013311132 -0.069786526 0.0010056598 0.2711188 -0.03690188 0.041126188 0.04888433
-0.032660253 -0.032675643 0.0900099 0.07614992 0.096042566 0.060147963 0.05707819 0.085877724
0.11432357 0.04219387 0.12972684 0.051431745 -0.070254706 0.12860274 0.1133361 0.053054255
0.082387954 -0.008670392 0.045229476 0.08250562 0.06643559 0.07128898 -0.10480123 0.08707338
0.021442033 0.0532912 0.077969134 0.009447276 0.023114685 -0.024659235 0.050594073 0.08151322
0.06124378 0.056135934 0.08005884 -0.069979794 0.029783048 0.1372569 0.13497461 0.11227961
0.07563384 -0.016257806 0.054598745 0.09238226 0.01807304 -0.022718608 0.06001474 0.09435012
00000000: e7d1 763c 5ca3 0c3e 49c9 a83d 3677 acbd
00000010: 4a1f 063e 500d c33b be9f 363e 71af e23d
00000020: df9d 543d 09f8 183d 9427 0e3e 80fa 643d
00000030: 29cd 21bd 5d5e 133d 9b58 a83d ce52 783d
00000040: cae3 023e c09f 2a3d 3cde c43d e328 4cbb
00000050: 45bf ec3d 6d35 77bb e735 e93d e2d9 c83d
00000060: b0ae d43d 901a 6b3d 4c40 b63d f947 013d
00000070: 8f8d ac3c f99b 323d 7b39 efbc 3ea3 c1bd
00000080: c006 e03c 6d3d 6e3d c36a cd3d 7f37 983c
00000090: b32b 553d 5173 113e 2c42 3c3b 9a93 363e
000000a0: bfc9 953d fe81 403d 6366 03bd f85e 513d
000000b0: c6f6 033d dafe 143e 3eb9 4c3e 11c8 43bc
000000c0: c788 583d fce9 213e 9d71 be3d 2749 1a3c
000000d0: e50c c43d 91d9 17bd 4217 babd 1ae6 86bc
000000e0: 3eaf bebc 745e dd3d 59c6 183e 37e0 bb3d
000000f0: 1b95 813d cc39 bf3d 9009 153e 0d30 aa3d
00000100: 2af8 7abd 51ea 8abd 96cf d63b 8770 033e
00000110: 6e35 2fbd 75d1 973d cd1f 103e 42d7 593d
00000120: a51e 913d 0001 e73d 9e0c 073e 6eba 093d
00000130: a206 24bc ba49 843d 29d6 a83d e188 45bd
00000140: a5b0 903d ae70 4b3e 1498 bd3d 3d37 573c
00000150: 0dcb 903d 7bcf 86bc 1f8d fe3c 12fe a93c
00000160: b8d1 263c bed1 813d 0d6d b33d 81b3 c33c
00000170: 4af6 3d3e d881 983d 5111 fb3c 3d69 ae3d
00000180: ea4f 833e 95c9 fd3c ae33 e03d 1a65 0f3c
00000190: 2772 133d 53ff 093d 8cf0 eb3c 416a bb3d
000001a0: 5fdc a1bd ffb2 f63c e724 d43d 3a61 063e
000001b0: 948c 643d b4d6 0dbe 165f 983d 1c44 043e
000001c0: 620d 99bc 46dc 9f3d 3375 62bd 755d a73c
000001d0: 4ac3 873d 632a 003e 1ec9 833d 7c78 a83d
000001e0: a4f3 1f3e 2fdd 083d cc4f ac3c 50b0 a83c
000001f0: 0d15 1b3d 8193 ba3d 0a04 923d 0917 023e
00000200: f97c 663c 9ba8 82bb bc51 173d e84c 70bb
00000210: c3c1 053d 33ac 263e c266 843d 3803 bfbb
00000220: 1a2c 7d3d 5bac e53d e89d 36bd 5b92 0d3d
00000230: 9874 0e3e c2ae d63d cd8b f43d cc58 5b3c
00000240: 3dd4 1abb 5acd 983d 36e2 8cbc b0d6 203c
00000250: 1502 253b 2ef1 f73c 9bb2 c73c 2271 92bc
00000260: fe04 c23c fe4f 2a3e 028c 07bd 434e 863d
00000270: 472d 99bc 5fe8 f43d d464 5e3d c841 8e39
00000280: 7226 303d cdd6 223d 1b2f 963c 8c1f 10bd
00000290: ca88 c53d 22a7 b23d 2d93 723d 69d1 a93c
000002a0: d452 afbc ef60 02bc f3db 87bc e2d4 1fbc
000002b0: 7629 473d 1b96 6b3d 48be ae3d c5f8 3a3c
000002c0: b2af 2cbd 71a3 80bc 1a21 8a3b f191 13bd
000002d0: c080 993e a2d3 c53d 5a8a 74bd 92c1 343d
000002e0: 3afa da3d e5be aabd 4e61 c43d 1b26 a83e
000002f0: f74b ce3d dd31 273d d41b 3a3e faf5 583d
00000300: 6a78 ec3d 8a8f 32bc 2a4d 303e 663d 943d
00000310: ba66 bb3d 8c53 b83b 35ad 063e 8481 ce3c
00000320: fe7f fd3d ef16 5a3c 3dec 8ebd 58d0 833a
00000330: 15d0 8a3e 6d26 17bd ef73 283d ef3a 483d
00000340: c2c6 05bd e5d6 05bd 1c57 b83d 7df4 9b3d
00000350: f7b1 c43d b65d 763d d2ca 693d a9e0 af3d
00000360: 7a22 ea3d 7bd3 2c3d 1dd7 043e 18aa 523d
00000370: b3e1 8fbd 70b0 033e c21c e83d 6b4f 593d
00000380: 04bb a83d 430e 0ebc 8b42 393d b5f8 a83d
00000390: 620f 883d f5ff 913d 07a2 d6bd 8753 b23d
000003a0: 34a7 af3c e047 5a3d 48ae 9f3d bfc8 1a3c
000003b0: 025b bd3c 2a02 cabc bb3b 4f3d 67f0 a63d
000003c0: c2da 7a3d cbee 653d e4f5 a33d 9151 8fbd
000003d0: 94fb f33c 138d 0c3e c936 0a3e daf2 e53d
000003e0: eae5 9a3d 172f 85bc efa2 5f3d e932 bd3d
000003f0: e90d 943c 601c babc 04d2 753d a33a c13d

bias f4 [100]
0.05413839 -0.035302624 -0.12095665 -0.034052905 0.018453054 0.0045995573 -0.06465223 -0.0070220907
-0.022538127 -0.025490656 0.009038068 -0.037126917 -0.044158332 -0.10354266 -0.06456094 0.018517794
0.06684048 0.041354965 -0.06656047 -0.08969768 -0.06615761 0.024983607 0.048203185 0.037298493
-0.022551805 0.08984143 -0.13542195 0.017247304 0.119424224 -0.06952445 -0.059687715 0.022113884
-0.08819215 -0.05588626 -0.07098812 0.011554665 -0.12747143 -0.06112106 0.044094834 -0.051681962
0.03350814 -0.0062924153 -0.099656396 0.03695486 0.060601413 -0.04712199 0.05602006 0.0757695
0.072443694 -0.09184503 -0.11481411 1.000403 0.08929655 -0.0620402 -0.10074014 -0.10121462
-0.06011234 -0.06948959 -0.10537847 0.03516394 -0.047170583 0.0352624 -0.0040121907 0.018290723
0.039473712 0.01979388 -0.08392316 0.06138034 0.010479997 -0.060491048 -0.099882856 -0.08585665
0.15799467 0.0742772 0.42750424 0.04538256 0.09734573 0.044144936 0.025594726 -0.07833212
-0.09944671 -0.10033556 -0.07058828 -0.0854012 -0.102621205 0.12768476 -0.052976333 -0.10899663
0.0139945885 0.0562282 -0.059776377 -0.057992853 -0.2394866 -0.23320194 0.030898625 -0.10575304
-0.08170294 -0.0621503 -0.087500036 -0.038888708
00000000: 37c0 5d3d 7c99 10bd 1fb8 f7bd 0f7b 0bbd
00000010: dc2a 973c e2b7 963b 6368 84bd 9119 e6bb
00000020: e1a1 b8bc c8d1 d0bc 6814 143c 6512 18bd
00000030: 5edf 34bd 2d0e d4bd 8738 84bd a1b2 973c
00000040: a9e3 883d d363 293d db50 88bd 6bb3 b7bd
00000050: a47d 87bd 6caa cc3c b470 453d 4ec6 183d
00000060: 90be b8bc c9fe b73d 0dac 0abe 384a 8d3c
00000070: b094 f43d d662 8ebd 1b7b 74bd 2d28 b53c
00000080: 169e b4bd fee8 64bd 3862 91bd c74f 3d3c
00000090: df87 02be 145a 7abd c99c 343d 77b0 53bd
000000a0: d53f 093d 9b30 cebb a718 ccbd fb5d 173d
000000b0: 3039 783d fd02 41bd 4a75 653d 0a2d 9b3d
000000c0: 5c5d 943d 3f19 bcbd a923 ebbd 350d 803f
000000d0: 1ce1 b63d dd1d 7ebd d950 cebd 9c49 cfbd
000000e0: 5b38 76bd 8f50 8ebd abd0 d7bd 1008 103d
000000f0: f135 41bd 4e6f 103d b278 83bb 6dd6 953c
00000100: 30af 213d c626 a23c e8df abbd f469 7b3d
00000110: 4bb4 2b3c 76c5 77bd 628f ccbd 9cd5 afbd
00000120: 5bc9 213e a51e 983d d6e1 da3e 10e3 393d
00000130: 335d c73d 52d1 343d 08ac d13c 976c a0bd
00000140: b7aa cbbd bb7c cdbd 9790 90bd d3e6 aebd
00000150: 112b d2bd cbbf 023e b6fd 58bd a039 dfbd
00000160: 8f49 653c 8b4f 663d 13d8 74bd ea89 6dbd
00000170: fa3b 75be 7dcc 6ebe 1d1f fd3c 0d95 d8bd
00000180: df53 a7bd 5091 7ebd 3833 b3bd c449 1fbd

weight f4 [1, 100]
-0.035623994 -0.0282831 0.017619494 -0.066928975 -0.24921602 0.06943115 -0.02149509 -0.15479384
-0.045590095 0.007019908 0.0119625805 -0.0011029186 0.016715081 -0.010874444 -0.003990455 -0.2645841
-0.2694222 -0.15607378 -0.03843671 -0.026554571 -0.03974597 -0.09853137 -0.02670622 -0.25238526
-0.06394206 -0.30257973 -0.032687444 0.02323829 -0.04720459 -0.03469055 -0.0018658051 -0.021336747
0.0027158493 -0.02725599 0.017522126 0.003636829 -0.019234058 -0.03883826 0.031126771 0.037897922
-0.22806428 -0.33960783 0.0009368861 -0.027397934 -0.27401048 -0.050455276 -0.30777752 -0.17309396
-0.007844254 -0.051211353 0.01125496 -0.37874234 -0.042834427 -0.046809737 -0.042002477 0.032709964
0.024885464 0.001822364 -0.053553868 -0.03221424 -0.05678863 0.026974268 -0.10118599 -0.0003089476
-0.017007472 -0.048105143 -0.081681654 -0.09601192 -0.0060763024 -0.043474425 -0.013173587 -0.025691984
-0.026408507 -0.23525985 -0.07459009 -0.15908234 -0.24190128 -0.21022594 -0.2521094 -0.05499953
-0.039878253 -0.027497137 -0.076801695 -0.008266977 -0.058432806 -0.04017045 0.031002235 0.0017703301
-0.254914 0.058352295 0.049834713 -0.04530484 -0.021814873 -0.03439627 -0.33390036 -0.004917844
0.053899277 -0.05976368 -0.04682082 -0.025154611
00000000: 77ea 11bd f6b1 e7bc c256 903c 0f12 89bd
00000010: 7c32 7fbe eb31 8e3d 7916 b0bc 4782 1ebe
00000020: aebc 3abd 4207 e63b b3fe 433c cf8f 90ba
00000030: 11ee 883c b92a 32bc 5dc2 82bb 9177 87be
00000040: b5f1 89be ced1 1fbe d06f 1dbd f988 d9bc
00000050: accc 22bd d1ca c9bd 01c7 dabc a438 81be
00000060: 0ef4 82bd bbeb 9abe 45e3 05bd 3a5e be3c
00000070: 9a59 41bd ae17 0ebd 088e f4ba 67ca aebc
00000080: 64fc 313b f447 dfbc 908a 8f3c de57 6e3b
00000090: be90 9dbc de14 1fbd 92fd fe3c da3a 1b3d
000000a0: af89 69be 14e1 adbe 5d99 753a a271 e0bc
000000b0: 1a4b 8cbe 31aa 4ebd 0495 9dbe 8b3f 31be
000000c0: 3085 00bc ffc2 51bd b966 383c 84ea c1be
000000d0: 2773 2fbd 91bb 3fbd ca0a 2cbd e2fa 053d
000000e0: 9adc cb3c 64dc ee3a 4d5b 5bbd 14f3 03bd
000000f0: 329b 68bd 24f9 dc3c 9a3a cfbd 3ffa a1b9
00000100: 4153 8bbc e609 45bd b648 a7bd e6a1 c4bd
00000110: b81b c7bb 3d12 32bd 07d6 57bc ff77 d2bc
00000120: a756 d8bc f5e7 70be b0c2 98bd 7be6 22be
00000130: f8b4 77be 7845 57be 7c14 81be 3047 61bd
00000140: 6157 23bd ad41 e1bc 354a 9dbd 3772 07bc
00000150: 3d57 6fbd c589 24bd 66f8 fd3c 6c0a e83a
00000160: 1684 82be d102 6f3d 7c1f 4c3d 9191 39bd
00000170: 1bb5 b2bc 1ae3 0cbd fdf4 aabe de25 a1bb
00000180: 7dc5 5c3d c3ca 74bd 30c7 3fbd 0b11 cebc
