Gibbs_MINE/pw_res/model_lk_b=10_s=0.5_p=23.pth (torch, 201815 bytes, 5 tensors)

weight f4 [400, 23]
-0.29008746 0.17733777 0.16388094 -0.019472267 -0.008953613 0.25267655 0.07203782 -0.22443219
-0.15087917 -0.26953456 0.14727314 0.092203856 -0.050291568 0.07169416 0.28799915 0.0739692
0.08785562 -0.009407389 -0.26162007 -0.1650474 0.3158681 -0.36480623 -0.049186524 0.42369443
-0.11444813 0.27276126 0.3812356 -0.30559555 0.30540088 0.063489735 0.18731068 0.13497859
0.1830259 -0.08338385 0.11882513 -0.16279283 0.012517705 -0.15559438 -0.36246178 -0.0073109115
0.28251284 0.27892223 -0.1128953 0.017850308 -0.3239492 -0.035876807 0.29852393 -0.11692327
0.097798586 0.10972747 0.14582679 0.00643623 -0.0011176388 0.18415666 0.038881678 -0.0067030415
0.11876922 -0.1200146 -0.21394405 -0.17481884 0.17066492 0.008855572 -0.124674276 -0.2555433
0.229463 -0.19822536 0.06906374 -0.06516228 0.031945143 -0.09597587 0.080218606 0.08074916
0.17951551 0.15965006 -0.18344961 -0.10275172 0.18777452 -0.27315333 0.27737808 -0.31285653
0.1820989 0.16092584 -0.21952537 -0.18279718 -0.24803713 0.0029118739 0.15093862 0.3518393
0.08620186 0.01836373 0.21697716 -0.09378629 -0.042329323 0.0014019335 -0.18643557 0.1171273
-0.033383403 0.06380497 0.2979739 -0.012905545 -0.080345415 -0.14691551 0.14650172 -0.27084792
-0.12050341 0.008235645 -0.0154043 -0.14762233 0.06490726 0.39395022 0.17457978 -0.11706088
0.29964712 -0.012782464 -0.02337121 0.1546953 0.15274529 -0.17181256 -0.02137135 -0.31753647
0.014014732 0.12371743 -0.30928242 0.047809284 -0.049723603 -0.052816715 0.09040343 -0.16561514
0.107848875 0.20205583 -0.2603065 -0.051645063 -0.014228155 -0.14251837 -0.011829168 0.17563652
-0.13290745 0.07895263 -0.15621246 0.19225149 0.037174366 0.16461365 -0.19775654 -0.09213999
-0.3529027 0.16911405 -0.21609107 -0.306557 0.040043745 -0.048212145 0.072816625 -0.15438233
-0.15274338 0.026844196 0.24315056 0.018390939 0.41816938 -0.028875226 0.026187843 -0.0016672154
-0.15670225 -0.046785954 0.2314555 0.27661285 -0.17268714 0.118780285 -0.009400319 0.26123366
0.040262412 -0.18142228 -0.072149955 0.21811104 -0.02779098 -0.2047952 0.1617423 0.26478457
-0.05649008 -0.117672175 -0.12335371 -0.32387662 0.2588941 0.15640253 -0.02007732 0.0921901
-0.24611302 0.17029698 0.27392545 -0.0726612 -0.033134304 0.05109643 0.327551 0.1155239
-0.22317722 0.014620956 0.29055557 -0.15196222 -0.1534722 0.084223546 -0.06330542 -0.22011007
-0.07625393 0.16985396 -0.26981947 0.1801006 -0.02524921 -0.04684951 0.2236019 0.24765588
0.13970867 0.1316325 0.3202813 -0.0876722 0.164012 0.19811814 -0.009502358 -0.113137804
-0.17200428 -0.18667696 0.017362557 -0.081852496 0.0732265 0.038302395 -0.15460797 0.009971748
-0.07342783 0.16310959 0.21609183 0.25433645 -0.107537374 -0.090775125 -0.20562275 0.16654962
0.20208734 -0.19627714 -0.11057961 -0.07240545 -0.20812039 -0.12915726 0.0012352187 -0.21549173
0.19256222 0.08728315 0.06868021 0.0999546 -0.14593723 -0.010018898 -0.14463943 0.054303817
-0.14023226 0.12741993 0.11979509 -0.05821204 0.29966107 0.08215484 0.015817158 -0.23411418
00000000: 5886 94be 0898 353e 68d0 273e 4e84 9fbc
00000010: 2db2 12bc d25e 813e 9188 933d 8dd1 65be
00000020: 1280 1abe 6f00 8abe c5ce 163e 60d5 bc3d
00000030: 88fe 4dbd 63d4 923d a074 933e 2a7d 973d
00000040: a6ed b33d 7321 1abc 11f3 85be 3002 29be
00000050: 77b9 a13e e2c7 babe cf77 49bd 7aee d83e
00000060: c863 eabd 5da7 8b3e 5031 c33e 0577 9cbe
00000070: 815d 9c3e e806 823d 5fce 3f3e d437 0a3e
00000080: 246b 3b3e 27c5 aabd 975a f33d 2ab3 26be
00000090: 0f17 4d3c 2254 1fbe 9794 b9be 5f90 efbb
000000a0: 86a5 903e e5ce 8e3e a735 e7bd cf3a 923c
000000b0: abdc a5be 8ff3 12bd 21d8 983e 7875 efbd
000000c0: a04a c83d ccb8 e03d 9e53 153e 03e7 d23b
000000d0: bc7d 92ba 9093 3c3e 6542 1f3d 30a5 dbbb
000000e0: 473d f33d 37ca f5bd 2614 5bbe b603 33be
000000f0: c9c2 2e3e f616 113c 3a55 ffbd 92d6 82be
00000100: 59f8 6a3e 97fb 4abe 4a71 8d3d cd73 85bd
00000110: e9d8 023d ff8e c4bd a749 a43d d15f a53d
00000120: ead2 373e 4e7b 233e 37da 3bbe 7e6f d2bd
00000130: f747 403e c1da 8bbe 8004 8e3e bb2e a0be
00000140: 2278 3a3e bec9 243e 42cb 60be 2f2f 3bbe
00000150: 72fd 7dbe 23d5 3e3b a78f 1a3e 4824 b43e
00000160: 9a8a b03d 886f 963c 432f 5e3e 0713 c0bd
00000170: 8361 2dbd 15c1 b73a f7e8 3ebe 70e0 ef3d
00000180: 09bd 08bd 2eac 823d 0990 983e c771 53bc
00000190: 238c a4bd 0571 16be 8c04 163e 94ac 8abe
000001a0: 7eca f6bd ccee 063c 5162 7cbc 4f2a 17be
000001b0: 19ee 843d d8b3 c93e 0bc5 323e 9dbd efbd
000001c0: 596b 993e 8a6d 51bc fb74 bfbc 7268 1e3e
000001d0: 4369 1c3e a2ef 2fbe f812 afbc 2494 a2be
000001e0: 0c9e 653c 905f fd3d 445a 9ebe abd3 433d
000001f0: faaa 4bbd 5756 58bd 6f25 b93d 0497 29be
00000200: dfdf dc3d b9e7 4e3e e546 85be c689 53bd
00000210: 351d 69bc 56f0 11be 20cf 41bc 0fda 333e
00000220: e418 08be ebb1 a13d 29f6 1fbe 93dd 443e
00000230: 2644 183d 7b90 283e b180 4abe e4b3 bcbd
00000240: aaaf b4be 3c2c 2d3e fa46 5dbe 0af5 9cbe
00000250: e904 243d 197a 45bd e220 953d 6716 1ebe
00000260: c368 1cbe 5ce8 db3c 76fc 783e 98a8 963c
00000270: 4c1a d63e bd8b ecbc e387 d63c 7786 daba
00000280: 8e76 20be a1a2 3fbd ac02 6d3e 33a0 8d3e
00000290: e6d4 30be 1443 f33d cc03 1abc 6bc0 853e
000002a0: 33ea 243d c3c6 39be 5bc3 93bd 8058 5f3e
000002b0: e9a9 e3bc d5b5 51be c69f 253e d891 873e
000002c0: 2462 67bd 1cfe f0bd dfa0 fcbd 28d3 a5be
000002d0: c48d 843e fc27 203e 3179 a4bc 2ace bc3d
000002e0: 0d05 7cbe 5562 2e3e f53f 8c3e 65cf 94bd
000002f0: d6b7 07bd 7d4a 513d c4b4 a73e cb97 ec3d
00000300: 9288 64be bc8c 6f3c b3c3 943e fc9b 1bbe
00000310: d127 1dbe 657d ac3d 46a6 81bd 8964 61be
00000320: 052b 9cbd 32ee 2d3e c725 8abe 4b6c 383e
00000330: 6ed7 cebc 46e5 3fbd e5f7 643e 8199 7d3e
00000340: ca0f 0f3e acca 063e e9fb a33e 7b8d b3bd
00000350: c3f2 273e 7bdf 4a3e c7af 1bbc cbb4 e7bd
00000360: e421 30be 3f28 3fbe ec3b 8e3c 48a2 a7bd
00000370: c6f7 953d f9e2 1c3d 8d51 1ebe 8b60 233c
00000380: 5561 96bd 3306 273e 2d47 5d3e 6338 823e
00000390: 8e3c dcbd 4fe8 b9bd c58e 52be fc8b 2a3e
000003a0: fcef 4e3e e0fc 48be 9077 e2bd 4f49 94bd
000003b0: 831d 55be cd41 04be 10e7 a13a dda9 5cbe
000003c0: 082f 453e 82c1 b23d 36a8 8c3d ffb4 cc3d
000003d0: 9270 15be 4e26 24bc 5c1c 14be ae6d 5e3d
000003e0: 0c99 0fbe 5f7a 023e 2157 f53d c06f 6ebd
000003f0: 2d6d 993e cc40 a83d fc92 813c a1bb 6fbe

bias f4 [400]
-0.025643079 -0.09700684 -0.19119692 -0.32269776 -0.09894314 -0.19599317 0.031020526 -0.24141033
-0.12137669 -0.26095554 0.003336146 -0.27131438 -0.26804107 -0.108079314 0.029502224 -0.0015320063
0.0026240326 -0.09705835 0.07716948 -0.14601432 -0.22422466 -0.31323048 -0.120226786 -0.20376861
-0.24502993 -0.38418812 -0.21646678 -0.35671845 -0.029981991 -0.21768679 -0.11808181 -0.36561522
-0.15821123 -0.1478611 -0.14543925 -0.0333044 -0.34426698 -0.023791384 -0.19107871 -0.12014916
0.02481663 -0.07871427 -0.11484144 -0.055845574 -0.20988318 -0.02295692 -0.18913181 -0.17402427
-0.22867237 -0.33152008 0.026395988 0.14704187 0.06375712 0.012777651 -0.1574682 -0.22394522
-0.28072786 -0.32589662 -0.07413319 -0.29818302 -0.22135037 -0.402032 -0.18081011 -0.04464749
-0.16569693 0.055167083 -0.09205689 -0.2565774 -0.04310919 -0.1927973 0.3023455 -0.28743038
-0.091235176 -0.2236341 -0.14567593 -0.22084008 0.060551867 0.23948415 -0.27981502 -0.2116141
-0.24099386 -0.02858932 -0.25118265 -0.065537766 -0.121264055 -0.23998083 -0.07374684 -0.25843325
-0.13055898 0.10249818 -0.052290928 -0.16631311 -0.12403059 -0.2626078 -0.22804114 0.020203432
-0.110988 -0.08124567 -0.36199695 0.1957631 -0.009176995 -0.17956313 0.17496225 0.08095584
-0.21632758 -0.069091 -0.2216838 -0.07421913 -0.117786005 -0.22190861 -0.10399632 0.04222327
-0.007718151 0.09328096 -0.27426594 -0.061599053 -0.35161063 0.034478586 -0.053149134 -0.28974718
-0.061082922 0.013413208 -0.13116868 -0.12335443 -0.047289766 -0.0539666 0.11824955 -0.25507835
-0.2769767 -0.1832408 0.012726169 -0.24096216 -0.16429262 -0.15316857 -0.24216044 -0.19546053
0.03177038 -0.25673652 -0.050488066 -0.28853145 0.10471868 -0.17715916 -0.28501022 -0.09940505
-0.03501553 -0.20594785 -0.048939165 -0.064031154 -0.21762335 -0.078696825 -0.092339 -0.263337
-0.11643547 -0.20580944 -0.17647049 -0.29418623 -0.11864793 -0.045524575 0.09429031 -0.20470467
0.06829111 -0.22103287 -0.13367458 0.01152285 0.112213984 -0.037472714 0.15817295 -0.07084894
-0.016060552 -0.31304917 -0.09646875 -0.077728815 0.15139094 -0.10763793 -0.08957918 0.08147563
-0.26085663 -0.24985386 -0.31151956 -0.068137065 0.29207113 -0.091257 -0.24111634 -0.010061257
-0.15969136 -0.07988154 0.0074256007 0.08654024 -0.24379528 -0.25584874 -0.09926449 0.14964357
-0.376306 0.2817091 -0.052775633 -0.1451286 -0.15232551 -0.21293767 -0.12735765 -0.26887095
0.019156324 0.10609541 -0.06222337 -0.07956119 0.16366972 -0.20593672 -0.03541854 -0.13628042
-0.28937477 -0.28926638 -0.1335677 -0.2623992 -0.25839612 -0.1113201 -0.090865836 -0.25427675
-0.0026557245 -0.08488768 0.029302454 -0.19339447 -0.17441082 -0.064918205 -0.28786567 -0.15736087
-0.261498 0.07602171 -0.17348546 -0.1575292 0.11835793 -0.25215927 -0.2381744 -0.16433975
-0.33518377 -0.11779214 -0.105373375 0.042014733 0.0047828467 -0.20028259 -0.011867351 -0.038903635
-0.2182357 -0.22869496 -0.16537035 -0.06698184 -0.15339775 -0.18447094 -0.09342411 -0.18982412
-0.13467704 -0.12702936 -0.18096888 -0.10668821 0.36094436 -0.117141575 0.14088638 0.08990118
00000000: 6f11 d2bc 86ab c6bd 20c9 43be a438 a5be
00000010: b3a2 cabd 6fb2 48be c21e fe3c 4534 77be
00000020: 5894 f8bd f79b 85be 3ea3 5a3b b8e9 8abe
00000030: ae3c 89be b058 ddbd a6ae f13c 9acd c8ba
00000040: f6f7 2b3b 87c6 c6bd 080b 9e3d c784 15be
00000050: 269b 65be bf5f a0be 7639 f6bd b8a8 50be
00000060: 20e9 7abe 4eb4 c4be 78a9 5dbe cda3 b6be
00000070: cb9c f5bc 49e9 5ebe e0d4 f1bd eb31 bbbe
00000080: 2002 22be e668 17be 07ee 14be 326a 08bd
00000090: c343 b0be 26e6 c2bc 23aa 43be c310 f6bd
000000a0: 3f4c cb3c f234 a1bd fd31 ebbd 54be 64bd
000000b0: 9eeb 56be 2710 bcbc c5ab 41be 6b33 32be
000000c0: 1729 6abe 00bd a9be 663c d83c 2592 163e
000000d0: 1893 823d 5a59 513c 583f 21be e551 65be
000000e0: 90bb 8fbe ecdb a6be 24d3 97bd 72ab 98be
000000f0: aca9 62be 23d7 cdbe 4926 39be 49e0 36bd
00000100: 75ac 29be e1f6 613d 5388 bcbd 1d5e 83be
00000110: 4393 30bd a86c 45be 08cd 9a3e 132a 93be
00000120: 82d9 babd 5600 65be 122c 15be e723 62be
00000130: 3c05 783d 553b 753e ea43 8fbe 5eb1 58be
00000140: 18c7 76be 2634 eabc 039b 80be aa38 86bd
00000150: 4a59 f8bd 89bd 75be 9508 97bd 5d51 84be
00000160: 41b1 05be 91ea d13d 032f 56bd fc4d 2abe
00000170: c003 febd 8874 86be 9e83 69be ab81 a53c
00000180: ad4d e3bd 2164 a6bd aa57 b9be 1f76 483e
00000190: 1b5b 16bc 66df 37be 4e29 333e 2dcc a53d
000001a0: fa84 5dbe 957f 8dbd 1401 63be 3300 98bd
000001b0: ca39 f1bd 033c 63be 06fc d4bd 4ff2 2c3d
000001c0: 8be8 fcbb 170a bf3d 966c 8cbe 4a4f 7cbd
000001d0: 4f06 b4be 6b39 0d3d e8b2 59bd be59 94be
000001e0: 1632 7abd 12c3 5b3c 1551 06be 3fa1 fcbd
000001f0: eab2 41bd 150c 5dbd d22c f23d a199 82be
00000200: e4cf 8dbe 7aa3 3bbe 6c81 503c c9be 76be
00000210: 533c 28be 39d8 1cbe e8f8 77be ce26 48be
00000220: a821 023d f872 83be 93cc 4ebd 65ba 93be
00000230: bf76 d63d 3669 35be dcec 91be e094 cbbd
00000240: 726c 0fbd fee3 52be 6f74 48bd c422 83bd
00000250: a8d8 5ebe cd2b a1bd 3b1c bdbd 1bd4 86be
00000260: b875 eebd b6bf 52be aeb4 34be 949f 96be
00000270: b0fd f2bd fa77 3abd 471b c13d 1a9e 51be
00000280: 36dc 8b3d 7156 62be fde1 08be 56ca 3c3c
00000290: 72d0 e53d fd7c 19bd 17f8 213e 4019 91bd
000002a0: 6b91 83bc fb47 a0be 6891 c5bd 4930 9fbd
000002b0: 3a06 1b3e 4671 dcbd 4a75 b7bd b2dc a63d
000002c0: 008f 85be b1d9 7fbe 7e7f 9fbe 728b 8bbd
000002d0: 598a 953e f3e4 babd 34e7 76be f8d7 24bc
000002e0: 2286 23be ef98 a3bd 7452 f33b 023c b13d
000002f0: 78a5 79be 9bfe 82be 2e4b cbbd 2a3c 193e
00000300: 2eab c0be 2d3c 903e 432b 58bd 979c 14be
00000310: 38fb 1bbe 550c 5abe 0b6a 02be 74a9 89be
00000320: b9ed 9c3c 8d48 d93d efdd 7ebd faf0 a2bd
00000330: 0999 273e 13e1 52be 0813 11bd 188d 0bbe
00000340: ee28 94be b91a 94be f9c5 08be 3059 86be
00000350: 7f4c 84be cbfb e3bd de17 babd 9030 82be
00000360: aa0b 2ebb 98d9 adbd b30b f03c 3309 46be
00000370: c098 32be d6f3 84bd 2163 93be 3523 21be
00000380: 11e3 85be 45b1 9b3d 2ca6 31be 564f 21be
00000390: a465 f23d 051b 81be fde3 73be ae48 28be
000003a0: 359d abbe 013d f1bd ffcd d7bd a417 2c3d
000003b0: 6db9 9c3b e116 4dbe 476f 42bc 6b59 1fbd
000003c0: 2e79 5fbe 032f 6abe d856 29be c62d 89bd
000003d0: 4d14 1dbe f3e5 3cbe 2455 bfbd 4161 42be
000003e0: c7e8 09be fc13 02be e84f 39be 597f dabd
000003f0: b3cd b83e ece7 efbd 8544 103e 1c1e b83d

weight f4 [100, 400]
0.0021382952 0.072464146 -0.027131885 -0.11928255 -0.014194646 -0.017955055 -0.12124628 0.022235077
0.03116645 -0.1127702 -0.057659984 -0.089523196 0.010896076 -0.03282121 -0.074899584 -0.05583709
-0.0100017255 0.0025334628 -0.10669665 0.061240017 -0.027297715 -0.07416877 -0.058638427 -0.089540735
-0.043816134 0.05683882 -0.01398278 -0.027734414 0.082813874 -0.040517613 -0.07031125 -0.0579141
0.0032615857 -0.04343405 -0.053892862 0.045792934 0.035614233 -0.01701731 -0.05728697 -0.10111111
0.036789063 -0.035819992 -0.022059044 -0.10029679 -0.006484322 -0.03230117 -0.07293997 0.03997799
-0.024233581 -0.0692307 0.025450502 0.032791734 0.02058914 0.018446751 -0.036494095 -0.028349493
-0.054595415 -0.03154162 -0.059327323 -0.11699125 -0.04607883 -0.05527115 -0.08879435 -0.05448302
-0.06969059 -0.036160577 0.031939458 0.054412793 0.01914224 -0.06272878 0.094913915 -0.034814946
-0.058923945 -0.047257304 -0.035870414 0.019120244 -0.07063322 0.0064159553 -0.060990233 -0.013886124
-0.062005043 0.031393085 -0.101965554 -0.09715096 -0.065825455 -0.026842838 0.073623165 -0.05091217
-0.046067506 -0.0040354724 -0.06948056 -0.032959674 -0.069151126 -0.018811272 -0.018090483 0.02770743
-0.0102745425 -0.06260775 -0.05308046 0.108385615 -0.004883143 -0.06916244 -0.07604318 -0.011786436
0.003325021 -0.013199397 -0.09124487 0.0057763807 -0.08320223 -0.022069057 -0.052316505 -0.060818557
-0.033400595 0.002354744 0.00014852107 -0.020914294 -0.051498033 0.092164695 -0.11831837 -0.07123943
-0.1045873 0.0055288677 -0.12566534 -0.05366006 -0.035130512 -0.08484405 0.07031548 -0.08218956
-0.1126679 -0.093984306 0.08298436 0.07807413 0.016995937 -0.11641722 -0.04401451 -0.04592366
-0.068344854 -0.089202754 -0.017734671 -0.12137477 0.032762457 0.044964064 -0.079094745 -0.0097095985
-0.017434936 -0.07509251 -0.04482873 -0.007221859 -0.033507135 -0.10125375 -0.018463321 0.009110606
-0.0488754 -0.029399004 0.02673372 0.01551835 0.045956265 -0.048059884 -0.020674074 0.029242283
-0.07154345 -0.03577823 -0.049702812 0.007829681 -0.061877906 -0.07979836 0.024884583 0.07969016
-0.09273005 0.022004604 0.0042537157 0.0031206962 -0.0028569158 0.01227722 -0.060739122 -0.012902343
-0.07688534 -0.017416947 -0.043076925 -0.03236317 0.030737784 0.022530057 -0.009187615 -0.05878346
-0.062487993 -0.081355445 0.023341745 -0.04752001 -0.090084195 -0.1389377 -0.09818093 -0.037817385
-0.023078611 -0.00078123267 -0.01549932 -0.050158013 -0.0117539475 -0.00021165686 0.0076573053 -0.032530285
-0.03521331 -0.05092772 0.07270623 -0.08623968 0.048162688 -0.017954618 0.01177568 -0.016105928
0.018742451 -0.08773288 -0.09771993 -0.09172777 0.0046644486 0.036246225 -0.10037674 -0.07220993
-0.096178874 -0.059007917 -0.03436839 -0.04446692 0.05256186 -0.03835444 -0.08040628 -0.055993546
-0.11806181 -0.04992338 0.010511602 -0.06875773 0.038443986 -0.067212574 -0.05279839 0.022682643
-0.031688083 -0.019327816 0.0061457288 0.013680967 0.007785975 -0.03235258 -0.016069792 -0.018649235
-0.03848039 -0.005943564 -0.07323317 -0.04768607 -0.01650456 0.0012893984 -0.06742297 -0.06868797
-0.06840083 -0.11112996 0.00072133576 -0.054944787 -0.020593708 -0.1209605 -0.037716888 0.04364008
00000000: a422 0c3b 1568 943d b043 debc 694a f4bd
00000010: a990 68bc 7b16 93bc f84f f8bd 5626 b63c
00000020: c850 ff3c 10f4 e6bd e02c 6cbd f057 b7bd
00000030: 7585 323c 886f 06bd f464 99bd 6fb5 64bd
00000040: 47de 23bc 7408 263b c683 dabd d0d6 7a3d
00000050: 759f dfbc cce5 97bd d92e 70bd 2261 b7bd
00000060: 8c78 33bd d3cf 683d 0818 65bc 4833 e3bc
00000070: 529a a93d ccf5 25bd 58ff 8fbd 5637 6dbd
00000080: 54c0 553b e7e7 31bd c3be 5cbd 5f91 3b3d
00000090: 3be0 113d e367 8bbc bea5 6abd 5713 cfbd
000000a0: 21b0 163d fcb7 12bd 2bb5 b4bc 6768 cdbd
000000b0: 6f7a d4bb 3b4e 04bd 8d61 95bd f6bf 233d
000000c0: 8185 c6bc d3c8 8dbd 927d d03c a050 063d
000000d0: 8eaa a83c a41d 973c d57a 15bd 323d e8bc
000000e0: 719f 5fbd c931 01bd 3501 73bd 1c99 efbd
000000f0: 28bd 3cbd 0064 62bd d0d9 b5bd 9629 5fbd
00000100: f1b9 8ebd 1d1d 14bd f3d2 023d f3df 5e3d
00000110: 30d0 9c3c f277 80bd 3a62 c23d 1e9a 0ebd
00000120: 3c5a 71bd e090 41bd dbec 12bd 0fa2 9c3c
00000130: 26a8 90bd ef3c d23b e5d0 79bd a082 63bc
00000140: 00f9 7dbd 0996 003d 51d3 d0bd 15f7 c6bd
00000150: 7fcf 86bd 83e5 dbbc bec7 963d 4889 50bd
00000160: 48b1 3cbd ff3b 84bb d34b 8ebd b900 07bd
00000170: 1b9f 8dbd 191a 9abc 7e32 94bc b1fa e23c
00000180: 8e56 28bc 7e38 80bd e56a 59bd 47f9 dd3d
00000190: c602 a0bb 0aa5 8dbd 87bc 9bbd e51b 41bc
000001a0: 98e8 593b 4942 58bc 97de babd cb47 bd3b
000001b0: ee65 aabd 2bca b4bc d549 56bd e11c 79bd
000001c0: 10cf 08bd 0c52 1a3b 52bc 1b39 7454 abbc
000001d0: 9aef 52bd d8c0 bc3d e750 f2bd fae5 91bd
000001e0: de31 d6bd 812b b53b 6aae 00be a7ca 5bbd
000001f0: 03e5 0fbd b8c2 adbd 9001 903d 0053 a8bd
00000200: 6ebe e6bd d87a c0bd b4f3 a93d 54e5 9f3d
00000210: 103b 8b3c 276c eebd 8f48 34bd 731a 3cbd
00000220: 63f8 8bbd efaf b6bd 4d48 91bc 5693 f8bd
00000230: ed31 063d 3d2c 383d 6dfc a1bd 0215 1fbc
00000240: b6d3 8ebc 1aca 99bd 559e 37bd 58a5 ecbb
00000250: c73e 09bd 205e cfbd 6440 97bc a744 153c
00000260: 9231 48bd 2ed6 f0bc ad00 db3c ad40 7e3c
00000270: a33c 3c3d 71da 44bd ad5c a9bc 838d ef3c
00000280: 5f85 92bd 318c 12bd 2d95 4bbd 1048 003c
00000290: b073 7dbd 536d a3bd c1da cb3c 9834 a33d
000002a0: 41e9 bdbd 0043 b43c c162 8b3b 9884 4c3b
000002b0: 183b 3bbb 6526 493c 96c9 78bd 5964 53bc
000002c0: 1076 9dbd fcad 8ebc 6e71 30bd 3e8f 04bd
000002d0: cecd fb3c f490 b83c a687 16bc edc6 70bd
000002e0: 69f3 7fbd af9d a6bd 3037 bf3c 58a4 42bd
000002f0: 107e b8bd af45 0ebe 1513 c9bd 67e6 1abd
00000300: 5b0f bdbc a3cb 4cba dcf0 7dbc 7d72 4dbd
00000310: a193 40bc 35f0 5db9 22ea fa3b 7a3e 05bd
00000320: d53b 10bd 9699 50bd 01e7 943d 6e9e b0bd
00000330: 3d46 453d 9015 93bc c8ee 403c 94f0 83bc
00000340: c589 993c 4cad b3bd 6321 c8bd c5db bbbd
00000350: 3bd8 983b ec76 143d 5292 cdbd cde2 93bd
00000360: 6ef9 c4bd 49b2 71bd dec5 0cbd f222 36bd
00000370: 1b4b 573d 8c19 1dbd 0cac a4bd 7d59 65bd
00000380: 64ca f1bd 757c 4cbd db38 2c3c dad0 8cbd
00000390: 7177 1d3d bfa6 89bd 2043 58bd f3d0 b93c
000003a0: 5dcb 01bd 5e55 9ebc 1c62 c93b 2226 603c
000003b0: 7e21 ff3b 2484 04bd cca4 83bc 48c6 98bc
000003c0: 9d9d 1dbd 3bc2 c2bb 46fb 95bd 7852 43bd
000003d0: 9234 87bc 0801 a93a 0e15 8abd 47ac 8cbd
000003e0: bc15 8cbd 1b98 e3bd 0618 3d3a c90d 61bd
000003f0: 23b4 a8bc 23ba f7bd 067d 1abd f1bf 323d

bias f4 [100]
0.014951454 -0.11280374 0.038026452 -0.048201 0.10689124 -0.08666306 -0.027643103 0.051443007
-0.062882625 -0.072718665 -0.027682897 -0.002768682 -0.009273173 -0.039451875 0.003727343 0.4354583
-0.08749629 -0.09166705 -0.04475236 -0.09169709 0.020826481 -0.04019604 -0.012539435 -0.0040552607
-0.01791587 0.11751026 -0.12813103 -0.07342718 0.059933912 -0.015015049 -0.0047680116 0.24214427
-0.00831009 -0.108785056 -0.071158685 0.009131419 -0.075943656 -0.03121159 -0.11166093 -0.019741548
-0.040178113 0.058547333 -0.063261546 0.12560146 -0.043518793 -0.10008696 -0.034789342 -0.05006816
-0.035549656 -0.093687415 -0.04527082 -0.01953763 -0.10850602 0.04789769 -0.05122247 -0.11509249
-0.13296063 -0.07018469 -0.025561498 -0.03194531 0.024883643 -0.08157404 -0.046145365 -0.001142859
-0.06883852 -0.08705151 -0.060986646 0.009933617 -0.119677685 -0.10546955 0.03742173 -0.019121893
0.10913933 0.14120147 -0.078911185 -0.15981476 -0.06684169 -0.12036002 -0.08843911 0.053090665
-0.048180364 0.060069956 0.04042624 -0.043359544 -0.02821182 -0.11493728 -0.102876864 0.09592031
-0.031248996 -0.12550284 -0.1055626 -0.040614698 -0.028549073 0.011642452 -0.09940897 -0.11413781
-0.09916927 -0.082295515 0.07227982 -0.0029879485
00000000: f1f6 743c a605 e7bd a0c1 1b3d 696e 45bd
00000010: cbe9 da3d 677c b1bd ca73 e2bc e7b5 523d
00000020: 9bc8 80bd 86ed 94bd 3ec7 e2bc c772 35bb
00000030: 82ee 17bc 4a98 21bd 7046 743b 64f4 de3e
00000040: 4131 b3bd efbb bbbd 404e 37bd afcb bbbd
00000050: 4c9c aa3c 9aa4 24bd 3472 4dbc fee1 84bb
00000060: 4dc4 92bc 38a9 f03d c834 03be fd60 96bd
00000070: 437d 753d ae01 76bc fb3c 9cbb abf4 773e
00000080: 0b27 08bc b3ca debd a5bb 91bd f29b 153c
00000090: 5988 9bbd 73af ffbc 7cae e4bd 07b9 a1bc
000000a0: ce91 24bd 54cf 6f3d 458f 81bd ab9d 003e
000000b0: c340 32bd 64fa ccbd 457f 0ebd 4514 4dbd
000000c0: 849c 11bd 30df bfbd e56d 39bd 610d a0bc
000000d0: 6738 debd 5e30 443d a7ce 51bd 9db5 ebbd
000000e0: d526 08be febc 8fbd 5966 d1bc 16d9 02bd
000000f0: c8d8 cb3c 4a10 a7bd ec02 3dbd fccb 95ba
00000100: 36fb 8cbd 1048 b2bd 22cd 79bd 9cc0 223c
00000110: 9319 f5bd 6b00 d8bd 8747 193d 84a5 9cbc
00000120: 7184 df3d 1e97 103e 309c a1bd 7ba6 23be
00000130: 4ce4 88bd 507f f6bd 901f b5bd 9975 593d
00000140: c658 45bd ea0b 763d fc95 253d c799 31bd
00000150: 7a1c e7bc 3d64 ebbd 1bb1 d2bd de71 c43d
00000160: e5fd ffbc d183 00be 3431 d8bd 995b 26bd
00000170: bfdf e9bc fcbf 3e3c ee96 cbbd 16c1 e9bd
00000180: 4219 cbbd 8d8a a8bd 7107 943d 75d1 43bb

weight f4 [1, 100]
-0.04492753 -0.015832838 -0.05212106 0.04634837 -0.022210129 -0.009633858 0.02847103 -0.10190555
0.028452558 -0.0728297 -0.017706424 -0.01495883 -0.1878247 -0.12145759 -0.0239389 -0.08211208
-0.09928527 0.017297534 -0.039148405 -0.051556278 -0.22916557 -0.04714529 0.012654076 -0.1837461
-0.034630664 -0.22328696 -0.07904575 -0.027374934 -0.0750962 -0.012801816 -0.027654797 -0.061645906
0.0044702 0.00836231 -0.0006896102 -0.2443488 -0.024147404 -0.03957156 -0.05279492 -0.038426213
0.06534286 -0.018513687 -0.02978908 -0.34808865 -0.21895914 0.024355566 0.03891267 -0.03984722
-0.0008926559 -0.05005638 0.012646979 -0.22138987 0.005344023 0.0140636545 -0.06826391 0.0103972275
-0.062168162 0.016305031 -0.22330658 0.041797485 -0.26532614 0.043297715 0.013365751 -0.17692295
-0.015513805 -0.08227161 0.024387345 -0.021780677 -0.006264903 0.03956039 -0.015401509 -0.00027305892
-0.35645077 -0.15620251 -0.0053842026 0.008414648 0.04063877 -0.0334216 -0.029949555 -0.34665668
0.039427396 -0.14949787 -0.012949433 0.021873845 -0.029022213 -0.03193156 0.027055377 -0.16619101
-0.3000073 -0.010743342 -0.038947545 -0.032199334 -0.09529285 -0.06893043 -0.059588574 -0.04659663
-0.011536567 -0.03600469 -0.30501077 -0.06857174
00000000: ee05 38bd deb3 81bc e57c 55bd cad7 3d3d
00000010: 04f2 b5bc 54d7 1dbc 143c e93c dbb3 d0bd
00000020: 5715 e93c bd27 95bd 100d 91bc e115 75bc
00000030: 1e55 40be c2be f8bd 831b c4bc 612a a8bd
00000040: 1356 cbbd 8fb3 8d3c 145a 20bd ad2c 53bd
00000050: 61aa 6abe 6b1b 41bd 0b53 4f3c f027 3cbe
00000060: e2d8 0dbd 56a5 64be bde2 a1bd 6641 e0bc
00000070: 09cc 99bd b5be 51bc 508c e2bc 6b80 7cbd
00000080: c17a 923b 1202 093c f5c6 34ba 9236 7abe
00000090: c7d0 c5bc ca15 22bd 7c3f 58bd ce64 1dbd
000000a0: 7ad2 853d 04aa 97bc 3b08 f4bc ad38 b2be
000000b0: d336 60be 5385 c73c e462 1f3d d736 23bd
000000c0: 2001 6aba eb07 4dbd 4635 4f3c 07b4 62be
000000d0: ea1c af3b 3e6b 663c f3cd 8bbd 2259 2a3c
000000e0: 0ba4 7ebd 2192 853c 7baa 64be d733 2b3d
000000f0: d4d8 87be f258 313d 06fc 5a3c 4a2b 35be
00000100: 9d2d 7ebc 057e a8bd f8c7 c73c 646d b2bc
00000110: d149 cdbb 130a 223d 9c56 7cbc 5929 8fb9
00000120: b780 b6be 8df3 1fbe f76d b0bb 97dd 093c
00000130: d774 263d 16e5 08bd c558 f5bc fc7c b1be
00000140: 9f7e 213d f815 19be dc29 54bc c730 b33c
00000150: febf edbc abca 02bd 3da3 dd3c fa2d 2abe
00000160: 8f9a 99be d804 30bc 7687 1fbd 73e3 03bd
00000170: e628 c3bd 662b 8dbd 2613 74bd 1cdc 3ebd
00000180: de03 3dbc a779 13bd 5f2a 9cbe 576f 8cbd
