Gibbs_MINE/pw_res/model_lk_b=10_s=0.5_p=16.pth (torch, 190615 bytes, 5 tensors)

weight f4 [400, 16]
000000 c7 0e 8e bc cf a1 69 3e b1 e9 ad 3e 17 ee 5e be
       -0.01734103 0.22815631 0.33967355 -0.21770512
000010 9a 27 52 3e 16 8c 0b 3e 5b 50 39 bd ab bc c9 3b
       0.2052292 0.13627657 -0.04524265 0.006156524
000020 da 99 9f be 1c 7f 04 be b0 74 3b 3e da 30 e4 bd
       -0.31172067 -0.12939113 0.18306231 -0.1114213
000030 dc f2 d0 bc 56 a1 ef 3d 3d 58 23 3e 10 6c 2d be
       -0.02550643 0.11700694 0.15951629 -0.16935754
000040 b6 c8 62 3e 87 08 2f 3e b5 81 b5 bd 33 80 06 be
       0.22146878 0.17093097 -0.0886263 -0.13134842
000050 f6 71 8d 3e c5 74 84 be 21 90 b4 bd 05 4e 56 3e
       0.27626008 -0.25870338 -0.08816553 0.209282
000060 7b 3f 79 be 3b 19 16 3e ef d6 7a 3e 8f 19 60 be
       -0.24340622 0.14658062 0.24496053 -0.2188475
000070 f0 e7 95 3d 7b 2b b5 bd db 22 3c 3e 9b 20 65 3e
       0.07319629 -0.08846184 0.18372671 0.22375719
000080 23 b2 22 3e ed a8 9d 3d a4 34 45 3e 95 2a 16 be
       0.15888266 0.07698236 0.19258362 -0.14664681
000090 da 4b 7b 3d a4 91 b3 bb 6d 71 41 be 2e d3 56 be
       0.061351635 -0.005480008 -0.18890925 -0.20978996
0000a0 43 80 9c 3d 09 95 61 3d 05 70 37 bd 28 d0 77 3e
       0.076416515 0.05507377 -0.044784565 0.24200499
0000b0 d2 ba 12 be 5e c5 59 be ea f1 2f 3e 92 7a 5a be
       -0.14329079 -0.21266696 0.17182127 -0.2133582
0000c0 4e 46 6c 3c b3 52 73 3d 66 d1 a3 3e 88 a9 43 bc
       0.014421059 0.05940504 0.31995696 -0.011942275
0000d0 d7 f5 4f 3d 04 41 4c 3e b1 1e 50 3e 89 8f b7 3c
       0.05077156 0.19946676 0.20324208 0.02240731
0000e0 5e 8e 89 3e 83 59 03 be fc ed 5e be 06 bc c9 bd
       0.2686643 -0.12827115 -0.21770471 -0.09850316
0000f0 27 ea 89 3e 5f 3a 2b 3d b5 eb 0f bd 5b 32 4f bd
       0.26936457 0.041803714 -0.035136897 -0.050585132
000100 08 8c 42 3e 53 64 28 be 51 48 7c 3d 64 b6 03 be
       0.1899873 -0.1644452 0.061592404 -0.12862545
000110 1b 35 36 bd c8 41 55 be af fe 53 3e 7e 6c 5c 3d
       -0.04448424 -0.20825875 0.20702623 0.053814404
000120 70 8e 9c 3e f4 de 67 3e b7 37 40 be f8 8b fc 3d
       0.3057742 0.22643644 -0.18771254 0.123313844
000130 05 07 49 3e 8f 0a 58 be f8 f7 34 3e 4b 42 97 be
       0.19631584 -0.21097778 0.17672718 -0.29542765
000140 d6 96 aa 3e 42 44 52 3d d2 6e 4a be 16 41 04 be
       0.33318204 0.051334627 -0.19768837 -0.12915453
000150 35 73 8d be e6 1d 3d be b4 ee d3 3d c7 90 f2 3d
       -0.27626958 -0.18468437 0.103482634 0.1184402
000160 53 a0 6d 3e c9 6e 87 3e 08 45 9e 3c 85 81 c7 bd
       0.2320569 0.2645171 0.019320026 -0.09741501
000170 eb 44 73 3e 04 1b d9 bc 63 c8 24 be 48 20 21 be
       0.23756759 -0.02650214 -0.16092066 -0.1573497
000180 a0 d5 24 be 57 cc 15 3e b2 77 42 3e 5e 66 14 be
       -0.16097116 0.1462873 0.18990973 -0.14492175
000190 2a d3 9d be 44 7f 19 be 42 4d 2e 3e f7 c1 90 be
       -0.30825168 -0.14989954 0.17021659 -0.28272983
0001a0 78 a2 81 3d 8a cd 7d 3d 39 09 e9 3b 22 35 28 be
       0.063298166 0.061963595 0.007111695 -0.16426519
0001b0 72 b0 f7 3c 04 b1 a2 3e 72 90 81 3e 3c aa a3 be
       0.030235503 0.31775677 0.25305516 -0.31965816
0001c0 94 2c 68 3e 33 d7 d7 3d 73 8d 9f 3d db 47 de 3d
       0.22673255 0.10539093 0.07790651 0.10853549
0001d0 fa 43 8d 3e 40 c4 42 be 2f e3 3d bb 42 2a 2d be
       0.27590925 -0.19020176 -0.0028974523 -0.16910651
0001e0 04 bd c1 bd f4 74 20 3d 7d 73 91 be 39 d0 05 be
       -0.0945988 0.039174035 -0.28408423 -0.13067712
0001f0 d4 d1 47 3d 98 10 d4 bd b5 4b f3 bd 38 4f 39 be
       0.048784092 -0.103547275 -0.11879674 -0.18096626
000200 82 92 78 3e 17 a4 83 3d 82 0d c5 be 23 e5 eb bd
       0.24274638 0.06427782 -0.38486868 -0.11518314
000210 fb f2 90 bc 22 85 e7 bc 1d 39 f8 bd 8b 8f c8 3d
       -0.017693987 -0.028261725 -0.121202685 0.09793004
000220 0c 68 a5 bd eb c5 5c 3e eb c5 96 be 33 20 99 3e
       -0.08076486 0.21559875 -0.29447874 0.2990738
000230 f3 42 90 3d d0 69 af 3c 57 de 73 be 79 88 2b be
       0.070440196 0.02141276 -0.23815285 -0.16751279
000240 08 f9 83 be 31 d3 82 3e 4a 1c 27 be d0 fb af be
       -0.25775933 0.2555175 -0.16319385 -0.34371805
000250 74 75 bf 3d 5a 3f 39 be 33 ba be 3c 58 be 2c be
       0.09348574 -0.18090573 0.023282146 -0.16869485
000260 3c 4e 2f be 6c 50 39 3e ab 4d 84 3e 37 dd 57 3e
       -0.17119688 0.18097085 0.25840506 0.2108048
000270 2a 09 b4 3e b8 8f 9a bd 9d ca b2 3d 0a 79 c1 bc
       0.35163242 -0.075469434 0.08730052 -0.023617286
000280 4d bc 2c be 3a e8 10 3e 76 ff 71 bc ac 4e de 3d
       -0.16868706 0.14151087 -0.014770379 0.10854849
000290 10 f7 38 be 9a 49 51 3d 68 81 89 3d a2 11 a9 3d
       -0.18062997 0.051095583 0.067141354 0.08255316
0002a0 06 42 8a 3e dd ae a9 be e1 d7 2a 3e 38 52 8e 3d
       0.27003497 -0.33141223 0.16683914 0.06949276
0002b0 fd 19 0a bd ba af 2e be 31 3d 2e 3e 1f 6d 81 3e
       -0.03371619 -0.17059222 0.1701553 0.25278565
0002c0 a2 3a b5 3d 65 81 9e bd 88 8c a1 be ba 05 57 be
       0.08849074 -0.07739524 -0.3155253 -0.20998278
0002d0 11 b8 31 3e 96 e0 81 bd 64 19 bc bd 62 52 0c 3e
       0.17355372 -0.063416645 -0.091845304 0.13703302
0002e0 5b 61 95 be 9d a2 35 3e 89 76 d6 3d 9d 19 a8 bc
       -0.2917584 0.17737813 0.104718275 -0.020520026
0002f0 d7 e9 47 3d 85 d0 d8 bc 50 3b eb 3d 7b 57 1e 3e
       0.04880699 -0.026466617 0.11485922 0.15463059
000300 7a 52 90 be 72 d9 c7 3c 8d dc 58 3e d1 5f ef 3c
       -0.28187925 0.024395678 0.21177883 0.029220494
000310 31 09 25 bd 50 af 9b 3d 89 7e 69 be 34 70 ba be
       -0.04029197 0.076017976 -0.22802176 -0.3641373
000320 66 0d 52 3e 8c 3d 63 3d 8a 05 0d be 4b 0c 2b 3e
       0.20512924 0.055478618 -0.13771644 0.16703908
000330 7c 5c 3e be 82 6c 69 be d5 c1 91 3e 96 50 25 3e
       -0.18589967 -0.22795299 0.28468195 0.16144022
000340 b3 df 22 3e ac 85 f5 3d 83 97 35 3e 09 b4 22 bc
       0.15905647 0.119883865 0.17733578 -0.009930619
000350 cc af 3b 3e 34 db 41 3e 54 5a 2d bd 07 94 f3 bc
       0.1832878 0.18931276 -0.04232247 -0.02973367
000360 1f 97 00 be 13 41 26 bd c0 85 9b bd 67 dc a5 3d
       -0.12557648 -0.040589403 -0.0759387 0.08098679
000370 63 87 08 bd 74 e5 88 bc 2c a2 de bb 1d a5 93 bd
       -0.03333224 -0.016710974 -0.0067942347 -0.07209227
000380 6a 6c 71 bb d2 38 82 3e 83 e4 d7 3d 11 56 17 3e
       -0.0036838301 0.25433975 0.10541632 0.14778925
000390 aa 93 b0 3b bc a2 2e be 5c b8 47 3c df 8b 3a 3e
       0.0053886967 -0.17054266 0.012189951 0.18217419
0003a0 a0 f1 1c 3e c1 e2 94 be 15 3f 57 3c eb 01 8a 3d
       0.15326548 -0.2907925 0.0131375985 0.06738647
0003b0 f3 ac a3 be bc a2 41 be 5f 8b 40 3e ba 10 45 be
       -0.31967887 -0.18909734 0.18803166 -0.19244662
0003c0 d3 86 07 3e c0 eb 34 3e 62 12 8d 3e 71 3e 3f 3e
       0.13235025 0.17668056 0.27553087 0.18676163
0003d0 7c b3 25 3c 95 5a 1c bd 0d 0c b4 bd 60 74 8a 3e
       0.010113593 -0.038172323 -0.08791361 0.27041912
0003e0 79 1e 7d be cf bf b3 3d 08 c2 87 bd c5 1b 83 bd
       -0.24718656 0.08776819 -0.066288054 -0.06401781
0003f0 ac 88 2a 3c 26 dd ea bc fa f7 21 be 04 bf a5 be
       0.010408562 -0.028669905 -0.15817252 -0.32372296

bias f4 [400]
000000 7e b1 7e be 1c 6f 79 be f2 15 cd bd 9b f8 9e 3d
       -0.24872395 -0.24358791 -0.10013951 0.077622615
000010 ed dd 22 be 92 e2 8c be 36 fa 83 bb d1 59 c2 bd
       -0.1590497 -0.2751661 -0.00402763 -0.09489787
000020 e7 37 9d be f1 00 19 be fc 01 ba bd 42 8d 71 be
       -0.30706713 -0.14941765 -0.0908241 -0.23589042
000030 8a c4 03 be 0c 4b 09 3f d4 a0 b6 be 11 02 a9 be
       -0.12867942 0.5363014 -0.35669577 -0.3300939
000040 12 e6 80 be 41 22 30 be 72 57 9d be 67 62 ca 3d
       -0.2517553 -0.17200567 -0.30730778 0.0988205
000050 46 d7 54 bb 0b f1 2a be 64 4b 8a 3e 80 1a 26 be
       -0.0032476946 -0.16693513 0.27010643 -0.16221046
000060 35 7c 82 be a1 8b ae 3d 10 b6 77 be a0 44 58 be
       -0.25485387 0.08522726 -0.24190545 -0.21119928
000070 77 1a 1d 3c d4 78 8d be 64 61 67 be 35 42 18 3d
       0.009588829 -0.27631247 -0.22595745 0.037172515
000080 ee 3a a6 bd f5 2d 08 be a7 34 ec 3d da 0c 16 3e
       -0.08116709 -0.13298781 0.1153348 0.1465334
000090 91 23 fc bd 5f 84 1e be 6a 5e e8 bd 30 43 57 bd
       -0.12311471 -0.15480183 -0.11346133 -0.05255431
0000a0 ca 75 06 bd 4d bb cf be b8 77 9a be 58 73 1c 3e
       -0.032827176 -0.40572587 -0.30169463 0.15278375
0000b0 0c 24 20 be f6 b1 49 3d 58 3d 5c be 4d ae 5d be
       -0.15638751 0.049241982 -0.21507776 -0.21648522
0000c0 be a2 c1 bd 65 43 ca bd 74 fc 8e be 16 1a a8 3d
       -0.09454869 -0.09876136 -0.2792698 0.082081005
0000d0 6d 0d f1 3e 3b 33 e1 bc e8 0a bf bd da c7 75 be
       0.47080556 -0.027490249 -0.09328252 -0.24002019
0000e0 87 cf b7 bd b8 94 29 be 57 e5 53 3d 69 95 72 bd
       -0.089751296 -0.16560638 0.051732387 -0.05922452
0000f0 9d 54 0c be 8c cd 46 3e 4b 46 af 3d 77 1c db bd
       -0.13704152 0.19414347 0.08558329 -0.106987886
000100 ac e7 88 be 64 a9 70 3b 2b c8 52 3e 00 e4 59 3c
       -0.26739252 0.0036722058 0.2058417 0.013298988
000110 a0 45 27 be 56 da 6a 3d e2 91 6e be 6f 87 a8 be
       -0.16335154 0.057337128 -0.23297837 -0.32915828
000120 16 dc 14 bd 71 cd f1 3e 45 a4 1e be f3 8a 0b be
       -0.036342703 0.47227052 -0.15492351 -0.13627224
000130 e9 9a 7e be e7 14 45 be db f1 a6 be 0b fd 80 3d
       -0.24863781 -0.19246255 -0.32606396 0.06298264
000140 41 cf 4e be d0 17 a2 be 27 6b 20 bd fc 3f 62 bc
       -0.20196249 -0.31658792 -0.03916469 -0.0138092
000150 c8 c8 88 be e7 56 27 3e 07 0c 60 bc 06 a0 3d be
       -0.26715684 0.16341744 -0.013674743 -0.18518075
000160 54 80 8f bd 80 d1 1a be 8f 6f ae 3d cc 65 d0 bc
       -0.070068985 -0.1511898 0.08517372 -0.025439166
000170 40 85 31 be 1f 6a 30 be c3 e9 93 bc 0e 1f 43 3e
       -0.17335987 -0.17227982 -0.018055802 0.19054815
000180 68 6a 0c be c0 38 4f bb ad 3b 0f 3e 01 fd 22 3e
       -0.13712466 -0.003161952 0.13987608 0.15916826
000190 0d 14 29 3e 9f 7b 41 bd 1b 76 93 be 9d e3 7d bb
       0.16511555 -0.047237035 -0.28801045 -0.0038740404
0001a0 2d e6 36 be bc c5 1a be 01 ab 06 3e bb d1 19 3d
       -0.17861243 -0.15114492 0.1315117 0.03755353
0001b0 ba 7f 00 3e 88 87 27 bd 25 2a 0b 3e 15 b8 3e bd
       0.12548724 -0.040900737 0.13590296 -0.046562273
0001c0 e2 6c 9d be 30 7d d1 3d 15 e1 dd bc 75 c6 05 bd
       -0.30747133 0.10228956 -0.027084867 -0.032659966
0001d0 61 21 30 be dd 62 d7 3d 04 38 e0 be 82 12 60 be
       -0.17200233 0.105169035 -0.43792737 -0.2188206
0001e0 fc 2f 12 3e 19 98 f1 bd 4c 10 34 3c 51 6e 99 be
       0.14276117 -0.117965885 0.010990214 -0.29966977
0001f0 e1 23 38 3d d0 82 16 be c4 dd 89 bd 63 cd 70 3e
       0.04495609 -0.14698339 -0.067317516 0.23515849
000200 22 54 69 b9 2b 98 09 bd 12 06 74 be 43 c5 59 be
       -0.00022251953 -0.033592384 -0.2383044 -0.21266656
000210 f9 f7 ce bc 00 3a 5b be 42 3b 71 be 63 cd 17 3e
       -0.025264727 -0.21408844 -0.23557761 0.14824443
000220 a8 8b 03 be ff b1 a5 be dc df 3f be d2 c5 74 bd
       -0.12846243 -0.32362363 -0.1873774 -0.05975897
000230 16 d4 83 be b6 66 81 be e1 08 e1 bd df 7d 14 bc
       -0.25747746 -0.25273675 -0.10988022 -0.009063213
000240 8a da 5d 3d 2b 3f 2a 3e 12 fb 3e be c9 ef 99 bd
       0.054163493 0.16625659 -0.18650463 -0.075164385
000250 ec 51 9b bd b4 bc 87 be 0f 23 88 be e3 d8 b0 bd
       -0.07583985 -0.26511157 -0.26589248 -0.08635118
000260 da 12 8b 3e 31 59 25 be 16 84 a7 3d 3d 8a ac 3c
       0.2716282 -0.16147305 0.0817949 0.02106201
000270 01 79 67 be d6 fe df 3a 28 5f 21 be 73 92 9c be
       -0.22604753 0.0017089497 -0.15758955 -0.30580482
000280 b6 d7 86 bc f1 96 3b be 40 11 92 bc e7 94 15 be
       -0.01646028 -0.18319298 -0.017830491 -0.14607583
000290 ce af 7d be 74 19 9a 3d d6 35 a7 3d 86 35 c8 3d
       -0.24774095 0.07524386 0.08164565 0.09775834
0002a0 16 4c 2e be a1 06 c6 bc bb 5b 58 bd 3c ec 73 3d
       -0.17021212 -0.024173083 -0.052821856 0.059551463
0002b0 fc 4c 11 be 85 13 5b be ba 13 4a be ad 38 85 be
       -0.14189523 -0.21394165 -0.19734088 -0.26019803
0002c0 bc c6 9a bc 11 50 3b be ca c3 eb bd 52 b9 7c be
       -0.018893592 -0.18292262 -0.11511953 -0.24680069
0002d0 51 c0 0b bc a1 32 0d be 44 38 be be 2e 4f a2 3c
       -0.0085297385 -0.13788845 -0.37152302 0.019813146
0002e0 55 ca 05 be 99 75 49 be 96 b8 82 be 90 c1 97 be
       -0.13065465 -0.19673766 -0.25531453 -0.29639864
0002f0 56 6d ee bd a5 fa 66 be db fa 4a 3d 7e 0d 36 be
       -0.11641948 -0.22556551 0.04955564 -0.17778584
000300 c5 af 37 be 4c 27 71 bd 46 be c8 bd 9c ef 90 be
       -0.17938145 -0.058875367 -0.09801917 -0.28307807
000310 60 6d 1c bd 88 97 e4 3d 67 74 c2 3d 2b f6 f4 bd
       -0.038190246 0.11161715 0.09494858 -0.11961015
000320 1c f5 6f 3d 8c 8b 73 3d 6c 79 6f bd 26 3d 9d bd
       0.058583364 0.059459254 -0.058465406 -0.07677679
000330 60 67 30 3e b7 ae 3a be 76 b2 d3 bd ce 02 18 bd
       0.17226934 -0.18230711 -0.10336773 -0.03711205
000340 b6 a0 81 be 91 5d 26 3e c8 94 3c be 5d 31 53 3e
       -0.25317925 0.1624663 -0.1841613 0.206243
000350 4f d0 36 3e 32 d4 af be 2d 8c ce bd 84 0d 8e 3d
       0.17852901 -0.3434158 -0.1008533 0.06936172
000360 88 fc 21 be ee 3a 9c bc 58 87 16 be 4a e2 39 be
       -0.1581899 -0.019071069 -0.14700067 -0.18152729
000370 8b 11 d1 bd 1f c8 05 be 47 73 6a 3d e3 f0 cb 3d
       -0.10208424 -0.13064621 0.057238843 0.09958055
000380 ba d7 5d be 86 0b 46 bd 70 61 58 3d c1 14 d7 3c
       -0.21664324 -0.048350833 0.0528273 0.026255013
000390 ef 6f 28 be 5f de cc 3c 4c a5 1d be b3 85 40 be
       -0.1644895 0.025008379 -0.15395087 -0.18801002
0003a0 f9 84 a8 be de e8 e5 3d 44 f9 c1 bc 3e 76 c0 bd
       -0.3291395 0.112260565 -0.02367843 -0.09397553
0003b0 d9 83 18 bb 87 ed 62 be 87 e0 d0 bd d9 16 2d be
       -0.0023271947 -0.22160922 -0.10199075 -0.16903247
0003c0 ec b5 db 3d cc 4a 9b be 3e b1 83 bd bb 9a d3 bc
       0.10728058 -0.30330503 -0.06430291 -0.025830617
0003d0 a4 f6 8f be 67 08 0c 3e a5 f4 37 3e 86 fe 3b bd
       -0.2811786 0.1367508 0.17964418 -0.04589703
0003e0 fb 89 91 be d8 8f 34 3e c2 b2 69 3e 50 d2 26 be
       -0.28425583 0.17632997 0.22822097 -0.16291165
0003f0 0d 57 84 be 8d 14 4e be 35 e4 e4 bd a4 f9 e4 3d
       -0.25847664 -0.20125027 -0.111763395 0.11180428

weight f4 [100, 400]
000000 23 a8 8e bd 92 20 16 bd fc 41 1c 3d d1 17 80 3c
       -0.06965663 -0.036652155 0.038148865 0.015636357
000010 ce 97 7e bd 10 4f 99 bd a5 b6 9c bd 6d da 48 bc
       -0.06215649 -0.07485783 -0.07652024 -0.012259108
000020 47 af 0f bd 12 13 ec bd ad cd dc bd 03 d0 94 bd
       -0.035079267 -0.11527075 -0.10781417 -0.072662376
000030 7d 40 90 bd 16 e1 05 3d 35 70 e6 bd b9 33 e6 bc
       -0.0704355 0.03268536 -0.112518705 -0.028100835
000040 dc ba 83 bd 40 97 4c bd 84 08 94 bd 50 a8 a1 bc
       -0.06432125 -0.04994893 -0.07228187 -0.019733578
000050 eb 64 68 bd c4 97 fc bc 01 c7 6c 3b 2c 51 c5 bd
       -0.056736868 -0.030834086 0.0036129358 -0.09634623
000060 65 6b a2 bd 6e f2 69 bd 2b 3d 93 bd 0e 2c a7 bd
       -0.0793064 -0.057115965 -0.07189401 -0.081627
000070 1a 73 c2 bc 5c d5 bc bd eb b4 ae bd c0 70 9f 3d
       -0.023736525 -0.092203826 -0.08530601 0.07785177
000080 26 68 7b bd 43 1c 78 bd 4d fe 8a 3a be 5d 3a bd
       -0.06137862 -0.060573827 0.0010604352 -0.045499556
000090 a0 85 3a bd 82 9f 09 3c e7 da e0 bd cc 39 72 bd
       -0.04553759 0.008399846 -0.10979252 -0.05913715
0000a0 f8 d8 84 3d 79 57 60 3d 64 75 dd bd 4a a9 71 bb
       0.06486696 0.05477092 -0.10813406 -0.0036874586
0000b0 f9 e8 00 3c dc d5 c2 3b 30 c1 fe bd 3c 35 a4 ba
       0.007868045 0.005945904 -0.12439191 -0.0012528072
0000c0 cd 43 9f bd 69 82 71 bd dc 9e aa bd 24 1c 6c 3b
       -0.07776604 -0.05896226 -0.08331081 0.0036027515
0000d0 7d b7 6f 3a 5b a0 1b 3d 43 ac 9e bd 51 97 11 be
       0.00091444683 0.037994724 -0.077477 -0.14217879
0000e0 07 f8 0c bd 8a b8 c4 bd b3 29 9a bc b0 25 78 bd
       -0.034416225 -0.096055105 -0.018818712 -0.060582817
0000f0 9d d2 15 3d b5 d6 4a bd 7c 77 8a bd 7c fc 9c 3c
       0.03657781 -0.049521167 -0.06761071 0.019163363
000100 9e 77 d9 bd 85 e5 ca bd 73 dc d0 3c c8 40 a7 bb
       -0.10618518 -0.099070586 0.025495743 -0.005104158
000110 97 dd 17 be e1 b9 26 bc d5 ee f4 bd 22 d1 9a bd
       -0.14830624 -0.010176153 -0.11959616 -0.0755942
000120 96 e9 3c bd 8c 1b cf 3d d7 d1 b0 bb 0e 43 20 bd
       -0.046121202 0.10112676 -0.0053961086 -0.03912645
000130 bf 95 83 bd 9e aa 44 bd a4 ac 27 bd c1 4e 3d 3c
       -0.06425046 -0.048014276 -0.040936127 0.011554421
000140 c1 67 26 be c1 64 38 bd 00 08 3e 3c 4e e0 91 3d
       -0.16250516 -0.04501796 0.011598587 0.07122861
000150 39 32 80 bd 66 ce 20 3c 2d 62 d5 bd 76 d2 bd bd
       -0.06259579 0.009814834 -0.10419116 -0.09268658
000160 11 d3 bd bc 8c 65 cb 3b c4 80 cb bc 2b c8 87 bd
       -0.023171933 0.0062071737 -0.024841674 -0.06629976
000170 38 8f 8d bd f2 45 41 3d e7 72 23 bc d2 4c 45 3c
       -0.069120824 0.047185846 -0.009976125 0.012042241
000180 0d 2a 33 bd fc c1 01 be 1e d5 41 bd db 23 1d 3d
       -0.043741275 -0.12671655 -0.047322385 0.038364273
000190 f9 2e a4 bc 16 90 08 bd 66 1b b6 bd 14 ae 1b bd
       -0.02004193 -0.033340536 -0.088919446 -0.03800781
0001a0 5d 92 dc bc 76 19 57 bc 90 41 e9 bc 9c 4c da bc
       -0.02692526 -0.013128629 -0.028473645 -0.026647858
0001b0 13 73 e0 3c 93 56 0e bd 0c 6b 81 3d 6d 27 e1 bc
       0.027398622 -0.034750532 0.06319246 -0.02748462
0001c0 ed e6 02 be 34 69 25 3d 18 0a 10 38 83 11 ca bb
       -0.12783404 0.040383533 3.4341676e-05 -0.0061666383
0001d0 8b 03 fb bd b2 bd a9 bc 4e dc 75 bd b6 4e 89 bd
       -0.12256535 -0.020720337 -0.060024552 -0.06704466
0001e0 3a e7 84 bd a3 4b 04 bd 4c 5c 4a 3c 4d 6d 1a bd
       -0.064894155 -0.032298695 0.012351107 -0.037701894
0001f0 78 fb 7c bd 1a 05 92 bd 45 a9 6e bd 97 74 d3 bc
       -0.061763257 -0.07129879 -0.058266897 -0.02581243
000200 bf 68 68 bd a7 a9 14 bd fd 5f 05 bd 36 43 92 bd
       -0.05674052 -0.036294606 -0.032562245 -0.07141726
000210 91 8c bb bd bf 0f b7 bd f4 b6 fe bd 85 45 87 3d
       -0.0915767 -0.0893855 -0.12437239 0.06605057
000220 00 58 4b 3d 12 ac 23 bd 1c 80 78 bd 0e 0f 07 be
       0.04964447 -0.03995902 -0.06066905 -0.13189337
000230 8a 54 01 bd c4 b9 11 bd 08 b1 8a bd 49 4d e4 ba
       -0.031574763 -0.03557755 -0.06772047 -0.0017418052
000240 9f 4b 3f bd 99 f0 78 bb aa e4 56 bd cb 32 a4 bc
       -0.046702977 -0.0037985204 -0.052464165 -0.020043751
000250 16 25 86 3b af 2d 3a bd 3f 5e 7c bd aa 5a f0 3c
       0.0040937765 -0.045453724 -0.061613318 0.029340107
000260 33 5e 4f 3d c2 70 98 3c 8d d4 a6 3c b3 20 0c be
       0.050626945 0.018608455 0.020365024 -0.13684349
000270 79 8f 3d bd b5 26 3c 3d 52 1e 3f bd e8 a5 4b bd
       -0.046279404 0.04593535 -0.046659775 -0.049718767
000280 94 14 35 bd dc 8d da bd 7d 35 50 3d 0d 5d de 3b
       -0.044209078 -0.10671589 0.05083226 0.006785995
000290 8d 31 84 3c 48 f4 58 3c 41 9c c5 3c fd 42 08 bd
       0.016136909 0.013241835 0.02412236 -0.03326701
0002a0 6d c2 6b bd c9 94 2b bd 57 93 89 bd dc bb 97 bb
       -0.057558466 -0.04188994 -0.06717556 -0.004630549
0002b0 e4 76 91 bd 1d a5 7e bd 3d af 20 3b f2 3f 6d bd
       -0.07102755 -0.062169183 0.0024518513 -0.05792231
0002c0 0c 60 07 be 7e 4a bb bd 7d 28 b2 bc 2b 65 99 bd
       -0.13220233 -0.09145068 -0.021747822 -0.074899994
0002d0 57 49 15 3d 33 92 d0 bd 7d e0 c4 bd e8 15 0f 3b
       0.036446895 -0.10184135 -0.0961313 0.0021833126
0002e0 2f 3b 92 bd 8b 7b 91 bc 27 d0 87 bd f8 7c 30 bd
       -0.071401946 -0.017759105 -0.06631499 -0.04308793
0002f0 38 23 d8 bb 26 58 a8 bd bd c8 85 bd 76 a6 02 be
       -0.0065959953 -0.08219938 -0.065324284 -0.12758812
000300 f2 f0 ad 3c 4a a3 76 3d 7d 10 b6 bd ba 7b 68 bd
       0.021233056 0.06021432 -0.08889864 -0.05675862
000310 9e 26 80 3c 22 bf 89 bd ec 7a 40 bd dc 95 cb 3b
       0.015643414 -0.06725909 -0.046992227 0.006212933
000320 93 95 29 3d 61 6f 17 bc 4a f6 15 be 06 e1 ca bd
       0.04140241 -0.009242863 -0.14644733 -0.09906201
000330 eb 3e eb bb a8 be 7b bd d9 fb 28 3d e7 bf 91 bc
       -0.0071791313 -0.06146112 0.041255806 -0.017791701
000340 2f d5 c0 bd 68 32 fd 3b 7b 20 76 bd 74 11 43 3c
       -0.094156615 0.007726956 -0.06008957 0.011906017
000350 e3 65 c9 bc 82 e5 8b 3c cc eb 87 bd a6 2a 83 bd
       -0.024584716 0.017077211 -0.066367716 -0.06404619
000360 4b d9 fc bc 92 82 2a 3d 38 02 20 be 29 ec f9 bd
       -0.030865332 0.041628428 -0.15625846 -0.12203247
000370 ca 15 4f 3d 49 3c 0f bd bd 5e b5 3c 2f 2f d1 bc
       0.05055789 -0.0349696 0.022139901 -0.025535194
000380 6c 80 bf bd 89 7a 1f bb dc 26 72 bd fc 6a f5 3c
       -0.093506664 -0.0024334511 -0.05911909 0.02995824
000390 f0 be 57 bd 06 f0 b7 3c 4d 61 be bd 74 35 33 bd
       -0.052672327 0.02245332 -0.092959024 -0.04375215
0003a0 69 ce 9a bd d9 81 01 3d 7b c5 96 bd 4d 85 ac bd
       -0.07558901 0.031617973 -0.07361885 -0.084238626
0003b0 4d d5 31 bd df d3 98 3c 61 95 95 bb e5 a6 43 bd
       -0.04341631 0.018655716 -0.0045649265 -0.047766585
0003c0 26 c1 57 bd 73 c3 de bd a6 01 8c bc 52 9a 4e 3d
       -0.052674435 -0.10877123 -0.01709063 0.05044014
0003d0 72 04 9a bd 53 98 b9 bc cb b1 1f 3d a8 74 91 bb
       -0.07520379 -0.022655642 0.038987916 -0.0044389553
0003e0 33 ee 53 bc 6c 41 9f bd 56 9f c5 bd 53 bc de bd
       -0.012935209 -0.0777615 -0.096495315 -0.10875764
0003f0 91 12 03 be b3 8a 25 be 53 6d fd bd 0a 38 ff bc
       -0.12800051 -0.16166191 -0.123743676 -0.031154651

bias f4 [100]
000000 e2 ca c4 3d 7a 76 2b 3d 33 c7 d2 3d 65 3d ba 3d
       0.09609009 0.041861035 0.102919005 0.09093741
000010 d0 e7 a2 bd 6d a1 5a bd 9e 27 97 bd c7 06 eb 3c
       -0.07954371 -0.053376604 -0.07380603 0.028689755
000020 83 17 00 be 27 a7 84 3d 57 8e ac 3c 52 f9 cb 3d
       -0.12508969 0.06477194 0.021063967 0.099596635
000030 db 9f bf bd c6 30 db 3d b9 e1 b6 bc 2f 2f 21 3d
       -0.09356662 0.10702662 -0.02232443 0.03935164
000040 f6 06 8c 3d 93 77 88 3d 0c 8b 12 be c3 68 81 bd
       0.06837265 0.06663432 -0.14310855 -0.0631881
000050 c2 f6 1d ba f7 6e 10 3e 30 41 6b bb 48 05 90 3d
       -0.00060258445 0.1410483 -0.003589701 0.07032257
000060 62 c2 98 be b8 8b bc bc fe bc d4 3c 1a cd 6e 3d
       -0.29835802 -0.023015842 0.025969025 0.05830107
000070 f2 84 87 3d 1b fb e7 bd 07 21 69 bc 22 e4 50 3f
       0.06617154 -0.113271914 -0.014229066 0.81598103
000080 3d 72 87 3d e6 37 a9 bd 0f d6 ae 3d 80 e8 92 bd
       0.06613586 -0.08262615 0.08536922 -0.07173252
000090 f5 1b 21 3e 1d 23 16 bd 18 d0 d8 3c 0c d0 0b be
       0.15733321 -0.03665458 0.026466414 -0.13653582
0000a0 22 c3 84 bd e2 2f a6 3d de d9 6c bd 69 58 86 bd
       -0.06482531 0.08114602 -0.05782496 -0.06559832
0000b0 da 01 ef bd a9 9f 9e 3d 88 4d 87 3d f0 1a ce bc
       -0.11670275 0.077452965 0.06606585 -0.02515933
0000c0 ce 63 86 bd 98 53 3c bb a6 68 43 bd 93 d1 69 3c
       -0.06562005 -0.002873635 -0.047707222 0.014271158
0000d0 9f 49 d1 ba 85 42 2f bd 7a 94 00 be 18 1c e4 3d
       -0.0015967375 -0.042788047 -0.1255664 0.11138171
0000e0 15 a0 de 3d 05 8b 87 bd 00 b9 3b 3d 81 34 85 3d
       0.10870377 -0.06618313 0.045830727 0.06504155
0000f0 a5 84 06 3d 66 9c 75 bd 02 19 3c 3e 88 79 55 bc
       0.032841343 -0.059963606 0.18368915 -0.013029464
000100 44 41 c0 3c a0 0f 31 3d b7 7d 25 3d 7d ac 6d bd
       0.023468621 0.04322779 0.040403094 -0.058025826
000110 81 34 d5 bd 2b 50 a6 bd fc 9c 4a 3b 42 c0 fc 3c
       -0.10410405 -0.081207596 0.0030916324 0.030853394
000120 aa ec 2c bd 1b ea 98 bd ad d5 fa bd 7a 08 2a 3d
       -0.042217888 -0.07466527 -0.12247787 0.04151199
000130 bc fc 9d bd dc a9 82 bd d7 7b bb bc 66 55 d9 bb
       -0.07714221 -0.06380054 -0.0228862 -0.0066324947
000140 3c 16 06 3f a1 b5 ec bd 0c 8f 10 be a0 6b 12 bd
       0.52377677 -0.115580805 -0.14117068 -0.03574717
000150 96 7a 78 3c 05 bb ef bc eb d3 de 3c 2e e9 fe 3c
       0.0151659455 -0.029263983 0.02720066 0.031117048
000160 7d 48 18 be 76 af 9e bd db 93 4f 3d 20 d1 9a 3d
       -0.14871402 -0.0774831 0.050678115 0.07559419
000170 ee 14 58 bd 14 f5 8c bd f6 a6 0f be 7e a2 10 bc
       -0.052754335 -0.068826824 -0.14028534 -0.008827804
000180 0e 72 9b 3c 1e 52 a1 3d b7 2b 84 3d f0 7a c3 3d
       0.018975284 0.07876991 0.064536504 0.09544933

weight f4 [1, 100]
000000 73 20 ab bc fc 10 22 be a9 91 2e be 19 c0 1f be
       -0.020889496 -0.15826792 -0.17047752 -0.15600623
000010 f8 fc 0d be 92 db 46 bd 5e d1 de bc e8 c8 44 be
       -0.13866031 -0.048549242 -0.027199443 -0.19217265
000020 d8 ed ab bc 14 b0 05 bd 72 79 2f be f5 a8 c5 bd
       -0.020987436 -0.032638624 -0.17136171 -0.096513666
000030 6c cc 16 bd f6 cc 05 be 8e 76 27 be 60 8f 70 ba
       -0.036816046 -0.13066468 -0.16353819 -0.0009176638
000040 5c c2 de bd 75 81 5c 3d 3d e8 8d bc 53 58 1b 3d
       -0.10876915 0.053834397 -0.017322654 0.03792603
000050 ad de 20 be 34 49 05 bc bd b5 49 bd 46 af b1 bd
       -0.15709944 -0.008135129 -0.049245585 -0.08676009
000060 3d 85 f6 bd a7 a7 0e 3a 7e f3 23 be a3 77 1b be
       -0.12037132 0.0005441852 -0.16010854 -0.15182357
000070 1a 6d 46 be 18 b8 f9 3c 4a 89 a1 bc 97 cd db be
       -0.19377556 0.03048329 -0.019718785 -0.4293029
000080 fd e4 25 bd 16 15 5b bd dd 5c 31 bc 87 dc 4a bb
       -0.040501583 -0.053486906 -0.010825363 -0.0030954198
000090 1b cf ee 3c 70 8f 16 3b 9d 21 bd bc d1 1a ba bd
       0.02915149 0.002297368 -0.023087317 -0.09087146
0000a0 e7 b7 88 bd e5 89 04 be ea 7e 34 bd e3 51 69 bc
       -0.066757016 -0.12943228 -0.044066347 -0.014240715
0000b0 b7 c8 04 bd 74 67 34 be 8f 86 3e bd 5d 48 e0 3c
       -0.03241798 -0.17617589 -0.046515044 0.027378256
0000c0 4a 51 3c bc e5 9d 63 bc 31 a5 3d bd 15 e7 18 be
       -0.01149399 -0.013892625 -0.046300117 -0.14931901
0000d0 69 30 1e bc 2b 24 1e bd a0 3e df bd 63 80 ee bd
       -0.009655097 -0.03860871 -0.10900617 -0.116455816
0000e0 4e 22 b9 bd ae 75 33 bb 8f b6 bf 3d 5d 88 1b be
       -0.09039746 -0.0027383375 0.09360992 -0.15188737
0000f0 6f 12 37 be 17 d9 0d 3d 1f fc 5f bd ba 00 a8 bc
       -0.17878126 0.03463086 -0.0546838 -0.020508159
000100 79 96 87 bc fc eb 4f be 87 fa a7 bd ee 61 37 3c
       -0.016551243 -0.20304865 -0.08202081 0.011192782
000110 17 8e 9b 3b 99 e0 c9 bb b1 ab 1d be 5b c9 f1 3c
       0.004747163 -0.0061608073 -0.15397526 0.02951496
000120 66 a4 17 3c 27 31 96 3c c6 8d 07 bc 4a ed 97 bd
       0.009255504 0.018333985 -0.0082735475 -0.07418306
000130 61 f8 45 bd 1c 44 60 bd 1f ec 0f 3c 47 8f 94 bc
       -0.048332576 -0.054752454 0.008784323 -0.018134726
000140 41 61 4f be 0a 18 32 bc 4a 6c 46 bc 03 9d 6c bd
       -0.20251943 -0.010869989 -0.012110779 -0.057766926
000150 a6 6f 60 be 8e f1 d5 bd 12 8c c0 bd 25 c0 01 be
       -0.2191759 -0.104464635 -0.09401716 -0.12670954
000160 f6 30 da 3c 19 bf f9 ba 82 fa 27 3c 8d 46 35 be
       0.026634675 -0.0019054144 0.010252597 -0.17702694
000170 77 b3 4a be 07 57 b4 3c 13 5a ba 3c 14 6e 66 be
       -0.19795023 0.022014154 0.022748029 -0.22502929
000180 01 a5 2e bd f7 b1 4f be 06 07 ff bd 03 e2 ce bd
       -0.04263783 -0.20282732 -0.124525115 -0.10101702
