Gibbs_MINE/pw_res/model_lk_b=10_s=0.5_p=21.pth (torch, 198615 bytes, 5 tensors)

weight f4 [400, 21]
0	0xbe0e13ba	-0.13874713
1	0x3e2a9849	0.16659655
2	0x3ef093f7	0.46987888
3	0xbe1c2bc3	-0.15251069
4	0xbdb84249	-0.08997018
5	0x3eb76435	0.3581864
6	0xbd5edc2e	-0.0544092
7	0xbdd3f8aa	-0.10350163
8	0xbe7949b5	-0.24344523
9	0xbe42d829	-0.19027771
10	0x3df49b78	0.11943716
11	0xbdedb0cc	-0.11605987
12	0x39dbf4d1	0.00041953337
13	0x3e792fad	0.24334593
14	0x3d9e31be	0.07724331
15	0xbdfe17b1	-0.124068625
16	0x3e498d0f	0.19682716
17	0xbda6ef7b	-0.08151146
18	0xbe8ba6f9	-0.27275828
19	0xbda852a1	-0.08218885
20	0x3e5b833b	0.21436779
21	0xbe8d76fd	-0.27629843
22	0xbc8484da	-0.01617663
23	0x3dd81904	0.10551646
24	0xbe2d4b2e	-0.1692321
25	0x3e3e7eb9	0.18603028
26	0x3e8e2d96	0.27769154
27	0xbe1c9e91	-0.15294863
28	0xbdcc7533	-0.099832915
29	0x3ce3ecc0	0.027822852
30	0x3e31390d	0.1730692
31	0x3e005243	0.1253138
32	0x3e011d98	0.12608945
33	0x3e1bd920	0.15219545
34	0x3eb66635	0.35624853
35	0xbddc8606	-0.107677504
36	0x3e2634a8	0.16231024
37	0x3c9856ac	0.018596016
38	0xbe6e62bc	-0.23279852
39	0xbe635f77	-0.22204386
40	0x3e09a536	0.13441929
41	0x3e4ae167	0.19812547
42	0xbd36d80d	-0.044639636
43	0x3db05fb6	0.086120054
44	0xbe8d5584	-0.27604306
45	0xbe8cbe3f	-0.27488896
46	0x3e860d73	0.26182136
47	0xbea5b04b	-0.32361063
48	0x3df3a54e	0.11896764
49	0xbdd1005e	-0.10205148
50	0x3df8bdfd	0.121456124
51	0x3d1899ca	0.03725604
52	0xbe2ab536	-0.16670689
53	0x3e860c10	0.26181078
54	0x3e79b60f	0.24385856
55	0x3cfb0948	0.030644074
56	0x3e6e01e0	0.23242903
57	0x3dd3a7a6	0.10334711
58	0xbe2253d2	-0.15852287
59	0x3c1110b8	0.008854084
60	0x3e9ab58c	0.30216634
61	0xbd0c20d9	-0.034211013
62	0x3d7ef44b	0.062244695
63	0xbdba44a1	-0.09095121
64	0x3d56c7d8	0.05243668
65	0xbbea2a8f	-0.0071461867
66	0x3e1c0fd8	0.15240419
67	0x3e5eb3e7	0.21748315
68	0x3e2ceb37	0.16886602
69	0xbe4121b1	-0.18860509
70	0x3db9e4ed	0.09076867
71	0xbc26b1c7	-0.010174221
72	0x3ec42299	0.38307646
73	0x3e41bb14	0.18919021
74	0xbeb8185e	-0.3595609
75	0x3d0d3587	0.034474876
76	0xbd3c5cff	-0.045987125
77	0xbe91bde8	-0.284652
78	0x3ea89427	0.3292553
79	0xbe7e93be	-0.24861047
80	0x3eaa12bc	0.33217418
81	0x3db5e937	0.08882373
82	0xbeab12ff	-0.3341293
83	0xbe88cd71	-0.2671924
84	0xbedf217b	-0.4358023
85	0xbc2eea1b	-0.010675932
86	0x3e03d7b4	0.12875253
87	0x3df69169	0.120394535
88	0x3e44d35f	0.19221257
89	0x3ec24905	0.37946334
90	0x3e08cb88	0.13358891
91	0xbe5364e1	-0.20643951
92	0x3e0d8890	0.13821626
93	0xbe0904e7	-0.13380776
94	0xbd5346c2	-0.05158115
95	0xbb51e64f	-0.0032028144
96	0xba17c7bb	-0.0005789955
97	0x3e3d432c	0.18482655
98	0x3e8fc658	0.28081012
99	0x3d31b34a	0.043383874
100	0xbe3d691e	-0.1849713
101	0xbdb06822	-0.08613612
102	0x3c9a258e	0.018816736
103	0xbea83389	-0.32851818
104	0x3e203c09	0.15647902
105	0x3dccbb11	0.099966176
106	0xbc2d97bc	-0.010595258
107	0xbde4a135	-0.1116356
108	0x3e0b2b54	0.13590747
109	0x3e835a65	0.25654903
110	0x3ead3a3e	0.33833498
111	0xbe95e93e	-0.29279512
112	0x3e8365bb	0.25663552
113	0x3cb11412	0.021616016
114	0x3dff48c4	0.12465051
115	0x3e2f99c3	0.17148499
116	0x3e808469	0.2510102
117	0xbe316dcb	-0.17327039
118	0xbe8c30d2	-0.27380997
119	0xbe1dd98e	-0.15415022
120	0x3da437b4	0.08018437
121	0x3e00bdd9	0.12572421
122	0xbe7212c9	-0.23639978
123	0xbddeb0b3	-0.108735465
124	0xbdeefd2e	-0.11669384
125	0xbd05436d	-0.032535005
126	0x3d247bd2	0.040157147
127	0xbe44de77	-0.19225489
128	0x3ea2bf0a	0.31786376
129	0x3eac47e3	0.33648595
130	0xbe8ed4ff	-0.27896878
131	0x3e16a098	0.14709699
132	0x3df623bc	0.120185345
133	0x3e1d69b8	0.1537236
134	0xbe4650b1	-0.19366719
135	0xbe44809a	-0.19189683
136	0xbde39ee8	-0.11114293
137	0x3cd006a8	0.025393799
138	0xbe247bd5	-0.16062863
139	0x3e6d77db	0.23190252
140	0x3def17aa	0.116744354
141	0x3dc3d719	0.09562511
142	0xbe2968b6	-0.1654385
143	0xbc8b6bc7	-0.017019166
144	0xbe1e84a1	-0.15480281
145	0x3e00b088	0.12567341
146	0xbdc38238	-0.09546322
147	0xbf022daf	-0.5085096
148	0xbd0684e5	-0.03284158
149	0x3d42c368	0.047549635
150	0x3dc16ba9	0.09444363
151	0xbe4a711b	-0.19769709
152	0xbe2f7ec0	-0.17138195
153	0x3e4c38d1	0.19943549
154	0x3e2ee28a	0.17078605
155	0x3dca6dd7	0.098842315
156	0x3e8e27db	0.27764782
157	0xbc8412b6	-0.016122203
158	0x3e154ef6	0.14580902
159	0x3c467635	0.012113144
160	0xbe52806c	-0.20556802
161	0x3db38bc4	0.087668926
162	0x3d43d285	0.04780819
163	0x3d0661c9	0.0328081
164	0xbe81b8dc	-0.2533635
165	0xbca7ee3b	-0.02049934
166	0x3d203123	0.03910936
167	0x3dda92eb	0.10672554
168	0x3e3821e3	0.17981677
169	0xbeb7a302	-0.35866553
170	0x38c247f0	9.26404e-05
171	0x3d5d727b	0.054064255
172	0x3d96f040	0.07370043
173	0xbd6c9a3e	-0.057764284
174	0xbdda9785	-0.10673431
175	0x3e5e1337	0.21687017
176	0x3da037d1	0.07823146
177	0xbc6d5c17	-0.014487288
178	0xbe8ce7b2	-0.2752052
179	0xbcd02be0	-0.025411546
180	0x3e46fa71	0.19431473
181	0xbe0d0c20	-0.13774157
182	0xbe152a21	-0.14566852
183	0x3e465946	0.19369993
184	0xbeaa1745	-0.33220878
185	0x3e781e92	0.24230412
186	0x3d49bb9e	0.04925119
187	0xbd6c94e4	-0.05775918
188	0xbe417f11	-0.18896128
189	0x3e2f608b	0.17126672
190	0x3e8f14f0	0.27945662
191	0x3dcf66ca	0.10127027
192	0xbe4c750e	-0.19966528
193	0xbc97eb88	-0.018544927
194	0x3e202ff9	0.156433
195	0x3e1ac992	0.15115955
196	0xbe8826cd	-0.26592103
197	0x3cbfeb14	0.023427524
198	0xbe3fbac2	-0.18723586
199	0xbe666a48	-0.2250148
200	0x3dcb6105	0.099306144
201	0xbd6d1239	-0.057878707
202	0x3d9c05b4	0.07618275
203	0x3ea41710	0.32048845
204	0xbeadca04	-0.33943188
205	0xbe129891	-0.14316012
206	0x3e5259fd	0.2054214
207	0x3e24cdb4	0.16094095
208	0x3e53f7f6	0.20700058
209	0x3dc3d2a1	0.09561659
210	0x3e513321	0.2042966
211	0xbea6a11f	-0.325448
212	0x3da221aa	0.07916577
213	0x3e40873c	0.18801588
214	0xbd87c2e6	-0.06628971
215	0xbc8b46d7	-0.017001553
216	0xbe9017c6	-0.28143138
217	0xbe5497da	-0.20761052
218	0xbdd6c2c2	-0.10486366
219	0x3e830746	0.25591487
220	0x3b4b3b7e	0.0031010802
221	0x3e044933	0.12918548
222	0xbe133e37	-0.14379202
223	0xbe1c1239	-0.15241326
224	0xbe396b71	-0.18107392
225	0x3ef82f2a	0.48473483
226	0x3dc4cb74	0.09609118
227	0x3e4b996a	0.19882742
228	0x3d88110b	0.06643876
229	0xbe6b1a52	-0.22959259
230	0xbe12ce25	-0.1433645
231	0x3e853025	0.26013294
232	0x3e207729	0.15670456
233	0xbeab0589	-0.3340266
234	0xbe33f05a	-0.17572156
235	0x3bce36a3	0.0062931343
236	0xbe4c26f3	-0.19936733
237	0xbe05ab22	-0.13053563
238	0x3e23bf9f	0.15991066
239	0xbe0c9b7b	-0.13731186
240	0x3dd88797	0.10572737
241	0xbdf657c8	-0.12028462
242	0x3e3fe414	0.18739349
243	0x3e4e5767	0.20150529
244	0xbe1e8c1c	-0.15483135
245	0xbdc7ad8f	-0.097499005
246	0xbe594507	-0.21217738
247	0x3e24fe5b	0.16112654
248	0xbe7040b2	-0.2346218
249	0x3e232e4f	0.15935634
250	0x3d2ea2f8	0.042635888
251	0xbce00705	-0.027347097
252	0x3e5d09cf	0.21585773
253	0x3e77a6d9	0.24184741
254	0xbdb5c6da	-0.088758186
255	0xbe2aca56	-0.16678748

bias f4 [400]
0	0xbdea1e01	-0.11431504
1	0x3d3ae3f3	0.045627546
2	0xbde05abe	-0.10954808
3	0x3ad18036	0.0015983644
4	0xbcc53bfb	-0.024076452
5	0xbe892391	-0.26784948
6	0xbeb414bb	-0.35172066
7	0xbd47559c	-0.048665628
8	0xbe65a7ae	-0.22427246
9	0xbe4c5841	-0.19955541
10	0x3bb3ded7	0.005489211
11	0xbea25364	-0.31704247
12	0xbe9cf886	-0.30658358
13	0xbd5b5ebc	-0.053557143
14	0xbda7db88	-0.08196169
15	0xbe55a82a	-0.20864931
16	0xbe14aa9f	-0.14518212
17	0x3cab5ad0	0.020917326
18	0xbe978f3e	-0.29601473
19	0xbd55d899	-0.052208517
20	0x3cbe514e	0.023232128
21	0xbb8b07bd	-0.004242866
22	0xbdeb843e	-0.114998326
23	0xbd3ded62	-0.046368964
24	0xbe78b958	-0.24289453
25	0xbe0e494e	-0.13895151
26	0xbe9bc753	-0.3042551
27	0xbe4056eb	-0.18783157
28	0x3e3526cb	0.1769058
29	0xbcf88e76	-0.030341368
30	0xbe3afb9a	-0.18260041
31	0xbe2bb8f4	-0.16769773
32	0xbe5a66c6	-0.21328267
33	0xbe4d3f90	-0.20043778
34	0xbea69a42	-0.32539564
35	0xbe8b566c	-0.27214372
36	0xbe33347f	-0.17500494
37	0x3c8b895c	0.017033271
38	0xbe609b53	-0.21934251
39	0x3dd80738	0.10548252
40	0xbe393eb3	-0.18090324
41	0xbdfddef3	-0.1239604
42	0xbd3460b1	-0.044037525
43	0xbeabfc80	-0.3359108
44	0xbc90309d	-0.017601306
45	0xbe4a35de	-0.19747111
46	0xbe140650	-0.14455533
47	0xbe476e6e	-0.1947572
48	0x3cd70a02	0.02624989
49	0x3c407a84	0.01174796
50	0xbd2af76a	-0.04173986
51	0xbe7f4fdb	-0.24932806
52	0xbe84f50a	-0.259682
53	0xbe86f9df	-0.26362512
54	0xbe4c1cd5	-0.19932874
55	0xbeac8b70	-0.33700132
56	0xbe8465a7	-0.25858805
57	0x3cda1a78	0.02662395
58	0xbe19b176	-0.15009102
59	0xbdad7b3d	-0.084707715
60	0xbe840c7e	-0.2579078
61	0x3d50ccee	0.050976686
62	0xbe48c715	-0.19607194
63	0xbe44bd03	-0.19212727
64	0xbea1c851	-0.31598142
65	0xbe92b245	-0.28651634
66	0x3cf3cb52	0.029760037
67	0xbea1bcd3	-0.31589374
68	0xbe9c5d21	-0.30539802
69	0x3e6170ab	0.22015636
70	0xbd44b0e1	-0.048020247
71	0xbeb28f6f	-0.34875056
72	0xbe3153a2	-0.1731706
73	0xbd4faca1	-0.05070174
74	0x3dc52275	0.09625713
75	0xbe51c031	-0.20483471
76	0xbdfb68da	-0.12275858
77	0xbdb37879	-0.08763213
78	0x3e458fd1	0.19293143
79	0xbe8bbfd5	-0.27294794
80	0xbeaf12f2	-0.34194142
81	0xbe19c544	-0.15016657
82	0xbe5d9b2d	-0.21641226
83	0xbea31e02	-0.31858832
84	0xbe9124e0	-0.28348446
85	0xbe327ef9	-0.17431249
86	0xbe69d419	-0.22834815
87	0xbe8515db	-0.25993237
88	0xbe6fe5cb	-0.23427503
89	0xbed2b538	-0.41153884
90	0xbc49a01b	-0.0123062385
91	0xbe1b2606	-0.15151224
92	0x3d80a8df	0.062822096
93	0x3c198c87	0.009371883
94	0xbe0536ae	-0.1300914
95	0xbe284180	-0.16431236
96	0xbe037349	-0.12836947
97	0xbe9f116b	-0.31067976
98	0xbd6a970d	-0.05727296
99	0xbeaa340a	-0.33242828
100	0x3d052048	0.03250149
101	0xbe51d465	-0.20491178
102	0xbe808bf8	-0.25106788
103	0xbc4450c1	-0.011982144
104	0xbe45e35b	-0.1932501
105	0xbdd46467	-0.10370713
106	0xbe9ddd9b	-0.30833134
107	0xbe5b3d55	-0.21410115
108	0xbe8128d3	-0.2522646
109	0xbe6b74fa	-0.22993842
110	0xbbcf3f56	-0.006324689
111	0x3cb5af55	0.022178331
112	0xbec9192a	-0.3927701
113	0xbd801dc3	-0.062556766
114	0xbe219b57	-0.15781914
115	0x3d12747d	0.035755623
116	0xbcbb94ae	-0.022898044
117	0x3cd17044	0.025566228
118	0xbe82a0d8	-0.2551334
119	0xbdd9d7d8	-0.10636872
120	0x3cf51e1b	0.029921582
121	0xbe74e05f	-0.23913716
122	0xbe2e7e2c	-0.17040318
123	0xbe8b4fcb	-0.27209315
124	0xbe788896	-0.24270853
125	0xbdab55a4	-0.08365944
126	0xbe9e9c93	-0.30978832
127	0xbeb97062	-0.36218554
128	0xbe4c8531	-0.19972683
129	0xbe824d79	-0.25449732
130	0xbe95172f	-0.2911925
131	0xbddc2262	-0.107487455
132	0xbe09a2ac	-0.1344096
133	0xbe3dc84b	-0.18533437
134	0x3d534ac9	0.051584993
135	0xbe5a5169	-0.21320118
136	0xbe6d8a07	-0.23197185
137	0xbd0255cc	-0.031820104
138	0xbea8b2c9	-0.32948902
139	0xbeb33011	-0.3499761
140	0xbe8b9952	-0.27265412
141	0x3e01ef36	0.12688908
142	0xbe0507ab	-0.12991206
143	0xbe36d111	-0.1785319
144	0xbd142b73	-0.03617425
145	0x3da987f4	0.08277884
146	0xbeade338	-0.33962417
147	0xbe82d7f2	-0.25555378
148	0xbe03c4f0	-0.12868094
149	0xbe38da25	-0.18051966
150	0xbe3379e2	-0.17526963
151	0xbe81887a	-0.25299436
152	0xbe875ab3	-0.26436386
153	0xbba5412b	-0.005043169
154	0xbe50a3ba	-0.20374957
155	0xbe87e25b	-0.26539883
156	0xbebfb22e	-0.37440628
157	0xbc892acd	-0.016744042
158	0xbe73eb9b	-0.23820345
159	0xbdc9afd1	-0.098479874
160	0xbea1908d	-0.31555596
161	0xbdc4e987	-0.09614854
162	0x3d9c4deb	0.07632049
163	0xbe83c609	-0.25737026
164	0xbdde8189	-0.108645506
165	0xbdf58a4d	-0.119892694
166	0xbe7bf821	-0.24606372
167	0xbea7c895	-0.3277022
168	0xbe440266	-0.1914154
169	0x3e7e379a	0.24825898
170	0xbdf58578	-0.11988348
171	0x3e65c7e1	0.22439529
172	0xbe3e2703	-0.1856957
173	0x3d48bf95	0.049010832
174	0xbedd891e	-0.43268675
175	0xbe856f2e	-0.26061386
176	0xbeaf90b0	-0.34290075
177	0xbeb4c170	-0.3530383
178	0x3d9668ee	0.073442325
179	0xbef69fc2	-0.4816876
180	0xbcd9142e	-0.02649888
181	0x3c07227d	0.008247969
182	0xbe86533b	-0.26235375
183	0xbe95818f	-0.29200408
184	0xbdd372bb	-0.103246175
185	0xbe9601fe	-0.29298395
186	0xbd9407cf	-0.07228052
187	0x3d8e946d	0.06961904
188	0xbec66134	-0.38746035
189	0xbe48da2f	-0.1961448
190	0xbe236d15	-0.1595958
191	0xbde753b0	-0.11295259
192	0xbddbb4f4	-0.107278734
193	0xbe978cf8	-0.29599738
194	0xbdcb9f54	-0.09942499
195	0xbd2a6162	-0.041596778
196	0xbeaa56ee	-0.33269447
197	0x3e61524a	0.22004047
198	0xbdcfd589	-0.101481505
199	0xbdc4b0cf	-0.09604036
200	0xbe3f583a	-0.18686
201	0xbe596cfc	-0.2123298
202	0xbe842cdc	-0.25815475
203	0xbe61f3c0	-0.2206564
204	0x3cc5e98f	0.024159221
205	0xbe92e9cd	-0.28694
206	0xbced6ff5	-0.02898405
207	0xbdb5d6e7	-0.0887888
208	0x3dd77efb	0.105222665
209	0xbdbefb65	-0.093252935
210	0xbce05830	-0.027385801
211	0xbe0b5e80	-0.13610268
212	0xbd3b6b1e	-0.04575645
213	0xbdb17bbb	-0.08666178
214	0xbdd2d0e8	-0.10293752
215	0x3dc896d7	0.097943954
216	0xbdfb9489	-0.1228419
217	0xbe30d7b0	-0.17269778
218	0x3db895dd	0.09012959
219	0x3e1c7ec4	0.15282732
220	0xbe050f2f	-0.12994073
221	0xbdaee893	-0.08540454
222	0xbdc6a5ad	-0.09699569
223	0x3d2e791d	0.04259597
224	0xbe01b8eb	-0.12668197
225	0xbe7af3ef	-0.24507116
226	0xbea4339c	-0.32070625
227	0x3ca91b13	0.020642793
228	0x3c087464	0.008328531
229	0xbe305a9e	-0.17222068
230	0xbe58949e	-0.21150443
231	0xbe0cdea6	-0.13756809
232	0xbe3bcdb7	-0.18340193
233	0xbe313ce1	-0.1730838
234	0xbd330512	-0.043706007
235	0xbea9df27	-0.33178064
236	0xbdec149c	-0.115273684
237	0xbe98d74b	-0.29851755
238	0xbd639199	-0.055558775
239	0xbd4c1433	-0.04982395
240	0xbdcdd3b8	-0.10050148
241	0xbe4a237b	-0.19740097
242	0xbe2a331d	-0.1662106
243	0xbe1cbf02	-0.15307239
244	0xbeac197b	-0.3361319
245	0xbe410da6	-0.18852863
246	0xbe2edf4d	-0.1707737
247	0x3d95ccec	0.07314476
248	0x3cd4398f	0.025906352
249	0xbe8b6235	-0.27223364
250	0xbe2ea227	-0.17054044
251	0xbea2c12b	-0.31788
252	0xbe3b1c12	-0.18272427
253	0xbe955c8f	-0.2917218
254	0xbc6f4f36	-0.014606288
255	0xbe3ec37e	-0.18629262

weight f4 [100, 400]
0	0xbbc1aec7	-0.0059107277
1	0x3dd38987	0.10328966
2	0xbd23d479	-0.03999755
3	0x3cfd2acd	0.030904198
4	0xbe0f154b	-0.13972966
5	0xbd3dc8fc	-0.04633425
6	0xbd6cb407	-0.057788875
7	0xbdb9d53d	-0.09073875
8	0xbd87ca4d	-0.06630383
9	0xbe393676	-0.18087181
10	0xbd5322cf	-0.051546868
11	0xbdd52ae8	-0.10408574
12	0xbda2ca9f	-0.07948803
13	0xbdb2a189	-0.08722217
14	0xbd32df6c	-0.043670103
15	0xbdabe0bc	-0.08392474
16	0x3d6eecde	0.058331363
17	0xbd7b7a01	-0.06139565
18	0xbdc28dbb	-0.09499689
19	0xbdba97e2	-0.091110006
20	0xbd3a29f4	-0.045450166
21	0xbd9f2438	-0.0777058
22	0xbd058468	-0.032596976
23	0xbc1a4465	-0.009415721
24	0x3ce1b5b3	0.027552461
25	0xbc60600c	-0.013694774
26	0xbe0155bb	-0.1263036
27	0xbd8da02a	-0.069153145
28	0xbd4f8242	-0.050661333
29	0xbe2204e8	-0.15822184
30	0xbdac20c6	-0.084046885
31	0x3d0f2b5e	0.034953468
32	0xbdc4f3ff	-0.09616851
33	0xbcc84d42	-0.024450902
34	0xbd8ba991	-0.068194516
35	0xbc9a7be4	-0.018857904
36	0xbcf95084	-0.0304339
37	0xbdb27277	-0.08713239
38	0xbd82cdd0	-0.06386912
39	0xbbd9d405	-0.006647589
40	0xbcddd3fc	-0.027078621
41	0xbd5e9712	-0.05434329
42	0xbcbb9750	-0.0228993
43	0xbd0b9459	-0.034077022
44	0x3cd908ca	0.026493449
45	0xbd2edb02	-0.04268933
46	0x3c83effd	0.016105646
47	0xbdf51d3d	-0.119684674
48	0x3d813adc	0.06310055
49	0xbd5107e0	-0.0510329
50	0xbb8302e1	-0.003998146
51	0xbc96ff54	-0.018432297
52	0xbdc0ea2d	-0.094196655
53	0xbdfa4641	-0.12220431
54	0xbdbe8efc	-0.09304616
55	0xbdecd887	-0.11564737
56	0xbd49c307	-0.04925826
57	0x3aa56b1d	0.0012620423
58	0x3b3c0428	0.0028689
59	0xbd299f9f	-0.041411992
60	0x3c4f4583	0.01265085
61	0xbd4c0bc9	-0.049815927
62	0xbcb9b7cc	-0.022670649
63	0xbe0f9598	-0.14021909
64	0xbd940956	-0.07228343
65	0xbdd88991	-0.10573114
66	0xbca572e7	-0.020196391
67	0xbd43b1e3	-0.047777068
68	0xbdb553e1	-0.08853889
69	0x3d9ef0bb	0.077607594
70	0xbd34d24a	-0.04414586
71	0x3a31e75e	0.00067864906
72	0x3d87462b	0.0660518
73	0xbd1020de	-0.035187595
74	0xbb54957f	-0.003243774
75	0xbd9dc2cd	-0.07703171
76	0xbdcadae1	-0.09905029
77	0xbdc92abc	-0.09822604
78	0xbd59ca69	-0.05317155
79	0xbdffd9bd	-0.12492702
80	0xbd94a83a	-0.07258649
81	0xbd85fe45	-0.06542639
82	0xbdaebf6b	-0.08532604
83	0xbd3276be	-0.043570273
84	0xbc212d37	-0.00983744
85	0xbdb80557	-0.089853935
86	0xbdbad0dd	-0.09121869
87	0xbdaf4d04	-0.085596114
88	0xbe24e8e6	-0.16104469
89	0xbe0fd6ed	-0.14046831
90	0x3980ab65	0.0002454176
91	0xbdad893e	-0.084734425
92	0x3c0c0878	0.008546941
93	0xbd56a1e9	-0.052400503
94	0xbd5f24b1	-0.05447835
95	0xbc6f75c5	-0.014615481
96	0xbd91dcef	-0.07122218
97	0xbd0097cc	-0.031394765
98	0x3d922c2b	0.071373306
99	0xbd8be8e0	-0.06831527
100	0xbd071cfb	-0.032986622
101	0xbe0e5664	-0.13900143
102	0xbd9aee45	-0.075649776
103	0xbc02a133	-0.007973003
104	0xbd895031	-0.067047484
105	0xbdc67719	-0.09690685
106	0x3da57db9	0.0808062
107	0xbde3647b	-0.111031495
108	0x3c12c4aa	0.008958021
109	0xbd123235	-0.035692412
110	0x3d44c86c	0.0480427
111	0xbbd576d2	-0.0065144086
112	0xbda5eadd	-0.08101437
113	0xbd59a069	-0.053131495
114	0x3ba91ad2	0.005160668
115	0xbd901175	-0.0703458
116	0x3bcf2be3	0.0063223704
117	0xbd965ff9	-0.07342524
118	0xbe07746e	-0.13228008
119	0xbcc5d1c6	-0.02414788
120	0x3cbdd83e	0.023174401
121	0xbde8474c	-0.11341724
122	0xbdfbf20e	-0.12302028
123	0xbc670057	-0.014099202
124	0xbdc640dd	-0.096803404
125	0xbdc09929	-0.09404213
126	0xbdee08c2	-0.11622764
127	0xbdef41be	-0.11682461
128	0xbd963ba1	-0.07335592
129	0xbd59520e	-0.05305677
130	0xbde88467	-0.11353379
131	0x3d19ce0c	0.037550017
132	0x3dd1810d	0.102296926
133	0xbc2131a0	-0.009838492
134	0x3ceec476	0.029146414
135	0xbdb04383	-0.08606627
136	0xbde6b276	-0.112645075
137	0xbaa93b1b	-0.0012911292
138	0xbd840bca	-0.06447561
139	0xbdcc859e	-0.09986423
140	0xbc63f14d	-0.013912511
141	0x3c192732	0.009347724
142	0xbdb86049	-0.0900274
143	0xbb94617e	-0.0045282235
144	0xbd6449d9	-0.05573449
145	0x3cb9274f	0.022601752
146	0xbcb64d2f	-0.0222536
147	0xbde59364	-0.11209753
148	0xbdf37829	-0.11888153
149	0xbdc06584	-0.093943626
150	0xbe161810	-0.14657617
151	0xbdaec5ce	-0.08533822
152	0xbdccca07	-0.09999471
153	0x3863de92	5.4328302e-05
154	0xbc0fa596	-0.008767506
155	0xbda915d3	-0.08256116
156	0xbd78b72b	-0.060721558
157	0xbdaef787	-0.08543306
158	0xbcee9144	-0.029122002
159	0xbd683972	-0.05669541
160	0xbc65f34d	-0.014035058
161	0xbdda33f9	-0.10654444
162	0x3cd625cc	0.02614107
163	0x3d25228b	0.040316146
164	0xbe040d4d	-0.12895699
165	0xbdb2cccc	-0.08730468
166	0xbd84782f	-0.06468236
167	0xbdcbd1cf	-0.09952127
168	0xbcdca6aa	-0.02693494
169	0xbcbd5193	-0.023110187
170	0xbe06a4df	-0.13148831
171	0x3d17996f	0.03701156
172	0xbdd3e35f	-0.10346102
173	0xbda6ed4c	-0.081507295
174	0x3d0257fc	0.03182219
175	0xbe20fe7a	-0.15722075
176	0xbd98abc2	-0.07454635
177	0xbe04dabf	-0.1297407
178	0xbd81e865	-0.06343154
179	0xbe15d623	-0.14632468
180	0x3d454511	0.04816157
181	0xbd448567	-0.047978785
182	0xbd9aca81	-0.07558156
183	0xbd3c7694	-0.046011522
184	0xbe14652a	-0.14491716
185	0xbcdbe342	-0.026841763
186	0xbde20c39	-0.110374875
187	0x3d51c085	0.05120899
188	0xbd662674	-0.056189016
189	0xbddfa2ac	-0.10919699
190	0xbdd07b3b	-0.10179754
191	0xbd101c66	-0.035183333
192	0xbe0b3f7d	-0.13598438
193	0xbd90efd1	-0.07076991
194	0x3c205523	0.009785923
195	0xbc7cee7c	-0.0154377185
196	0x3d021559	0.03175864
197	0x3dada580	0.08478832
198	0xbdfdba1c	-0.12389013
199	0xbd44284e	-0.04789
200	0xbd85ca93	-0.065327786
201	0xbd8bae4d	-0.068203546
202	0xbc9646e5	-0.018344352
203	0xbde1883d	-0.110123135
204	0xbd002bcd	-0.03129177
205	0xbe025bdd	-0.12730356
206	0x3d2fdc26	0.04293456
207	0x3d4b4d36	0.04963418
208	0xbd3b4af7	-0.04572579
209	0x3ca507cc	0.02014532
210	0xbdbdac05	-0.09261326
211	0xbc3e64ec	-0.011620741
212	0xbdae9881	-0.085251816
213	0x3d1b5d66	0.03793087
214	0xbcbb7e72	-0.022887442
215	0xbdd774bc	-0.10520312
216	0xbbe397e6	-0.006945598
217	0xbde7a60b	-0.11310967
218	0x3d92d1b2	0.071689025
219	0x3d006189	0.031343017
220	0xbd704429	-0.058658753
221	0x3d5e1dfe	0.05422782
222	0x3cefb2b9	0.029260026
223	0xbd301fce	-0.04299908
224	0xbb81ce2a	-0.0039613442
225	0xbd0e0598	-0.034673303
226	0x3cea6208	0.028611198
227	0x3d2cdc01	0.042202
228	0xbd07916f	-0.03309768
229	0x3cea533d	0.028604144
230	0xbd87e539	-0.066355176
231	0xbd030df5	-0.031995732
232	0xbc653248	-0.013989039
233	0xbd4289cf	-0.047494706
234	0xbde68b53	-0.11257043
235	0xbda592ce	-0.080846414
236	0xbcf0150f	-0.029306917
237	0xbe177a7b	-0.14792816
238	0xbd11ed9d	-0.035626996
239	0xbd195b29	-0.037440453
240	0xbd42e6b1	-0.047583286
241	0xbe0364e3	-0.12831454
242	0xbd013f7d	-0.031554688
243	0xbdd5a6d3	-0.1043221
244	0xbca6968d	-0.02033546
245	0x3cddb8fc	0.027065746
246	0x3a59748f	0.00082952617
247	0x3cc24d8a	0.023718614
248	0x3c5d8d02	0.013522388
249	0xbdcf71e8	-0.10129148
250	0xbc873353	-0.016503965
251	0xbd498faf	-0.049209293
252	0xbdfaba08	-0.12242514
253	0xbd4951dc	-0.049150333
254	0x3d06a112	0.032868452
255	0xbaca6a8d	-0.0015443132

bias f4 [100]
0	0x3d918736	0.071058676
1	0xbcb91f16	-0.02259783
2	0xbd43d697	-0.04781207
3	0xbcb18992	-0.021672044
4	0xbd80c8a1	-0.06288267
5	0x3d5dfdde	0.054197185
6	0x3d4f46e6	0.050604723
7	0x3be18f70	0.006883554
8	0x39d6bcff	0.00040958074
9	0x3d63b362	0.055590995
10	0xbd97f437	-0.07419627
11	0x3d3b7a6f	0.04577106
12	0xbdd98ef3	-0.106229685
13	0xbc9dbdde	-0.019255575
14	0x3e446016	0.19177279
15	0x3dc7f01e	0.097625956
16	0x3d06faea	0.032954134
17	0x3d0442d0	0.03229028
18	0xbd7e14b3	-0.06203146
19	0xbc9bd343	-0.019021636
20	0xbd789fb0	-0.060699165
21	0xbdf00209	-0.11719138
22	0xbd81cb7c	-0.0633764
23	0xbe008d81	-0.1255398
24	0xbd52f61e	-0.051504247
25	0xbdf2588b	-0.118332945
26	0x3db1f6d2	0.08689655
27	0xbdf5c86b	-0.12001117
28	0xbdef3977	-0.116808824
29	0xbcdec0aa	-0.027191479
30	0xbd110f94	-0.035415247
31	0xbd8c2da6	-0.06844644
32	0xbdeb752f	-0.1149696
33	0xbdb3f83b	-0.087875806
34	0xbd9851c2	-0.07437469
35	0x3cbb6063	0.02287311
36	0xbcb1b7b0	-0.021694034
37	0xbd74755c	-0.059682235
38	0xbdca5833	-0.09880104
39	0x3cb7f30b	0.02245476
40	0x3da2b009	0.07943732
41	0xbda6c4ed	-0.08143029
42	0x3be13a03	0.0068733706
43	0xbdcbe0f7	-0.09955018
44	0xbd17271e	-0.03690254
45	0x3db5552f	0.08854138
46	0xbdeddf47	-0.116148524
47	0x3d425e7c	0.04745339
48	0x3d030e2c	0.031995937
49	0xbd435d19	-0.047696207
50	0xbdaaaddd	-0.08333943
51	0xbabeb252	-0.0014548993
52	0xbdaf0351	-0.085455544
53	0x3d0060fc	0.03134249
54	0xbd80fb0c	-0.062978834
55	0xbca5b7ca	-0.020229239
56	0x3d525546	0.051350854
57	0xbd151c26	-0.036403798
58	0xbd627aa2	-0.055292733
59	0x3cdd875e	0.027042087
60	0x3d123564	0.03569545
61	0x3e0ce8ad	0.13760634
62	0x3db61eee	0.08892618
63	0xbde2a36f	-0.11066329
64	0x3ca684c2	0.020326976
65	0xbdc194d0	-0.09452212
66	0xbdb7132c	-0.089392036
67	0xbdb335c0	-0.087504864
68	0xbdadaf07	-0.084806494
69	0xbdb94f50	-0.09048331
70	0x3e58385f	0.21115254
71	0x3d85bf54	0.065306336
72	0xbdff519b	-0.12466737
73	0x3ddf23f8	0.10895532
74	0x3d4cac55	0.049969036
75	0xbe1da700	-0.15395737
76	0x3d384034	0.044983104
77	0x3d8ffa2b	0.07030138
78	0x3d96cd05	0.07363323
79	0x3d2f1050	0.042740166
80	0xbc82f511	-0.015985997
81	0x3d9913ea	0.074745014
82	0xbd89b086	-0.06723122
83	0x3cb050f0	0.021522969
84	0xbc1e3864	-0.009656999
85	0x3df2a009	0.118469305
86	0xbb9166f8	-0.0044373237
87	0xbdd17e5a	-0.10229178
88	0xbddf8645	-0.10914282
89	0xbe1b7e8b	-0.15184991
90	0xbdb59846	-0.088669345
91	0xbd60bc01	-0.054866794
92	0x3c57d823	0.01317409
93	0x3d989a04	0.07451251
94	0xbda2055c	-0.079111785
95	0x3bbc2876	0.005742128
96	0xbccd4d56	-0.02506129
97	0x3d19a0d7	0.037506904
98	0x3de3aeab	0.111173
99	0xbd22cb43	-0.039744627

weight f4 [1, 100]
0	0x3d26569c	0.04060994
1	0xbd0eef46	-0.034896158
2	0x3bd1742c	0.0063920226
3	0xbe1c278d	-0.15249462
4	0x3d6d2646	0.05789783
5	0xbe3751c0	-0.17902279
6	0xbdbf0d7c	-0.09328744
7	0x3d4bd1cc	0.049760625
8	0x3d117604	0.03551294
9	0xbe5dc17e	-0.21655843
10	0x3cee089b	0.029056838
11	0xbe288e1e	-0.16460463
12	0xbbcfbcc8	-0.006339643
13	0x3c32baa5	0.010908757
14	0xbcc33a92	-0.02383164
15	0xbdd9f612	-0.10642637
16	0xbe821d1e	-0.2541284
17	0xbe21d0b5	-0.15802272
18	0xbbe1b335	-0.006887818
19	0xbbfd595d	-0.0077316
20	0x3d44e495	0.048069555
21	0xbd06eb48	-0.032939225
22	0x3d49a962	0.0492338
23	0xbdb7ba5c	-0.08971092
24	0x3d58e2c6	0.052950643
25	0xbcac2f7d	-0.021018738
26	0xbe125761	-0.14291145
27	0xbd6d180a	-0.057884254
28	0xbd4ab396	-0.049487673
29	0x3d6ca9a6	0.057778977
30	0x3cddde61	0.027083578
31	0x3d33ceac	0.04389827
32	0xbbf3980e	-0.007433898
33	0xbcda550e	-0.026651885
34	0xbcfd8248	-0.030945912
35	0xbca4dafd	-0.020123953
36	0x3a4a20b5	0.0007710562
37	0x3d07653d	0.033055533
38	0xbc1cab8a	-0.0095623825
39	0xbe7465e6	-0.23866996
40	0xbddbd572	-0.10734071
41	0xbbf13838	-0.007361438
42	0x3cef5b15	0.029218236
43	0x3b9232e1	0.0044616316
44	0x3c3c434f	0.011490657
45	0xbe2f14a1	-0.17097713
46	0xbc564f71	-0.013080464
47	0xbdfce2e8	-0.123479664
48	0xbe4e578f	-0.20150588
49	0xbcd5308c	-0.026024126
50	0xbc93fc71	-0.01806471
51	0xbc01aa6e	-0.007914169
52	0xbd1f4e2d	-0.038892914
53	0xbdf76390	-0.12079537
54	0xbcf4c55d	-0.029879266
55	0x3c6974da	0.014249051
56	0xbb8a5aa1	-0.0042222296
57	0x3d3ca945	0.046059866
58	0xbdad3d19	-0.08458919
59	0xbd96b9e7	-0.07359677
60	0xbdbb4dad	-0.09145675
61	0xbb380f75	-0.0028085385
62	0x3d24d19b	0.040238958
63	0xbc83010c	-0.01599171
64	0xbe621bd2	-0.22080925
65	0xbd5f4066	-0.054504775
66	0x3b0f809d	0.0021896728
67	0xbbc13f71	-0.0058974554
68	0x3c8d85a3	0.017275637
69	0x3d41d33f	0.0473206
70	0xbca43cd3	-0.020048534
71	0xbb9ce3a0	-0.004787877
72	0xbbcf2d8f	-0.0063225697
73	0xbde65b92	-0.112479344
74	0xbb232f88	-0.0024900157
75	0xbda709dc	-0.081561774
76	0xbe660a0b	-0.22464769
77	0xbe588749	-0.21145357
78	0xbe7835b8	-0.24239242
79	0xbe8760ab	-0.2644094
80	0x3d4f8e47	0.050672796
81	0xbd1e2956	-0.03861364
82	0xbd6975c4	-0.056997076
83	0xbe4d5c9a	-0.20054856
84	0xbd2b850a	-0.041874923
85	0xbe84461c	-0.2583474
86	0xbcd428c9	-0.025898354
87	0x3bca9507	0.006182316
88	0xbd4c3efc	-0.049864754
89	0xbd73532f	-0.059405502
90	0xbd35aa1d	-0.044351686
91	0x3d17324b	0.036913197
92	0xbd258081	-0.040405754
93	0xbd54fde5	-0.051999945
94	0x3d4fa7a1	0.050696973
95	0xbd7fb65d	-0.062429775
96	0x3c196ee8	0.009364821
97	0xbd5a1952	-0.053246804
98	0x3d0d6945	0.03452422
99	0xbd313295	-0.04326113
