Gibbs_MINE/pw_res/model_lk_b=10_s=0.5_p=29.pth (torch, 211415 bytes, 5 tensors)

weight f4 [400, 29]
-0.17873989 0.11969823 0.37903616 -0.096220426 -0.07323246 0.29665267 0.073568426 -0.26367643
-0.08358327 -0.4196054 0.3150046 -0.07684727 0.061983936 0.1926022 0.25901356 -0.041787
0.075970866 0.013789542 -0.33999735 -0.13323225 0.5432179 -0.3877936 -0.041820634 0.09182539
-0.3764462 -0.10235989 0.34496993 -0.07809444 0.20500378 0.0057168254 0.33568478 0.17691484
0.1937482 0.09531672 0.14655325 -0.09094624 -0.15281236 0.057977162 -0.16754428 -0.046731684
0.28876987 0.08097972 -0.05887017 0.122707196 -0.08538568 -0.16048785 0.042910386 -0.3696239
0.21554415 -0.011205554 0.1882902 0.12488629 0.16754246 0.25076059 0.022227347 -0.03085395
0.09386154 0.01271591 -0.18480344 0.08726155 0.35478976 0.16556935 -0.13876398 0.26172826
0.39592728 -0.20441027 0.22110301 -0.31348366 0.2753572 -0.13070679 -0.03553122 0.37755585
0.32735193 0.01189199 -0.26047695 0.28235993 -0.17550844 -0.11874985 0.23309697 -0.36678994
0.24691983 0.25227246 -0.15694647 -0.44529912 0.19341071 0.194731 0.29763824 0.06251958
0.1596588 0.3675879 0.101427525 -0.35811856 0.09240994 -0.1399268 -0.13927887 0.10101985
0.20913889 0.042020097 0.33097193 0.005886629 -0.07177512 -0.062374666 -0.07443592 -0.056176033
0.50138307 0.13011184 -0.12574866 -0.14568256 -0.13322484 0.10238511 0.26743385 -0.1202296
0.037308283 0.08351949 0.12444395 0.22408041 0.17847411 -0.30690306 -0.17996193 0.011864532
0.024781683 -0.08865185 -0.30270237 0.01525249 -0.20146255 0.23758624 -0.023732202 -0.14648911
0.102619156 0.012892951 -0.47975397 -0.21891427 -0.02833449 0.16259414 0.15203187 -0.058556106
-0.37232447 0.29113913 -0.26927602 0.21910317 0.21303517 0.21795647 -0.21567033 -0.021652458
-0.24484706 0.21092932 -0.1526289 -0.2940522 0.08016406 -0.0033094883 -0.21045114 -0.29566845
0.061773036 0.28545406 0.2658713 -0.05198911 0.45341906 0.046887048 0.0223607 -0.024385279
-0.078837804 0.2826842 0.15798938 0.21957095 -0.083927564 -0.085209325 0.16310103 0.18433538
0.09838723 -0.07447413 0.07928974 0.16747893 -0.022780515 -0.16692132 0.059173014 0.25551823
-0.040358033 -0.050507028 -0.27895868 -0.06177817 0.35265625 -0.27459118 0.023823528 -0.06556869
-0.043821663 0.09702945 0.27008876 0.058003336 0.039414175 0.010428942 0.099898085 0.102095686
0.12970726 0.007628017 0.055071652 0.0131858885 0.08676792 0.0007504084 -0.14290866 -0.15561749
0.14607422 -0.005664206 -0.18412687 0.1393491 -0.23139365 -0.399318 0.12833816 0.1904348
0.16480845 0.08556492 0.362141 -0.12593873 0.2819353 0.20551476 -0.002373913 -0.30369776
-0.32019255 -0.26991975 0.007571592 0.16855 0.21815962 -0.038090676 0.011680411 -0.30557996
0.05620629 -0.027683983 -0.0056182593 0.14005132 -0.051062018 0.035488237 -0.059047982 0.08798664
0.14811859 -0.14979666 -0.08519354 -0.10150946 -0.23316208 -0.15938605 0.26935625 -0.16957301
0.1431771 0.26691923 0.103545226 0.13974603 -0.21307386 -0.081455335 -0.20886116 -0.062393066
-0.15662715 0.20539132 0.23237295 0.06460193 0.08001868 0.23883352 -0.021482753 -0.10099494
00000000: 9707 37be 5824 f53d 0711 c23e 370f c5bd
00000010: e6fa 95bd dce2 973e 0bab 963d 9900 87be
00000020: b52d abbd 85d6 d6be 4848 a13e 1a62 9dbd
00000030: dee2 7d3d 8339 453e 6d9d 843e d828 2bbd
00000040: 9d96 9b3d 88ed 613c 2214 aebe 096e 08be
00000050: 5410 0b3f e28c c6be 1d4c 2bbd f30e bc3d
00000060: 8ebd c0be 10a2 d1bd e69f b03e faef 9fbd
00000070: 83ec 513e 3554 bb3b e0de ab3e 2a29 353e
00000080: ee65 463e 6a35 c33d 0e12 163e 0642 babd
00000090: d87a 1cbe 7679 6d3d ba90 2bbe b969 3fbd
000000a0: a5d9 933e b2d8 a53d d921 71bd e94d fb3d
000000b0: b0de aebd ed56 24be cdc2 2f3d 583f bdbe
000000c0: 9bb7 5c3e 8097 37bc 25cf 403e 62c4 ff3d
000000d0: 4090 2b3e b163 803e 2016 b63c 6cc1 fcbc
000000e0: 7b3a c03d 6456 503c 1d3d 3dbe 2fb6 b23d
000000f0: 01a7 b53e 038b 293e 2518 0ebe 3f01 863e
00000100: fbb6 ca3e ed50 51be d468 623e ee80 a0be
00000110: 9efb 8c3e 00d8 05be 2f89 11bd 004f c13e
00000120: ac9a a73e 9fd6 423c 3c5d 85be 7b91 903e
00000130: 7cb8 33be 1f33 f3bd f9b0 6e3e e4cb bbbe
00000140: 8dd8 7c3e db29 813e 93b6 20be 3ffe e3be
00000150: 750d 463e 9067 473e 0a64 983e 440a 803d
00000160: 997d 233e 7b34 bc3e 3cb9 cf3d 515b b7be
00000170: 6c41 bd3d f948 0fbe 1f9f 0ebe 7fe3 ce3d
00000180: 8128 563e 441d 2c3d 2775 a93e a0e4 c03b
00000190: d6fe 92bd 947c 7fbd dc71 98bd d718 66bd
000001a0: a45a 003f 0a3c 053e 42c4 00be cf2d 15be
000001b0: 186c 08be 49af d13d 17ed 883e f03a f6bd
000001c0: 92d0 183d 440c ab3d 78dc fe3d 5675 653e
000001d0: ebc1 363e 6622 9dbe f147 38be 7463 423c
000001e0: f502 cb3c 1a8f b5bd cefb 9abe 94e5 793c
000001f0: 334c 4ebe cf49 733e 096a c2bc 3e01 16be
00000200: fe29 d23d f53c 533c 50a2 f5be 102b 60be
00000210: bb1d e8bc 147f 263e 3eae 1b3e 87d8 6fbd
00000220: 50a1 bebe 3010 953e 8cde 89be 955c 603e
00000230: e425 5a3e fb2f 5f3e afd8 5cbe 7f60 b1bc
00000240: 30b9 7abe dbfd 573e c04a 1cbe 038e 96be
00000250: 0e2d a43d 00e4 58bb 8180 57be db61 97be
00000260: b905 7d3d 0927 923e 4820 883e 88f2 54bd
00000270: 8b26 e83e a20c 403d c92d b73c a3c3 c7bc
00000280: b775 a1bd fcbb 903e f8c7 213e 35d7 603e
00000290: 37e2 abbd 3a82 aebd f503 273e 6ac2 3c3e
000002a0: 3e7f c93d e585 98bd a962 a23d 997f 2b3e
000002b0: 349e babc 6ced 2abe 675f 723d 49d3 823e
000002c0: 774e 25bd 75e0 4ebd acd3 8ebe 1b0b 7dbd
000002d0: 5c8f b43e 3797 8cbe 8f29 c33c e148 86bd
000002e0: 587e 33bd 60b7 c63d 1349 8a3e e894 6d3d
000002f0: c270 213d 27de 2a3c 5e97 cc3d 8b17 d13d
00000300: fbd1 043e 72f4 f93b d092 613d a009 583c
00000310: 61b3 b13d 0eb7 443a a656 12be 315a 1fbe
00000320: 7b94 153e ce9a b9bb c18b 3cbe 88b1 0e3e
00000330: 75f2 6cbe 6973 ccbe 146b 033e 5701 433e
00000340: 8cc3 283e a93c af3d 8c6a b93e 15f6 00be
00000350: d359 903e 7672 523e a793 1bbb 467e 9bbe
00000360: 47f0 a3be ec32 8abe 1e1b f83b 5f98 2c3e
00000370: 3c65 5f3e f804 1cbd 325f 3f3c fa74 9cbe
00000380: 9138 663d 85c9 e2bc 6019 b8bb 9d69 0f3e
00000390: 6826 51bd 1d5c 113d 4cdc 71bd 5732 b43d
000003a0: 66ac 173e 4c64 19be f379 aebd 31e4 cfbd
000003b0: 0ac2 6ebe 1936 23be 10e9 893e 8ca4 2dbe
000003c0: 059d 123e a3a9 883e 850f d43d 9519 0f3e
000003d0: 0930 5abe 0ed2 a6bd b3df 55be df8f 7fbd
000003e0: de62 20be 1a52 523e 2df3 6d3e 044e 843d
000003f0: d5e0 a33d c690 743e 99fc afbc 6fd6 cebd

bias f4 [400]
-0.05135333 -0.24563195 0.15139964 -0.23987918 -0.20666428 -0.16946234 -0.16623919 -0.22212754
-0.16457887 -0.23288909 -0.07925808 -0.15234226 -0.2865132 -0.16321412 0.120129526 -0.1394739
-0.3451243 -0.04793271 -0.094785415 -0.16554832 -0.25261673 -0.2618968 -0.22959769 -0.08896772
-0.24250273 -0.26082075 -0.35142568 -0.114056 -0.25042164 0.036090296 -0.25221536 -0.123979695
-0.23065528 -0.11298904 -0.028630374 -0.32960135 -0.10564432 -0.17381568 -0.19533405 -0.007814983
-0.21940331 -0.15162171 -0.13074565 -0.14367661 -0.14064968 -0.23156825 -0.14140047 -0.22803289
-0.09480719 -0.21664342 -0.2842785 -0.20963241 -0.058772705 -0.0975173 -0.30764025 -0.2856065
-0.11649786 -0.20595028 -0.32164884 -0.43220672 -0.2657505 -0.14943677 -0.13809115 -0.23797898
-0.2713666 -0.027434865 -0.2524773 -0.12156647 -0.14092983 -0.3052356 -0.33841062 -0.15997323
-0.17861022 -0.0043267882 0.017000014 -0.3256481 -0.27660915 -0.032582592 -0.23158695 -0.13348308
-0.29834118 -0.18618312 -0.06189767 -0.26813787 -0.1486981 -0.24565849 -0.1966028 0.018563643
-0.22262898 -0.20868787 -0.20163947 -0.17003843 -0.34248865 0.012063082 -0.19514978 -0.002032419
-0.4233434 -0.29188412 -0.06430676 -0.20556356 -0.26359627 -0.18832768 -0.041978553 -0.14306661
-0.11839207 0.058613524 -0.3285736 -0.17333536 -0.12219364 -0.23179083 -0.12770276 -0.12759918
-0.40232477 -0.11595406 -0.26537523 -0.17891967 -0.29088145 -0.16072701 -0.18990925 -0.14080842
-0.2153468 -0.09744362 -0.21388182 -0.14452012 -0.12413604 -0.18419655 -0.33993998 -0.24572332
-0.279382 -0.12269525 -0.025456628 -0.0073050535 -0.19409604 -0.18304545 -0.1713875 -0.19862784
-0.29378536 -0.24578115 -0.023039918 -0.1749597 -0.29425752 -0.13321409 -0.101357386 0.051713455
-0.2318579 -0.20928174 -0.13263714 -0.016917553 0.020648055 -0.14001822 -0.18763608 -0.33767912
-0.1484355 -0.096499644 -0.27538168 -0.15514286 -0.14265358 -0.10978765 -0.26613498 -0.18419224
-0.18630625 0.056026038 -0.03428596 -0.2873927 -0.078339465 -0.25092286 -0.11146501 -0.27807078
-0.34374928 -0.12798898 -0.24628276 -0.24688447 -0.160699 -0.14490911 -0.16228679 -0.23514807
-0.11881579 -0.34438077 -0.19297832 -0.026737593 -0.38967618 -0.29765868 -0.27020493 -0.15285873
-0.48484772 -0.28397703 -0.035721317 -0.24895352 -0.12680615 -0.21944487 -0.1874212 -0.07478164
-0.15385252 -0.28243735 -0.18708672 -0.24664235 -0.19009936 -0.12632416 -0.16936709 -0.051099956
-0.21761759 -0.27044123 -0.040923435 0.0049949787 -0.24666576 -0.35008273 -0.33965227 -0.17655164
-0.18814352 0.12199279 -0.25699463 -0.214813 -0.20873785 -0.29977602 -0.30376995 -0.25370073
-0.30210227 -0.08237502 -0.13190253 -0.12816204 0.011558058 0.22708577 -0.29653573 -0.1487832
-0.16291133 -0.20217659 -0.1648065 -0.112199925 -0.032719374 -0.061009303 -0.18400991 -0.15915617
-0.0656335 -0.14883849 -0.33685714 -0.36696318 -0.09632964 -0.0853404 -0.06216026 -0.08395839
-0.07301449 -0.35001975 -0.25462425 -0.35523638 -0.17149892 -0.21216822 -0.08564673 -0.36194158
0.049858835 -0.11168714 -0.26188764 -0.21084289 -0.21859376 -0.2365646 -0.1947683 -0.18952626
00000000: df57 52bd f186 7bbe 8208 1b3e e3a2 75be
00000010: cd9f 53be 8987 2dbe 9b3a 2abe 6775 63be
00000020: 5d87 28be 7a7a 6ebe 0f52 a2bd 9cff 1bbe
00000030: dcb1 92be 9a21 27be 7806 f63d 3fd2 0ebe
00000040: 22b4 b0be 1755 44bd db1e c2bd 8085 29be
00000050: fb56 81be 5617 86be a81b 6bbe b534 b6bd
00000060: a352 78be 4c8a 85be 11ee b3be 3196 e9bd
00000070: 4437 80be 6bd3 133d 5f22 81be 11e9 fdbd
00000080: e630 6cbe cc66 e7bd 3f8a eabc 82c1 a8be
00000090: 0d5c d8bd bdfc 31be a605 48be 6a0a 00bc
000000a0: 43ab 60be b942 1bbe 30e2 05be f61f 13be
000000b0: 7806 10be 3a20 6dbe 49cb 10be 7481 69be
000000c0: 462a c2bd c6d7 5dbe f48c 91be e1a9 56be
000000d0: a6bb 70bd 26b7 c7bd 0683 9dbe 043b 92be
000000e0: 6e96 eebd a1e4 52be 28af a4be 334a ddbe
000000f0: 7310 88be f405 19be c467 0dbe c3b0 73be
00000100: 90f0 8abe 15bf e0bc b444 81be d7f7 f8bd
00000110: e94f 10be d747 9cbe 2844 adbe 06d0 23be
00000120: 99e5 36be bbc7 8dbb 9d43 8b3c 59bb a6be
00000130: b79f 8dbe 5375 05bd 2125 6dbe caaf 08be
00000140: 2dc0 98be caa6 3ebe 6988 7dbd 5e49 89be
00000150: 5144 18be e68d 7bbe 3f52 49be c812 983c
00000160: daf8 63be 46b2 55be 947a 4ebe 8e1e 2ebe
00000170: ac5a afbe 3ca4 453c 58d5 47be 5532 05bb
00000180: 77c0 d8be d671 95be 43b3 83bd 417f 52be
00000190: 17f6 86be f9d8 40be b4f1 2bbd 0e80 12be
000001a0: 8b77 f2bd bc14 703d cd3a a8be d37e 31be
000001b0: a940 fabd 935a 6dbe 83c4 02be 5ca9 02be
000001c0: 83fd cdbe 5279 edbd 43df 87be b836 37be
000001d0: 6aee 94be 9f95 24be 9277 42be 1530 10be
000001e0: df83 5cbe 8590 c7bd d603 5bbe 15fd 13be
000001f0: 093b febd 059e 3cbe 9d0c aebe e59e 7bbe
00000200: 280b 8fbe a647 fbbd 6b8a d0bc 3b5f efbb
00000210: 1dc1 46be 4470 3bbe 3480 2fbe 1965 4bbe
00000220: 096b 96be 0eae 7bbe 36be bcbc a328 33be
00000230: eca8 96be 4669 08be 7694 cfbd 7dd1 533d
00000240: 286c 6dbe f44d 56be 08d2 07be ae96 8abc
00000250: 1c26 a93c f060 0fbe ac23 40be 47e4 acbe
00000260: 7aff 17be 9ba1 c5bd d4fe 8cbe c5dd 1ebe
00000270: c813 12be 59d8 e0bd d842 88be e49c 3cbe
00000280: 11c7 3ebe 8f7b 653d 6f6f 0cbd 2325 93be
00000290: 7170 a0bd f678 80be c447 e4bd 4b5f 8ebe
000002a0: e8ff afbe 8b0f 03be 8c31 7cbe 48cf 7cbe
000002b0: 478e 24be 0e63 14be 822e 26be a8ca 70be
000002c0: b155 f3bd ad52 b0be 1c9c 45be cc08 dbbc
000002d0: a383 c7be b866 98be 4d58 8abe 0087 1cbe
000002e0: f63d f8be 7065 91be 8450 12bd aced 7ebe
000002f0: 79d9 01be 28b6 60be 58eb 3fbe 1e27 99bd
00000300: 848b 1dbe a19b 90be a993 3fbe d08f 7cbe
00000310: 68a9 42be 1f5b 01be 916e 2dbe 304e 51bd
00000320: 25d7 5ebe 4677 8abe 559f 27bd ebac a33b
00000330: f395 7cbe 0b3e b3be e7e6 adbe f4c9 34be
00000340: b2a8 40be 5bd7 f93d cd94 83be f0f7 5bbe
00000350: 60bf 55be 3e7c 99be bc87 9bbe 10e5 81be
00000360: 26ad 9abe 3cb4 a8bd 7511 07be e93c 03be
00000370: 025e 3d3c 2c89 683e 88d3 97be a05a 18be
00000380: 3ad2 26be 6107 4fbe 09c3 28be 13c9 e5bd
00000390: c004 06bd e4e4 79bd 186d 3cbe d6f9 22be
000003a0: db6a 86bd 1e69 18be 8a78 acbe 99e2 bbbe
000003b0: 7948 c5bd f3c6 aebd c29b 7ebd 60f2 abbd
000003c0: 9f88 95bd ca35 b3be 1c5e 82be 8be1 b5be
000003d0: 6a9d 2fbe a042 59be 8e67 afbd 6850 b9be
000003e0: c738 4c3d 3abc e4bd 2316 86be 33e7 57be
000003f0: 0bd7 5fbe fe3d 72be 5771 47be 2c13 42be

weight f4 [100, 400]
-0.00020298106 0.04646064 -0.0068536703 0.08898671 -0.04915451 -0.055539772 -0.013472381 0.013843687
-0.049869124 0.0017447136 0.015190509 -0.06515987 -0.12702546 -0.05111797 -0.09095938 0.013018742
0.060942587 0.025380095 -0.10487583 0.005597876 -0.093045 -0.12026096 0.01843743 -0.1551696
-0.042598303 -0.08226305 -0.06664749 -0.15564302 -0.026902178 -0.10969452 -0.061455157 -0.08503666
-0.05502047 -0.07257507 -0.0880626 -0.06922304 -0.09534995 0.038890623 -0.00069735973 -0.07654643
-0.040479355 -0.14013669 -0.065366715 -0.058800574 -0.091759086 -0.06337071 0.0064251944 -9.5261625e-05
-0.059601426 -0.023915809 -0.082687475 -0.03843124 0.012787261 -0.05525456 -0.032780796 -0.054086797
-0.059267413 -0.06253288 0.012998332 0.051108837 0.07102221 -0.13553718 0.027961707 -0.09630173
-0.020438623 -0.027063418 -0.04022007 -0.033470117 -0.10365718 -0.045922827 -0.0060830307 -0.027611086
-0.04223854 -0.019489326 0.10624876 0.07969201 -0.047858555 -0.029399466 0.033056546 -0.1306059
0.002807561 -0.01336285 -0.06174879 -0.012340404 -0.06937716 -0.08144613 -0.044599675 -0.012836866
0.04808008 -0.05690638 -0.06550904 -0.07990687 -0.05752999 0.07544902 -0.08694026 -0.023303218
0.029669885 -0.011299108 -0.05723692 0.0417948 -0.04548501 0.052109566 -0.016621973 -0.071143545
-0.06617772 0.060470287 -0.03568157 -0.08545234 -0.054695107 0.048806563 -0.106541455 -0.0074423105
0.016418904 -0.035871267 -0.027633768 -0.033939555 -0.011424697 -0.08794034 -0.018280577 -0.080185264
-0.08513721 -0.049390446 -0.09284335 -0.009231949 -0.055071995 -0.053149946 -0.071187764 -0.042340435
-0.041930374 -0.03608342 -0.13291615 -0.072254546 -0.073328 -0.017083313 -0.05823185 -0.0019755557
-0.100384735 -0.048082225 -0.11350729 -0.010878034 -0.041480526 -0.124767914 -0.0909404 -0.08712631
-0.0023162353 -0.029022895 -0.07565796 -0.13387926 -0.04497193 -0.074887194 -0.10932292 -0.053880863
0.0036471111 -0.04683723 -0.025815424 -0.05137759 -0.092936106 -0.07064671 -0.018610887 -0.06453613
-0.087019056 0.0041270237 0.010847421 -0.069487214 -0.10361641 -0.12030677 0.05894735 -0.024931751
0.009999938 -0.05070136 -0.07471907 0.012751682 -0.07307511 -0.08609896 -0.050459567 -0.119525075
-0.027615571 -0.030386861 -0.015077566 -0.13797912 0.11657251 -0.09330246 -0.070302695 -0.024934333
-0.04119273 0.025254505 -0.04450753 0.086961195 0.038130183 -0.090247795 0.020958943 0.08284472
-0.06803629 -0.11413275 -0.056972153 0.009905768 0.0014616863 -0.105430305 -0.073904425 -0.039555367
-0.024721356 -0.07527123 -0.020251801 -0.10265294 -0.08211701 -0.010086846 0.03318992 -0.07554544
0.0026036622 -0.02011735 -0.01628638 -0.09773444 0.061057806 -0.051695667 -0.10546652 0.08407333
-0.055133156 -0.061544564 -0.003057889 0.04244521 0.10458223 -0.03157064 0.03186521 -0.088812225
-0.02561093 0.0010611488 0.02663586 -0.03934553 0.10943223 -0.12756665 -0.023558177 0.013345489
0.08482044 -0.049539592 -0.05894284 0.028341379 0.007365813 -0.09056267 -0.024912903 0.02731408
-0.04890114 0.02953753 -0.024059514 -0.018327212 0.005373261 -0.0430533 -0.079600215 -0.04568544
-0.086986095 -0.025968214 -0.0039758803 -0.062575415 -0.023126703 0.06965362 -0.063118204 0.049621522
00000000: 50d7 54b9 834d 3e3d c194 e0bb aa3e b63d
00000010: 3d56 49bd ac7d 63bd 43bb 5cbc a2d0 623c
00000020: 9143 4cbd e0ae e43a 9de1 783c 8a72 85bd
00000030: f612 02be 1461 51bd e948 babd 904c 553c
00000040: ef9e 793d ebe9 cf3c 24c9 d6bd 636e b73b
00000050: 618e bebd 614b f6bd 180a 973c c8e4 1ebe
00000060: 8f7b 2ebd 8879 a8bd 7b7e 88bd e260 1fbe
00000070: f561 dcbc 85a7 e0bd 67b8 7bbd b327 aebd
00000080: 255d 61bd 3da2 94bd 2a5a b4bd cfc4 8dbd
00000090: d646 c3bd c64b 1f3d 05cf 36ba 60c4 9cbd
000000a0: aecd 25bd fe7f 0fbe fcde 85bd dfd8 70bd
000000b0: 30ec bbbd 81c8 81bd 708a d23b 32c7 c7b8
000000c0: a020 74bd 16eb c3bc 0d58 a9bd 136a 1dbd
000000d0: a981 513c 9b52 62bd 2845 06bd 1e8a 5dbd
000000e0: 63c2 72bd 3d11 80bd f5f6 543c 8057 513d
000000f0: 1874 913d 42ca 0abe f30f e53c d739 c5bd
00000100: e66e a7bc 1ab4 ddbc cdbd 24bd f617 09bd
00000110: 374a d4bd 9319 3cbd 2954 c7bb a530 e2bc
00000120: 5202 2dbd 14a8 9fbc f398 d93d 9135 a33d
00000130: 5507 44bd 26d7 f0bc 4d66 073d 8ebd 05be
00000140: 0fff 373b dbef 5abc 4dec 7cbd 682f 4abc
00000150: 9d15 8ebd 3bcd a6bd 26ae 36bd b851 52bc
00000160: 9eef 443d aa16 69bd 9b29 86bd 37a6 a3bd
00000170: 91a4 6bbd 0485 9a3d bc0d b2bd 64e6 bebc
00000180: 420e f33c e51f 39bc 4371 6abd 0631 2b3d
00000190: 7d4e 3abd d770 553d ce2a 88bc b5b3 91bd
000001a0: 2f88 87bd b1af 773d d726 12bd a301 afbd
000001b0: fa07 60bd 64e9 473d 6832 dabd a0de f3bb
000001c0: f080 863c c0ed 12bd 3660 e2bc 3404 0bbd
000001d0: a72e 3bbc 111a b4bd 26c1 95bc 2c38 a4bd
000001e0: 6b5c aebd a34d 4abd a724 bebd 9a41 17bc
000001f0: 2c93 61bd c2b3 59bd e4ca 91bd 2a6d 2dbd
00000200: 2fbf 2bbd 35cc 13bd 2c1b 08be 31fa 93bd
00000210: fe2c 96bd 4ef2 8bbc 8584 6ebd 5378 01bb
00000220: 8396 cdbd def1 44bd 8376 e8bd c839 32bc
00000230: 7ce7 29bd 5286 ffbd f63e babd 476f b2bd
00000240: fbcb 17bb 6cc1 edbc 8ff2 9abd a517 09be
00000250: 7d34 38bd 755e 99bd b2e4 dfbd 2eb2 5cbd
00000260: 5f04 6f3b 65d8 3fbd de7a d3bc 4f71 52bd
00000270: 4955 bebd 39af 90bd dc75 98bc 852b 84bd
00000280: 0c37 b2bd fc3b 873b 62b9 313c 504f 8ebd
00000290: d734 d4bd 6563 f6bd c772 713d ac3d ccbc
000002a0: c8d6 233c 3bac 4fbd 5006 99bd 6eec 503c
000002b0: 67a8 95bd a754 b0bd b1ae 4ebd 90c9 f4bd
000002c0: 0d3a e2bc deed f8bc e507 77bc 664a 0dbe
000002d0: 91bd ee3d 5c15 bfbd dcfa 8fbd 1643 ccbc
000002e0: b5b9 28bd 89e2 ce3c 874d 36bd b618 b23d
000002f0: 652e 1c3d d6d3 b8bd 17b2 ab3c 7eaa a93d
00000300: 9c56 8bbd 6ebe e9bd a25b 69bd cd4b 223c
00000310: 0e96 bf3a d8eb d7bd 345b 97bd cf04 22bd
00000320: 7184 cabc cd27 9abd 1be7 a5bc b43b d2bd
00000330: f72c a8bd 4c43 25bc 27f2 073d 91b7 9abd
00000340: 34a2 2a3b 24cd a4bc 046b 85bc fe28 c8bd
00000350: c017 7a3d d6be 53bd d5fe d7bd a32e ac3d
00000360: 4ed3 61bd 2716 7cbd dd66 48bb 07db 2d3d
00000370: 352f d63d 3750 01bd 1885 023d 2fe3 b5bd
00000380: 03ce d1bc 3f16 8b3a 7233 da3c c728 21bd
00000390: 011e e03d d5a0 02be 14fd c0bc 0aa7 5a3c
000003a0: 57b6 ad3d 07ea 4abd 0c6e 71bd 2e2c e83c
000003b0: eb5c f13b ec78 b9bd 2516 ccbc c7c1 df3c
000003c0: 904c 48bd b1f8 f13c 7518 c5bc f322 96bc
000003d0: 2e12 b03b a858 30bd 7005 a3bd a820 3bbd
000003e0: c425 b2bd 4bbb d4bc 1a48 82bb 8a27 80bd
000003f0: 3674 bdbc 8fa6 8e3d 1e44 81bd f03f 4b3d

bias f4 [100]
0.06551288 -0.11822642 -0.074307755 -0.052208375 -0.1024977 -0.04562529 -0.04522714 -0.07858547
-0.019122137 0.08941517 -0.08516884 -0.030810334 0.007564971 -0.14294066 0.059603043 -0.03523157
-0.17849012 -0.047238722 -0.11838834 -0.047984406 0.039584577 -0.09581959 -0.043284804 -0.07075024
-0.021667685 -0.08219861 -0.16146731 -0.085232176 -0.102336995 0.02898531 -0.016101383 -0.091705844
-0.110803485 -0.114940554 0.034336265 0.054669395 0.0020785457 -0.007654947 0.106668316 -0.02417424
0.0070726164 -0.024922786 -0.09812367 -0.09313285 0.044902988 -0.13382691 -0.06888586 0.14983773
-0.08355049 -0.054523397 -0.07869916 -0.07962804 -0.14414342 0.0848933 0.05934799 0.07106234
-0.046772365 -0.046791334 -0.10278732 0.08632928 -0.07268373 -0.10888105 0.09390897 -0.04797558
-0.078855544 -0.074734144 0.042183198 0.09591018 -0.110205814 -0.09353866 -0.09691464 0.04790719
-0.05065411 -0.043461356 -0.0751709 0.0490153 -0.037760027 -0.038714577 -0.041417945 -0.10615608
-0.06307951 0.07160831 -0.09759407 0.090670705 -0.10990719 -0.08673874 -0.10888631 0.058341093
-0.030507153 -0.007543574 -0.05456407 -0.05163853 -0.025252989 0.034589317 -0.09792885 -0.051865954
-0.026627377 -0.07396044 -0.10454778 -0.057950873
00000000: 9e2b 863d b120 f2bd aa2e 98bd 73d8 55bd
00000010: 50ea d1bd 96e1 3abd 1840 39bd 6bf1 a0bd
00000020: 07a6 9cbc 4d1f b73d 006d aebd f465 fcbc
00000030: 94e3 f73b 095f 12be 5222 743d fb4e 10bd
00000040: 1dc6 36be 647d 41bd 9675 f2bd 4c8b 44bd
00000050: 7023 223d 103d c4bd 684b 31bd 80e5 90bd
00000060: 6e80 b1bc bf57 a8bd b057 25be 358e aebd
00000070: 0f96 d1bd 9a72 ed3c 0ce7 83bc 46d0 bbbd
00000080: f0ec e2bd f465 ebbd 2fa4 0c3d 04ed 5f3d
00000090: 3638 083b 5ad6 fabb eb74 da3d 0e09 c6bc
000000a0: 68c1 e73b df2a ccbc 10f5 c8bd 70bc bebd
000000b0: 32ec 373d ec09 09be 0814 8dbd 106f 193e
000000c0: 851c abbd ed53 5fbd 062d a1bd 0714 a3bd
000000d0: 559a 13be 8adc ad3d e116 733d 2289 913d
000000e0: 6194 3fbd 45a8 3fbd 2982 d2bd 68cd b03d
000000f0: 35db 94bd 07fd debd 5953 c03d 0b82 44bd
00000100: 047f a1bd 370e 99bd 4ac8 2c3d 8e6c c43d
00000110: 96b3 e1bd 3291 bfbd 2f7b c6bd 543a 443d
00000120: af7a 4fbd 8904 32bd 33f3 99bd 44c4 483d
00000130: 42aa 1abd 2d93 1ebd dda5 29bd 5c68 d9bd
00000140: d52f 81bd 61a7 923d 66df c7bd 90b1 b93d
00000150: 0517 e1bd 15a4 b1bd c9ff debd 12f7 6e3d
00000160: 23ea f9bc 1630 f7bb 937e 5fbd ec82 53bd
00000170: 5bdf cebc 87ad 0d3d ec8e c8bd 6571 54bd
00000180: a821 dabc 9278 97bd 251d d6bd e55d 6dbd

weight f4 [1, 100]
-0.05549154 -0.03752825 -0.020682164 -0.013518327 -0.03204818 -0.06402016 -0.026166605 -0.054244183
0.019726753 -0.12034886 -0.036542933 -0.06934164 0.0031154507 0.016292255 -0.20172475 -0.23510677
0.1190711 1.2081569e-05 -0.025819045 0.0619559 -0.1414452 -0.00925263 0.036399025 0.011639314
0.022770584 0.0544556 0.008838448 0.048357993 -0.03859716 -0.1958264 0.050528243 -0.009776981
-0.006122784 -0.06527441 -0.08338411 -0.40377608 -0.023846231 -0.1856211 -0.006037592 0.004117056
-0.07554473 0.031410445 -0.011679674 -0.06496877 -0.04980523 -0.028986644 0.026364818 -0.40648463
0.025075136 0.011889044 -0.066624396 -0.0031730006 -0.05807167 0.057466228 -0.09674011 0.057755884
0.018877521 -0.022294406 -0.02565873 -0.41109756 -0.07657553 -0.03918112 -0.41126975 0.030110927
0.06046411 0.04583452 -0.11680186 -0.34430948 -0.05713622 0.01104114 0.027062638 -0.21383156
-0.01557406 -0.037303135 -0.0051078643 -0.155472 -0.06674968 -0.023381315 0.029785048 0.028719522
-0.009898282 -0.18453833 0.015709862 -0.053765748 0.038819164 -0.0127445115 -0.06637175 -0.016142134
-0.033176456 -0.05252148 0.016636029 0.0129122855 0.0043126936 -0.0046288995 0.012767801 -0.0048625777
0.0067083132 -0.042163424 0.050057936 0.010340607
00000000: 194b 63bd 39b7 19bd a46d a9bc f97b 5dbc
00000010: f444 03bd 001d 83bd 595b d6bc 262f 5ebd
00000020: 009a a13c 7779 f6bd 0bae 15bd fd02 8ebd
00000030: 972c 4c3b 5677 853c ef90 4ebe d4bf 70be
00000040: 8ddb f33d f2b1 4a37 7682 d3bc 78c5 7d3d
00000050: 03d7 10be 5898 17bc 2517 153d d2b2 3e3c
00000060: 6089 ba3c d60c 5f3d 23cf 103c 0813 463d
00000070: 0e18 1ebd b786 48be b4f6 4e3d a12f 20bc
00000080: a3a1 c8bb 97ae 85bd 4ac5 aabd bdbb cebe
00000090: 2c59 c3bc 7513 3ebe fed6 c5bb 5ee8 863b
000000a0: 32b7 9abd 3da8 003d 1a5c 3fbc 590e 85bd
000000b0: 9200 4cbd 6675 edbc 08fb d73c c11e d0be
000000c0: 5f6a cd3c 44ca 423c 5f72 88bd 1ef2 4fbb
000000d0: 8fdc 6dbd b561 6b3d ae1f c6bd 6f91 6c3d
000000e0: 08a5 9a3c c2a2 b6bc 4232 d2bc 617b d2be
000000f0: a2d3 9cbd 627c 20bd f391 d2be 31ab f63c
00000100: 37a9 773d fabc 3b3d d035 efbd 5549 b0be
00000110: ab07 6abd e6e5 343c 77b2 dd3c a9f6 5abe
00000120: 582a 7fbc 2ccb 18bd df5f a7bb 0d34 1fbe
00000130: 0eb4 88bd 2c8a bfbc c6ff f33c 3445 eb3c
00000140: 672c 22bc 9ef7 3cbe f8b1 803c 7939 5cbd
00000150: d800 1f3d 5bce 50bc e9ed 87bd 823c 84bc
00000160: 09e4 07bd c320 57bd 4848 883c 0d8e 533c
00000170: 7f51 8d3b 06ae 97bb 0a30 513c 4256 9fbb
00000180: 69d1 db3b 8eb3 2cbd 8d09 4d3d a66b 293c
