Gibbs_MINE/pw_res/model_lk_b=10_s=0.5_p=25.pth (torch, 205015 bytes, 5 tensors)

weight f4 [400, 25]
00000000: ad68 e73d 6333 653e 3ca8 b63e b0df aabc
00000010: f474 2f3d 77f1 563e 7c84 a23d 2672 bfbd
00000020: d924 84be 823e 48be 345b 5a3e ccab 09bd
00000030: b13a cf3b 3560 7cbc c61e b83d bd4b 403e
00000040: d798 a73d 8d41 06be a6f2 aebe d733 bbbd
00000050: 23c2 c93e ccfb 8bbe a0c7 2b3c ea31 023e
00000060: 707a a7be 8bb4 723e 6754 853e d53a 3dbe
00000070: 4d6c 5b3d 5245 8c3d 469f 6f3e dde6 bdbb
00000080: a620 6e3e 14a7 8b3d b826 963e dae3 46be
00000090: 8aec 393d 8152 433c 6484 90be 53ef 9bbe
000000a0: f98e 023e 8f11 4e3e 4353 d9bd 17e6 ea3d
000000b0: 7321 22be 3946 15be e9d2 0b3e ba0d 96be
000000c0: 914d bf3c ff52 e83c f84d 1e3e 0127 10bd
000000d0: f705 1f3e a4ab 1b3e a770 8fbd 5bbf a53d
000000e0: 12a7 173e ecd2 9bbb 3e93 03bd 1108 4cbd
000000f0: ebeb 8b3e 16e4 e5bc 4667 03be 80bd eebd
00000100: 91ff a23e 1c04 16be 98a7 ee3c 9d75 4c3d
00000110: b860 1dba f40b 58bd 524a 943e 8737 c5bd
00000120: 8688 fb3d 8007 0e3e 6fb9 92be d15a 0b3d
00000130: e250 663d 3c8c 72be c1d5 1a3e b041 cdbe
00000140: 9ece 003e ee20 063e 73c6 b1be 2a25 90bd
00000150: afe7 a6be e834 833c 2318 a33d 3641 203d
00000160: 9c86 853e 63aa 713e abbc 19be a1c1 d9be
00000170: c4b6 2b3e 6ddb bd3d f678 193c af33 523d
00000180: 442e cbbd 43d4 6f3d 5812 0c3e 6866 5e3d
00000190: 2259 9dbe 2223 60bd 7022 6bbe 9eb3 e1bd
000001a0: f107 703d e692 473e 5e70 60bd 643f 9abe
000001b0: 9629 abbc ff4a 2e3e 6c5c fe3d 9677 c93d
000001c0: 4187 953e c0d1 053d b9a8 aabb b060 8a3e
000001d0: 642d 6e3e 1fc7 5bbe 1f69 053e 8778 94be
000001e0: 6fd5 35be 22a3 3abc 7847 b7be 5ec0 b8be
000001f0: 74ac b53c 9403 d5bd 895a 0a3d 275f 99bd
00000200: 8a7d 083e 7101 8f3e 6b3f 3fbe a4fd e2bd
00000210: d044 90bc ac26 f43c 60e2 a9bd 190a 21bd
00000220: c9d0 2abe 3185 993d 8e1f b7be 982c 843e
00000230: ad80 323e 9c2b c43e 565d c7be 5550 6abd
00000240: 2377 34be 10a8 d13d 5a97 75be 3baf 07be
00000250: 7a3a 833a 032a 8ebd e6df 69bc 4378 31be
00000260: e46e c2bd 28f7 76bc 40a2 7a3e 0094 883e
00000270: dbcb 7f3e 902c 41be cc91 623e d6c2 e1bb
00000280: 90c3 5dbe 8f2b 123e 9757 c83d 6e1d 3a3c
00000290: 7c52 e1bd 3eb1 89bd daca 0b3e f6a4 f83d
000002a0: 4915 353e d528 77be 5258 8e3d 44bb b63d
000002b0: 48cb fb3d a7cb 12be 4b62 bcbc 44fe f03d
000002c0: beba 363e 8e16 ee3c 2e3f 70be f37b 83bd
000002d0: 38a6 553e 7d1b 9abc ddb5 23bd 6030 ad3e
000002e0: fb23 adbe a956 7f3e afee 0d3e e1e8 623d
000002f0: fbaa 2abe cc12 bb3d 1d5f 1c3e a00f f53d
00000300: b0ac adbe 877b e23d b249 a6bd 1232 1e3e
00000310: f9df fabd 0cf8 0b3d 22b5 06be ef25 95be
00000320: 3f50 1c3e 127d 623d ca60 afbc a049 a03d
00000330: 331c 93be e310 95be bd34 9a3e 3f5a e63d
00000340: e34b 8d3e 3dca 523e a9fb 573e 5bbe d9bc
00000350: 672b ef3d 7b3c 483e f6f1 b93c 6e4a 5fbe
00000360: 6f90 46be c3d3 e2bd a30e 77be 3072 32bb
00000370: 2902 743d c948 883d cde4 893b ea3d cdbd
00000380: 02f6 9ebd ccd8 ab3e 759b 1d3d ce2c bd3d
00000390: 67a7 293d 0e13 eebd 95d4 78bd 549f 4a3e
000003a0: 8f99 0d3e 9940 77be 31d5 b73d 0401 b03d
000003b0: 5f31 35be f569 3cbe 7428 f33c ca3c 23be
000003c0: 6de0 113e 7e8e f83d 1173 2a3e e1ae 0e3e
000003d0: a6fa 90be 41d4 bbbc 436e 88be 1f82 bb3d
000003e0: 3868 2abe a48d b2b9 8cce 3cbd 9641 a53d
000003f0: 7df7 053e ed41 993c 84d2 80ba bfc1 80be
0.11299262 0.22382884 0.35675228 -0.020858616 0.042836145 0.20990549 0.07935426 -0.09347944
-0.25809363 -0.19555095 0.21323854 -0.033611104 0.006324135 -0.015403797 0.089902446 0.18778892
0.08183449 -0.13110943 -0.341695 -0.09140747 0.39405927 -0.27340543 0.010484606 0.12714353
-0.327106 0.23701684 0.26040956 -0.18479474 0.05357008 0.06849159 0.23400602 -0.0057953433
0.23254642 0.06818977 0.29326415 -0.19422856 0.045391597 0.011921526 -0.28226006 -0.30456027
0.12749852 0.20123886 -0.10611584 0.114696674 -0.15833072 -0.14577569 0.13654675 -0.29307348
0.023352416 0.028359888 0.1545943 -0.035193447 0.15529619 0.15202194 -0.070039086 0.08093139
0.14809826 -0.0047553685 -0.032122843 -0.04981238 0.2732843 -0.028062861 -0.12832364 -0.11657238
0.31835607 -0.14650005 0.02913265 0.049916852 -0.0006003487 -0.052745774 0.28962952 -0.096297316
0.12281899 0.13870049 -0.286571 0.034022156 0.05622948 -0.23686308 0.15120603 -0.40089178
0.12578818 0.13098499 -0.34721717 -0.070383385 -0.32598636 0.016016439 0.07963588 0.03912469
0.2607926 0.23600154 -0.15013377 -0.4253054 0.16768938 0.09270368 0.009367218 0.05131882
-0.09920934 0.058552038 0.13678873 0.05429688 -0.30732065 -0.054721005 -0.22962356 -0.110205874
0.058601324 0.19489631 -0.05479466 -0.30126488 -0.020893853 0.17020796 0.12419972 0.09837262
0.29204753 0.032670736 -0.0052081016 0.27026892 0.23259503 -0.21462677 0.13028382 -0.28998205
-0.177572 -0.011391433 -0.35796714 -0.36084265 0.022176959 -0.10401073 0.033777747 -0.07488852
0.1332914 0.27930787 -0.18676536 -0.11083534 -0.017610937 0.029803596 -0.08295131 -0.03931627
-0.16681208 0.07496107 -0.35766262 0.25815272 0.17431898 0.3831452 -0.38938397 -0.057205517
-0.17623572 0.102371335 -0.23983517 -0.13250439 0.0010011934 -0.06941607 -0.014274573 -0.17331032
-0.09493807 -0.015073575 0.24475956 0.26675415 0.24980108 -0.18864655 0.2212593 -0.0068896813
-0.21656632 0.14274429 0.097823314 0.011359556 -0.11002061 -0.067232594 0.136516 0.12140839
0.17683901 -0.2413667 0.069504395 0.08922437 0.12294632 -0.143355 -0.022996088 0.11767247
0.17844674 0.02906349 -0.23461601 -0.06420126 0.20864189 -0.018811936 -0.03996836 0.3382597
-0.33816513 0.24935402 0.13860582 0.055397872 -0.16666786 0.091344446 0.15270658 0.11965871
-0.33920813 0.11058717 -0.08119525 0.15448788 -0.12249751 0.034172103 -0.13155034 -0.29130504
0.15264986 0.055295058 -0.021408457 0.07826543 -0.28732452 -0.29114446 0.3011836 0.11247682
0.2759696 0.2058496 0.21092094 -0.026580026 0.116782 0.19554321 0.022698384 -0.21805736
-0.19391035 -0.110755466 -0.24126677 -0.0027228706 0.059572373 0.06654508 0.0042081834 -0.10021575
-0.07761766 0.3356384 0.038478334 0.092370614 0.041419413 -0.11624728 -0.06074961 0.19787341
0.13828109 -0.24145736 0.0897621 0.08593944 -0.17694615 -0.18399794 0.029682375 -0.15941158
0.14245768 0.12136553 0.16645457 0.13933899 -0.2831623 -0.022928359 -0.26646623 0.09155678
-0.16641319 -0.00034056336 -0.046095416 0.0806915 0.1308269 0.018708194 -0.0009828364 -0.25147817

bias f4 [400]
00000000: a86e 37be 4541 acbe e951 a7be b986 36be
00000010: 6007 bebd e421 a0be 8b53 82be 55f0 8cbe
00000020: 804f 5abe 2989 e8bd 98f0 f0bd c780 f53d
00000030: f14f 08be dbdd 3fbd 771c 82bd 1e51 12be
00000040: 83af dabd 633f 75be 5641 c4bd a736 3cbe
00000050: 5925 8ebe 6475 9e3d 401a 48be 106f 51be
00000060: afad 493c 19e0 ad3c e719 73be 6ffa 7abe
00000070: adda 6fbd 7adf f0bd 17e2 d5bd c100 88bc
00000080: c8dd 16be 7a8c 1bbe 422a a0be 7f8e a6be
00000090: 5786 b4be 20ac 00be b2f6 11be e3ca acbe
000000a0: 5435 04be 29f0 12be cab6 c1be a1d4 9bbe
000000b0: db71 61be e360 02be b7dc f1bc 662b 6fbe
000000c0: 43e0 6bbe 41b5 68be 19d9 563d d592 43be
000000d0: c0b4 56be f0ed d8bc 590f 45be ce10 943d
000000e0: fb4f b7be 33b8 f7bb fd02 a1be e75e d5bd
000000f0: c720 1abe ed74 da3d 5e69 73be e832 25be
00000100: 7eaf 19be e964 d8bd d7e2 81bd 716a a1be
00000110: cdc9 50be e858 44be a007 d13c 9451 58be
00000120: 68e0 6abe ffcf 083e 828a 84be d8d3 10be
00000130: 4480 b2bd 3edb efbc 4350 bcbe 6525 75be
00000140: a899 9bbe 2f03 f4bd 70dc 51be 30b5 86be
00000150: 5cec da3c e29e 63bb 4796 21be f380 83be
00000160: a1cb c8be 512a 233e 44e4 bebd 769c 95be
00000170: 9910 2dbd 5a58 583b b75f dfbd d48c debd
00000180: df08 3a3d 6d4d f0bd 828e 35be 5a0c 0abe
00000190: a761 e7bd 9f7a b8be 202a afbd 678c 65be
000001a0: 8179 17be b4c3 33bd 360b d93c f16e 54be
000001b0: d5f2 05be e74a cbbe 4d2b 36be 9aab 12be
000001c0: a9db bdbe 7d83 79be be9b de3d 5d4e 01be
000001d0: 6f3d d2bd 3efa 123d 4d3e 9ebd 5a96 ab3c
000001e0: cc80 85bc 8fae fbbd d1df 86be 2737 12be
000001f0: 4376 b23d 2124 333e b817 d3bd 1198 f0bd
00000200: 1a15 babc 4b83 8dbe 252b a5be 694f 4abe
00000210: 7a29 b53d 36ce b3be 18a2 21be 854f 08be
00000220: 0598 7fbd a937 123d 5b6d 3cbe 5f72 97be
00000230: d208 2ebe aacf 43bd b8aa 99bd 1edc 87bd
00000240: 36e0 90be 91ed c1bd 9070 0ebe 504c b9bd
00000250: d868 8dbc eda0 57be 37ba 92bd 9f07 eabc
00000260: 0cbf 86be 66fa 34be b8cc f3be 7212 05be
00000270: 06f9 39bd d387 02bd 9559 afbe 7a11 62bd
00000280: 833f 953d bdff ea3d a186 81be 9cf2 a43d
00000290: d47a 0bbe 8634 46be 5e85 94be 57fd 70bd
000002a0: 100a 5ebe d679 16be fa19 a8be 8fd3 dbbe
000002b0: 9e4f 9fbd f26b 56bc eb26 adbe 5d47 4ebe
000002c0: 90f6 ffbc c75e 86be 99c6 3fbe 3e5e fa3d
000002d0: 2959 07be 598a 6bbe 3191 77be c09d 82be
000002e0: d3d6 25be c878 c5be 6b86 62be fd81 8ebe
000002f0: 0035 2ebe f96e de3d 7a8d 53be 3ba1 21bd
00000300: 8418 87be 8842 e7be 25a8 5bbe 6bc9 71be
00000310: 177d 2dbe f26a 71be bdc3 13be 413e 0abe
00000320: 5e23 46be 33cd 98bb e51f 2abe d72c 5ebe
00000330: 2a77 1dbd d76e 2fbc e903 9bbd 9731 3ebe
00000340: 7607 8abd 78dc 8dbe 21c4 8cbe 01e7 33be
00000350: 0cc4 acbd 2cb0 89bd 5adc 6abe 5572 06be
00000360: a482 ccbd fe14 12be 1c38 a5bd 8fdc 8f3d
00000370: 142a 91be ab87 283c eea0 6fbe 834f 83be
00000380: 131f afbe 9759 3c3d 8e43 e5bd 83af 1c3d
00000390: 0ac3 81be a6e3 33be d36f 80be ef51 b1bd
000003a0: a656 f93c 35dd 4fbe 08ca c4be 620a 5a3d
000003b0: a230 5cbd da0c a2bd 8a62 6abe befb f7bd
000003c0: 9b57 06be 7677 f4bd 422a 59be daec be3e
000003d0: 9de1 93be 5c55 08be ff9f 82be 3de9 49be
000003e0: 32f0 0bbe 529c 34be 7a59 5ebe f6d5 b5bc
000003f0: 8e09 583c d936 913d 730d 2bbc 2595 9b3c
-0.17913306 -0.33643547 -0.3267968 -0.1782483 -0.092787504 -0.31275856 -0.25454363 -0.2752711
-0.2131939 -0.11354286 -0.117646396 0.11987453 -0.13311745 -0.046842437 -0.063530855 -0.14288756
-0.106780075 -0.23949961 -0.09582774 -0.18380223 -0.2776287 0.07737234 -0.19541264 -0.20452523
0.012309476 0.021225022 -0.2374035 -0.24509595 -0.058558155 -0.11761375 -0.10443514 -0.016601922
-0.1473304 -0.15190306 -0.3128224 -0.3253059 -0.35258743 -0.1256566 -0.14254263 -0.3374854
-0.12910968 -0.14349426 -0.3783477 -0.3043566 -0.22016089 -0.12732272 -0.02952419 -0.23356399
-0.23034768 -0.22725393 0.052453134 -0.1909898 -0.20967388 -0.026480645 -0.19244136 0.07229768
-0.35803208 -0.0075598 -0.31447592 -0.10418492 -0.15051566 0.10666833 -0.23770663 -0.161327
-0.15008351 -0.10566122 -0.063420944 -0.3152652 -0.20389481 -0.1917454 0.025516331 -0.2112487
-0.22937167 0.13360594 -0.25886923 -0.14143312 -0.08715871 -0.029279348 -0.36779985 -0.23940046
-0.30390668 -0.1191467 -0.20494246 -0.2631011 0.026724033 -0.0034732153 -0.15779983 -0.25684318
-0.39217857 0.15934111 -0.09320882 -0.29220933 -0.042252157 0.0033011646 -0.10906928 -0.108667046
0.045418616 -0.11733518 -0.17730144 -0.13481274 -0.112979226 -0.36031052 -0.085529566 -0.2241684
-0.14792444 -0.04388781 0.026494604 -0.20745446 -0.13080914 -0.39705583 -0.17789955 -0.14323273
-0.3708165 -0.24366565 0.10869549 -0.1262755 -0.10265624 0.03588318 -0.07726727 0.020945717
-0.016296767 -0.12289154 -0.26342633 -0.14278851 0.08713963 0.17494251 -0.10307258 -0.11747754
-0.02271514 -0.2763923 -0.3225948 -0.19756855 0.08845802 -0.35118264 -0.1578449 -0.13311584
-0.062400836 0.035697613 -0.18401091 -0.29579446 -0.16995552 -0.047805466 -0.07503265 -0.06633781
-0.2829606 -0.0946914 -0.13910127 -0.090477586 -0.017261907 -0.21057482 -0.07164424 -0.028568087
-0.26317632 -0.17673644 -0.47617126 -0.12995318 -0.045403503 -0.031867813 -0.34248033 -0.05519245
0.072875045 0.114745595 -0.25298026 0.080540866 -0.13621074 -0.19355974 -0.29008 -0.058835354
-0.21683526 -0.14694914 -0.3283232 -0.42934844 -0.07778858 -0.01308726 -0.33818755 -0.2014441
-0.0312455 -0.26244184 -0.18728103 0.122250065 -0.13217606 -0.23001994 -0.2417648 -0.2551098
-0.1619523 -0.3856871 -0.22121589 -0.27833548 -0.17012405 0.1086101 -0.20659438 -0.039460402
-0.2638589 -0.45167947 -0.21450861 -0.23611991 -0.16942249 -0.23575953 -0.14430137 -0.1350031
-0.19349429 -0.0046631335 -0.1661373 -0.21696793 -0.03844372 -0.010707579 -0.07569105 -0.18573605
-0.06739704 -0.27707267 -0.27493384 -0.1756859 -0.084358305 -0.06723055 -0.2293562 -0.13129552
-0.09985855 -0.1426582 -0.08067343 0.0702449 -0.28352416 0.010286252 -0.23401234 -0.256466
-0.34203395 0.045983877 -0.11194526 0.03825332 -0.25344115 -0.1756731 -0.25085315 -0.08658206
0.030436825 -0.20299228 -0.38435388 0.053232558 -0.053757317 -0.079126075 -0.22889152 -0.12108563
-0.13119356 -0.11936848 -0.21207526 0.37290078 -0.28883067 -0.13313812 -0.25512692 -0.1971788
-0.13665846 -0.17637756 -0.2171382 -0.022196751 0.013185872 0.070905395 -0.010440218 0.018992016

weight f4 [100, 400]
00000000: 5596 593e d08a 203e 2075 fb3d 31fe 343e
00000010: f6c8 033e eb49 2a3e dcab 023e f645 383e
00000020: 619b fe3d 0011 413d 285b ce3c 3ec9 a63e
00000030: eb98 e73d 9b89 873d 9ddf db3d 970b d53d
00000040: 9f1f 423d 2264 483d 1795 a33d 4be7 ff3d
00000050: fb3d 053e cf3a ba3d 52a3 713d a4e3 a83e
00000060: 2038 f73d c80c 9f3d 53ba e83d 322f b73d
00000070: fe05 e43d 62be be3d 215e fa3d ed12 713d
00000080: 9a58 063e 4728 be3d cf98 913d cb0b 183e
00000090: 4cd0 533e 32b3 aa3d 4427 c53d 2e89 873d
000000a0: 3062 043e b8cd 403e e18e 243e 0184 fd3d
000000b0: 367a d33d 05fe 1b3e 142d d83d 4880 233e
000000c0: a9f8 743d 50e0 c63d 53f6 073e 656a 1e3e
000000d0: a297 d63d 26aa bc3d 9b14 1a3e 59dd 643e
000000e0: 2b42 cd3d 7d9d d23d 2f42 5f3e 681f d73c
000000f0: 861e cb3d 18b2 293e 5f12 e03d dc35 fb3d
00000100: 6749 d5bc 66c0 f83d bce6 e33d e949 d93d
00000110: a789 263e 01b4 033e 838f 9c3d 86f2 9c3d
00000120: ba40 0a3e e536 183e 37f3 103e 8acf ac3d
00000130: 9fee ae3d 21d9 813d 6ec3 3a3e b390 ea3d
00000140: f187 853d 61cc 833d 7c2b c53d c4f5 ae3d
00000150: cf5f 523e 2fb0 983d e299 003e c9ba ee3d
00000160: bee6 0d3e bc00 073e 64fe 003e 5551 9f3e
00000170: a0a6 f03c 20b3 063e c239 503e af35 e43d
00000180: 1856 733d e006 b63d 48f6 bd3d a886 aa3d
00000190: a9c0 703d b491 9a3d c4d4 aa3d 467d 2d3d
000001a0: 3b5c 893d 2e46 bd3d a66f 0d3d 4f84 a53d
000001b0: 022e d53d 7360 e03d ff54 943d ba44 583d
000001c0: 9788 773e 94d9 453e 4c02 613d 206d b73d
000001d0: aa49 1d3d ff9c ef3d 1f31 f73d 02e2 473e
000001e0: b4d4 873d 78a5 283e 6dea f03d ac7f 863d
000001f0: 3af1 843e aaa8 733e e2d8 8b3e c4f6 c63d
00000200: a345 e13c c998 173e 1623 953d d4b6 a13d
00000210: 8885 1a3d d675 a13e ebd9 c33d 66c6 ef3c
00000220: 08bc 393e d1b8 143d d78f 173e 149a 813d
00000230: a2d8 e43d 06fc 1a3e e89a 8e3d 4362 b13e
00000240: a52a 143e 9364 5b3d 6a2b 963d 1e28 c63d
00000250: 4338 873d 4df8 f63d 9391 bf3d fb82 173e
00000260: f146 803e b441 a83d c55e 593e b68e 043e
00000270: b5e0 193e daa6 fb3d 2197 363e 3fa3 2f3e
00000280: f6da fa3d 9a5b a03d 4b03 a73d 3d14 573d
00000290: 0158 9d3d d4b7 cf3d 4c8e c53d b2a0 d33d
000002a0: 6207 ac3d c8c2 003d 0240 ed3d 7a13 243e
000002b0: 4789 6b3d a2b4 ac3d 4ca2 4b3e 3891 8e3d
000002c0: fc3d a83d 4c96 103c 5c3f 2c3e 51c4 bd3d
000002d0: e7e1 703d 80eb f83d 999a 3f3e 5a0a d13d
000002e0: 16c2 fa3d f472 b33d 7ca4 923d 9aa6 db3d
000002f0: 149b e23d 4a1c 073e b059 c43d 3cc1 293e
00000300: 20da 353e f777 8f3d 86ba 1a3e e7f6 283e
00000310: 68b7 5e3d f8f6 9c3d 69d2 d73d 4189 813d
00000320: 39b1 913d ea7f 243e 3061 4f3d 7cb9 233e
00000330: c0b9 713d 027e a73d 0a8c 2a3e c50d 6c3d
00000340: c6d7 523d 693d 113e c2bc df3d 9236 a43d
00000350: 52ab f63d 9764 253e 458a f93d 9cf9 e33d
00000360: 3efb ecba 9dc5 143e d139 423e cf88 c53d
00000370: 9f39 213e bd29 9c3e aa7f 8c3d 8d7a 1b3e
00000380: 724f af3d e600 9c3d 2405 793d e621 b43d
00000390: 9d49 a43e 653d cf3d ed68 253e 714a 203e
000003a0: f133 2d3e 7f3a 9a3d 3ef2 563e c0c3 453e
000003b0: 9690 053e 2f4f 9c3e 7fb9 1f3e dee1 c53d
000003c0: f3fd c83d fce1 de3d 8d81 383e f0ab 8e3e
000003d0: 8177 f33d 524e e33d e331 f63d 361c 023e
000003e0: 8c92 403d 6d44 c63d aaa9 f23d 9ebd a83e
000003f0: 9625 283e 7de0 e33d 3dc3 0d3e fe07 283d
0.21248753 0.15677953 0.12278199 0.17675091 0.1286963 0.1662976 0.12760872 0.17995438
0.1243198 0.047135353 0.025189951 0.3257541 0.11308464 0.06618043 0.1073601 0.10402601
0.047393437 0.04892362 0.07987421 0.124952875 0.13011925 0.09093248 0.058993645 0.32986176
0.12071252 0.0776611 0.113636635 0.08944549 0.111339554 0.093136564 0.12224985 0.05885594
0.13119736 0.09285026 0.07109224 0.14848249 0.20684928 0.0833496 0.0962663 0.06617962
0.1292808 0.18828475 0.16070129 0.12378693 0.10326044 0.1523362 0.10555473 0.15966904
0.059807453 0.09710753 0.13277559 0.15470274 0.104781404 0.09212141 0.15046923 0.22350062
0.10022386 0.10283945 0.21802591 0.026260093 0.09917931 0.16571844 0.10941004 0.12266132
-0.026035978 0.12146072 0.111279935 0.106098 0.16263448 0.12861635 0.0764456 0.07663445
0.13501254 0.1486469 0.14155279 0.084380224 0.08541607 0.06340242 0.18238613 0.114533804
0.065200694 0.064354666 0.096274346 0.0854297 0.2054436 0.07455479 0.12558702 0.1165672
0.13857552 0.13183874 0.12597042 0.3111674 0.029376328 0.13154268 0.20334533 0.11143052
0.059408277 0.0888803 0.0927549 0.08326465 0.058777485 0.07547322 0.08341363 0.0423558
0.06707045 0.09241901 0.034530304 0.080818765 0.10409166 0.10955896 0.07242774 0.052799918
0.24173199 0.1932128 0.05493383 0.08956361 0.03840033 0.116998665 0.12069916 0.19519809
0.06632367 0.16469371 0.11763463 0.0656732 0.2596529 0.23794809 0.27313906 0.097150356
0.027499026 0.14804377 0.07282083 0.078962 0.037725 0.31535214 0.09563049 0.029269408
0.18138134 0.036309067 0.14800964 0.06328216 0.11174132 0.15135202 0.0696314 0.3464528
0.14469393 0.053562712 0.07332499 0.096756205 0.06602528 0.12059078 0.09353938 0.14796059
0.25054124 0.08215657 0.21227558 0.12945065 0.15027125 0.12287684 0.17831089 0.17152117
0.12248795 0.078299716 0.08154925 0.052509535 0.07682801 0.10142484 0.096462816 0.103333846
0.08399846 0.031435758 0.11584474 0.16023055 0.057503965 0.084328905 0.1988613 0.06961292
0.082149476 0.008824896 0.16821045 0.0926596 0.058809187 0.12154293 0.18711318 0.102070525
0.1224405 0.0876216 0.07160279 0.10725136 0.11064735 0.13194385 0.09587419 0.1657762
0.1775899 0.07005303 0.15110216 0.16500436 0.05437413 0.07664293 0.105381794 0.06325007
0.07113881 0.1606442 0.050629795 0.15988725 0.059015036 0.08178331 0.16654983 0.05763032
0.05147531 0.14183582 0.109246746 0.08018221 0.120443955 0.16151653 0.12184576 0.111315936
-0.0018080247 0.14528508 0.18967368 0.09645235 0.15744637 0.30500594 0.068602875 0.15183468
0.08560075 0.07617359 0.060795918 0.08795528 0.32087412 0.10119132 0.16153307 0.15653397
0.16914345 0.075306885 0.20990846 0.19312954 0.13043436 0.30529162 0.15598105 0.09662221
0.09814062 0.10882947 0.1801817 0.27865553 0.11888028 0.11098923 0.12021234 0.12706074
0.047014758 0.0968102 0.11848767 0.32957166 0.16420588 0.11126802 0.13844009 0.041023247

bias f4 [100]
00000000: 32bd 0c3e 65c3 6ebd a52c 343d 68ec a33d
00000010: e265 adbd 44e2 0a3e f8a9 75bd 633f 6ebc
00000020: 9194 f9bd 9552 ddbd d3b2 cebd 8669 09be
00000030: f50e 49bd 2a61 27bd 63a6 9d3d 559e f4bd
00000040: 9b75 b4bc 737c 04bd 747e 96bd 25bc f63d
00000050: ce9f 81bd c739 38bd 6c2d 6dbd ce1c a1bd
00000060: 82a6 3fbd 7edb 2a3d e17a 86bd 736a 9bbd
00000070: 1f1f af3c eb0e cd3d d1d8 72bd f2b3 3e3c
00000080: f0c9 383d c949 4c3d 347d e7bb 10b4 b53d
00000090: 3588 cabd 40e7 b93c e91a b4bd cc25 ce3d
000000a0: f04f 4fbd 99fb 4cbd c562 fc3c 92c3 803d
000000b0: c443 a2bd bb3a 22bd b095 1bbe 17ff c9bd
000000c0: ba66 0c3b 2c38 a83d 688f a93d a7e4 cd3d
000000d0: 2b7f 4b3d 9033 65bd 8f48 ad3b 7cfd 9dbd
000000e0: 35cf 843d b8b3 10be 09b2 3d3d d6ef ee3c
000000f0: aafe 81bd c1cf 69bc 935b 30bd 8707 87bd
00000100: 2c9e b6bd 9a8b 123c 2096 c13d a4a9 fd3c
00000110: d3d9 93bd 67e6 42bd 19c0 27bb a576 58bd
00000120: e761 ac3d f809 89bd 32bf 7dbc c11f 11bd
00000130: 4f9a b5bd 1d4d 0bbd 1480 a6bd e16e c6bd
00000140: f07e 67bc f40a 88bd 5ad8 643b 9d14 eabd
00000150: 847f 85bd 7e59 8fbd 4a47 cc3d 3db1 223c
00000160: 0f5e c6bd af9f c0bc e9de d8bd 3b68 edbd
00000170: f2eb aabd 18c8 923d f39d dbbd 0250 253d
00000180: d6c9 103d 995e fcbd a72b ccbc 2596 36bd
0.13744047 -0.05829181 0.04398789 0.08004075 -0.08466698 0.13562876 -0.059976548 -0.01454148
-0.1218654 -0.10806767 -0.10092702 -0.1341916 -0.04908653 -0.040864147 0.076977514 -0.11944262
-0.022028735 -0.032345247 -0.07348338 0.120476045 -0.063293085 -0.044976976 -0.057904646 -0.07866822
-0.046789654 0.04171323 -0.06566406 -0.07588663 0.021377144 0.10012611 -0.059288803 0.011639582
0.045114458 0.049875055 -0.007064486 0.08872235 -0.09889261 0.022693276 -0.08794195 0.10065803
-0.050613344 -0.05004463 0.030808816 0.06287302 -0.079230815 -0.03960679 -0.1519382 -0.09863108
0.0021423534 0.08213839 0.08279306 0.100533776 0.049681824 -0.055957377 0.0052881907 -0.07714364
0.06484834 -0.14131057 0.046312366 0.029167097 -0.063474014 -0.014270724 -0.043056082 -0.065932326
-0.08916888 0.008944416 0.09452462 0.03096468 -0.07219281 -0.04758301 -0.0025596677 -0.052847523
0.08417111 -0.066913545 -0.015487479 -0.035430674 -0.08867323 -0.034009088 -0.08129898 -0.09689117
-0.014129385 -0.06642714 0.0034918995 -0.11429713 -0.06518462 -0.06999491 0.09974535 0.009929952
-0.09685909 -0.023513643 -0.10589392 -0.11592146 -0.08345784 0.07167071 -0.10723486 0.040359505
0.035348736 -0.123227306 -0.024923159 -0.044576783

weight f4 [1, 100]
00000000: 8af3 6ebe 17a6 8cbd 23d6 a7be d096 80bd
00000010: 4049 26bc 15d8 85be 736f 7cbd fcaa 483d
00000020: 3e85 3cbd 71ab bcbc 8bd0 fbbc 8ba4 92bb
00000030: 653c 98bc 34da c6bc 383c 3abe 9c36 6d3d
00000040: 09cd ecbc 131f 3f3c 1e0b 0cbd e5bf 81be
00000050: 91f4 83bd dd8e 97bb c63c 23bd 40f1 cbbc
00000060: d28a 1fbd 7914 93be ef17 1fbd 6877 d1ba
00000070: 339c 9abd 4f16 83be bdce 82bc 3b81 fcbc
00000080: d8ca 30bd 4ee5 a4be 4121 0dbd 6294 1ebe
00000090: 51d5 07bd 3ab6 a8be f119 fdbc 82ec 1cbe
000000a0: 222e 5cbd 9fbf 0d3c 7911 973b eaea 65be
000000b0: 1367 87bb 524e c63c 7763 e2bd 1982 39bd
000000c0: a2ac 03bd ac61 7cbe 187d 84be fcb5 31be
000000d0: 2665 44bd 5ffa 82bb 2424 2cbd e052 143b
000000e0: 9be6 52be 6760 033c 6d62 83bd 0433 8bbd
000000f0: 3136 6b3c eb33 51bd 098d 223d 8223 87bb
00000100: a936 4f3c faec b9bb 543e 3abe 6f4f f7bc
00000110: 4c3f 38bd 1043 16bc babd f5bd c4d9 66bd
00000120: 8cb4 4dbe 9624 93bc 47e2 b5bd 6b3b fd39
00000130: 8b54 823b 18a6 9e3c 6db9 d53c a92c c7bc
00000140: 8602 8bbc 59d9 563d 5209 94bd 8833 893c
00000150: 157d d3bc 9009 27bd 09fd 9fbd 6bdb 3cbd
00000160: bf5e fa3c efcd 87bd e767 f8bd 87a1 d03b
00000170: a6d3 43bd abe4 6cbd 0554 8bbc a180 b5bd
00000180: d1af 5ebe a372 70bd 48c7 853b 933a f0bd
-0.2333509 -0.068676166 -0.3278056 -0.06278765 -0.0101493 -0.2614142 -0.061629724 0.04899119
-0.046025507 -0.023030968 -0.03073909 -0.0044751815 -0.018583486 -0.02427397 -0.18187034 0.057913408
-0.028906362 0.0116651235 -0.03419029 -0.25341716 -0.06443132 -0.004625185 -0.03985288 -0.02489531
-0.03895075 -0.28726557 -0.038841184 -0.001598102 -0.07549324 -0.25602958 -0.015967721 -0.03082334
-0.043162197 -0.32206196 -0.03445554 -0.15486291 -0.03316242 -0.32951528 -0.030896159 -0.15324596
-0.053754933 0.008651643 0.004610237 -0.22452894 -0.0041321605 0.024207268 -0.11054128 -0.045290086
-0.032147057 -0.24646634 -0.2587669 -0.17354578 -0.047948025 -0.0039971317 -0.042026654 0.0022632405
-0.20595782 0.00801859 -0.064152576 -0.0679684 0.014356182 -0.051074903 0.039685283 -0.004124106
0.012647309 -0.0056740018 -0.18187839 -0.030189244 -0.04498224 -0.009171262 -0.11999078 -0.05636002
-0.20088404 -0.017961781 -0.088810496 0.0004830019 0.0039773635 0.019366309 0.026089394 -0.024313288
-0.016968977 0.052453373 -0.0722834 0.016748205 -0.02581648 -0.040780604 -0.078119345 -0.04610769
0.030562757 -0.066310756 -0.12129193 0.006366912 -0.047809266 -0.057835262 -0.017007837 -0.08862425
-0.21746756 -0.058703076 0.004082594 -0.11729922
