Gibbs_MINE/pw_res/model_lk_b=10_s=0.5_p=18.pth (torch, 193815 bytes, 5 tensors)

weight f4 [400, 18]
000000 41 c2 96 3d 0e 04 2b 3e 08 ef 44 3e cc d2 44 be
       0.0736127 0.16700765 0.19231808 -0.19221038
000010 42 57 77 3c 74 bd 18 3e 1e dc ce bb 17 19 53 be
       0.0150964875 0.1491602 -0.006312861 -0.2061504
000020 55 21 58 be f2 c4 4a be eb ed 84 bc 69 32 9b 3c
       -0.21106465 -0.19801691 -0.01622673 0.018944936
000030 50 21 dd bc 0f 1f 30 3e 4b b6 af bd d0 d1 b8 bd
       -0.026993424 0.17199348 -0.085796915 -0.090243936
000040 e0 2b 60 3e 89 48 e5 3a 29 fb 6f be 62 56 3a be
       0.21891737 0.0017492931 -0.23435654 -0.18197015
000050 dd 97 bc 3e 94 61 a7 bd ad 81 d6 3d 67 a2 84 3e
       0.36834612 -0.081729084 0.104739524 0.25905153
000060 cf b2 11 be de 30 b7 3c 65 44 2e 3e 0e f8 85 be
       -0.14228366 0.022362169 0.17018278 -0.26165813
000070 16 aa 21 3e ec db a7 3d a7 cf 48 3e 7f 48 47 3e
       0.15787539 0.08196244 0.19610463 0.19461249
000080 79 4d a2 3e e6 2e 19 3d b2 aa fd 3d 14 ee 3d be
       0.31699732 0.03739824 0.12386073 -0.18547851
000090 d6 fe 19 be 28 73 53 bd e5 29 4f be 4b 61 07 be
       -0.15038618 -0.051623493 -0.20230825 -0.13220708
0000a0 69 4a 0c 3e 5f 86 f6 3d e8 9f 97 bd 00 a5 45 3d
       0.1370026 0.12037348 -0.074035466 0.04825306
0000b0 c7 1f 29 be 5a 43 1c be 7a f4 fa 3d 4f 60 ba be
       -0.16516028 -0.15260068 0.122536615 -0.36401603
0000c0 90 66 5c 3d 46 fa ba 3d 23 f0 2b 3e 1a 70 77 bd
       0.05380875 0.09129767 0.16790824 -0.060409643
0000d0 e3 c1 9c 3c 77 df 31 3e 7d b2 20 3e 83 71 e7 bc
       0.019135421 0.17370401 0.15693088 -0.028252369
0000e0 d4 5a e4 bb 7e 9f 86 bc 4f 3b 8c be a1 dd 18 bd
       -0.0069688354 -0.016433474 -0.27389 -0.037320737
0000f0 23 70 bf 3e fd 3d cb bd 7d 5d 20 3d 6f 87 ae bc
       0.3739024 -0.09923933 0.039151657 -0.021304814
000100 9f bc 28 3e c3 fe 34 be d6 67 80 3e 91 e2 b2 3b
       0.16478203 -0.17675309 0.2507922 0.0054591377
000110 e0 30 fc 3d 49 72 74 be 50 13 31 3e 25 a9 ed 3d
       0.1231401 -0.23871721 0.17292523 0.116045274
000120 73 69 58 3e 25 a9 12 3e aa 07 5e be dd bc 67 bd
       0.21133976 0.14322336 -0.21682611 -0.0565766
000130 ba 41 8a 3d 6d 0b ad be 29 c5 83 3e 8c 88 cc be
       0.067508176 -0.3379778 0.2573636 -0.39947927
000140 c6 bc d0 3e c0 73 aa bc 22 a8 57 be 36 8f 03 be
       0.40769023 -0.020807147 -0.21060231 -0.128476
000150 d8 d8 2c be 9c 19 18 3e 98 0b 03 3e f4 e9 ce 3d
       -0.16879594 0.14853519 0.12797391 0.10103217
000160 95 76 4a 3e da 77 5e 3e 38 79 dd 3d 73 cf 81 be
       0.19771798 0.21725407 0.10814136 -0.25353584
000170 81 b3 c0 3d 0b fc 80 bd a4 e5 4d bd fa ff 3b 3d
       0.09409238 -0.062980734 -0.05026783 0.045898415
000180 f9 7f 24 bd 22 ca 1f ba a4 fc 86 3e 20 66 cc bd
       -0.040161107 -0.0006095489 0.26364625 -0.09980416
000190 cf d6 d6 bd 29 19 93 bd c2 79 1f bd 59 6d 60 be
       -0.1049019 -0.07182533 -0.038934477 -0.21916713
0001a0 67 1c 5d 3d fe e3 8f 3e 56 2d 05 be 1a 63 5f be
       0.053982165 0.28103632 -0.13005576 -0.21815148
0001b0 55 b0 26 3d f7 f0 47 3e a2 90 83 3e 95 31 07 be
       0.040695507 0.19525515 0.25696284 -0.13202508
0001c0 46 ed 9a 3e 5c be d8 3d be db 1e bd 75 56 13 3e
       0.3025915 0.10583183 -0.03878378 0.1438845
0001d0 b4 44 18 3c 3f d5 69 be dd 5b 9c bc e8 07 6a bd
       0.009293724 -0.22835253 -0.019086773 -0.057136446
0001e0 09 64 77 be f7 f2 cc 3d de 9e 15 be e5 28 df bd
       -0.24159254 0.10007279 -0.14611384 -0.10896472
0001f0 55 1f ff bd b0 ec 97 bd c4 52 bb bd 90 82 2f bd
       -0.12457148 -0.074181914 -0.09146646 -0.042849123
000200 98 15 64 3e 87 40 3b 3e 59 5f 65 be 3e a2 ec bc
       0.22273862 0.18286334 -0.22399653 -0.028885957
000210 3d 7c 9c 3d c1 b0 77 bb c9 8b 19 3d 1d ec a6 bd
       0.07640884 -0.0037794563 0.037486825 -0.08150504
000220 ea be d3 bd 9a 45 24 3e af f6 2d be 7b 18 c3 3d
       -0.10339148 0.16042176 -0.16988634 0.09526154
000230 4b df ed 3d 0a a9 df 3e 8f d5 98 be ca 63 31 3c
       0.116148554 0.43683654 -0.29850432 0.010827014
000240 0d f8 a4 be 7a f2 8f 3e 48 c6 31 bd ef fd e3 be
       -0.32220498 0.28114682 -0.043401986 -0.44529673
000250 ec d0 47 3e 01 71 59 be d5 2a 46 3e 21 81 23 be
       0.19513291 -0.21234514 0.19352277 -0.15967228
000260 7d d2 05 be 1d 36 18 3e f3 f2 8f 3e cb 1a 49 3c
       -0.13068576 0.14864393 0.28115043 0.012274454
000270 b0 5c 4a 3e a3 16 c1 3d 31 60 3a 3e 3b e2 02 bd
       0.1976192 0.09428146 0.18200757 -0.03195403
000280 d5 e2 6e be 66 8f 29 3e 01 1e 6b be 36 a6 1c 3e
       -0.23328717 0.16558608 -0.22960664 0.1529778
000290 3f 1a 1e be 89 a2 35 be 1b b4 d0 3d 0a d3 7b 3e
       -0.154397 -0.17737783 0.101906024 0.24592224
0002a0 a5 88 f7 3d 83 1c 60 be a2 83 58 3e d5 3b 93 3b
       0.1208661 -0.21885876 0.21143964 0.0044932165
0002b0 d2 5a 81 3e 26 38 a4 bd 87 d0 49 3e 0d e5 b9 3e
       0.25264603 -0.08018522 0.19708453 0.36307564
0002c0 bb 27 27 3e 09 aa 85 bd 2d 3c ac be 83 55 da bd
       0.1632375 -0.06526572 -0.3363966 -0.10660841
0002d0 28 e0 e1 3d e4 63 9d 3d 5a 38 99 3e 7e 23 2e 3e
       0.110290825 0.07685068 0.29925805 0.17005727
0002e0 d6 e8 97 be a5 e7 58 3e 60 27 94 3e 5d 77 99 bd
       -0.29669827 0.21182115 0.2893629 -0.0749347
0002f0 9c 5a 6d 3e 8c 70 97 be d1 df b8 3e bc c4 54 bd
       0.23179096 -0.29578054 0.36108258 -0.051945433
000300 c9 16 6d be 7d ac 2c 3e e1 7d 7e 3e 53 74 80 bd
       -0.23153223 0.16862674 0.24852706 -0.06272187
000310 cc 8a 00 be e0 7a f8 3d 9c 9c 7f be ba 46 09 be
       -0.12552947 0.121328115 -0.24962085 -0.13405886
000320 f1 88 1b 3e 02 da 8d bd aa 81 b5 3d 2b 90 58 3e
       0.15188958 -0.06926347 0.08862622 0.21148746
000330 b4 4b 07 be c5 47 68 be 38 16 3e 3e 45 3c 50 be
       -0.13212472 -0.22683628 0.18563163 -0.20335491
000340 ab 31 bd 3e 30 f0 34 3d 4b 49 87 3e 64 82 0d be
       0.36951956 0.044174373 0.26423106 -0.13819271
000350 4c 4a 06 3e d9 25 d7 3e b6 10 52 bd 8d db f1 3d
       0.1311428 0.42021063 -0.051285468 0.11809454
000360 b6 e0 71 bd d9 0f 8f be 05 b7 c0 bd 27 5f 6e 3d
       -0.05905219 -0.27941778 -0.09409908 0.058196213
000370 6f 4f 58 3e d3 df e5 bc a4 c1 be bc c4 fb aa bd
       0.21124052 -0.02806083 -0.023285694 -0.08348802
000380 eb a7 c6 bc bf b1 a3 3e 5c 50 8b 3d 9b e1 5b 3e
       -0.024249991 0.31971547 0.06802437 0.2147278
000390 06 05 97 3d 0c 99 bd be f9 e8 99 be 29 30 77 3e
       0.07374005 -0.37030828 -0.30060557 0.24139465
0003a0 d8 ac 21 3e d1 a8 99 bd d2 38 5f 3d 73 a8 d8 ba
       0.15788591 -0.07502902 0.054497547 -0.0016529694
0003b0 4c bb c3 be 10 64 24 be 63 ff 77 3d eb e3 7d be
       -0.38228834 -0.16053796 0.06054629 -0.24793975
0003c0 74 b5 48 3d a0 e3 28 3e aa 97 8d 3e 83 25 8b 3e
       0.049001172 0.16493082 0.27654773 0.27177057
0003d0 bf 3c af be b6 3b 5b 3c 8d 09 91 bd 47 45 d9 3d
       -0.34226033 0.013380935 -0.070819 0.10608917
0003e0 23 04 4e be 9b 27 8e bd be 1c 04 3e e5 79 21 3d
       -0.20118766 -0.06941148 0.1290159 0.03942289
0003f0 d9 7d 2c 3e 29 b4 91 3d db 32 55 be 97 33 91 be
       0.16844882 0.07114441 -0.20820181 -0.28359672

bias f4 [400]
000000 b9 fc 48 3c c2 32 31 be e5 11 26 be 94 58 97 be
       0.012267285 -0.17304519 -0.16217764 -0.29559767
000010 30 e1 26 bd d3 86 ac bd 87 da b7 be a3 e0 10 be
       -0.0407421 -0.08424153 -0.3590891 -0.14148192
000020 ec 8b f2 3c ba 9e 31 bc 9d bb 20 bc 06 3c b1 bd
       0.029607736 -0.010841066 -0.0098103555 -0.08654027
000030 8b fd 27 be e5 50 34 be d8 89 39 be eb d8 7b be
       -0.16405313 -0.17608984 -0.1811899 -0.24594466
000040 ba 90 0f bd 19 68 71 bd b5 d9 07 be 4c d7 86 be
       -0.03505013 -0.058937166 -0.13266642 -0.26336133
000050 f9 be bc be ba e3 a5 bd 11 ba 41 be 4c af 8c bb
       -0.3686445 -0.08100076 -0.18918635 -0.004293358
000060 23 59 bb be ea 98 68 be 9c 5c 98 be ea 6a 67 3d
       -0.36591443 -0.22714582 -0.29758155 0.056498446
000070 3e 28 4a be 04 ef 38 3e a1 e8 58 bd e8 aa 70 be
       -0.19741914 0.18059927 -0.052956227 -0.23502696
000080 12 19 88 be 13 f9 07 bd b7 2b eb 3d 83 22 8b be
       -0.26581627 -0.03319652 0.11482947 -0.27174768
000090 85 8d 4d be 82 07 0d be a3 d5 b4 be 2c 74 99 bd
       -0.20073517 -0.13772395 -0.35319242 -0.07492861
0000a0 c7 57 db bd 7e 4a 29 bd 1e 9b 00 3e f0 7a 80 bd
       -0.107101016 -0.041330807 0.12559173 -0.062734485
0000b0 76 68 de bd b8 e6 b6 be df 16 eb be 70 c7 57 be
       -0.10859768 -0.357229 -0.45915887 -0.21072173
0000c0 69 5b 76 be 21 47 6a 3d 6e 1a 06 bb 8d 0e 3d bd
       -0.24058308 0.05719674 -0.002046253 -0.046156455
0000d0 39 c4 d7 bd 3d 1b 4b be 53 1c ba be a6 f0 16 be
       -0.105354734 -0.1983461 -0.36349735 -0.14740238
0000e0 ac 79 15 be 63 c4 de bd d6 da 8c be 8f c1 1c be
       -0.14597195 -0.108773015 -0.2751071 -0.15308212
0000f0 c0 12 66 bd 86 cb 9a 3d 48 92 fc bd 04 14 0e 3b
       -0.056170225 0.0755835 -0.123325884 0.002167941
000100 e9 2c 2d be e7 33 b3 be 9b d4 c1 be 16 8e d2 be
       -0.16911663 -0.35000536 -0.37857518 -0.41124028
000110 5d 4b 67 be 4c 01 9b be 0d 02 b4 be 08 1a fd ba
       -0.22587343 -0.30274427 -0.35157815 -0.0019310126
000120 0b b4 82 be 3f ba 05 be df 88 bc bb b6 f1 76 bd
       -0.25527987 -0.13059328 -0.005753621 -0.060289107
000130 f8 a4 5b be 12 4d 91 bc 10 8f c4 be 1f 3f 78 be
       -0.2144965 -0.017736945 -0.38390398 -0.24242829
000140 87 ab 9c be 46 60 8d be c9 8b 10 be 0a ad 78 be
       -0.30599615 -0.27612513 -0.14115824 -0.24284759
000150 a0 3d 72 be 24 a6 6f be 51 5d 5e 3d 97 56 cb be
       -0.2365632 -0.23403221 0.054288212 -0.397145
000160 36 4f 56 bd 96 a5 c5 3d f4 f5 e1 bd a5 b7 e7 bd
       -0.052321635 0.09650724 -0.1103324 -0.11314324
000170 27 9e ad be f5 9f c0 be 63 39 91 be ce 90 0e be
       -0.33909723 -0.37622038 -0.28364095 -0.13922426
000180 61 f7 8d be 90 3f 71 be 81 b6 b5 be 7e a9 94 be
       -0.27727798 -0.23559403 -0.35490802 -0.29035562
000190 6e aa c8 bd b9 86 5f be 73 bf 12 be 01 6b df bd
       -0.09798132 -0.21828736 -0.14330845 -0.10909081
0001a0 6e d3 08 be f1 37 31 be 7c 15 cc be 54 46 33 be
       -0.13361904 -0.17306496 -0.3986014 -0.17507297
0001b0 5a c6 9b be 21 50 9a bb 96 27 f0 bc 1f ff a0 be
       -0.30424768 -0.004709259 -0.029315751 -0.31444642
0001c0 1b 9b 82 be 20 66 56 be be 40 af be ce 60 8b be
       -0.2550896 -0.20937395 -0.34229082 -0.27222294
0001d0 af 66 24 be 2f 41 71 3d bc e9 41 be 33 20 b0 be
       -0.16054796 0.058900055 -0.18936819 -0.34399566
0001e0 c6 8b 27 bc 43 3b 8f be aa f6 23 be 56 8f d2 3c
       -0.010226196 -0.279749 -0.16012064 0.025703114
0001f0 07 2f 19 be fb d8 e8 bd 1a 00 90 be 47 e2 ad be
       -0.14959346 -0.11369511 -0.28125077 -0.33961698
000200 00 9e 6c be 24 ed 49 3e 1a 9a b1 be d1 f0 91 be
       -0.23107147 0.19719368 -0.34687883 -0.2850404
000210 4b b4 94 bd 03 a2 88 be 6e 8d 33 be 39 35 f1 3b
       -0.07260951 -0.26686105 -0.1753442 0.007361081
000220 df bd 33 3d 99 5c 90 3d 02 d5 ca bd 73 f5 88 3d
       0.043882247 0.070489116 -0.09903909 0.06687441
000230 ef 48 84 3d 9a 56 3e be e6 57 e6 bc aa 6c 00 bd
       0.064592235 -0.18587723 -0.028118085 -0.03135363
000240 3f cc 83 be e4 dc f3 bd ab 54 61 be f9 bf 88 be
       -0.25741765 -0.11907366 -0.22004955 -0.26708964
000250 0a 2a 37 be 03 ec af be 16 b5 11 be c9 38 65 bd
       -0.1788713 -0.3435975 -0.14229235 -0.055962358
000260 3f 7a 9f be d6 f6 b1 bd d2 8e 9d 3d 4d 85 81 bd
       -0.31147954 -0.08689658 0.076932564 -0.06324253
000270 2a ba 68 be 70 bb 23 be be ad c1 be 43 e7 7f bd
       -0.22727266 -0.1598947 -0.37827867 -0.062476408
000280 bf 6c 2b be ce 4c 5e bd fd fe 89 3e ce 29 43 be
       -0.16740702 -0.054272465 0.26952353 -0.19058916
000290 9a 40 c9 bd fd 7e 0c be f8 14 9e be 58 5e 47 be
       -0.09826775 -0.13720317 -0.30875373 -0.19469583
0002a0 fd e7 21 be d1 4e d0 3d 49 93 e1 bd a4 dc 9c be
       -0.15811153 0.10171283 -0.110144205 -0.30637085
0002b0 cb 2a 63 bd 95 24 c3 bd 07 6b b8 be be 5d 3e be
       -0.055460732 -0.09528462 -0.36019155 -0.18590447
0002c0 b6 2c 8f be 0d 5a 85 bd 82 3a 36 be 14 c3 99 bd
       -0.279638 -0.065113164 -0.17795756 -0.07507911
0002d0 dc db d7 be 5b 54 62 be 69 93 a1 be 37 a3 00 3e
       -0.42159927 -0.22102492 -0.31557778 0.12562262
0002e0 14 bc 4e be 8f fe b6 3d 6a 5f b3 3d b7 a0 32 be
       -0.20188934 0.08935272 0.08758433 -0.1744412
0002f0 4b 31 f0 be e8 fb 96 be 60 72 2b bc eb e4 24 be
       -0.46912608 -0.29489064 -0.010464281 -0.1610295
000300 4e 89 09 3c 66 dd 86 bd 30 eb 83 be 0a 0d 30 bd
       0.008394552 -0.06585197 -0.2576537 -0.042981185
000310 1e 29 84 be b8 0b 8e be 80 d5 da be 22 fe 2c 3b
       -0.2581262 -0.27743316 -0.42741013 0.0026396592
000320 b6 a4 b4 be 82 f6 00 bd 53 25 79 3b f1 fc 3a be
       -0.35281914 -0.03148509 0.0038016632 -0.18260552
000330 26 65 2f be a8 13 9d be 36 81 7e bd db d3 7d 3e
       -0.17128429 -0.3067906 -0.062134944 0.24787848
000340 d4 a3 e3 bc cb d9 2d bb 53 f9 ac 3d 03 3b 34 be
       -0.02778808 -0.002652752 0.08445992 -0.17600636
000350 30 39 ac be eb a7 33 be 09 d5 b7 be 17 5a ff bd
       -0.3363738 -0.17544524 -0.3590472 -0.12468355
000360 9d 6d 04 be 77 5a 44 3e f7 34 ff bc cb e2 3a be
       -0.12932439 0.19175135 -0.031153185 -0.18250577
000370 63 cb 2c 3e 05 e1 77 be c7 91 87 3d da 43 94 3e
       0.16874461 -0.24206932 0.06619602 0.28958017
000380 40 bf 80 bd 16 90 a9 be 13 28 42 be 9c a4 83 be
       -0.06286478 -0.3311774 -0.189606 -0.25711524
000390 dd d6 5e be 4f b5 2e be 74 c7 79 be 34 91 64 be
       -0.21761651 -0.17061351 -0.24392492 -0.22321016
0003a0 40 a0 5a be dc 8e 15 bd 43 7d 8a 3c 75 20 60 be
       -0.21350193 -0.036513194 0.016905433 -0.21887381
0003b0 65 1d d1 be b0 04 d6 bd 93 84 ee 3b dd 7f 39 be
       -0.4084274 -0.10450113 0.0072789877 -0.18115182
0003c0 50 39 fe 3d 03 2e 90 be 1f 8e da 3e 75 21 ff bd
       0.12413275 -0.28160104 0.42686555 -0.12457553
0003d0 a0 1f 89 bd 3d 98 13 3d 43 e8 8d be dc d2 93 be
       -0.06695485 0.036033858 -0.27716264 -0.2887181
0003e0 48 42 2d be f3 af 75 be 32 a2 9b be 05 2e a8 be
       -0.16919816 -0.239929 -0.30397183 -0.3284761
0003f0 5d ba db be de 55 7d bd 81 e0 16 be a9 a1 4d bc
       -0.4291562 -0.061849467 -0.14734079 -0.01255075

weight f4 [100, 400]
000000 4a 5b 33 bd b7 9c a2 3d fb 8d aa bc bd 9e 8a 3d
       -0.043788232 0.07940047 -0.020819655 0.06768558
000010 98 a4 d8 bd 68 b7 a3 bd d8 15 bc bd 7b bc 98 bd
       -0.10578269 -0.07993966 -0.09183854 -0.07457825
000020 06 3a 82 3c 3b 4c 28 bd eb a1 80 bd e6 4b e6 bc
       0.015896808 -0.041088324 -0.062808834 -0.028112363
000030 cc 8f a6 3d 03 6a 7d bd 56 82 88 3c 57 42 cc bd
       0.08132896 -0.06186868 0.016663712 -0.09973591
000040 16 f1 06 bd 2a 25 93 bd ac 9b 22 3d 7c 61 a0 bd
       -0.03294476 -0.07184823 0.03969924 -0.07831094
000050 ae ec bd bd ae 18 44 bc 18 e0 59 bd 97 d4 b4 3d
       -0.09273659 -0.011968775 -0.053192228 0.08829611
000060 93 e8 9d 3c 39 95 30 bd 2b 4f b1 bd b2 0f d7 bd
       0.01927594 -0.04311106 -0.08657678 -0.105010405
000070 22 63 fd bd 6c bf ae bd a4 2f 99 bb a2 96 e4 bd
       -0.12372424 -0.085326046 -0.0046748687 -0.111615434
000080 98 12 b5 bd ce 8e c8 bd 54 ac 7b 3c 56 31 38 3d
       -0.08841437 -0.09792863 0.01536091 0.044968925
000090 72 8b cf bd b1 6a 84 bd cb 5e 0d 3d 2c ed 02 be
       -0.10134019 -0.06465662 0.03451423 -0.12785786
0000a0 c2 11 f9 bd f1 e4 ae bc 3d 7f a0 bd 31 7e 99 bd
       -0.1216159 -0.021349402 -0.07836769 -0.07494772
0000b0 cf 5b 5b bd d0 93 fe bd e1 fc b1 bd 3a c2 c4 bd
       -0.053554352 -0.12430537 -0.08690811 -0.09607358
0000c0 8b d8 04 be e8 e7 71 bc 8e 39 c2 bd 87 30 c9 3a
       -0.1297323 -0.014764763 -0.09483634 0.0015349545
0000d0 69 18 89 3d 9c 01 03 be dc a3 c2 bc 34 e3 3a 3d
       0.06694109 -0.12793583 -0.023759775 0.045626834
0000e0 10 af b0 bd cc df 44 3c 32 a8 8b 3d 29 6f 01 be
       -0.086271405 0.012016248 0.0681919 -0.1264006
0000f0 ec b7 8d 3b cb 2d 0c bd cc 19 0d bd de f9 e6 bd
       0.0043249037 -0.03422336 -0.03444843 -0.11278127
000100 e3 b6 e5 3c 84 da 78 bd 4e 18 c7 bd cd f3 2d bd
       0.028041309 -0.060755268 -0.097214326 -0.042468835
000110 ed f6 04 be 41 65 87 bd 31 02 d2 bd 2f 66 f6 bd
       -0.1298482 -0.066111095 -0.10254324 -0.12031209
000120 39 d6 a1 bd 23 66 f3 bd 47 0e c1 3d 29 53 d1 bd
       -0.07902188 -0.118847154 0.09426551 -0.1022094
000130 76 83 b5 3d c8 a0 64 3b 7c 68 8e bc a9 b6 06 be
       0.08862965 0.0034885872 -0.017383806 -0.13155617
000140 40 d9 75 bd 9e d2 1c bd cb 35 43 bd 1d 31 80 bc
       -0.06002164 -0.038286798 -0.047658723 -0.015648419
000150 08 12 5e bd 9a bc af bd ac 12 a3 bd 8f ed 87 bd
       -0.054216415 -0.08580895 -0.07962546 -0.066371076
000160 2f ec 33 3c e2 62 9b bd 54 fb 3f bd 7f 09 38 bd
       0.0109816035 -0.0758722 -0.046870545 -0.04493093
000170 90 bc 13 3d d1 aa fc bd 23 2c e8 3b d2 04 45 3c
       0.0360685 -0.12337268 0.0070853396 0.012025075
000180 31 4e a2 3c b7 13 12 bd 9a 06 39 bd 2e b3 22 bd
       0.019812675 -0.035663333 -0.04517231 -0.03972166
000190 c0 a5 64 3d 55 99 3b bd 0f 00 07 3d 94 4e 0c bc
       0.055822134 -0.045800526 0.03295904 -0.008563656
0001a0 17 c4 f8 bc d7 d7 01 be 1c d0 71 bd e3 43 b0 bd
       -0.03036694 -0.12679993 -0.05903636 -0.08606698
0001b0 72 d0 9e bd c7 2e f0 bd e1 10 ff bd 19 59 39 3d
       -0.077546015 -0.11727672 -0.12454391 0.045250986
0001c0 d1 cd e0 bc 5b e2 de bd 7b bf a5 bd 0d 73 c0 bc
       -0.02744189 -0.10883018 -0.080931626 -0.02349236
0001d0 f3 54 5c 3d 16 4f 6f 3d ea cf c2 bc 6f 97 c7 bc
       0.05379195 0.05842503 -0.023780782 -0.024364201
0001e0 41 0b 07 bd 61 42 40 bd 19 5e 7e bd 0c 5e ae bc
       -0.032969717 -0.046938304 -0.062101457 -0.02128508
0001f0 f5 96 a2 3c f8 cf 3b bd 51 d0 85 3c 56 31 85 bd
       0.019847373 -0.04585263 0.016334685 -0.06503551
000200 64 a9 79 3c 5b 5f e8 3c 43 ab 39 bd ce d4 c7 bd
       0.01523814 0.028365782 -0.045329344 -0.09757386
000210 96 fb af 3c 7c cb 8a bd 72 75 03 be 9a 6d fe bd
       0.02148227 -0.06777093 -0.1283777 -0.124232486
000220 6a 4b e5 bd f7 ce 33 bd 70 07 8e bd 51 1a 77 bd
       -0.11196025 -0.04389855 -0.06935012 -0.06032783
000230 a5 e0 ea bd 3d bc 44 bd f9 3d b7 bd 39 d4 47 bd
       -0.11468629 -0.04803108 -0.08947367 -0.048786376
000240 b7 0c 56 bc 97 a9 ad bd 1e 7d e0 bc e8 cc a3 bc
       -0.013064555 -0.08479612 -0.02740341 -0.019995168
000250 ae b6 9e bc fb 52 9f bc 53 58 0c bb 3c 2f 39 bd
       -0.019374218 -0.019448748 -0.002141495 -0.04521106
000260 cc 16 ce bd fb 00 f0 3c ec d6 02 be 69 66 1a bd
       -0.10062942 0.029297343 -0.12777299 -0.037695322
000270 c2 7a 02 bc 78 3f 99 bd f7 76 5e bd 99 e1 b3 3b
       -0.007963838 -0.07482809 -0.054312672 0.00548954
000280 a1 24 f1 bd e3 24 2b bc 34 4d 36 3a 1a c5 20 bd
       -0.117745645 -0.010445806 0.0006954253 -0.03925047
000290 5d 92 48 bd e4 31 9b bc 76 7c 07 be 1a e5 13 bd
       -0.048967708 -0.018944688 -0.13231072 -0.03610716
0002a0 10 85 bd 3d d4 93 fc ba 5a c2 94 bd ac a3 6c 3b
       0.09253895 -0.001927013 -0.07263632 0.0036108298
0002b0 56 be 33 bd f8 ed c3 bd bf aa b8 bd 4e 9e 12 bd
       -0.04388269 -0.09566873 -0.09016942 -0.035795502
0002c0 99 57 aa bd b2 9a 6c bb 3e 05 14 bd f1 3a 42 bd
       -0.08317489 -0.0036102948 -0.03613781 -0.047419492
0002d0 e5 65 e7 bd e0 5d b1 bd 0d c9 04 bd 35 40 bc bd
       -0.11298732 -0.08660483 -0.0324183 -0.09191934
0002e0 39 98 4f 3c 3b 7a f5 bd 90 e2 04 be 55 5d 85 bd
       0.01267057 -0.11986204 -0.12977052 -0.06511942
0002f0 2b 1a 18 bd c3 e3 6e bd 8c 48 0d bd 2a a9 30 bd
       -0.03713433 -0.05832268 -0.034493014 -0.043130077
000300 2e 66 ae bc 24 7a 18 bd fa 69 de bd e3 2b 10 3c
       -0.021288957 -0.037225857 -0.10860057 0.008799526
000310 5a 90 e2 bc 40 1e 43 3c b9 57 8d bd 56 94 d4 bd
       -0.027656723 0.011909068 -0.069014974 -0.10379855
000320 f9 99 89 3c 07 ba a1 bb 94 d2 9f bc a8 aa 2c bd
       0.016797053 -0.0049355063 -0.019509591 -0.042154938
000330 6f 01 76 3b 63 a7 0b 3d 7e 1d ca bc 1e 75 90 bd
       0.0037537476 0.03409518 -0.024672266 -0.07053588
000340 de 9f f1 3b 1d 69 c5 bd 9a 40 98 bd 08 a1 05 bd
       0.007373794 -0.096391894 -0.07434197 -0.032624274
000350 ae 11 0e 3b 2d c2 be bc 83 13 9b 3c 51 cf 05 bd
       0.0021678018 -0.02328595 0.018930202 -0.032668415
000360 b3 d6 05 3d ed 86 6d bd 24 cd 4c 3c 22 38 ae bd
       0.032675456 -0.057990003 0.012500081 -0.085068
000370 25 b3 ec 3c e4 ad ef bc 6e cd 17 3d 6b 36 8e bd
       0.028894017 -0.029257722 0.037061147 -0.06943973
000380 ef ed b2 3b 01 33 1c bc c4 47 0d 3d 5c c4 8a 3b
       0.005460493 -0.009533645 0.03449227 0.0042348336
000390 53 a5 04 be fd 04 34 3d ac 00 75 bc 64 7c 56 3b
       -0.12953691 0.04395007 -0.0149537735 0.0032727951
0003a0 c7 62 58 bd 23 2f 22 bd bc 8b 81 bc a0 26 41 bd
       -0.052828576 -0.039595734 -0.0158137 -0.047155976
0003b0 c5 1b af bd c1 16 83 bd eb cc 4a bd 08 e4 8a bd
       -0.085502185 -0.06400824 -0.04951183 -0.06781775
0003c0 02 0a 93 3c 05 41 01 be 17 b1 7b bd 61 bc 97 bd
       0.017949108 -0.12622459 -0.061448183 -0.07408977
0003d0 bd 1f 8e bd 9c 7c cc bd 1e 4a 7e 3c 02 0a 5d bd
       -0.06939647 -0.09984705 0.015520601 -0.053964622
0003e0 d3 ee 66 bd 44 7b 9e bd 74 2f a8 bb 71 9d e0 bd
       -0.056380104 -0.07738355 -0.00513261 -0.109675296
0003f0 c1 df b4 3c 7d 21 c9 bd 86 2c e3 bd fa 25 aa 3d
       0.02207935 -0.098208405 -0.110924765 0.08308025

bias f4 [100]
000000 75 1d 39 bd a9 40 49 3e 6c e8 d5 bd 76 53 8a 3d
       -0.045194108 0.19653572 -0.104447216 0.067542
000010 46 41 20 bd 3b e6 7a bd ad 81 6b bd a4 bc 80 3d
       -0.03912475 -0.06125472 -0.057496715 0.0628598
000020 94 8e c1 bd b9 d2 2c 3e 18 15 15 3c c2 2a 80 bd
       -0.09451023 0.1687726 0.009099267 -0.062581554
000030 34 16 a7 3d f2 2e ce bd 92 e2 6f bd 24 37 d6 bd
       0.08158532 -0.10067548 -0.058565684 -0.10459736
000040 7b 2a 62 bd 4d 83 0f bd 47 ce 73 3d 2e 5c 4f 3d
       -0.055216294 -0.035037328 0.059522893 0.05062502
000050 df 43 47 bc b5 29 e8 bd 53 65 41 be 04 5f 64 b9
       -0.012162178 -0.1133608 -0.18886308 -0.0002177917
000060 b2 e1 94 3c 1b 1b 72 3d c6 3f 32 bd 3d 5a b8 3c
       0.018174026 0.05910788 -0.04351785 0.022503966
000070 42 62 a2 bd 7b 79 a2 bd 98 5e b4 bc ee 35 8c bd
       -0.079288974 -0.07933327 -0.022017762 -0.06846224
000080 9a 10 97 3d 68 8a 81 bd f6 dc 9f bd f6 94 1a 3e
       0.07376213 -0.06325227 -0.07805817 0.15095887
000090 c8 9f 3b bd 32 2f e1 bd 29 06 d7 3d 8a a7 4a bc
       -0.045806676 -0.1099533 0.10499222 -0.012369046
0000a0 37 e9 ad 3c 9f b8 0b 3d b6 98 2e 3d 6c 51 65 bc
       0.02122937 0.034111615 0.042626105 -0.013996463
0000b0 33 e2 e1 bc 5e 34 a8 bd 75 d6 b2 bd 57 0b 05 be
       -0.02757368 -0.08213113 -0.08732311 -0.12992607
0000c0 21 2f 75 bc fc 99 3a 3e 94 3b 88 3a 67 90 0b bd
       -0.01496485 0.18222803 0.0010393732 -0.03407326
0000d0 5c 31 06 3e 37 c8 d9 bd d6 fa c9 bc 23 87 76 bd
       0.13104767 -0.10633891 -0.02465574 -0.06018747
0000e0 4c c7 3a bd 16 87 04 3e d5 b7 aa 3d 1b 0a 8a bd
       -0.04560022 0.12942156 0.083358444 -0.06740209
0000f0 fe 73 73 bd 07 7f fc bd 63 ed 08 bc 0c d0 92 bd
       -0.05943679 -0.12328916 -0.008357379 -0.07168588
000100 aa 30 f2 bc b2 59 b0 bd c0 2a a8 bd 56 8b 6a bd
       -0.02956422 -0.08610858 -0.08211279 -0.057261787
000110 cb 16 da bd 56 25 80 bd 47 dc d8 bd da f4 85 bd
       -0.10648879 -0.06257121 -0.105888896 -0.06540842
000120 92 08 4f bd 9d 08 ae bd ea e4 37 bd d0 0a f1 bc
       -0.050545283 -0.084977366 -0.044896044 -0.029424101
000130 54 cb cc 3d ea ea 63 bd 48 a7 eb 3d 22 02 ae bd
       0.09999719 -0.055643953 0.11506516 -0.084965006
000140 47 22 81 3d 02 1d cc bd 65 01 b4 bd 13 7b 0a be
       0.06305366 -0.0996647 -0.087893285 -0.13523512
000150 0c 5c a3 bb 5e 58 8e bd 08 d8 f6 3d 1f 47 3f bd
       -0.004985338 -0.069504485 0.120529234 -0.046698686
000160 d3 36 74 3d d3 f3 eb bd 7f cf 00 3e 17 88 9e bd
       0.059622597 -0.11521115 0.12579153 -0.07740801
000170 a2 85 e7 bd f1 87 8b bc 0c a0 97 bd 7d a9 78 3c
       -0.11304785 -0.017032595 -0.074035734 0.015177128
000180 20 39 cb bc 6b 79 7a bd 08 40 93 bd 7c 29 81 bd
       -0.024807513 -0.06115095 -0.07189947 -0.06306741

weight f4 [1, 100]
000000 cf de e5 bc 81 94 77 be 9d 48 4e bd 01 90 7b be
       -0.028060345 -0.24177743 -0.05036222 -0.24566652
000010 5d bc 97 bb 74 50 a9 3b 3a 67 26 bd f3 ff 50 be
       -0.004630609 0.0051670615 -0.04062579 -0.20410137
000020 8d 28 96 bd b1 e9 92 be 61 4b b3 bd 77 83 9d bc
       -0.07331953 -0.28693917 -0.08754612 -0.019227726
000030 1b ec 68 be e4 49 5b 3c 91 2c 9c bc a6 b3 6f bd
       -0.22746317 0.013384316 -0.01906422 -0.058520935
000040 de 28 c4 bc 42 7c 34 bd e2 9e 97 be 1f 8e 97 be
       -0.023945268 -0.044063814 -0.29613405 -0.29600617
000050 c3 2b 4b bd 10 9b 04 3c c4 f5 84 bd 45 a9 b9 bd
       -0.04960228 0.00809361 -0.064921886 -0.09065489
000060 ec d4 a2 bd d0 cf a4 bd be 32 35 bd ea 87 61 bc
       -0.07950768 -0.080474496 -0.044237845 -0.013765315
000070 0c 11 d9 3c aa 0e 85 bd 44 a0 4a bd f2 63 9b bc
       0.026497386 -0.064969376 -0.049469247 -0.018968556
000080 d2 95 a7 bd 0e 9a 51 bd f2 44 71 3d db ee 24 be
       -0.08182873 -0.05117231 0.058903642 -0.16106741
000090 1c 4c c1 bd 1e 88 19 bd e4 59 f1 bd c6 39 b1 3b
       -0.09438345 -0.037483327 -0.117847234 0.0054084985
0000a0 cf 6a 74 bc b2 97 81 bd 4c 29 04 be a8 42 af bc
       -0.014918043 -0.06327762 -0.12906379 -0.021394089
0000b0 cf 80 de bc 99 cc 52 bd 3d 96 fe 3c c9 0a c8 bc
       -0.02716103 -0.05146465 0.031077499 -0.024419205
0000c0 03 e5 11 bc 48 1f 85 be 9c 8d a7 bd cd 5d 9a bc
       -0.008904698 -0.26000428 -0.08181307 -0.018843556
0000d0 3e 5b f2 bd cf 5d 54 bc ff 2c b5 3c ce 61 57 3c
       -0.11833809 -0.012961819 0.022116182 0.013145877
0000e0 3b ed ac bc 43 41 64 be fb 9b 5f bc 67 d7 52 bd
       -0.021109214 -0.2229052 -0.0136480285 -0.051474955
0000f0 f0 05 91 bc 49 74 d4 bd ba 79 7c bd ac a3 11 bd
       -0.017703027 -0.10373742 -0.061639525 -0.03555648
000100 dd 6f 94 bc 3f 5d 16 3d 48 16 45 3c c8 53 22 3d
       -0.018119747 0.03671002 0.012029238 0.03963068
000110 b8 da 01 3d 2c 90 29 3d 44 b7 64 bd 47 16 8c bc
       0.031702727 0.04139726 -0.05583884 -0.017100466
000120 3a d7 f1 3c a7 42 ce bb bb 13 a6 3b 0d c1 65 bd
       0.029521573 -0.0062945667 0.00506827 -0.05609231
000130 64 10 89 be 9c c6 15 3d 0d 03 53 be 8f c5 99 bc
       -0.26770318 0.03656636 -0.20606633 -0.018770961
000140 bb 74 56 be 92 03 93 3c 24 b0 16 bd dc 5e 35 3d
       -0.20942967 0.017946038 -0.036789075 0.044279918
000150 af ba a4 bc f8 d0 63 3d 32 a9 8e be 70 b5 4c bd
       -0.020108549 0.05561921 -0.2786346 -0.04997772
000160 46 27 8b bd b0 46 dc bc cb fe 82 be f8 42 f0 3c
       -0.067946 -0.026889175 -0.25585017 0.029328808
000170 0d c5 63 bc 1f 25 1b be 23 2f aa 3c 66 5d 63 bd
       -0.013901961 -0.1515088 0.02077443 -0.055508994
000180 7c 2c 3a bd 57 fa 33 3c 89 bd dc 3c 99 0d 42 bd
       -0.04545258 0.010984979 0.026945846 -0.04737625
