Gibbs_MINE/pw_res/model_lk_b=10_s=0.5_p=14.pth (torch, 187415 bytes, 5 tensors)

weight f4 [400, 14]
0	0x3c315ee1	0.010825844
1	0x3e82b6a5	0.25529972
2	0x3ea511e0	0.322402
3	0xbe6ece3b	-0.23320858
4	0x3e4cbf57	0.19994865
5	0x3e7face6	0.249683
6	0xbd30cf6b	-0.04316656
7	0xbe178a91	-0.14798953
8	0xbeb7b66d	-0.35881367
9	0xbe4d9fb4	-0.20080453
10	0x3e03971b	0.12850611
11	0xbd9cf6a1	-0.07664228
12	0x3ddc5c23	0.10759761
13	0x3df452f6	0.11929886
14	0x3ae5aefd	0.0017523464
15	0xbe3179b2	-0.1733158
16	0x3e210e60	0.1572814
17	0xbbe008bf	-0.00683698
18	0xbe94f884	-0.29095852
19	0xbe38ce1a	-0.18047372
20	0x3e8d42cf	0.27590033
21	0xbe53777d	-0.2065105
22	0x3ddd20ec	0.10797295
23	0x3e5ba4f4	0.21449643
24	0xbe6b61fc	-0.22986597
25	0x3e64d58f	0.22347091
26	0x3ea25893	0.31708202
27	0xbde5a8e9	-0.11213858
28	0x3e559fd2	0.20861748
29	0xbc549262	-0.0129743535
30	0x3ea0c2c4	0.31398594
31	0x3dd3b216	0.103367016
32	0x3e6d2741	0.23159505
33	0x3ddea094	0.108704716
34	0x3eb9c5de	0.36283773
35	0xbcb0089b	-0.021488478
36	0x3d06c59b	0.032903295
37	0x3d61bc36	0.055111133
38	0xbe0c261c	-0.13686413
39	0xbe3a0e16	-0.18169436
40	0x3d82c4fd	0.06385229
41	0x3e8bb0e2	0.27283388
42	0xbd9b489c	-0.075822085
43	0x3e05f632	0.13082197
44	0xbeae9078	-0.34094596
45	0xbebc9725	-0.36834064
46	0x3d8a4235	0.06750909
47	0xbecd98d8	-0.40155673
48	0x3e081a69	0.13291325
49	0xbd9cb147	-0.076510005
50	0x3e7e4592	0.24831226
51	0x3d2abc2b	0.041683357
52	0xbe251b4f	-0.16123699
53	0x3e8eab29	0.2786496
54	0x3e71e79d	0.2362351
55	0x3dc10353	0.09424462
56	0x3db4f5b5	0.088359274
57	0xbe1e294c	-0.15445441
58	0xbeb67157	-0.35633346
59	0xbe10ea22	-0.14151815
60	0x3e8b1b12	0.2716909
61	0xbd24d488	-0.040241748
62	0xbc132808	-0.008981712
63	0xbdc8ac46	-0.097984836
64	0x3e19dc11	0.15025355
65	0xbe88746a	-0.26651317
66	0x3d8b6d1d	0.06807921
67	0xbc8151c7	-0.015786065
68	0x3e056d74	0.13030034
69	0xbd1d7252	-0.038439102
70	0x3e29462f	0.16530679
71	0x3e179401	0.14802553
72	0x3eddffc2	0.4335919
73	0x3e3498d5	0.17636426
74	0xbe857c67	-0.26071474
75	0x3e0a15b1	0.13484837
76	0x3e5b4504	0.21413046
77	0xbe573571	-0.2101648
78	0x3ec9a377	0.39382526
79	0xbed76f34	-0.4207703
80	0x3e43dd8c	0.19127482
81	0x3de0c632	0.10975303
82	0xbe72510e	-0.23663732
83	0xbdc014c1	-0.093789585
84	0xbe8ec1fc	-0.27882373
85	0x3ddb9b5e	0.10722993
86	0x3e9b2884	0.30304348
87	0x3e3ea0e1	0.18616058
88	0x3e231f1f	0.1592984
89	0x3e9f7c52	0.31149536
90	0x3e3600d0	0.17773747
91	0xbde47b74	-0.11156359
92	0x3d74d50e	0.059773497
93	0xbdb4a313	-0.088201664
94	0xbccb0cc7	-0.024786366
95	0x3d7efa50	0.062250435
96	0xbde72638	-0.112865865
97	0x3e981e3d	0.2971057
98	0x3e2f7f4f	0.17138408
99	0xbd18e1b4	-0.037324622
100	0xbe2fea51	-0.17179228
101	0xbe0a66aa	-0.13515726
102	0x3c15ecaa	0.009150663
103	0xbe958931	-0.2920623
104	0x3d7f3e88	0.062315494
105	0x3d5a365e	0.053274505
106	0xbe003c82	-0.12523082
107	0xbeae2278	-0.34010673
108	0x3deafa9c	0.11473581
109	0x3e6d2c5b	0.23161452
110	0x3e842c4d	0.2581505
111	0xbe3524d0	-0.17689824
112	0x3e9e8cb2	0.30966717
113	0x3de37b6f	0.111075275
114	0x3aecba61	0.0018060916
115	0x3e4e6f1a	0.2015957
116	0x3e838b34	0.2569214
117	0xbe2fdf37	-0.17174993
118	0xbdec0f6f	-0.11526381
119	0xba28e978	-0.0006443481
120	0xbdc9859b	-0.09839936
121	0x3c8e374e	0.017360356
122	0xbe88f792	-0.2675138
123	0xbe727f4a	-0.2368137
124	0xbe03d97d	-0.12875934
125	0xbe273980	-0.16330528
126	0x3c9a026a	0.01879998
127	0xbe950c0c	-0.29110754
128	0x3e4220da	0.18957844
129	0x3e408778	0.18801677
130	0xbe9d8b7e	-0.30770487
131	0x396ae370	0.00022400706
132	0x3dfbfcdc	0.123040885
133	0x3caa4cab	0.020788511
134	0x3d3aa535	0.04556771
135	0x3d49afa5	0.049239773
136	0xbd926004	-0.0714722
137	0x3e97eea9	0.2967427
138	0xbdf25413	-0.11832442
139	0x3e57b350	0.21064496
140	0x3d0dce0e	0.034620337
141	0x3e4fab8e	0.20280287
142	0xbe47dd41	-0.19517995
143	0xbe1b3931	-0.15158536
144	0xbe2fb7d2	-0.17159966
145	0x3e11b0f3	0.14227657
146	0xbd54d704	-0.051962867
147	0xbf0a7364	-0.5408232
148	0x3e2145a2	0.15749219
149	0xbd99b2cb	-0.07504805
150	0x3e1467bd	0.14492698
151	0xbde803be	-0.11328839
152	0xbde24cdf	-0.11049818
153	0x3dac3364	0.084082395
154	0x3e829b52	0.25509125
155	0x3df05cf9	0.11736483
156	0x3e91daf2	0.28487355
157	0x3d062d0a	0.032757796
158	0x3e7a0090	0.24414277
159	0x3d44d740	0.04805684
160	0xbe04111a	-0.12897149
161	0x3e42c136	0.19019017
162	0x3a6d0499	0.00090415176
163	0x3e524f24	0.20538002
164	0xbe46d538	-0.19417274
165	0xbdb8a777	-0.090163164
166	0xbba919e1	-0.0051605557
167	0x3dd13dd1	0.10216869
168	0x3e8d9c9a	0.2765854
169	0xbdb22268	-0.08697969
170	0x3d3f6e80	0.04673624
171	0x3e0672ad	0.13129683
172	0x3db7bc00	0.08971405
173	0xbe91483a	-0.28375417
174	0x3d717f34	0.0589592
175	0x3e8a6d0b	0.27036318
176	0x3d8ea91a	0.06965847
177	0xbd512811	-0.0510636
178	0xbe63f730	-0.22262263
179	0xbdd1a19c	-0.10235903
180	0x3e78034f	0.24220012
181	0xbe1f2cee	-0.15544483
182	0x3cb58b91	0.022161277
183	0x3e40ed87	0.1884061
184	0xbe8bf06d	-0.27331868
185	0x3e3ff74b	0.18746679
186	0x3e5a7eb7	0.213374
187	0xbc9ccff6	-0.019142132
188	0x3d5c3dfc	0.05377005
189	0xbda403f0	-0.080085635
190	0x3e569c3e	0.20958039
191	0x3e2bdaa4	0.16782624
192	0xbe6fbe3f	-0.23412417
193	0x3dbae5f0	0.09125888
194	0x3e6bf09f	0.23041008
195	0xbc7247ed	-0.014787656
196	0xbe12d429	-0.14338745
197	0x3d1dd591	0.03853375
198	0xbe268ea2	-0.16265348
199	0xbe9112fd	-0.283348
200	0x3e473a9d	0.19455953
201	0x3e1a6502	0.15077594
202	0xbd4423d9	-0.04788575
203	0x3ddc370f	0.10752689
204	0xbe9d91d4	-0.3077532
205	0xbebd4490	-0.36966372
206	0x3e83b4b3	0.257238
207	0x3d2826a4	0.041052476
208	0x3e68a136	0.22717747
209	0x3c5f85fd	0.013642785
210	0x3ea58626	0.3232891
211	0xbdd38292	-0.10327639
212	0x3d7d1252	0.06178505
213	0x3e74befb	0.23900978
214	0x3d97e93e	0.07417534
215	0xbdf4d2c3	-0.11954262
216	0xbe9c744e	-0.30557483
217	0xbe191f94	-0.14953452
218	0x3dbf97b8	0.0935511
219	0x3e15fc2c	0.14646977
220	0xbda82d40	-0.08211756
221	0x3e1a36a3	0.15059905
222	0xbd20c242	-0.03924776
223	0xbe3beed4	-0.18352824
224	0xbc274919	-0.010210299
225	0x3e7c0004	0.24609381
226	0x3dca607f	0.098816864
227	0x3e27ca28	0.1638571
228	0xbd1ec90e	-0.03876596
229	0xbdde4175	-0.10852329
230	0xbe40286b	-0.18765418
231	0x3e1697e0	0.14706373
232	0x3e52fa02	0.20603183
233	0xbe78485d	-0.24246354
234	0x3da47da8	0.080317795
235	0xbd86bbba	-0.06578775
236	0xbe779e02	-0.24181369
237	0xbe336855	-0.17520268
238	0x3e193d80	0.14964867
239	0xbe631361	-0.22175361
240	0x3e23f86d	0.16012736
241	0x3e9c5811	0.3053594
242	0x3e33d2a1	0.17560817
243	0x3e6a8510	0.22902322
244	0xbe89019e	-0.26759046
245	0x3b92463e	0.00446394
246	0xbe8a3c0c	-0.26998937
247	0x3d6146b3	0.054999065
248	0xbe620551	-0.2207234
249	0xbd47451b	-0.04864989
250	0xbc2d992d	-0.010595602
251	0xbe2f988b	-0.17148034
252	0x3dd82644	0.105541736
253	0xbc1ad065	-0.009449099
254	0xbdbd4cda	-0.09243174
255	0xbe830d96	-0.25596303

bias f4 [400]
0	0xbe0da13e	-0.1383104
1	0xbe34b9f6	-0.17649063
2	0xbe81bbe0	-0.2533865
3	0xbd810c98	-0.0630123
4	0x3dc186ba	0.09449525
5	0xbe0bd87e	-0.13656804
6	0xbdca873f	-0.098890774
7	0xbc53155b	-0.0128835095
8	0xbea348c9	-0.31891468
9	0xbe6152a3	-0.2200418
10	0xbe85d687	-0.26140234
11	0xbe9f6d1f	-0.3113794
12	0xbec3f4f4	-0.38272822
13	0x3daf9f1b	0.08575269
14	0x3db43dea	0.08800872
15	0xbe911aa3	-0.28340635
16	0x3e0a1a81	0.13486673
17	0xbe319907	-0.17343532
18	0xbea2537b	-0.31704316
19	0xbcea5653	-0.028605616
20	0xbd3e33b8	-0.04643604
21	0xbe386fec	-0.18011445
22	0xbdec7ad6	-0.115468666
23	0xbe04ff0b	-0.12987916
24	0xbc23a4db	-0.009988035
25	0xbe84b213	-0.2591711
26	0xbea7ccf0	-0.32773542
27	0xbcb50977	-0.02209924
28	0x3e04065e	0.12893054
29	0x3e08c060	0.13354635
30	0x3e23b7ab	0.15988033
31	0xbe493ac7	-0.19651328
32	0xbcd8134e	-0.026376393
33	0xbe8c72de	-0.27431387
34	0xbd5037c4	-0.050834432
35	0x3e221989	0.15830053
36	0xbe52d39b	-0.20588534
37	0xbd72af50	-0.059249222
38	0xbec00e6d	-0.37511006
39	0xbe90a457	-0.2825038
40	0xbe81d78e	-0.25359768
41	0xbe619ab8	-0.22031677
42	0x3e029e3a	0.12755671
43	0xbe7462b1	-0.23865773
44	0x3d0637c6	0.032768033
45	0x3d64eb3d	0.055888403
46	0x3db2ce5c	0.08730766
47	0xbeb098ea	-0.34491664
48	0xbe3e28cc	-0.1857025
49	0xbd738d65	-0.059461016
50	0xbe4efaba	-0.20212832
51	0xbd9d0254	-0.0766646
52	0xbe1fd5bf	-0.15608881
53	0xbd953ba0	-0.07286763
54	0xbe8868d5	-0.2664248
55	0x3e621a5b	0.22080366
56	0xbd12375d	-0.03569733
57	0xbe3346cd	-0.17507477
58	0xbe7899a8	-0.24277365
59	0xbe686530	-0.2269485
60	0xbd811290	-0.06302369
61	0xbeafa0fc	-0.3430251
62	0xbdc9ec07	-0.09859472
63	0x3d04fe4d	0.032469083
64	0xbe358563	-0.17726664
65	0xbeb47d09	-0.35251644
66	0xbd33261d	-0.04373752
67	0xbde2c0f3	-0.110719584
68	0xbccd7584	-0.02508045
69	0xbe865b2b	-0.2624143
70	0xbe3fbb0b	-0.18723695
71	0xbd52bd89	-0.051450286
72	0xbe7724b1	-0.2413509
73	0x3c30e58f	0.0107969185
74	0xbdb69511	-0.08915151
75	0x3d9eff45	0.077635325
76	0xbe3613e7	-0.1778103
77	0xbc11a2c1	-0.008888901
78	0x3cd15134	0.025551416
79	0xbe0f0e71	-0.13970353
80	0xbe6b1129	-0.22955765
81	0x3e0e10e4	0.13873631
82	0xbeb01fbd	-0.34399214
83	0x3de9f625	0.114239015
84	0xbd345d7d	-0.04403447
85	0x3d2f443b	0.04278968
86	0xbe5b6a5c	-0.21427292
87	0xbe46e919	-0.19424857
88	0x3bbbfb67	0.0057367566
89	0x3d322fc2	0.043502577
90	0xbe25a0e5	-0.16174658
91	0xbc251261	-0.010075183
92	0xbd3d0a5a	-0.04615245
93	0x3e932ea8	0.28746533
94	0x3d4d8ae7	0.050181296
95	0x3bf2fdb9	0.0074155
96	0xbe5fa58c	-0.21840495
97	0x3de45c70	0.111504436
98	0xbe5d5f33	-0.21618347
99	0xbdbcc374	-0.09216967
100	0xbd991fd4	-0.07476774
101	0xbe691cb8	-0.22764862
102	0xbe93d9bc	-0.28877056
103	0x3cfc3015	0.030784646
104	0xbd3b51d6	-0.04573234
105	0x3e891091	0.26770452
106	0x3a71b3a6	0.000922019
107	0xbdc7ac89	-0.09749705
108	0xbb98553d	-0.004648833
109	0x3d8125b1	0.06306017
110	0xbe913edd	-0.28368273
111	0xbd80dd1e	-0.06292175
112	0x3d9b066b	0.075695835
113	0xbe6653d7	-0.2249292
114	0xbe7af34d	-0.24506874
115	0xbd2004c3	-0.03906704
116	0x3d5d5492	0.05403573
117	0xbe79be83	-0.2438908
118	0xbde6843e	-0.11255692
119	0xbe981f9c	-0.29711616
120	0xbe9095e4	-0.28239357
121	0x3e0405d3	0.12892847
122	0xbe8d3374	-0.27578318
123	0x3d75fb1c	0.06005393
124	0xbe6834fd	-0.22676463
125	0xbea20213	-0.31642208
126	0xbdc9dbdb	-0.09856387
127	0xbd42c995	-0.047555525
128	0xbe564714	-0.20925552
129	0xbe096895	-0.13418801
130	0xbe6d2ce6	-0.23161659
131	0xbe9af06b	-0.3026155
132	0xbd538d7c	-0.051648602
133	0xbe5d4dd0	-0.21611714
134	0x3e9f97f6	0.31170624
135	0xbe9ef532	-0.31046444
136	0xbe9303b3	-0.2871376
137	0xbde905b6	-0.113780424
138	0xbe7cdcd2	-0.24693611
139	0xbe6ec836	-0.23318562
140	0xbe5dcac7	-0.21659385
141	0xba4ef0bb	-0.0007894148
142	0xbd3df305	-0.04637434
143	0x3d809911	0.06279195
144	0x3e9d8ca4	0.30771363
145	0x3c15e7ec	0.009149533
146	0xbe418d97	-0.18901668
147	0xbe9a5a1b	-0.3014687
148	0x3e917b56	0.2841441
149	0xbb3188cc	-0.0027089594
150	0x3e83a763	0.25713643
151	0x3e0a699a	0.13516846
152	0xbe2d7c68	-0.16941988
153	0xbebfbec2	-0.37450224
154	0xbe886a1a	-0.2664345
155	0xbe829eb3	-0.25511703
156	0xbea3f4ec	-0.32022798
157	0xbca1d513	-0.019754922
158	0xbe91c066	-0.284671
159	0xbda6c7bd	-0.08143566
160	0x3d9968ae	0.07490669
161	0xbe80b2bf	-0.25136372
162	0xbe831e79	-0.25609186
163	0x3d9ba866	0.07600479
164	0xbd37d331	-0.044879142
165	0x3e023929	0.12717117
166	0x3d97b6fa	0.07407947
167	0xbeccf156	-0.40027875
168	0xbe19de78	-0.15026271
169	0x3e26cd02	0.16289142
170	0xbd0e9243	-0.034807455
171	0xbd2f64e7	-0.042820837
172	0xbe0fee60	-0.14055777
173	0xbe95f20d	-0.29286233
174	0x3e9ce593	0.306439
175	0xbe438f1d	-0.19097562
176	0xbdf8416c	-0.12121853
177	0xbe95b192	-0.29237038
178	0xbddb9da9	-0.10723431
179	0xbe68344e	-0.22676203
180	0xbe7e329f	-0.24823998
181	0x3dac4818	0.08412188
182	0xbe584924	-0.21121651
183	0x3db85513	0.090006016
184	0x3dc8b61c	0.098003596
185	0xbe0b6856	-0.1361402
186	0xbe25d7b8	-0.16195571
187	0xbd4a297f	-0.04935598
188	0xbd618b66	-0.05506458
189	0x3e2883e9	0.1645657
190	0xbd7fb2c7	-0.062426355
191	0xbe14d92d	-0.14535971
192	0x3cf1cec6	0.029517543
193	0x3e4a18eb	0.19736068
194	0xbe893470	-0.2679782
195	0x3cafb4c3	0.021448499
196	0xbd5bac70	-0.053631246
197	0x3e4359d5	0.19077237
198	0x3c576bb6	0.013148239
199	0xbe63acd7	-0.22233902
200	0xbe1bc76b	-0.1521279
201	0x3ab04703	0.0013448898
202	0xbe169f80	-0.14709282
203	0xbe80f164	-0.25184166
204	0xbe5be3cc	-0.21473616
205	0xbda4e5ae	-0.080516204
206	0xbea25deb	-0.3171228
207	0x3e87b5f8	0.2650602
208	0x3bd5ede5	0.0065286034
209	0xbe804453	-0.25052127
210	0xbe26f7bf	-0.16305445
211	0xbe406477	-0.18788324
212	0x3e74a806	0.23892221
213	0xbdba5e6c	-0.09100041
214	0x3d21f5f3	0.039541196
215	0xbe74df25	-0.23913248
216	0xbe4fb8a4	-0.20285279
217	0x3e16a419	0.14711036
218	0xbe852859	-0.26007345
219	0xbe988388	-0.2978785
220	0x3c7eebfd	0.015559194
221	0xbe2412ea	-0.1602284
222	0x3c763b24	0.015028749
223	0x3dd6a889	0.10481364
224	0xbe5bcff7	-0.21466051
225	0xbd9452ed	-0.07242379
226	0x3e631a31	0.2217796
227	0xbe8f8f09	-0.28038815
228	0xbe931b59	-0.28731802
229	0x3b080996	0.0020757667
230	0xbdc94f3c	-0.09829566
231	0xbe7c6b43	-0.24650292
232	0xbd864718	-0.06556529
233	0xbbfb12c0	-0.0076621473
234	0x3e4ceaa6	0.20011386
235	0x3c2e1af4	0.010626543
236	0xbe466bc8	-0.19377053
237	0xbd098abf	-0.033579584
238	0xbe8fb336	-0.28066415
239	0xbd8e3cad	-0.06945167
240	0xbec05daf	-0.37571475
241	0xbe82b14d	-0.25525895
242	0x3c098bbc	0.008395132
243	0xbd9e254e	-0.07721959
244	0xbe5e430d	-0.21705265
245	0xbe9ae5c4	-0.30253422
246	0xbe6fd923	-0.23422675
247	0xbed8f854	-0.4237696
248	0xbde930bf	-0.11386251
249	0xbb4e08a6	-0.003143826
250	0x3e257373	0.16157322
251	0xbe99cc06	-0.3003847
252	0xbdf5a10e	-0.11993609
253	0xbdcb09b3	-0.09913959
254	0xbd1bde45	-0.03805377
255	0xbcfe45c2	-0.031039122

weight f4 [100, 400]
0	0x3d6b508b	0.05744986
1	0x3df892ba	0.12137361
2	0x3de07083	0.1095896
3	0x3df138b7	0.117783956
4	0x3a987136	0.0011630419
5	0x3dd16dff	0.10226058
6	0x3df1d7e6	0.118087575
7	0xbc01ed89	-0.007930168
8	0x3dce1454	0.10062471
9	0x3d04f45b	0.032459598
10	0x3d1afcad	0.037838627
11	0x3dbc509a	0.09195061
12	0x3e0a9ad0	0.13535619
13	0x3cadd87e	0.021221396
14	0x3c6c7738	0.014432721
15	0x3dc0f98d	0.09422598
16	0x3dade3ed	0.08490739
17	0x3d891ba1	0.06694723
18	0x3d9528d5	0.07283179
19	0xbc779e31	-0.015113399
20	0xbc750611	-0.01495506
21	0x3c354852	0.011064606
22	0x3db441f8	0.08801645
23	0x3bf9a98a	0.0076190876
24	0x3d6cff63	0.057860743
25	0x3d80bc09	0.06285865
26	0x3e07b633	0.13253097
27	0x3db7d851	0.08976806
28	0x3e617dc6	0.22020635
29	0x3c138317	0.009003422
30	0xbbd9f685	-0.006651702
31	0x3e53bd04	0.20677572
32	0x3de3be09	0.11120231
33	0x3d960706	0.07325558
34	0x3dc337ff	0.09532165
35	0x3cf4d96c	0.029888831
36	0x3dd22e38	0.10262722
37	0x3de5e607	0.11225515
38	0x3e17ef98	0.14837492
39	0x3da05694	0.078290135
40	0x3df8fe9c	0.12157938
41	0x3d9f1bb8	0.07768959
42	0x3eaa060d	0.3320774
43	0x3de7f7d8	0.11326569
44	0x3d42b70a	0.04753784
45	0x3d8a28eb	0.06746086
46	0x3de04bb3	0.109519385
47	0x3de15593	0.1100265
48	0x3e0f45a1	0.13991405
49	0x3dd07f26	0.10180502
50	0xbbf738d0	-0.0075446144
51	0x3dbb8e83	0.09158041
52	0x3d14cdfc	0.036329255
53	0x3bf30009	0.0074157757
54	0x3db72909	0.08943374
55	0xbc9b54ad	-0.018961275
56	0x3d56a4a6	0.052403115
57	0x3dcadaaf	0.09904992
58	0xbb862256	-0.0040934486
59	0x3e0d24f8	0.13783634
60	0x3ccdb14a	0.025108952
61	0x3e292192	0.16516712
62	0xbc4b1721	-0.012395651
63	0x3d2d9dc9	0.042386804
64	0x3d022a59	0.031778667
65	0x3e74bbb3	0.23899727
66	0x3de32a35	0.11092035
67	0x3db95e55	0.090511955
68	0xbc9d2179	-0.019181
69	0x3dfe1372	0.12406053
70	0x3e10555d	0.14095064
71	0x3d9aabad	0.07552276
72	0x3d298309	0.04138473
73	0x3da9baad	0.08287559
74	0x3d8d2ce1	0.068933256
75	0xbbe4ccad	-0.006982407
76	0x3d164817	0.036689844
77	0x3d741b8b	0.05959658
78	0x3df8f7e5	0.12156657
79	0x3df4196f	0.119189136
80	0x3d8bdd3b	0.06829306
81	0x3d47443d	0.04864906
82	0x3dbd5c27	0.09246092
83	0x3d41616e	0.047212057
84	0x3ca0a671	0.019610615
85	0x3d07ec65	0.033184428
86	0x3dc12733	0.09431305
87	0x3de5a360	0.11212802
88	0x3da69fd7	0.08135956
89	0x3d8e7237	0.069553785
90	0x3dcfb237	0.10141414
91	0x3d8546fa	0.06507678
92	0x3e5316ac	0.20614117
93	0x3d7f89a8	0.06238714
94	0x3d3af570	0.045644224
95	0x3da7e423	0.081978105
96	0x3d994611	0.07484067
97	0x3d98d3f4	0.07462302
98	0x3e00700f	0.12542747
99	0x3d6badb0	0.05753869
100	0x3d8b22cf	0.067937486
101	0x3e03f1a3	0.12885146
102	0x3e1ebb50	0.15501142
103	0x3dc6bf1e	0.097044215
104	0x3d7b5ceb	0.06136791
105	0xbce0940f	-0.02741435
106	0x3c24a37b	0.010048742
107	0x3da443e2	0.0802076
108	0xbab9419c	-0.0014133933
109	0x3dd61433	0.104530714
110	0x3e008b4c	0.12553138
111	0x3ddb6f8a	0.10714634
112	0x3cc54f16	0.024085563
113	0x3d088986	0.033334278
114	0x3d3f470d	0.04669862
115	0x3d8f1897	0.06987112
116	0x3d8cc0b5	0.068726934
117	0x3ce2d026	0.027687144
118	0x3d07cfb0	0.03315705
119	0x3e11d761	0.14242317
120	0x3e278f19	0.16363181
121	0x3de8590b	0.113451086
122	0x3e3508d6	0.17679152
123	0x3de73421	0.1128924
124	0x3de1e0b6	0.11029188
125	0x3e592b59	0.21207942
126	0x3cd8be05	0.026457796
127	0x3c1d5183	0.009601953
128	0x3da627e1	0.08113075
129	0x3db29487	0.087197356
130	0x3d14ebe2	0.036357768
131	0x3d5502be	0.05200457
132	0x3d2aa2c3	0.041659128
133	0x3d609f4f	0.05483943
134	0x3e826d6d	0.2547411
135	0x3d5c53b3	0.05379076
136	0x3d7aa44d	0.061191846
137	0x3d75d249	0.060014997
138	0xba29826a	-0.00064662716
139	0x3e23413b	0.15942852
140	0x3dfa86b0	0.12232721
141	0x3d9fbf61	0.078001745
142	0x3c031910	0.008001581
143	0x3c9ebce9	0.019377189
144	0xbd87dcdc	-0.066339225
145	0x3c9eee86	0.019400846
146	0x3a343c51	0.0006875443
147	0x3d5425f2	0.051794
148	0x3d4db882	0.05022479
149	0x3da8851d	0.08228514
150	0x3e21f745	0.15816982
151	0x3d52c5a9	0.051458035
152	0x3c349743	0.011022392
153	0x3e330bed	0.17485018
154	0x3da486fa	0.08033557
155	0x3db4cc64	0.08828047
156	0x3e05c50a	0.13063446
157	0x3e0aff69	0.13573994
158	0x3e0b6a24	0.13614708
159	0x3d7ec7d8	0.062202305
160	0x3d2e3253	0.04252846
161	0x3e0bad57	0.13640343
162	0x3ce15459	0.02750604
163	0xbcc35dd1	-0.023848446
164	0x3da18341	0.07886363
165	0x3c0c6ffc	0.008571621
166	0x3dbcc2c2	0.092168346
167	0x3eb28abb	0.34871468
168	0x3d725490	0.059162676
169	0x3b7e9bae	0.0038850117
170	0x3d3d46af	0.046209987
171	0x3cc9ae25	0.024619171
172	0xbc38d50e	-0.011281265
173	0x3e1b0e37	0.15142141
174	0x3d43cc63	0.04780234
175	0x3ce3b563	0.027796453
176	0x3d032ab3	0.032023143
177	0x3dac8988	0.084246695
178	0x3c938230	0.018006414
179	0x3df4f855	0.11961428
180	0x3d6f8a78	0.058481663
181	0x3d971207	0.07376485
182	0x3e0b58f5	0.13608153
183	0x3d1e56b3	0.0386569
184	0x3ce4ebe5	0.027944515
185	0x3d1919da	0.03737817
186	0x3deac9c8	0.11464268
187	0x3da7fb0f	0.082021825
188	0x3dc2e45b	0.095162116
189	0x3d96da6a	0.07365878
190	0x3d56d08d	0.052444983
191	0x3e1e49de	0.15457866
192	0xbc6c643d	-0.014428196
193	0x3da45155	0.08023325
194	0x3d4d1a80	0.0500741
195	0x3cb3f757	0.021968527
196	0xbadcdee5	-0.0016851096
197	0x3e3eb567	0.18623887
198	0x3d22aa09	0.03971294
199	0x3c08b416	0.008343717
200	0x3d248e97	0.040175047
201	0x3d1e5b99	0.038661573
202	0x3d9984a1	0.07496
203	0x3d4d9265	0.05018844
204	0x3dac4629	0.084118195
205	0x3d8d3fe9	0.068969555
206	0x3e2e97cf	0.17050098
207	0x3db2216d	0.08697782
208	0x3c8e411c	0.017365031
209	0x3d3ff66a	0.04686586
210	0x3da622e4	0.081121236
211	0x3d7513ae	0.05983322
212	0x3d0f883d	0.035042036
213	0x3d87c79e	0.06629871
214	0x3da33e55	0.07970873
215	0x3de31fa5	0.1109002
216	0x3d86e5e8	0.0658682
217	0xbcce9fa6	-0.02522261
218	0x3e0674d8	0.1313051
219	0x3cae6180	0.021286726
220	0x3d453fdd	0.048156608
221	0x3e0d05d3	0.13771753
222	0x3dce4686	0.10072045
223	0x3d51522f	0.051103767
224	0x3d9bdda6	0.076106355
225	0x3dbc4652	0.091931
226	0x3d0488b3	0.03235693
227	0x3d943fe9	0.072387524
228	0x3d76cbcd	0.060252953
229	0x3e104f03	0.1409264
230	0x3d88fe69	0.0668915
231	0x3d2da090	0.042389452
232	0x3d8ca792	0.06867899
233	0xbbaf2998	-0.0053455345
234	0x3d018bbc	0.0316274
235	0x3e1299ee	0.14316532
236	0x3da4e4c7	0.08051448
237	0x3dc3c226	0.09558515
238	0x3d330a38	0.043710917
239	0x3d45594c	0.048180863
240	0x3de9fd00	0.11425209
241	0x3d6566aa	0.05600611
242	0x3dc80d0d	0.09768114
243	0x3d865b21	0.0656035
244	0x3dd51246	0.10403876
245	0x3d9445aa	0.0723985
246	0x3dbdf638	0.09275478
247	0x3eb2efec	0.3494867
248	0x3dd79aa8	0.10527545
249	0x3d216240	0.03940034
250	0x3d0a2e45	0.033735532
251	0x3bcceb3b	0.0062536276
252	0x3d0b75a6	0.034047745
253	0x3be10ebb	0.006868211
254	0x3c872cb6	0.016500812
255	0x3da9aae8	0.08284551

bias f4 [100]
0	0x3c8dc784	0.01730705
1	0xbc8c4dea	-0.017126996
2	0x3c9726a5	0.018451044
3	0x3c23e784	0.010003928
4	0xba98516e	-0.0011620948
5	0xbd494cce	-0.049145512
6	0x3c76e6c7	0.01506967
7	0xbdff7ccb	-0.12474974
8	0x3bc018f2	0.0058623487
9	0xbbcff397	-0.006346177
10	0x3d84099b	0.064471446
11	0xbdc25c93	-0.094903134
12	0xbdbf6435	-0.09345285
13	0x3dcff391	0.101538785
14	0x3f5b4a0b	0.85659856
15	0x3d94d82f	0.07267796
16	0xbd368d73	-0.04456849
17	0x3dcfbaf5	0.10143081
18	0x3b21720d	0.002463463
19	0xbd721a67	-0.05910721
20	0xbd32fd1c	-0.043698415
21	0x3d08ed68	0.033429533
22	0x3de20306	0.11035733
23	0xbdd1158b	-0.10209187
24	0x3d520f1c	0.05128394
25	0x3d477927	0.048699524
26	0xbd326b6f	-0.043559488
27	0x3d07edde	0.033185832
28	0xbd8cc214	-0.06872955
29	0x3c5c37bd	0.013441023
30	0xbad01bf7	-0.0015877475
31	0x3b967c49	0.0045924527
32	0x3d77941b	0.06044398
33	0x3cf0d12e	0.02939662
34	0x3d873e2a	0.06603654
35	0x3d2b765d	0.041860927
36	0x3dbe2fa5	0.09286431
37	0xbced997a	-0.029003847
38	0x3c321e4a	0.010871479
39	0xbd2fdd34	-0.042935565
40	0x3dc8657e	0.09784983
41	0xbc8ce88f	-0.017200736
42	0xbd9a3e16	-0.07531373
43	0xbd9f800f	-0.07788097
44	0x3c98023b	0.018555751
45	0x3debcf4b	0.11514147
46	0x3dd1abb1	0.10237826
47	0xbcfbd66f	-0.030741898
48	0xbda7c03c	-0.08190963
49	0xbdcef5fb	-0.10105511
50	0x3d6dceb0	0.05805844
51	0xbddfb322	-0.10922839
52	0x3d2c2226	0.042024754
53	0x3dd477e0	0.10374427
54	0xbd3b6c86	-0.045757793
55	0x3cb44310	0.022004634
56	0x3bc21dbd	0.0059239552
57	0x3d67d720	0.056601644
58	0x3daa40bb	0.083131276
59	0xbb412e39	-0.0029477014
60	0x3cffeb36	0.031240087
61	0x3c47e58c	0.012200724
62	0xbd263192	-0.040574618
63	0x3cd82fd4	0.026389994
64	0xbcfbcbca	-0.030736823
65	0xbc79a448	-0.015236922
66	0x3d940283	0.072270416
67	0x3be37d7c	0.006942449
68	0x3bfbd0da	0.007684809
69	0x3d5fe940	0.054665804
70	0xbdcfb5dd	-0.101421095
71	0x3da54bea	0.0807112
72	0x3db36df6	0.08761208
73	0xbd978d77	-0.07400029
74	0xbd23871d	-0.039923776
75	0xbdcf4752	-0.10121025
76	0xbcda9671	-0.026683064
77	0x3d67f0c0	0.05662608
78	0x3d760ab6	0.06006881
79	0x3cd4a6ae	0.025958385
80	0x3d8f2aa2	0.069905534
81	0xbd529897	-0.051415052
82	0x3de04eb9	0.10952515
83	0x3de3d9d1	0.111255296
84	0xbd7ce9b1	-0.061746303
85	0x3dd82242	0.10553409
86	0x3a330546	0.0006829094
87	0x3d98f3d9	0.07468385
88	0xbdebbeda	-0.115110114
89	0xbddf96b1	-0.10917414
90	0x3d9f8d65	0.07790641
91	0xbd743bd3	-0.059627365
92	0xbdc933e7	-0.09824353
93	0xbd339a2b	-0.043848198
94	0xbd3ab7b4	-0.04558535
95	0x3d3f7fcb	0.046752732
96	0x3dc39819	0.09550495
97	0x3d37aedb	0.04484449
98	0xbd865d91	-0.06560815
99	0xbd8fbf40	-0.070189

weight f4 [1, 100]
0	0xbdb50864	-0.08839491
1	0xbdd1dd87	-0.10247331
2	0xbb4f962f	-0.003167521
3	0xbe139964	-0.14413983
4	0xbe030306	-0.12794122
5	0xbd2d5a37	-0.042322364
6	0xbe3dd7c3	-0.18539338
7	0xbd549ac8	-0.051905423
8	0x3c7f9fa3	0.015602025
9	0xbd5cc5f4	-0.05389972
10	0xbd883358	-0.06650418
11	0xbdc39c5a	-0.09551306
12	0x3cfd8f48	0.03095211
13	0xbe5201c8	-0.20508492
14	0xbf17c5cf	-0.59286207
15	0xbe5ece4e	-0.21758386
16	0xbc6d7c4a	-0.014494965
17	0xbdbf4b96	-0.09340589
18	0xbd049fe2	-0.03237904
19	0xbc59a118	-0.013283037
20	0xbd3396b5	-0.043844897
21	0xbcc34716	-0.023837607
22	0xbe1e2963	-0.15445475
23	0xbd0336d9	-0.03203473
24	0xbdd0c112	-0.10193075
25	0xbded084a	-0.11573847
26	0xbd579c21	-0.05263913
27	0xbdc17bd6	-0.09447448
28	0xbd1ada3e	-0.03780579
29	0xbe1ffec2	-0.15624526
30	0xbc9fbc6e	-0.01949903
31	0xbe11bb32	-0.14231566
32	0xbb676bc9	-0.0035312048
33	0xbe04e60d	-0.12978382
34	0xbd838b98	-0.0642311
35	0x3d6061e2	0.05478085
36	0xbdabeb78	-0.083945215
37	0x3c805405	0.015665064
38	0xbd641eeb	-0.05569355
39	0xbdac3a1d	-0.08409522
40	0xbe0110bd	-0.12604041
41	0x3d2feb76	0.042949162
42	0xbe0e617e	-0.13904378
43	0x3d0880c7	0.033325937
44	0xbe01bebe	-0.12670419
45	0xbcda2917	-0.026630921
46	0xbccdd6cc	-0.025126837
47	0xbe43a6d1	-0.19106604
48	0xba1d26de	-0.00059948664
49	0x3c14dfc6	0.009086555
50	0xbe648f0f	-0.22320198
51	0x3cfb8d0b	0.030706903
52	0xbd519ba5	-0.051173825
53	0xbe48ea28	-0.19620574
54	0xbd0abb00	-0.033869743
55	0xbe2803dd	-0.16407724
56	0xbd981041	-0.07424975
57	0xbe4a1488	-0.19734395
58	0xbc9d9fc9	-0.01924123
59	0x3c0f4702	0.008744957
60	0xbe47a067	-0.19494782
61	0x3d5674e2	0.052357562
62	0xbd284003	-0.04107667
63	0xbc972625	-0.018450806
64	0x3cc3ed40	0.02391684
65	0xbcaf895e	-0.021427806
66	0xbc0907e5	-0.008363699
67	0xbe41bc1e	-0.18919417
68	0xbe124387	-0.14283572
69	0xbe2f9285	-0.17145737
70	0xbd3c310b	-0.04594521
71	0xbd743f73	-0.059630822
72	0xbe65c492	-0.22438267
73	0x3d40be73	0.047056627
74	0x3ce5065c	0.027957134
75	0xbd16e0a0	-0.036835313
76	0xbe154294	-0.14576179
77	0xbda7ab08	-0.081869185
78	0xbd104711	-0.035224024
79	0xbd575c7c	-0.052578434
80	0xbdab3d10	-0.08361256
81	0xbe2a0450	-0.16603208
82	0xbe50aa2e	-0.20377418
83	0xbce2968e	-0.02765968
84	0xbe368852	-0.1782544
85	0xbc2e9ff9	-0.010658258
86	0x3d42cd4e	0.047559075
87	0xbe306cf4	-0.17229062
88	0x3d057773	0.03258462
89	0x3caa619b	0.020798495
90	0xbd8aa861	-0.06770397
91	0xbc99e336	-0.0187851
92	0x3d283e0d	0.0410748
93	0x3d53dcd5	0.051724274
94	0x3ceb80fc	0.028748028
95	0xbca1df73	-0.01975987
96	0x3b73e74e	0.0037216726
97	0xbe5d37b3	-0.21603279
98	0xbd64fa41	-0.055902723
99	0x3d58d09c	0.05293332
