Gibbs_MINE/pw_res/model_lk_b=10_s=0.5_p=4.pth (torch, 171415 bytes, 5 tensors)

weight f4 [400, 4]
00000000: 09a0 9fbd 1057 903e 17b7 c43e ca0e b4be
00000010: e2ab 3b3e cfe4 da3e e5de edbd 099f b1be
00000020: 9bd2 f1be 7aad 4dbe a0b6 3a3e ad8a 7c3d
00000030: d222 603e ecc2 843e 64b1 94be 9d6f 38be
00000040: b1a6 b33e c266 ad3d 4237 91be 6e91 35be
00000050: 8cdd c83e a94e 68be b670 6a3d 8051 653e
00000060: 57a1 d7be a6b6 393e 6dec d73e 925d 88be
00000070: 8b77 9e3d 20a7 3138 3530 e33e 4c2b 923e
00000080: ffd5 aa3e 5220 933e 5168 f83e be15 19be
00000090: e3dd 9f3d a636 983d 276b 1dbf 9a5c 63be
000000a0: 6727 513e 085e 453e de9c 6dbd a9a6 fc3d
000000b0: 39fc 05bf f2fd 46be 8e28 953e 9feb f8be
000000c0: 0983 ffbc 397e d83d b834 2c3e c4c8 193a
000000d0: 1e15 fa3d f688 843e d390 6c3e 95b2 863d
000000e0: acd6 bd3e dae5 10bd 3a45 1ebf 9726 debd
000000f0: bf5b dc3e b090 0bbd dc35 b2bd 241e 41be
00000100: 765d a93e 86bf 4ebe a96a 1b3e 20fd 26bd
00000110: dacb 953d c534 69be 07a9 cd3e 1e50 4d3e
00000120: 488e dd3e 477a 933e bb2e 96be 8591 bbbc
00000130: aa37 673e 276f a0be b272 c53e 32b5 ccbe
00000140: d7ab b43e 7cb5 cf3c 612e 83be c138 8fbe
00000150: 9b70 f9be 37bd da3d b31e cf3e 37ba d23e
00000160: fcab 853e cc55 a73e 68ae c93d a944 59be
00000170: b31d f43d 384f 633c ff71 c6bd 21ab 5fbc
00000180: 6680 93bd ddf7 3b3e 1e5c 973e 0000 0d3e
00000190: 97fd 57be 53d0 8dbe a521 bb3c 7401 f1be
000001a0: e80c 3c3e 7b08 583e a422 a0be 8be0 03bf
000001b0: a2a3 a53d e2ad db3e 6357 f23e 94f5 46be
000001c0: 0fe0 013f 70b7 813d 68ad c63d afd4 c13e
000001d0: 4c0b c63e a01d 85be dbfb e0bd 0619 0cbe
000001e0: eddc ebbc 6bc3 0b3c 4c55 fbbe f10c a6be
000001f0: f3fd 25be b29e 84bd 5a2f 183d 0ac7 c3be
00000200: 88b7 7e3e 53d3 cc3e 77f6 d6be 3604 f1bd
00000210: 078b 45bd a84a 433d fd4c 1fbd 4beb 0c3c
00000220: c605 b9be 255d 363e 502d 94be 247b 953e
00000230: 4e43 3c3e 991b a53e 6ad5 77be ec88 95bd
00000240: 62fe dabe a707 6b3e 992c d2be c506 0bbf
00000250: 58a2 f6bc 4af0 ee3d 4870 bf3d 7ff4 42be
00000260: 001d 5cbe 5be7 823e 6a33 0f3f e49f ba3e
00000270: c3c5 f53e db14 19bc ec13 313e 8c0f 023e
00000280: e390 21be abe8 823e 03d0 cb3d 9cc9 8d3e
00000290: 028a 58be 9f8d 32bd 7f1f cc3d c09f 1d3e
000002a0: e50e 863e 1d12 d1be 93d7 423e ba9c bf3d
000002b0: d7b3 863e 3658 96be d0f4 763e 1cef da3e
000002c0: cb49 c73d d1cc cfbd 8bd5 0dbf f890 a3be
000002d0: b893 f43e 0fba 89bd 165a 293d c8a2 a63e
000002e0: ed74 ebbe cfa2 733e 36b5 dc3e 9058 53bd
000002f0: 1275 013e eed4 403d 018e f33e ca9d 7e3e
00000300: 2310 03bf 029a 983d 162a e03e 3234 c73a
00000310: 3c66 60be 2e40 59bd 9440 a8be 1427 fabe
00000320: 1005 a63e 345e 453d d877 adbd 871c 873e
00000330: eb9b aebe 6fa8 ccbe 3deb af3e fbae 423e
00000340: 839f 893e 7ae1 473e 46ae 983e fbb6 24be
00000350: 1f23 223e 2157 8f3e be31 39bc 0d2e 0cbe
00000360: a0e5 9dbe 46db b7be a9d7 be3d c1fa ea3d
00000370: abec e43c b76d 843d d359 10be a308 8ebe
00000380: adc4 95bd e6c5 ce3e e8e9 a73e 26f1 ae3e
00000390: 7673 f73c 472b 99be ea50 93be 70c6 b03e
000003a0: b55e a63e e581 2fbe 827d 083d f338 1dbd
000003b0: 9c49 e8be 1d94 93be fc6a 453e 26ea 48be
000003c0: 8f93 593e befb a53e 491d 903e 3ac8 303e
000003d0: 7479 a2be 10ff 50bd 038a 89be cf9e c53b
000003e0: 8f2a b2be a9ce 5c3d ec6e 833e f96b 2cbd
000003f0: 1c94 753e d015 133e 77b3 9dbe fdf3 e9be
-0.07794196 0.28191423 0.38420936 -0.35167533 0.18327287 0.42752692 -0.116147794 -0.34691647
-0.47230992 -0.20085707 0.18233728 0.06165569 0.21888283 0.25929964 -0.29041588 -0.18011327
0.35088113 0.08466865 -0.2836247 -0.17731258 0.39231527 -0.22686256 0.057236396 0.22394371
-0.4211528 0.18136081 0.42172566 -0.26633888 0.07737645 4.2355736e-05 0.44372717 0.28548658
0.3336639 0.28735596 0.48517087 -0.149497 0.078059934 0.07432298 -0.61491627 -0.22203293
0.20425187 0.19274151 -0.05801093 0.123364754 -0.52337986 -0.1943281 0.29132503 -0.48617265
-0.031190412 0.1057095 0.16816986 0.0005866403 0.12211059 0.25885743 0.23102121 0.065770306
0.37077844 -0.035375454 -0.6182438 -0.10847204 0.43038747 -0.03407353 -0.08701679 -0.18859154
0.33079118 -0.20190248 0.15177406 -0.040768743 0.07314272 -0.22774036 0.4016802 0.20050094
0.43272614 0.28804228 -0.29332528 -0.022896538 0.22579828 -0.31334803 0.38564068 -0.3998199
0.35287353 0.025355093 -0.25621322 -0.27972987 -0.48718724 0.10680621 0.4045311 0.41157696
0.26107776 0.32682645 0.098477185 -0.21217598 0.11919727 0.013873868 -0.09689712 -0.01365164
-0.072022244 0.18356271 0.29562467 0.13769531 -0.2109283 -0.27698 0.022843191 -0.4707142
0.18364298 0.21096985 -0.3127643 -0.515145 0.08087851 0.429061 0.47332296 -0.19429618
0.5073251 0.06333816 0.09701043 0.37857577 0.38680494 -0.25999165 -0.109855376 -0.1368142
-0.028791869 0.008530478 -0.49088514 -0.32431749 -0.16210155 -0.06475581 0.037154533 -0.38237792
0.24874699 0.40004978 -0.41984913 -0.11768381 -0.04822829 0.04767862 -0.03889178 0.00860102
-0.36137217 0.1780897 -0.2894082 0.2919551 0.1838505 0.32247618 -0.24202505 -0.073015064
-0.42772204 0.22952138 -0.4104965 -0.54307204 -0.030106708 0.11666925 0.09347588 -0.1903858
-0.21495438 0.25567135 0.55937827 0.36450112 0.48002443 -0.009343351 0.17292756 0.12701243
-0.15777926 0.25568137 0.099517845 0.27692878 -0.21146396 -0.04359209 0.09966945 0.15392971
0.2618324 -0.40834132 0.19027548 0.09356065 0.26309082 -0.29364175 0.24116826 0.4276055
0.09730872 -0.101464875 -0.55403966 -0.3194654 0.4776895 -0.06724941 0.04134568 0.32546067
-0.45987645 0.23792575 0.43107003 -0.05159813 0.12642315 0.047078066 0.47569278 0.24864879
-0.511965 0.0745125 0.4378211 0.001519805 -0.21914 -0.053039722 -0.3286177 -0.4885794
0.32425737 0.048185542 -0.08470124 0.26388952 -0.3410333 -0.39972255 0.3435916 0.19012062
0.2687951 0.19519606 0.2982046 -0.16085427 0.1583371 0.27996162 -0.011303363 -0.13689442
-0.30839252 -0.3590948 0.09318478 0.11473609 0.027944883 0.06466239 -0.14096765 -0.27740964
-0.073129036 0.4038536 0.32795644 0.34168357 0.030206423 -0.2991583 -0.2877267 0.34526396
0.3249413 -0.17139395 0.03332282 -0.03838439 -0.4536866 -0.2882394 0.19279093 -0.1962057
0.21247695 0.32418627 0.28147343 0.1726388 -0.31733286 -0.051024497 -0.26863107 0.0060308944
-0.34798095 0.053908024 0.25670564 -0.04209516 0.2398228 0.1436379 -0.30800983 -0.4569396

bias f4 [400]
00000000: 2288 e03e 16fe 81bb 446b d23e ff8a cfbe
00000010: 8c5e cb3e f96c 0a3e dac4 923e e0a2 d2be
00000020: e96b 053e 13e0 c8be 58b9 963d b86f 65be
00000030: cf2a cb3e 2307 e43e 49e8 e7be 61ba 2c3e
00000040: 5be6 653e a440 3bbe 1615 7cbd 8d03 fcbe
00000050: b9f1 b33e 2a44 0e3e 7e3b 543e 6ac3 79bd
00000060: cf5f 013f c866 91be a457 e4be d3e5 0ebe
00000070: c12d 01bf 90db 1c3f 6ce6 5bbe 9e56 203e
00000080: 85da 813e e563 eb3d f007 c9be dd90 1b3e
00000090: 0832 393e b9f0 13be 9f31 44be 7245 14be
000000a0: 2f04 063f 215d 0b3f 29b0 a33e 3b0a 42be
000000b0: 71d8 87bd 0cf1 0abf b87c e53e 03c8 c3be
000000c0: 054d 8f3c 5e2c c83e bfde e8be b0f9 babe
000000d0: 5da3 9d3e 07f0 cc3e d7f3 2d3e 8f19 263e
000000e0: 081c c2be 2583 ecbc 043a b03e 5083 553e
000000f0: ad0c c03e 9ab9 c23e 40fa f53d b5dc 82be
00000100: b786 dbbe 821f e73e 031b dabd 41fa f23e
00000110: 3c11 fbbe 8e9d a2bd 9c30 9c3e efd2 febe
00000120: 8fe4 10bf 7024 003c eeeb ff3e 762e c13e
00000130: 81f8 8a3e 195a 9cbd b57f b93e 884e 4a3e
00000140: 262c cbbe 4130 763e 1de5 913d 30d2 083f
00000150: f679 9f3e 61d1 9abe c9fe 593e 317d 6dbe
00000160: ff0e a7be 1f1a c73e ad4d e5be 94b6 0fbf
00000170: 4210 00bf 7184 883e 50eb b63e dc1e e03e
00000180: 643c 843e 8aa8 0abf 12e0 c5bd 131a 003f
00000190: 54a3 bfbd 54a2 383c 5a51 b23e ba56 33be
000001a0: c518 6d3e 91c2 96be f19f c83e a62d d2be
000001b0: 0879 a1be 241c 83be ed23 103c 4cfc c93e
000001c0: d990 ae3e 09bc 0b3e a256 ddbe fc01 023e
000001d0: cd02 eabe 1d49 b73e c8b3 7ebb 6b61 933e
000001e0: 6779 ca3e f2cf 2dbd 7ad4 8f3e 471b 7cbe
000001f0: de1b 9ebe 250f 483d 0abf 7abe 2c60 b6bc
00000200: 6400 1cbe 2c6e a7be 3a47 d33e eac0 01bf
00000210: 2d03 c8bd bc1f a13d 3ae1 c83e dd99 983e
00000220: e75f d7be 5c26 edbe cd61 f3be eb11 d6be
00000230: 8850 ff3e 8187 1abe c75f d83e 83bb d63e
00000240: c7a4 833e 63c2 7cbe e021 fb3c 2e01 c73e
00000250: 5d30 523e 5e4b 00bf 240f c9be a41f 9d3d
00000260: 69f0 bfbd 41b8 303d 9ac0 393c 7c54 4a3d
00000270: f991 063f 86a6 76be 27b5 28be 6114 92be
00000280: f93d 4f3e f1e5 d0be c554 a3be c0a6 a0bd
00000290: 9d63 003f eaea 1fbe d54b b13e ae42 91be
000002a0: 6be1 81be f346 adbe 3f83 dd3e c0b8 ecbe
000002b0: 6bfa d5be 9a06 8dbe 6100 bd3c c63e 08bf
000002c0: 1d04 14be bcdc dd3d 9a40 a1be 3013 4b3e
000002d0: 1ef1 18bf ff63 8cbd 6cec 583e 27dd 133e
000002e0: c937 d73e 3a7f e53c 0da8 bcbe f0c3 edbe
000002f0: cb14 0ebe 9efd 393e bb21 a8be 533f 1bbe
00000300: fb3c 303e f884 b33e 7a20 293e 8e6b e83e
00000310: c305 173e 33c1 823d 97ae cabb aa55 f8bc
00000320: 1365 2b3e cf53 b6be e2e7 b4be 5622 adbe
00000330: a5de f03d aff9 643e 2cdb 67be cc5a ac3d
00000340: cc16 e13e a5ee a6be fef0 b7be 4430 9c3e
00000350: 076b b23e 06c2 cf3e 974e aa3d 593a cabe
00000360: ff91 d03c d96a b13d daad 003e f5c3 bebe
00000370: d870 42be 592c b1be ff7d a7be e7ba c53d
00000380: 7593 313d d6f6 653e 8c5a 013d 566c ffbe
00000390: 86d0 d7bd 29bb e03e 6a83 9ebe 64d9 8c3d
000003a0: eae3 e2be 0aac d33e 2fc9 b93d 0a0d d83e
000003b0: 96f1 15be c332 063e 8bdf bc3e 11ab d6be
000003c0: 7afc 0a3d 4a77 fb3d b098 09be a8ad 9cbe
000003d0: 6dff adbe c3b3 9e3d b61b 2fbc ec04 cf3e
000003e0: 8e6b eebe 5e87 5d3e ceff 40be 9c3e 2c3e
000003f0: 6cfa ba3e da59 0abf 28f0 f43e 431b d23e
0.4385386 -0.003967057 0.41097462 -0.40535733 0.3972057 0.13518132 0.2866581 -0.4113989
0.13029446 -0.39233455 0.0735957 -0.22405899 0.39681098 0.44536695 -0.45294407 0.16867973
0.22451155 -0.18286377 -0.061543547 -0.4922146 0.35145357 0.1389319 0.2072582 -0.060977377
0.5053682 -0.28398728 -0.44598114 -0.13954858 -0.5046044 0.61272526 -0.21474618 0.15658042
0.2536203 0.11493663 -0.39263868 0.1519198 0.18085492 -0.14447297 -0.19159554 -0.14479616
0.52350134 0.5443898 0.31970337 -0.18949215 -0.0663308 -0.5427406 0.44821715 -0.38238534
0.01749278 0.3909635 -0.45482442 -0.3651862 0.307887 0.40026876 0.16987549 0.16220687
-0.3791201 -0.028871128 0.34419262 0.20850873 0.3750967 0.38032228 0.12010622 -0.2555901
-0.42876217 0.45141226 -0.10649683 0.47456554 -0.49036586 -0.079402074 0.30505836 -0.49770305
-0.5659875 0.007821187 0.49984688 0.3773076 0.27142718 -0.07634372 0.36230245 0.1975652
-0.3968212 0.24041845 0.07123778 0.5344572 0.31147736 -0.30237868 0.21288599 -0.23192288
-0.3262863 0.38887116 -0.44785824 -0.5613797 -0.5002481 0.26663545 0.35726404 0.43773544
0.25827324 -0.5416342 -0.09661879 0.50039786 -0.09357324 0.011269171 0.3482769 -0.17513552
0.2315398 -0.29445317 0.39184526 -0.41050452 -0.31537652 -0.25607407 0.008797628 0.394503
0.34094885 0.13645948 -0.43230158 0.1269607 -0.45705262 0.35797969 -0.0038864482 0.28785262
0.39545748 -0.04243464 0.28091794 -0.2461978 -0.30880636 0.048842568 -0.24486938 -0.022262655
-0.15234524 -0.32701242 0.4126528 -0.5068499 -0.09766231 0.07867381 0.39234334 0.29804888
-0.42065355 -0.46318328 -0.47535554 -0.41810545 0.49866128 -0.15090753 0.42260572 0.41939935
0.25711653 -0.24683528 0.030655801 0.38868088 0.20526262 -0.50115 -0.39269364 0.076720506
-0.093720265 0.04314447 0.011337424 0.049396977 0.52566487 -0.24086961 -0.16475354 -0.28531173
0.20238484 -0.4080043 -0.31900612 -0.07844305 0.50152 -0.15616956 0.34628168 -0.28371185
-0.25367293 -0.33843192 0.43264195 -0.46234703 -0.41792616 -0.275441 0.02307147 -0.53220785
-0.14454694 0.10833117 -0.314946 0.19831538 -0.59742916 -0.0685501 0.21183938 0.14439832
0.42034748 0.028014768 -0.36846963 -0.4643855 -0.1387512 0.18163154 -0.32838234 -0.15160875
0.17210762 0.35062385 0.16516295 0.45394558 0.14748292 0.06384506 -0.0061853635 -0.030314285
0.16737776 -0.35610816 -0.35333163 -0.3381526 0.11761216 0.22360872 -0.22642201 0.08415756
0.43962705 -0.32603946 -0.3592605 0.30505574 0.3484728 0.40577716 0.08315771 -0.3949764
0.025460241 0.08662958 0.12566319 -0.37258878 -0.18988359 -0.34604147 -0.32713315 0.096547894
0.043353517 0.22457442 0.031580493 -0.4988734 -0.105378196 0.43892792 -0.30959636 0.068774015
-0.4431451 0.41342193 0.09071576 0.42197448 -0.14642939 0.13105302 0.368893 -0.41927388
0.033932187 0.12278612 -0.13437152 -0.3060124 -0.33983937 0.077491306 -0.010687759 0.40433443
-0.46566433 0.2163367 -0.18847582 0.16820759 0.36519182 -0.5404335 0.47839475 0.41036424

weight f4 [100, 400]
00000000: f075 d73d 6a2a c43d 271e fe3d 6c07 de3d
00000010: f7b5 803d 7179 843c 6ddc c23d 5316 653e
00000020: 5f57 c33d 6f4c 6c3e e00d 95bc ec83 563d
00000030: a34f f3bb f4ad 32ba 100b 1a3e 7253 333d
00000040: 027d 913d 7e08 d53d d08e 983d c9f8 393d
00000050: 3fe1 cc3d fc0e 133e 0e39 da3c f9e4 843c
00000060: 7d3c 09bd 2b6f f13d f6c8 093e 6e8e be3d
00000070: c913 453e 9ec7 4a3d 39d8 1d3e 938a 9c3d
00000080: 6e8a 7a3d a93f 5fbd eb7b efbc c2c8 e93c
00000090: c9d3 743d c50a 6c3d 4c5f c43d c055 b03d
000000a0: f012 3bbd c610 abbb bc18 db3d 481d 8b3d
000000b0: 5f82 133e 1ee7 183e ed0e edbb 197f 0b3e
000000c0: 22c5 bc3d 4bc7 063e 1fdf 273e b64d e33d
000000d0: b6e5 7a3d ac51 9d3d 5e66 3b3d 1dd3 9d3d
000000e0: 6404 173e cddb e03c 1e9d d03d ec10 d73d
000000f0: c562 f5bc 5a0a 37bd 309d 753d b996 003e
00000100: 9406 183e e12f 733d 8f0d 843d de6d 553c
00000110: f222 c63d 4c23 083e d9f3 8d3d 71f3 613e
00000120: 7fcc e03d d948 73bb c470 93bc 7bc6 893d
00000130: 59a0 7cbd 0c9a 4b3c 7c78 2d3d feab f83d
00000140: 13fd 183e adb7 543d 89b5 2c3d c979 75bd
00000150: 1627 aa3d fa3e db3c 78b0 4f3d c5b2 cc3d
00000160: 321b 0a3e ef63 253d b113 123e ca46 8b3d
00000170: 33a4 223e e72c ab3d 36f8 443d 23e5 df3d
00000180: 3e6b 31bd 404a 6b3d 21f7 b73d e92b 393d
00000190: 62f5 da3d 01c1 303d 033f bd3b 9911 813d
000001a0: bcce cb3d a2b4 b23d 55ec d33c 1737 9b3d
000001b0: 439a 063e 39b2 393d 02d6 d63d ef3a 1a3d
000001c0: f16b c63d b557 febb ddcd 953d 25af 903d
000001d0: f6da 813d af51 8c3d fcdf 6a3d fe87 163d
000001e0: 7c73 de3c bee6 f83d 5848 ab3d eeb6 2a3d
000001f0: 92e0 083e 4b0b 643d bdd4 f33c 2bad f33b
00000200: b21e df3c b729 d73d 9f5b d53d 3c5e ba3d
00000210: 00cf a53d c315 e73d c7db 4b3d 94ed 243c
00000220: e98d 5f3e b659 3c3e 2fa8 b43d 5eb4 ed3d
00000230: 96f1 f03b 0231 fc3d 5362 4b3d 3952 abbb
00000240: 7810 153c d38d da3d 23ad bb3d ea14 22bd
00000250: 7e98 f73d 78d7 533e a515 a63d 43e4 153e
00000260: 5dba 293c 75d0 0b3d 88c4 cc3c bbfe a93d
00000270: 9a5f a43d ab72 1f3e ccdc 983d 44b2 e03d
00000280: 47c8 18bb a126 0d3e 7ea8 643b 875d 703c
00000290: 55e0 81bd e8b6 c63d e676 cf3d 36ab 523d
000002a0: 1a29 603d 7149 c03d 5a02 79bc d2b9 403e
000002b0: a494 e53d a98f bd3d 915c 8a3d bba8 6a3d
000002c0: 5c87 ae3d d2f7 bdbd e68d 043e 82ec bf3d
000002d0: 96e6 653d 4a64 bb3d c274 563d bca0 913d
000002e0: b5fd 9bbd febc db3c b043 2d3e 34a9 143e
000002f0: d3cb 4d3d e33e 07bc afe2 3cbc 462e 7a3d
00000300: 713e a63d 30f1 623d d1e6 96bc f925 48bb
00000310: 19ef 4b3d 6864 30bc 32d3 ab3d 0ac2 973d
00000320: 7f26 703d b0df 683c 84c4 ab3d c727 283d
00000330: 89cd 2f3d 9594 97bd 5a00 d33d 5fcf 1e3d
00000340: 0a58 f6bc b61e 3c3e 8b00 813d 3f4a 853c
00000350: 2dc3 d43b 736a ebbc f04a cd3c 884d 613d
00000360: a995 f03c 88e3 a43d 6e4f febc f696 cc3c
00000370: 8111 003e 9064 353e ffbf b63d 7b7d c73c
00000380: 66f9 7d3d 0a82 0fbd 8cbf d03d 445d c03d
00000390: 28e6 c83d 1522 4bbd e13f d93d 8315 683d
000003a0: 5b0e 833c 46ec 963d ca6b 3e3d aed6 973d
000003b0: e434 3e3d 32d9 b43d ad23 763d e0b3 2a3e
000003c0: 265f 2f3e 211d 433d 965e 753d 0175 533e
000003d0: b42b 973a 222b f63c 38e4 453d b8ea 373d
000003e0: 7b76 b93d 3cbd 013d fd63 f23d 45a8 c13d
000003f0: ce3f b63d c45d 503e 5f15 df3d c6c8 643d
0.10520542 0.09578402 0.12408095 0.10841259 0.06284707 0.016171189 0.09514699 0.22371797
0.09538149 0.23076032 -0.018195093 0.052371904 -0.007425265 -0.0006816082 0.15043283 0.04378075
0.071039215 0.104020104 0.07449114 0.045403276 0.100039 0.14361185 0.026638534 0.016222464
-0.03350495 0.11788782 0.13455567 0.0930451 0.19245829 0.049506776 0.15414514 0.076436184
0.061167173 -0.05450407 -0.029233893 0.028538112 0.059772287 0.057627458 0.09588489 0.086101055
-0.045672357 -0.0052205054 0.10698077 0.06792694 0.14405201 0.14931914 -0.0072344453 0.13622703
0.092172876 0.13161962 0.16393708 0.110988066 0.061254226 0.07681593 0.04575192 0.07706282
0.14747769 0.02744856 0.10186218 0.105012745 -0.029954324 -0.044687606 0.05996436 0.12557496
0.1484626 0.059371833 0.064478986 0.013026683 0.09674634 0.13294715 0.06931276 0.22065522
0.109765045 -0.0037122278 -0.017998107 0.0672731 -0.061676357 0.012426864 0.04235123 0.1214218
0.1494029 0.05193298 0.042165313 -0.059930597 0.08308236 0.026763428 0.050705403 0.09995035
0.13486937 0.040378507 0.14265324 0.06800611 0.1588295 0.08358174 0.048088275 0.10932376
-0.043315165 0.057443857 0.08982683 0.04520789 0.10691334 0.043152813 0.005775334 0.063021846
0.09951541 0.08725859 0.025869528 0.07578867 0.13144784 0.045335982 0.104900375 0.03765386
0.09688557 -0.0077619203 0.07314656 0.07064656 0.063405916 0.068515174 0.057342514 0.036750786
0.027154677 0.121533856 0.08363408 0.04167836 0.13366917 0.055674832 0.029764527 0.0074364147
0.027236316 0.10506003 0.10417866 0.09100005 0.08096123 0.112834476 0.049770143 0.010066409
0.21831478 0.18393597 0.08821141 0.11606668 0.007353018 0.12314035 0.049654316 -0.0052283076
0.009098165 0.10671582 0.091638826 -0.039570726 0.120896325 0.20687664 0.08109597 0.14637856
0.010359374 0.034134347 0.024996057 0.08300539 0.08026047 0.15571086 0.07463989 0.109715015
-0.0023312734 0.13784267 0.0034890468 0.014670736 -0.06341616 0.09702855 0.101301 0.05143281
0.054726698 0.09389008 -0.015198315 0.18820885 0.112099916 0.092559166 0.06755937 0.05728982
0.085219115 -0.092757836 0.12944755 0.09371282 0.056128107 0.09149988 0.052357443 0.07110736
-0.0761675 0.026823517 0.16920352 0.14517671 0.05024321 -0.008254739 -0.011528655 0.061079286
0.081173785 0.055405796 -0.018420609 -0.0030540212 0.04978857 -0.010766126 0.08389892 0.07410057
0.058630463 0.0142134875 0.08387092 0.04105356 0.042920623 -0.07401387 0.103028014 0.038771983
-0.030071277 0.1837109 0.06298932 0.016270755 0.0064929933 -0.028737282 0.025060147 0.05500558
0.029368239 0.08051211 -0.031043734 0.024974328 0.12506677 0.17714143 0.08923339 0.024351826
0.062005423 -0.035036124 0.10192785 0.09392789 0.09809524 -0.04959305 0.10607887 0.05666114
0.015998056 0.07369284 0.046489514 0.07413994 0.04643716 0.08830489 0.060092617 0.1667018
0.1712614 0.0476352 0.059904657 0.20650102 0.001153341 0.030049864 0.04831335 0.04490158
0.090558015 0.03167461 0.118354775 0.09455923 0.088988885 0.20348269 0.10892748 0.055855535

bias f4 [100]
00000000: 240b 6b3a 147a ae3b 5cd4 d83c bac0 5abc
00000010: 5741 093e b7dc bdbc 3ea8 d7bd 8895 02be
00000020: 0fb3 0a3e 971c 803c 860b f53d f1c4 d1bd
00000030: c76e 68bb 49d0 a4bd 886f 23bd 184b 123c
00000040: 8a5b c1bd e003 99bd 145c 5f3d f05a 23be
00000050: 6cfe e0bd 1332 b1bd 304b 593d 3c65 613d
00000060: c9c0 953d 8d16 cb3b 8e49 8d3c eb4f a43d
00000070: e0a6 223e 07bb 073d 11de 353d aca2 f33d
00000080: b441 dc3d e1aa 053d 2d31 3e3d 4a76 8dbd
00000090: 3bb6 9bbd 8204 63bd 77c5 46bd 822d 8c3d
000000a0: 3fad 033e 3dae 013d ebd2 57bd 3211 e13d
000000b0: 6d5c 883d 445d dd3d 5c98 88bd 33c3 96bd
000000c0: 21bc 86bd 9bfa 903d 12e0 223d 5689 ddbd
000000d0: 770a 6e3d c46c ee3d 554e 8a3c 8937 22bd
000000e0: d4c5 113d 8cbe b83d 1579 c6bc 77ee cd3d
000000f0: dcf5 243d b87c 233c 84e1 823c f93c cabd
00000100: bf00 a33c 28d6 83bd 7bfb b73c 7a3c 043e
00000110: 3d45 fd3d 983b 06bd a925 d2bd 9ce6 5c3d
00000120: 7f05 eb3c 3d9a f03c 1a96 433d 5f52 e0bd
00000130: 8699 c03d c0c7 aabd 9bbc 1b3e 4ff1 dfbd
00000140: 259d be3c 162c 55bd b2b2 49bd 8f5f 123e
00000150: 1a6f 5a3d 55ed 293d 5756 023e f4dd 963d
00000160: ff1f 4a3d 4a24 213d 469a 39bd 9c44 903d
00000170: 6559 e3bd 9efe 133e 91bd f2bd 02df c93d
00000180: 77b3 14be 5cbb 793d ddef f8bc c04a b23b
0.00089661987 0.0053246114 0.026468448 -0.013351614 0.13403831 -0.023176534 -0.105301365 -0.12752354
0.13544868 0.015638633 0.119650885 -0.10242642 -0.003546642 -0.0804754 -0.039901286 0.008929037
-0.09441288 -0.07471442 0.054531172 -0.15952659 -0.10986027 -0.08652129 0.05305022 0.055028185
0.073121615 0.0061977566 0.017246988 0.08023056 0.1588397 0.033137348 0.044401232 0.118962616
0.107547194 0.032633666 0.046433616 -0.069073275 -0.07603117 -0.05542422 -0.04852816 0.068446174
0.12859057 0.031660307 -0.05269138 0.10989608 0.06658254 0.10808805 -0.06669685 -0.0736145
-0.065788515 0.07079049 0.03976447 -0.108172104 0.05811545 0.11641839 0.016883055 -0.039603744
0.035589054 0.09020719 -0.024227658 0.10055249 0.040273532 0.009978466 0.015976675 -0.09874911
0.019897817 -0.064373314 0.022458782 0.12913695 0.12366722 -0.032771677 -0.10261089 0.053930864
0.028689144 0.029370422 0.04775057 -0.10953211 0.09404282 -0.083388805 0.15208666 -0.10934698
0.023268292 -0.052043997 -0.049242683 0.14294265 0.05332861 0.041486103 0.12728249 0.07366553
0.04934692 0.03934125 -0.045313142 0.07044336 -0.11101035 0.14452597 -0.11852563 0.098569885
-0.14521585 0.060969695 -0.030387813 0.00544104

weight f4 [1, 100]
00000000: 4bd4 05be bff2 30bb 1958 9dbd e67a 213d
00000010: 960a 6d3b 9ef6 38bd c758 df3c 80d2 03bd
00000020: 9986 c33d ab02 00be 4d62 de3c 5714 3cbd
00000030: b5a6 21bd a5cc 5dbd 9881 01bd b09f 9bbd
00000040: c605 6fbc 0c50 19bd dd2f c63d cec1 27be
00000050: 132a f33c f8d9 3abd 1da5 03be e582 9b3d
00000060: 909b e7bd 4035 2bbd dee0 15be 5204 cc3c
00000070: b387 1b3d 24cd 0dbe 298a 1abe 9e5d 883c
00000080: 3ad8 6cbc 6851 8cbd e1e7 75bd 4523 7fbc
00000090: cf06 11bd 9898 32bd 5ccb 35bd 9833 c93a
000000a0: 3c1a 813c d41f 1fbe 06c4 1e3d 41e2 02be
000000b0: 3e4e d0bd 86f4 f33d 023f 46bc 867c 103b
000000c0: c61e 43bd df65 07be 1b85 693d 36fa efbc
000000d0: d09e 98bd b6f1 653d 8857 16be d0bb d63c
000000e0: 303e cbbc 6b2d 5a3c 9ac4 1ebd d9ea af3d
000000f0: 0549 00bd 275d a83d 3093 cfbd c266 4cbd
00000100: 1891 65bb 488a febc 6d3e 72bd e8a0 db3a
00000110: 0c59 f23b d0a1 52bc a215 27bd ab89 f43b
00000120: 9ca8 d7bd 10b0 24ba b317 14be a8f1 febc
00000130: b6f4 3bbb 812b 5fbc 835a 623d 6061 273c
00000140: 40be e9bd 75fa 023d ea72 5c3c d73e 903c
00000150: f659 4bbd cdbc 5cbd f177 5f3a 9cc2 eb3b
00000160: 9e1c ddbd c33d 45bd c957 57bc f498 fbbd
00000170: 1dbf 9839 b83e 093d 5c4b 49bd c525 2d3d
00000180: 02e7 5dbd 5c42 4bbd c540 dc3c e81a 193c
-0.13069265 -0.0027000157 -0.07682819 0.039423846 0.003616964 -0.045157067 0.027264012 -0.03218317
0.09547157 -0.12501018 0.027146483 -0.045917835 -0.039465625 -0.054150242 -0.03161773 -0.07598817
-0.014588779 -0.037429854 0.09677098 -0.16382524 0.029683148 -0.045618027 -0.12855954 0.075933255
-0.11308968 -0.04179883 -0.14636561 0.024904404 0.03797121 -0.13847786 -0.15091766 0.016646203
-0.014455849 -0.068514645 -0.06003559 -0.015572374 -0.035406884 -0.043602556 -0.04438339 0.0015350459
0.01575958 -0.15539485 0.03876116 -0.12781622 -0.101711735 0.119118735 -0.012099983 0.0022046878
-0.04763677 -0.13222454 0.057011705 -0.029294115 -0.07452166 0.056138717 -0.14681828 0.026212603
-0.024809927 0.013316493 -0.038761713 0.085897155 -0.031319637 0.082208924 -0.10135496 -0.049902685
-0.003502911 -0.031071797 -0.059141565 0.0016756328 0.007395869 -0.012855962 -0.040792115 0.0074627004
-0.105302066 -0.0006282339 -0.14462166 -0.03112109 -0.0028679795 -0.013621212 0.0552621 0.010216087
-0.114132404 0.031977136 0.013455132 0.01760809 -0.04964634 -0.053890992 0.00085246476 0.00719483
-0.10796474 -0.048154604 -0.013143488 -0.12285033 0.0002913409 0.03350708 -0.049144134 0.042272348
-0.054175384 -0.049623832 0.026886353 0.009344794
