Gibbs_MINE/pw_res/model_lk_b=10_s=0.5_p=26.pth (torch, 206615 bytes, 5 tensors)

weight f4 [400, 26]
00000000: 9009 a03d b20f 103e 9371 253e 8237 84be
00000010: 25df df3d 4a51 7a3e d572 0c3d c1c1 72be
00000020: e0c9 83be 173d adbe 9c50 9d3e 5304 1dbe
00000030: 9d54 60bd 5ce5 f83d ff93 443d 032f 92bd
00000040: 7711 3f3e 965c d63c 3606 16be 9b41 96be
00000050: b2fc 043e d523 2fbe ba86 d73c 8f9e c43d
00000060: ccac 67be 6931 493e c549 9a3e ce02 95be
00000070: 01b8 433e 4f61 913d 5729 083e 0638 593e
00000080: a5da 5c3e 0b31 553e 65aa 5a3e 57a0 39be
00000090: b4b4 203e f925 0ebe 1ac9 b1be 6e9c 66bd
000000a0: 0a65 203e 5aae 3f3e e4b2 4ebe 8e5d 2e3e
000000b0: ccc1 08be 69bc 2ebe 69b4 253e abc8 b8be
000000c0: 043a 60bd 49be 823c 57ff c5bd 67df 23bd
000000d0: d37c 16bc 3065 4d3e 6ed2 96bb 9bb3 9bbd
000000e0: 2101 803d c882 35be f1a1 fcbc 977b 79be
000000f0: cd8c 7b3e fc7b 1cbe db78 643d e7ce 87bd
00000100: db1e 8a3e a448 bfbd cb92 6c3e bc9e 9cbd
00000110: 4dae 003e 4aca 8cbe 9675 a73e 2073 46be
00000120: 9aa6 403e a116 933e c532 5bbd bed5 b03d
00000130: e864 ff3d fc66 a4be b9cf 293e 34dd 90be
00000140: 6a42 8f3e e6cd b63d 2aef 79be e647 41be
00000150: 0c37 79be 2d22 c63d e1c3 5f3e 8ce5 9c3e
00000160: 1b69 4f3e c35a 3c3e 3530 543d 95b5 73be
00000170: d573 ab3d a011 d4bc aa7f debb 52b6 11be
00000180: afa8 27be df5a 8b3d 8b20 e73d 440a d13d
00000190: 7a33 093d 5cbc 23bd 98c8 323e e027 00be
000001a0: 7492 0e3e 4f1e 49bc 3025 60be 1c2b 80be
000001b0: 8938 c3bd 83f4 fd3d 1607 2f3e 7bd5 97bd
000001c0: 61f7 b93e e63e 19be bab2 b2bc 3d0f 173e
000001d0: bac3 753e beb0 39be 1ca6 7dbb 0756 9dbe
000001e0: ba21 eabd 222e 633c f604 efbd 90f4 6ebe
000001f0: e602 7e3d ef00 66bd 389a cebc e2f8 d5be
00000200: b0d1 813d ff27 9a3e 107f 05be 1f3f 70be
00000210: 525d 3bba 5591 433e cfa0 adbd 1216 0fbb
00000220: c2b5 4cbe e4f2 053e a52d 6ebe ed57 123e
00000230: 9f48 a83d bc25 633c 22e8 5fbd 0f2e 4f3d
00000240: f076 b7be 172d fe3d 952c 9ebd 40b2 bbbe
00000250: 9a01 673e fe1b 243e 256c ce3d 0dd5 9dbd
00000260: d869 7abe bd2b d43d 57bf 2f3e c1be 193e
00000270: 0160 a33e 86a2 2a3e e8c1 a9bd dae4 c6bd
00000280: c88b 58be 104a 383e 94fc 033e 7d07 563e
00000290: 44cf 31be 626b 56bd cf32 be3d 8181 893e
000002a0: 5707 c63d 1346 b4be 4e7b 923d ceb9 613d
000002b0: a72d ed3d 69ad 52be 95c5 bd3c 17ff 0b3e
000002c0: 1f98 bc3d a66f dabd fa5d 2abe d779 c4bd
000002d0: c003 733d 23ec 1abe cc68 05bd 9066 e43c
000002e0: ad17 3fbe 0bbb 3d3e 95ca 4b3e 8242 f5bd
000002f0: 125e af3d a1fe 5a3c 44b2 3c3e 04fc 2b3e
00000300: e2c1 75be acbc 203d 54e6 0f3e ecdc cf3c
00000310: 72fd 92be 3391 b3bd 600c a2bd 36e4 b2be
00000320: 4cc5 513e 4409 22bc 2202 d8bd 5dca 9f3e
00000330: 05b4 36be 5e5f 19be 44a3 693e 5ca5 313e
00000340: a0fd 873d 8a63 473e 735f 073e ea69 53be
00000350: b106 713e bb7e 433e 11d4 5dbe 466b 833d
00000360: 412e 73be c496 f3bd d129 2a3d 8d77 263e
00000370: 510b 243e 9b2a d73d d031 17bc 94bf a5bb
00000380: ff2f 623c 75ba 0a3e 2394 b43c 2d15 043e
00000390: 1749 88bc 0dd7 d9bd ceb0 c9bc 9843 e33d
000003a0: 2619 e83e b898 abbe d94c 603e f1f6 55be
000003b0: ebb8 80be 3116 3f3d da9e 2a3d ff08 48be
000003c0: f002 233e ffd1 813d 1624 653e b7fe d63d
000003d0: 6265 88be 874d a33c ed17 bbbc 3478 e03d
000003e0: b76e 17be 51d3 183e 4100 b13d 993d 173e
000003f0: e25c 433e b619 6dbd 9124 18be 930c cfbd
0.07814324 0.14068487 0.16156606 -0.258236 0.10931233 0.24445072 0.0342892 -0.23706724
-0.25739956 -0.3383567 0.30725563 -0.15333681 -0.054768194 0.12153122 0.047992703 -0.07137873
0.18659006 0.026167195 -0.14650807 -0.29346928 0.1298702 -0.17103513 0.02630936 0.09600555
-0.2262451 0.19647755 0.30134407 -0.29103702 0.1911316 0.07098638 0.1329702 0.21212777
0.21567781 0.2081949 0.21354063 -0.18127571 0.15693933 -0.13881673 -0.3472374 -0.056301527
0.15663543 0.18718854 -0.20185429 0.17027876 -0.13355178 -0.1706406 0.16182102 -0.36090598
-0.054742828 0.015959876 -0.09667843 -0.040007975 -0.009185034 0.20058131 -0.004602722 -0.076026164
0.06250215 -0.1772567 -0.030838938 -0.24363552 0.2456543 -0.15281671 0.05577932 -0.0663126
0.26976666 -0.09340027 0.23102872 -0.07647464 0.1256649 -0.27498084 0.32706898 -0.19379854
0.18813553 0.28728202 -0.053515214 0.08634518 0.12470418 -0.3210982 0.16583146 -0.28293765
0.27980357 0.08925991 -0.2440764 -0.18875083 -0.24337405 0.09674487 0.21852066 0.3064388
0.20254938 0.18393998 0.051803786 -0.23799737 0.083717026 -0.02588731 -0.006790121 -0.14229706
-0.16372941 0.06804442 0.11285504 0.10207036 0.033496358 -0.039974555 0.17459333 -0.12515211
0.13923055 -0.012275293 -0.21889186 -0.2503289 -0.095322676 0.124001525 0.17092547 -0.07413765
0.36321548 -0.149654 -0.02181374 0.14751907 0.24000445 -0.18133828 -0.0038703745 -0.30729696
-0.11432214 0.013865979 -0.11670868 -0.2333548 0.062014483 -0.056153234 -0.025220022 -0.41791445
0.06338823 0.3010864 -0.13036752 -0.23461579 -0.00071473897 0.19098409 -0.084779374 -0.0021833223
-0.1999121 0.13080937 -0.232596 0.14291354 0.082169764 0.013863977 -0.05466474 0.050581034
-0.3583293 0.12410944 -0.07723347 -0.3665943 0.22559205 0.16026303 0.10079221 -0.07706652
-0.24454439 0.10359905 0.17162834 0.15014173 0.31909183 0.1666356 -0.08288938 -0.09711619
-0.21147072 0.17997003 0.1288932 0.20901294 -0.17364222 -0.052348502 0.09287035 0.26856616
0.09669369 -0.35209712 0.07152425 0.055108838 0.11580973 -0.20573963 0.023165504 0.13671528
0.09208702 -0.106658265 -0.16637412 -0.095935516 0.05932975 -0.15129142 -0.032570645 0.027880937
-0.18661375 0.18528382 0.19901498 -0.11975576 0.08562864 0.013366372 0.18427378 0.16795355
-0.23999742 0.03924243 0.14052707 0.025373898 -0.28708988 -0.08767929 -0.079125166 -0.34939736
0.20485419 -0.009889904 -0.10547282 0.31209078 -0.1784211 -0.14977786 0.22816187 0.17348236
0.06640172 0.19471565 0.13220005 -0.20645872 0.23537709 0.19091313 -0.21662928 0.06416945
-0.23748113 -0.11893991 0.041543785 0.16256543 0.16019942 0.10506173 -0.009228185 -0.0050582383
0.0138053885 0.1354769 0.022043293 0.12898703 -0.016636414 -0.10636721 -0.02462044 0.11096877
0.45331687 -0.33514953 0.21904315 -0.20894982 -0.2514108 0.046652023 0.0416554 -0.19534682
0.1591909 0.06338882 0.22377047 0.10497802 -0.2663985 0.019934429 -0.022838557 0.10960427
-0.14788328 0.14924361 0.086426266 0.14769591 0.190784 -0.057885848 -0.14857699 -0.1010982

bias f4 [400]
00000000: 3aaf 31be ee72 0fbe 4fb9 27be cad2 40be
00000010: 5592 0dbe 7718 babd aaea b9be 5bf8 c3bc
00000020: 14c9 23be 0c76 b7be 0066 10be db8d 1ebe
00000030: d2c0 38be 3b9d 3f3b 2ef1 dabc 3865 49be
00000040: 7072 40bd 7087 ad3e 70d1 1bbe d1b5 88bd
00000050: 3500 29be 4261 17be fa36 30be da95 68be
00000060: f45d 54be 9b16 25be 1ba8 3a3e 52a0 4ebe
00000070: bf23 75bd 7384 e5be 6173 97bd 32b0 b2be
00000080: e6da e3bd 513f 20be 6775 71be f185 9ebe
00000090: 9d6a 023c a4ec 7abd 4ea1 39be 68ba 98be
000000a0: 1b53 fbbc ab39 033d 7ba2 d4bc 7d60 b4be
000000b0: fa0b 80be b83f 28be fb75 3fbe a3e1 84bd
000000c0: da51 16be 1e28 57be b215 d2bd dd90 25bd
000000d0: 5f98 41be 0678 d8bc b3ce 44be 7803 f2bd
000000e0: a73e 74be 730a b0be 6d82 f9bd d926 2dbe
000000f0: cf61 05be 3f15 34be 5220 3bbe ff19 12be
00000100: bad3 94be 1b74 1cbe 1cb8 34be 76b0 cdbd
00000110: 8705 7abd add8 6fbe 3ed5 39bc 2d38 3fbe
00000120: 0e02 2ebe acf7 43bd e7a0 a3be eefb 98be
00000130: 7272 37be 5c84 4abe ebe7 2dbe 4798 21be
00000140: fdef 6cbe a76c 5abe 1ca3 13be a1ef fcbd
00000150: b402 aebd 4176 87bc f5f3 5abe 317d a4be
00000160: 5177 09be 698d 5bbe 7fe5 55be 67ea 58be
00000170: 0021 67be a63e a6bc 47b7 46bd 5689 66be
00000180: 9eb4 26be 5be9 dcbd fb2c 8cbd d76b 21be
00000190: a866 d0bd 848a 40be 98d9 7abe 8457 89bd
000001a0: f9a9 953c 3d17 0abe c81d 5dbd 6fe6 6dbe
000001b0: 9573 0fbd 9014 3dbe 99fe fbbd bac3 96be
000001c0: cab1 50be e4c8 abbe 64a1 b0be fecf 73be
000001d0: 298c 88bd 7fa3 6d3d f7f9 62be 1c30 34be
000001e0: bd45 a9be a7c9 f6bc 701a 11be c6fb 35be
000001f0: 0a8b 4cbe a043 4bbe a4a1 b5be f9a2 63be
00000200: 4cc9 d7bd 3fea 52be 45bc 7abe 05d4 15be
00000210: dae6 1a3d 5465 47be ec25 37be 8db8 54be
00000220: bd8a c8bd a88e babe 383a e4bd e932 6bbe
00000230: 53b5 0bbe df9e 92bd 521f a2be 422e 08be
00000240: b208 26be 63f6 7abe 1a9b 88be 6e88 28be
00000250: b6bc a2be 4749 c03e 0d18 dbbc 682c 193d
00000260: 862b f5bd 6c04 b7bd 505d 2cbe aa8d 4fbe
00000270: 6bb7 d0bd 9c98 89be 45ea ecbd aa2b 00be
00000280: 4be4 e6bd a1c2 b4be eb52 3cbe 8ed4 15be
00000290: 9e44 c8bd 57fb 143b 4207 1e3d 081c bbbe
000002a0: 69ad 58be f4cc 38be 02c8 fbba 7f03 5dbd
000002b0: e891 12be ac21 e7bd 801d 51be c01a 2cbe
000002c0: e3f5 8abe 231c 9dbd a3eb 41be 80a3 7cbe
000002d0: 4a31 73be 3153 07be d6e8 a3be 5dd0 7cbe
000002e0: 4d98 e1bd c03c a5be dec2 aabc 8873 d6bd
000002f0: b158 3cbb 3a87 503c f7c1 a8be 62ff 03be
00000300: 8b66 f8bd 2065 5dbe bc05 cebc 2880 9abd
00000310: 0029 21be 3126 91be 28df 5dbe ebb2 2abe
00000320: b709 7dbe 1f3e 283d 3523 15be b7d2 0ebd
00000330: d9bb 423d e3bc 5ebe fc3c 5dbb 41d8 97be
00000340: 3eb3 3fbe e615 ddbc 1487 9bbe e8fa 86be
00000350: ce4b 70be 6108 a5bd 6c37 9abd 5350 8bbe
00000360: aaf0 92be d418 58be adb6 a8bd 7cb6 74be
00000370: 8466 1fbe e95f 60be a909 2ebe 1ffa 44be
00000380: ad6f 24be fab6 92be 95ea 6abe 2f35 17be
00000390: 004c 83be 1e08 7bbe fb38 13be ef3d 113d
000003a0: d055 3ebe 6cf6 b0be cf3a 13be bb8b ecbd
000003b0: 3d78 70be bbcc a1bd 97ba 8ebe c83b b1bd
000003c0: 1416 20be 0f4e 26be cb4e 5bbe 30cd 693e
000003d0: 344c 9d3b db2e 86be 117f 6abe c43c 7dbe
000003e0: 73a0 ecbd 4927 e3bd ff64 88bd e1d0 2bbe
000003f0: 7e89 073d c7c2 e3bd 6075 f1bd 7270 31be
-0.17352 -0.14008686 -0.16379283 -0.1883041 -0.13825352 -0.090866975 -0.36311847 -0.023922136
-0.15994674 -0.3583225 -0.1410141 -0.15483801 -0.18042305 0.0029238004 -0.026726332 -0.19667518
-0.046984136 0.33892393 -0.15216613 -0.06675304 -0.16503985 -0.14783195 -0.17208472 -0.22713414
-0.20738965 -0.16121905 0.1822819 -0.20178345 -0.059848543 -0.44827613 -0.07395054 -0.3490005
-0.11125736 -0.15649153 -0.23579942 -0.30961564 0.007959989 -0.061260834 -0.18127939 -0.29829717
-0.030679276 0.03203742 -0.025956383 -0.35229865 -0.25009137 -0.16430557 -0.1869735 -0.06488349
-0.14679661 -0.21011397 -0.10258044 -0.040421356 -0.18905781 -0.02642442 -0.19219474 -0.11817068
-0.23852025 -0.34382972 -0.1218308 -0.1690935 -0.13025592 -0.1758623 -0.18274048 -0.14267729
-0.29067785 -0.15278666 -0.17648357 -0.10043423 -0.061040428 -0.23422499 -0.011342345 -0.18673773
-0.16992971 -0.04784362 -0.31958696 -0.29879707 -0.17914751 -0.19777054 -0.16983001 -0.15780745
-0.23138423 -0.2133051 -0.1441769 -0.12350393 -0.08496609 -0.01653588 -0.21382125 -0.32126763
-0.13424422 -0.21440662 -0.20888327 -0.21183167 -0.22571182 -0.020293545 -0.04851463 -0.22513327
-0.16279837 -0.107866965 -0.06844517 -0.15763794 -0.1017583 -0.1880284 -0.24497068 -0.067061454
0.018269526 -0.13485427 -0.05398348 -0.23232435 -0.035022337 -0.18464875 -0.1230442 -0.29446203
-0.20380321 -0.33551705 -0.3449813 -0.23809811 -0.066673584 0.05801725 -0.22165667 -0.17596477
-0.3306102 -0.030125452 -0.14170241 -0.17771825 -0.19974914 -0.19850016 -0.35474885 -0.22230138
-0.10536441 -0.2059717 -0.24485882 -0.1463166 0.037817813 -0.19472247 -0.1788556 -0.20773526
-0.09792087 -0.36436963 -0.11143917 -0.2296864 -0.13643388 -0.071592085 -0.3166452 -0.13298896
-0.16214254 -0.24508052 -0.26680833 -0.16458294 -0.317846 0.37555906 -0.026744867 0.037395865
-0.11971192 -0.0893639 -0.16832471 -0.20268884 -0.10191234 -0.26874244 -0.11568121 -0.12516657
-0.11274012 -0.3530474 -0.18391006 -0.14631864 -0.09778713 0.0022732818 0.03858114 -0.36544824
-0.211599 -0.18046933 -0.0019209387 -0.053958412 -0.14313471 -0.11285719 -0.2042141 -0.1680708
-0.27140722 -0.07671382 -0.18937545 -0.24671745 -0.23749271 -0.13215329 -0.32013577 -0.2468886
-0.11015377 -0.3227291 -0.020844873 -0.104712546 -0.0028739388 0.012727553 -0.32960483 -0.1289039
-0.121289335 -0.21620607 -0.025149219 -0.07543975 -0.15738297 -0.2834945 -0.21667159 -0.16669814
-0.24710737 0.04107487 -0.14564212 -0.034868922 0.047542427 -0.21751742 -0.0033758273 -0.29657176
-0.18720719 -0.026987981 -0.30376494 -0.263633 -0.23466417 -0.08058239 -0.07530102 -0.2720972
-0.28699237 -0.21103221 -0.08237968 -0.23897737 -0.1556645 -0.21911587 -0.16995873 -0.19236039
-0.16058226 -0.28655225 -0.22941048 -0.14766382 -0.2564392 -0.24514815 -0.14377205 0.035459455
-0.18587422 -0.34563005 -0.14377902 -0.11550089 -0.23483367 -0.07900377 -0.27876732 -0.086539805
-0.15633422 -0.16240714 -0.21416776 0.22832179 0.004800344 -0.26207623 -0.22900034 -0.24730211
-0.11554041 -0.110914774 -0.066598885 -0.167789 0.033090107 -0.11121135 -0.11789966 -0.1732805

weight f4 [100, 400]
00000000: 2da6 a0bd 6ce9 edbd c1f1 55bd f6a0 30bc
00000010: 0f5e babd 7611 c1bc 947c 01bd 46c8 d0ba
00000020: cc6b 81bd 74c3 00be 3e66 94bc 4b1c 34bd
00000030: 460d 90bc cd81 c5bc 1ad1 b7bc 301b d7bc
00000040: 31e5 10ba 8ecf e93b 3ac6 59bd f706 34bd
00000050: e923 febc e4c9 2cbd 0671 d5bd 2393 f8bc
00000060: 3218 de3d 8a27 19bd 1d31 90bc 3790 debc
00000070: 8cdc 37bd cc92 343c b4b1 94bd eef2 f5bd
00000080: 7e90 33bc 79c8 05bd 0c2d 2d3e 187e 353d
00000090: 8995 93bd fce3 9ebc 58c0 903b 48a7 66bd
000000a0: 5623 d3ba 1637 293d 81a4 92bd 7bf1 d03c
000000b0: f2ef 51bd 8263 5eba 2b01 8fbd 2272 c5bd
000000c0: 5ec1 c3bd 7138 b23c 6a72 24bd 92ec fb3c
000000d0: 35ec 2d3e 30d5 1abd 2724 f2bd c2d6 2cbd
000000e0: 5932 22bc f6ee 703d 7149 adbd 0c1b f0bc
000000f0: 4156 acbd b6f9 9bbd 88b0 3e3d 02ca 4abd
00000100: 0eb1 11bb d837 a8bd 59f9 b8bc f4ad c9bd
00000110: e546 163c ced0 96bd 9e5e 21bd a5c4 883d
00000120: b7b8 603c ba77 3dbd 218b 6dbc 4d5c 923d
00000130: e385 97bd d45a 9d3d 1563 40bd d7b7 ddbd
00000140: 0afb cb39 80b9 4fbd bdac 73bd 312c 93b9
00000150: de6d c9bd 4a14 ebbc bb56 09be 08bf dabd
00000160: 4a19 68bd f6e1 61bb d050 37bd be70 5dbd
00000170: 0d5c 03be 233f 7d3b 7e8e 75bd b5b2 bcbd
00000180: d076 edbd 6bbd ddbd d6d4 04bd b4b8 873d
00000190: 5b98 943d feb6 56bd 2213 e93d 41f2 a8bb
000001a0: 45f7 27bd ae19 413d 2805 0cbd e05c d63d
000001b0: fb9a 11bd 92c1 96bd 4a15 22bd 4ead bebd
000001c0: fba3 423c f4ef 1abc 45c3 993c dbe1 47bd
000001d0: ca83 a4bd 0467 cfbd 1ed6 e0bd 3802 a2bd
000001e0: 947f f43b c122 2bbd 9169 a23c 9e93 2dbd
000001f0: 6045 41bd cda3 4abd f34d 643b db58 00be
00000200: b091 85bd 5a1a 0d3c b65d 81bd 8994 4bbd
00000210: 6e16 81bd e47c 9ebc 49d7 76bc fab2 c9bd
00000220: 5bc7 263b 75f8 5a3b cd09 9c3c d908 e23d
00000230: fbeb eabc 5de9 f0bc 956f 9fbd 3fdd a1bc
00000240: da8b 89bc 0bd9 93bc f83a 063d 3390 29bd
00000250: ff62 c9bc 75dc c4bd 8d7c 0bbd 769a 963c
00000260: a6cb 0dbd e7c3 b3bb 59cb 30bd 7fb2 93bc
00000270: 93ef 06bd c7b0 e7bc e449 143d b117 b6bc
00000280: e3f9 28bd 6bbd 73bd 74b9 05bd 339c 7ebd
00000290: db20 933b 83f4 13bd 2180 b0bd b253 64bc
000002a0: 1534 54bc c98e 96bd ae89 573c 7b3c 06bd
000002b0: 6c81 303d 8a88 c4bd 4d80 1b3d 3ed5 7d3d
000002c0: b2f5 adbd 7d28 9dbd 7f12 61be 18d5 48bd
000002d0: 6d9c c2bd a1a1 0bbc 42aa cbbc fac9 5cbd
000002e0: 3ac8 083d 619e b03b 17ec 63bd 9e75 97bd
000002f0: a982 5cbd 1e4e 2fbc 8ff3 03be 7688 21bd
00000300: 68f0 32bd cc78 83bd 6ee1 f2bc 0e46 fcbc
00000310: a4e3 1cbc c8cb 1dbd 09ab e1bc e0d5 8abc
00000320: 5d43 77bd 1621 26bd ff95 9cbd a65d 83bd
00000330: e6dc 10be 976a 8abd 7a58 cd3c c8a7 e2bc
00000340: 9aea 99bd f069 c5bd 0316 78bd b856 1d3d
00000350: ea2e 9fbd 0928 88bd 53ae 03be 0659 393d
00000360: 54ef 813d 8aee 8ebd bd80 08bd adee 86bc
00000370: 9b87 f63d f926 a1bc 8f39 093d 7184 efbb
00000380: df28 5f3d 56c9 59bd c87d 7fbd a248 7fbd
00000390: bfc8 42bc 8b89 f73b e4f0 023d 07cb 803d
000003a0: 0a84 893d b44a b9bc 5abf 06bc 73f1 fd3c
000003b0: 16fc ffbc 0e2b 73bd da69 7dbd 9549 62bd
000003c0: 02cf 043d 8fd5 16bd b12c cabc ffc5 e1bd
000003d0: 99ec 83bd af03 bdbc 017e e3ba 2963 38bd
000003e0: c28e 0a3d 949e a2bd a6f8 803d d2a5 d9bb
000003f0: eedf cabd 8b78 90bd 8fcf f3bb 4efe cb3c
-0.078441955 -0.11616787 -0.052232508 -0.010780564 -0.090999715 -0.023567896 -0.031612948 -0.0015928827
-0.06319389 -0.1257456 -0.01811516 -0.043972295 -0.017584454 -0.024109745 -0.022438575 -0.026258081
-0.0005527316 0.007135338 -0.05316756 -0.043951955 -0.031022983 -0.042184725 -0.10421948 -0.030343598
0.10844459 -0.037391223 -0.017601544 -0.027168376 -0.044888064 0.011021327 -0.07260457 -0.12009226
-0.010959743 -0.03266189 0.16911715 0.044309705 -0.07206256 -0.01939582 0.0044174604 -0.056311876
-0.0016108553 0.0413123 -0.07160283 0.025505772 -0.05125422 -0.0008483456 -0.06982645 -0.0964091
-0.09558366 0.021755429 -0.040148176 0.030752454 0.16984637 -0.037800968 -0.11823302 -0.042196997
-0.009899699 0.05882164 -0.084612735 -0.029309772 -0.08414889 -0.07615988 0.046555072 -0.049509056
-0.0022230777 -0.08213776 -0.022579836 -0.09847632 0.009172176 -0.07364045 -0.039396875 0.06678132
0.013715914 -0.04625676 -0.014498503 0.07146511 -0.07398584 0.0768334 -0.046969492 -0.1082608
0.00038906216 -0.050714016 -0.059490908 -0.0002807095 -0.09835409 -0.028696198 -0.13411991 -0.106809676
-0.056664743 -0.0034466959 -0.044754803 -0.054062597 -0.12828083 0.0038642369 -0.059950344 -0.09213773
-0.11594927 -0.10827144 -0.03242954 0.06627026 0.07255622 -0.05242061 0.113806024 -0.005155832
-0.0410073 0.04714363 -0.034184605 0.10466933 -0.03554819 -0.07361139 -0.039571084 -0.09310399
0.011879916 -0.009456623 0.01876987 -0.048799377 -0.08032949 -0.101270705 -0.109783396 -0.079105794
0.0074614976 -0.04178119 0.019825729 -0.042377107 -0.0471853 -0.04947262 0.00348365 -0.12533896
-0.06521928 0.00861224 -0.06316702 -0.0497022 -0.06303106 -0.019346662 -0.015065976 -0.0984859
0.0025448415 0.0033412252 0.019047642 0.11036844 -0.028676977 -0.029408151 -0.077849545 -0.019758819
-0.01679032 -0.01804783 0.03277108 -0.041397285 -0.024583338 -0.09612361 -0.034054328 0.0183842
-0.034618042 -0.005486 -0.043162677 -0.01802945 -0.03294332 -0.028282536 0.03620328 -0.022228094
-0.041253936 -0.059506815 -0.032647565 -0.062160682 0.0044900007 -0.036121856 -0.08618189 -0.01393597
-0.01295187 -0.07351453 0.013155384 -0.032772522 0.043092176 -0.09596355 0.037964154 0.06197094
-0.08494128 -0.07673738 -0.21979712 -0.049031347 -0.09502492 -0.008522422 -0.024861459 -0.053903557
0.033394076 0.005389974 -0.055645075 -0.073954806 -0.053835545 -0.010699777 -0.12885879 -0.03943678
-0.0436863 -0.064195246 -0.029648509 -0.030795123 -0.009575758 -0.03852442 -0.027547376 -0.016947687
-0.060366977 -0.040558897 -0.07645797 -0.064143464 -0.14146766 -0.06758612 0.025066603 -0.027667895
-0.0751545 -0.096393466 -0.060567867 0.03841278 -0.0777262 -0.06648261 -0.12859468 0.045250915
0.06344476 -0.069790915 -0.0333259 -0.016471231 0.120375834 -0.019671904 0.033502158 -0.0073094894
0.054482337 -0.053170525 -0.062375814 -0.062325127 -0.011888682 0.007554238 0.031968012 0.062887244
0.067146376 -0.022618629 -0.008224333 0.030998921 -0.031248134 -0.059367232 -0.061868526 -0.055245955
0.03242398 -0.03682476 -0.024679514 -0.11024093 -0.06441612 -0.023073046 -0.0017356278 -0.04501644
0.03382755 -0.079404026 0.06297426 -0.006642082 -0.099059924 -0.07054242 -0.0074405144 0.024901535

bias f4 [100]
00000000: fd05 e5bd 1bb6 edbd 5497 9ebd b26e 6a3d
00000010: 86f7 9e3d 9ec9 e7bc 3567 60bd e3f5 803c
00000020: 253f 91bd f19d 96bd b541 72bd 9419 84bd
00000030: 8b04 01be 57e6 4bbc 762d cb3d c991 f8bb
00000040: 20df 783d e81c c23d c8f3 83bb de86 1dbe
00000050: c0a8 1ebd d04a a0bd 3dfd 38bc a279 77bd
00000060: 8ecd 9dbd 5426 16be c7f6 86bc 7aa8 0d3d
00000070: 69d9 68bd 6ebe 0f3d 708d 833d 0eaa c5bd
00000080: 3fc4 603d 4c9b ecbd 9f92 ccbc 328a aabd
00000090: 15e0 193d ab24 8e3c 2a88 00be 3087 d2bd
000000a0: 44ac c83c 509c 1ebd 6937 d0bd b62f 96b9
000000b0: d972 56bd 7552 07bd c0ac bc3d 85ef fa3d
000000c0: 7dc2 bfbc e747 4bbd ab37 9c3c 22d7 4abd
000000d0: a94f ffbc 5a4b a0bd 3bac ac3d 5300 b1bd
000000e0: 4d7f ccbd 0042 bcbd 32c1 4ebd 6433 c8bd
000000f0: b3cb bbbd 984c 2d3d dbcd 8bbb 77cc 9fbc
00000100: 498c d4bd 4310 8ebd 18ae dfbd 9dd0 01be
00000110: 0d02 17bd df17 153d 499e 93bd 0fa6 92bd
00000120: c8c8 dfbd 19b5 d0bd 99bf 4c3a 98f2 acbd
00000130: b6c1 87bd 97ed 44bd 0bc7 433d 704c ffbd
00000140: 1e38 d8bd 3ddf e03d 890d 9fbd 7d34 1f3d
00000150: 92ce c0bd d47b a2bd e388 11bd fc9c 0ebd
00000160: 20ef f43a 41c5 2fbd 9393 bebd 25b1 ce3c
00000170: 6e25 d4bd 0a80 5d3d 1dcf 37bd 05b6 6dbd
00000180: 0a6d 15bd 171c bc3e ff6f babd 9b64 973c
-0.11182783 -0.116069995 -0.07743707 0.057234474 0.07762055 -0.02829438 -0.054785926 0.015742248
-0.07092122 -0.07354344 -0.059144694 -0.06450191 -0.1259939 -0.012445054 0.0992078 -0.0075857383
0.060759664 0.0947817 -0.0040268637 -0.15383479 -0.03873515 -0.07826769 -0.011290845 -0.060418732
-0.07705222 -0.14663059 -0.016475094 0.0345845 -0.056847963 0.035093717 0.064234614 -0.09651576
0.054874655 -0.11553058 -0.024972258 -0.0832714 0.037567217 0.017351469 -0.12551942 -0.10279691
0.024496205 -0.03872329 -0.10166819 -0.00028645777 -0.05235562 -0.03303762 0.09212637 0.12252716
-0.023408169 -0.04962912 0.019069513 -0.049521573 -0.031165915 -0.07826872 0.08431288 -0.0864264
-0.09985218 -0.09192276 -0.050477214 -0.09775427 -0.09169712 0.042309374 -0.0042664832 -0.019506676
-0.1037832 -0.069366954 -0.109218776 -0.12677236 -0.03686719 0.03639972 -0.07207925 -0.071605794
-0.10926968 -0.10190792 0.00078105327 -0.084447086 -0.06628744 -0.048078146 0.047797244 -0.12465751
-0.105575785 0.10980079 -0.077662535 0.038868416 -0.094144 -0.079337746 -0.035530936 -0.03481768
0.0018686987 -0.042912725 -0.09305491 0.025230953 -0.10358702 0.054077186 -0.044875253 -0.058034915
-0.03648094 0.3674018 -0.09103393 0.01848059

weight f4 [1, 100]
00000000: 0adb 62bd 80d5 84bc a4ea ecbc 2870 7fbe
00000010: 1d3a f6bd 43b0 403c 7837 1ebc 087d 7bbc
00000020: 961e dcbd 2e08 89bc e7f2 3cbc 80d3 713b
00000030: da91 59bc 1e16 57bd 8f7a 06bc edb0 8f3d
00000040: c000 6dbe bb5a cebd cf00 20be b9d8 5cbd
00000050: d10b 26bd 3326 443b db97 1fbd fbcd 8abc
00000060: f95e 81bd 0976 5abd f80d 903c 34a8 b7bc
00000070: 6dc4 3b3d c6c4 3fbe df51 08bd d770 12bb
00000080: de22 a9bd 3bdc 0abd 1812 d33c 918f 263c
00000090: 8507 6abe 8f8e f0bd ed31 253d 82b9 513c
000000a0: 47b0 0ebd 633c 663c 71aa 573c e15f 0fbd
000000b0: 5120 b23b 25fb 263d 35ea 6dbe 6c06 89be
000000c0: 9a9f 88bc 4d10 f9bb 0a20 a4be 9857 f63b
000000d0: 0829 26bd 8c5c 47bc a1ec a5bd ae7e 4dbc
000000e0: daa3 1dbd 9bd1 ccbc f215 083d f065 973b
000000f0: 2156 6938 a974 c5be 50f9 12be 7c86 d1bc
00000100: cfbe e0bc 95ab b33c 5bfd 2bbd e7e2 b8bc
00000110: 3d10 2fbc 4cae 97bd 5239 a9bd 595d 8fbd
00000120: afc5 72bc 549b 11bd 1e15 e1bd 4bee 183b
00000130: 3ad6 0fbd ebdc 5e3c ac39 64be 44e5 e8bb
00000140: 01d3 5f3d 2986 313c 0bbd fcbc 9e8e f2bc
00000150: c3d9 623d ec88 113d 0e37 d7bd 0156 523d
00000160: 3a51 743c 2b9b 5f3c 805e 64ba 0a6f 1cbe
00000170: 52ec 1a3d f167 ebbc 5254 e5bd 1ec0 dabc
00000180: 1b8f 5ebe d5fe 2abd 6151 38bd b607 afbe
-0.055384673 -0.016215086 -0.02892048 -0.24945128 -0.12022803 0.011760774 -0.0096567795 -0.015349634
-0.10748021 -0.016727533 -0.011532522 0.0036899745 -0.013279403 -0.052511327 -0.008207931 0.07016168
-0.23144817 -0.10075899 -0.15625308 -0.05391762 -0.040538613 0.0029929995 -0.03896318 -0.016943922
-0.06316943 -0.053335223 0.017584786 -0.022419073 0.045841623 -0.18727407 -0.033281203 -0.002234509
-0.082586035 -0.033901434 0.025765464 0.010166065 -0.22854431 -0.11745941 0.040330816 0.012800576
-0.03483608 0.014052483 0.013163195 -0.035003547 0.0054359813 0.040766854 -0.23233874 -0.26762712
-0.016677666 -0.00760082 -0.32055694 0.007517766 -0.040566474 -0.012168061 -0.08101774 -0.01254241
-0.03848634 -0.025002291 0.033224054 0.004620306 5.5631743e-05 -0.38565567 -0.14352918 -0.025576822
-0.027434735 0.021932403 -0.041989665 -0.022569133 -0.010685024 -0.07406291 -0.08262886 -0.070002265
-0.014817639 -0.035548523 -0.10990356 0.0023335393 -0.03511641 0.013602476 -0.22287625 -0.0071074087
0.05464459 0.010835209 -0.030851861 -0.02960902 0.055383455 0.03553097 -0.10508548 0.05135155
0.014911944 0.013647835 -0.00087115914 -0.15276733 0.03782303 -0.028736087 -0.111977234 -0.026702937
-0.21734278 -0.041746933 -0.044999484 -0.3418557
