Gibbs_MINE/pw_res/model_lk_b=10_s=0.5_p=10.pth (torch, 181015 bytes, 5 tensors)

weight f4 [400, 10]
00000000: b4dd a03d e5fe 4a3d a567 b33e 5166 15be
00000010: e41f b33e d57d c93e 327d 443b 60c0 d8bd
00000020: d6af a0be f2da 4bbe 2f19 f83d 84a0 523e
00000030: 4f84 413e 3370 b53d c54f 38be 13dd 19be
00000040: 79c0 873e ec32 da3d c11d 58be 6370 96be
00000050: 28fd 813e 2f9c b9bd 8d3d 193c d1fa 823e
00000060: 6634 b0be d79a ed3d c20a ce3e 50d6 5ebe
00000070: 0e94 233e 97d8 433d b467 143e 325f 393e
00000080: e8b0 873e 420d 843e 0c4c 693e 2930 9e3e
00000090: 3eb2 bbbb f716 873e f656 ccbe ac5d 7a3d
000000a0: a093 2a3e 1ff3 503e df51 29be d88e be3d
000000b0: 0708 9bbe 7448 80be 6c6e 943e 7daf 88be
000000c0: ee96 073e 4de1 2c3e eec1 033e fe1c 833d
000000d0: 87ad 4f3e 11ce 4f3e 3d1e 953e 1c21 193e
000000e0: 9bb0 f83d 6e25 363c e3d4 dcbe 0e72 d0bd
000000f0: 7c5f 503d 952d 3abc df0d 61be 19e1 8cbe
00000100: 703d 3b3d e775 1abe adc7 4c3e 9ae3 03be
00000110: b73a f13d aeb4 66be 86b8 d73d 8558 443e
00000120: 8f9e 6a3e 225e a93d 61c4 c6be 3394 ad3c
00000130: 1116 803e 2763 86be 9900 b33e 7ac8 02bf
00000140: 3c07 613e 909d bc3d 87d8 8dbe 1271 f0bd
00000150: 2533 85be 14d6 253d c6c1 bb3d 4f48 433e
00000160: 8045 203e 55a4 8d3e 4f40 573e 5396 80be
00000170: 4d4f c6bc 0854 7a3d 78c6 31be e7aa 1abd
00000180: 7d53 cbbd 0d32 5c3d 6a6a 913e 5dca e83d
00000190: d19a 31be 05f2 57be 3037 3b3d 05f3 99be
000001a0: ea66 343d 4912 843d b4a4 c6bd 6609 c0be
000001b0: 5a2f 083e a7ff 623e 3f43 4f3e 3bca 3dbe
000001c0: fff4 b33e 325c 883d 4ef6 583d d27b 9d3e
000001d0: bad8 813e 2cae 46be 2030 9a3d 5703 8ebe
000001e0: d000 03be 583b 21be a674 b2be 04d9 8abe
000001f0: 8a7c 93be 210b 90be aa6a 033e b032 a1be
00000200: e6d1 c43e f153 b63d 0ddb 70be ed9a 07be
00000210: 63e9 1a3e 3111 3c3e 3d0a 1f3e ea28 483d
00000220: a48d 78be 80ce 4d3e 23a4 a4be e88c b93e
00000230: dcad 223e 96c9 383e e218 4abe ae7e 14be
00000240: d5f9 8cbe bd1f 2d3e 1489 fdbd b521 e7be
00000250: 09b5 6a3e c711 693d e008 8c3d 5b23 7cbe
00000260: 0a0f 92bd f556 343e ea50 863e 199d 143e
00000270: e691 883e 35f8 c6bc 6fc4 de3d 54ac 4ebc
00000280: ce11 2bbe 179f 353e bbb2 30bb 09cf 1c3e
00000290: 8a26 2cbe dedd dabd 2fa9 fd3d e707 f93d
000002a0: f138 3b3e 01a7 b3be 99c8 833c 790c 8e3d
000002b0: c8e4 1c3e 52be 21be 0bd7 513e fe0c 753e
000002c0: f8a1 e43d ff2f a6bd eaad 9fbe 86d7 96be
000002d0: e8da 913e 376d c8bd e850 993d 3191 583e
000002e0: 3d0f a5be b466 553e 329e 433e a945 93bd
000002f0: cd82 a43d 6201 753b 782a 583e 7fa8 1e3e
00000300: 37de a1be 7146 53bd 8375 523e 86a5 d1bd
00000310: 5c78 23be 211f 053e e659 46be e321 5bbe
00000320: 65dc f63d 9f40 4f3d 6db1 2fbe 38d7 353e
00000330: 4b84 b4be 0472 9abe 0f4e 5a3e f214 ce3d
00000340: 1d65 a03e 38ba 533e de00 833e f788 cfbd
00000350: dcee 373e a503 923e 297d 7f3d 545a 8ebd
00000360: c7de a8be f7ab 48be 408d 09be 1563 883e
00000370: 10f2 64bd 03eb e23c ec57 793d 2531 68be
00000380: 140d 96bd 5b69 8a3e 38ef 143e 2bb0 1d3e
00000390: 7516 203e 1ef6 6bbe 18c3 6dbe be5d 7c3e
000003a0: 8246 9d3e cecb 3fbe 3c83 393d 0b0b 04bd
000003b0: d768 79be ea96 90be 86eb 183e 3ab2 5fbe
000003c0: 7a25 273e aa9a 8d3e 14f6 8d3e b35c 393e
000003d0: cfaa 6ebe 61d2 163c e9fc 80be 4b51 153e
000003e0: dffb 9dbe c0d0 463d 4e87 503e 5b77 253d
000003f0: 3032 41bd 6297 f93c 3a30 6cbe 60ad 8dbe
0.078547865 0.049559493 0.35040012 -0.14589812 0.34985268 0.39353815 0.0029981849 -0.105835676
-0.31384152 -0.1990774 0.121141784 0.20569044 0.18898128 0.08859291 -0.1799918 -0.1502574
0.26514032 0.10654244 -0.211051 -0.2938262 0.25388455 -0.09062993 0.009353054 0.25581983
-0.34414977 0.11601799 0.40242583 -0.21761441 0.15974447 0.047813978 0.14492685 0.1810272
0.26502156 0.25791365 0.22782916 0.30896118 -0.0057280352 0.26384708 -0.39910096 0.06112449
0.16657877 0.20405243 -0.16535138 0.09304589 -0.30279562 -0.25055277 0.28990495 -0.26696387
0.13241169 0.1688282 0.12866947 0.06402014 0.20281039 0.20293452 0.29124632 0.14954036
0.1214306 0.011117322 -0.4313117 -0.10178004 0.05087231 -0.011363407 -0.21977948 -0.27515486
0.04571289 -0.15084039 0.19998045 -0.12879792 0.11778777 -0.22529861 0.10533242 0.19174393
0.22912048 0.082699075 -0.388217 0.021188831 0.25016835 -0.26247522 0.34961393 -0.5108715
0.21975416 0.0920974 -0.2770426 -0.117403165 -0.26015583 0.040487364 0.09167819 0.19070552
0.15651512 0.27664438 0.21020626 -0.25114688 -0.024207735 0.061115295 -0.17360866 -0.03776064
-0.099280335 0.05375867 0.284015 0.11366723 -0.17344214 -0.21088417 0.045706928 -0.30068222
0.04404346 0.064488 -0.096993834 -0.3750717 0.13299313 0.22167836 0.20240496 -0.18534176
0.35147855 0.0665821 0.05296927 0.3075853 0.25360662 -0.19402379 0.0752871 -0.27736923
-0.12793279 -0.15745294 -0.3485462 -0.27118695 -0.28805953 -0.2813349 0.12833658 -0.31483984
0.3844139 0.08902729 -0.23521061 -0.13242693 0.15128092 0.18365933 0.1553125 0.048867144
-0.24272782 0.20098305 -0.32156476 0.36240315 0.15886635 0.18045649 -0.19736055 -0.1450145
-0.27534357 0.16906638 -0.12379661 -0.45142904 0.22920622 0.05690172 0.0683763 -0.24622862
-0.07131775 0.17611296 0.26233608 0.14513053 0.26673812 -0.024288276 0.108773105 -0.012614328
-0.1670601 0.17736469 -0.0026962 0.15313353 -0.16811576 -0.10686849 0.12385785 0.121597104
0.1828344 -0.3508835 0.016086863 0.06935973 0.15321648 -0.15795258 0.20492189 0.23930737
0.111637056 -0.08114623 -0.31187373 -0.29461306 0.28487325 -0.09786456 0.07486135 0.21149136
-0.32238188 0.2083996 0.19103315 -0.07191021 0.08032761 0.0037384857 0.2110995 0.15493964
-0.3161485 -0.05158085 0.2055264 -0.10236649 -0.15963882 0.13000156 -0.19370231 -0.21399646
0.12053756 0.050598737 -0.17157526 0.1775788 -0.35257182 -0.30165112 0.2131884 0.10062589
0.31327143 0.20676506 0.255866 -0.10133546 0.17962211 0.28518406 0.06237522 -0.069508225
-0.32982466 -0.1959685 -0.13432789 0.26638094 -0.05589491 0.027699953 0.060874864 -0.22674997
-0.07326713 0.27033505 0.1454438 0.15399234 0.15633567 -0.23043105 -0.23218954 0.24645135
0.30717856 -0.18730089 0.04529117 -0.032237094 -0.243564 -0.28240138 0.14933595 -0.21845332
0.1632289 0.27657062 0.27726805 0.18101768 -0.23307346 0.009205432 -0.25192955 0.14581792
-0.30856225 0.048538923 0.20364115 0.04039703 -0.047167003 0.030467693 -0.23065272 -0.27671337

bias f4 [400]
00000000: 3018 9abe c724 abbe 3b17 aebe 6aae b9be
00000010: ecd8 9f3d dfde 66be 051d 673c c339 c0bd
00000020: 4e39 323e 0b37 77bd 51ad 483e ae45 9dbd
00000030: 6f5e 1a3e d370 cabd bc6e 7ebe c4c1 90be
00000040: 4153 f63d d039 243e f41b 143e b6bc 98be
00000050: 768a 13bd 73c6 a4be 7d0e c6bd 2587 94be
00000060: 761f c13d 27b3 aebe 531a b3be 5ce8 953d
00000070: b0c8 bc3e 75bc 493e 81c9 f2be b618 3dbe
00000080: d473 b5be 2859 9b3b 8a6b dd3e fcd7 fd3c
00000090: e6a5 6ebe 7496 16be fe4c 0d3e ded7 19be
000000a0: 1c08 febd 0a41 9c3d 0580 05be f015 e83d
000000b0: 12aa bebc b4cc 6bbe ec31 803e ec2d 333e
000000c0: 57c1 adbe 3612 0ebe 8942 3abe 81d3 253d
000000d0: f350 ddbe 35fd b7bc 777b db3c 897e 963d
000000e0: fb96 3a3e 099d 633e ae5f 87be 4ce2 34be
000000f0: 1216 773e 3287 5a3d cdad 803e 22eb 42bd
00000100: deca 9fbe b7db a6be 1785 d83c d66f ac3e
00000110: 5532 01be e25d 843e 927c f83d a623 69bb
00000120: 91b6 4ebe fd84 aebe 9279 1fbe b55c 67be
00000130: 6e85 f3bb 908f 083d 00b9 d03d 4447 10be
00000140: d20e 35bc 210d 4a3e 7eb6 b7bc 941a a8be
00000150: 6d34 143e 2555 0dbd b694 d33b 9dbf a2be
00000160: 9cef 8c3e 7545 6abd 971a 7fbe 2fc6 1a3e
00000170: 8aba 45be be73 3b3e 9db0 d7bc 26df acbe
00000180: 37c8 fdbd 60df 3b3e d707 363e fe61 a63d
00000190: 016f 86be a8da 823d e3e2 f1bd 0430 b73e
000001a0: 388f 2ebe a9cb d2be d270 f9bd fcc3 463e
000001b0: d3e1 b8bc b66e 2f3c 0ff1 413e 53c6 7bbd
000001c0: 5cad 48be 4d79 86be f7cb c5be e286 14be
000001d0: 0326 a73c b417 88be d989 613c e3f6 11be
000001e0: c402 a4be 455d 7dbe c458 85be 772a 7c3e
000001f0: ddb7 b03e 4cce cdbd 85b5 c2be c37f 99be
00000200: 0c63 93bd 931d 813d 1418 d73d 4338 44be
00000210: a1b8 6c3e 6239 e9bd 82fc 4e3e 0699 9cbe
00000220: 5593 863e a4b0 89be b089 633e ca29 dfbd
00000230: d71c 4f3d 0a62 8fbe 7761 7abc 4bee 31be
00000240: a011 14be 919b 70bd 9696 8abe 6126 5ebe
00000250: b70b 213e 33b6 a6be 839a ffbd 078c 16be
00000260: 1f93 d33d 4735 ad3e e2d4 5c3d 726e 4ebe
00000270: d317 e5bd 9011 9e3e 03b8 be3d 4564 39be
00000280: ffce 973e 8225 fcbc fb44 893d 5023 47be
00000290: 8742 c33d 998b c0bd 3cf1 4bbd 749f 96be
000002a0: 68a4 30be 7236 8fbe c5ac 0f3d 082d 583e
000002b0: f1d1 7bbe 5319 b13e 2048 123d 1521 583e
000002c0: a371 4f3e 1489 96bd b36e 9abe c2b2 293e
000002d0: ebfb 853d 5150 88be f601 82bd 576b 3abe
000002e0: f6ca bebe f0dd 2b3e 4539 45bd 74f5 b3be
000002f0: 1270 d1bd 0944 adbe 0ada 28be e8cc 583e
00000300: 8a50 7abe 38d8 01bd e6d3 55be 1bd9 1bba
00000310: 5845 90be 17fe f0bd 534b aabe f509 67bd
00000320: 42d0 cebe 9d98 b0bd 249f c3be 7a0e 1c3e
00000330: 6ce4 73be bda6 35be 6f87 5e3e a083 853e
00000340: 3e5b 65be b39d 47be cc64 32be 2c25 a8be
00000350: beaf 01be f583 ddbe 31ba 0ebe 06c0 e93d
00000360: 871c d63b bd94 ec3d c025 bd3e 2b55 01be
00000370: 7679 12be 1f34 88bd d5f7 323e df18 68be
00000380: e861 83be 0b59 fc3d 12a3 e5be 6a76 393e
00000390: 23fa 92bd e05c 403e 7f16 483e 1760 2fbe
000003a0: f53d a83e e461 b2be 756e b5be cd10 84bd
000003b0: b2d5 70bd 685f bcbe e991 00be c9ab 903e
000003c0: 41dc bcbe 55cc 82be 2731 583e 9fa3 8e3e
000003d0: 832e a7be ed59 c9be e8f5 29be 9811 a7be
000003e0: ee6f c33e c436 a83c ea67 523e abc7 4cbc
000003f0: 31b0 a4bd 065c 05bd 7cd0 13be 0ef5 a7be
-0.3009658 -0.33426496 -0.34002098 -0.3626588 0.078050464 -0.22545956 0.01410604 -0.09386017
0.17404673 -0.060355227 0.19597365 -0.07679306 0.15075086 -0.09884801 -0.2484693 -0.2827283
0.12027598 0.16037679 0.14463788 -0.29831475 -0.03602072 -0.32182655 -0.09670732 -0.29009357
0.09429829 -0.34121057 -0.3498102 0.0731971 0.36871862 0.19700797 -0.4741936 -0.18466458
-0.35439932 0.004740853 0.43246108 0.030986778 -0.23305473 -0.14705831 0.13798901 -0.15023753
-0.124038905 0.07629593 -0.13037117 0.11332309 -0.023274455 -0.23027307 0.25038087 0.17497987
-0.3393657 -0.13874134 -0.18189444 0.04048491 -0.43225822 -0.022459606 0.026792271 0.073483534
0.18221657 0.22227873 -0.26440185 -0.1766445 0.24129513 0.05335159 0.251326 -0.04758752
-0.31209463 -0.32589504 0.02643065 0.33679074 -0.12616856 0.25852877 0.12133135 -0.0035574227
-0.20186831 -0.34085837 -0.15573719 -0.22593959 -0.0074316775 0.033340037 0.10191536 -0.14089686
-0.011050897 0.19731571 -0.022425886 -0.32832778 0.14473124 -0.03450503 0.0064569367 -0.31786814
0.27526557 -0.057195146 -0.24912487 0.15114664 -0.1930944 0.18305871 -0.026329333 -0.33764
-0.123917036 0.1834693 0.17776428 0.08124159 -0.26256564 0.063893616 -0.11810853 0.3577882
-0.17046821 -0.41171005 -0.12179722 0.194107 -0.022568619 0.010707548 0.18939613 -0.061468434
-0.19597381 -0.2626442 -0.38632175 -0.14504579 0.020403868 -0.26580584 0.013765776 -0.14254336
-0.3203336 -0.24742611 -0.26044285 0.24625574 0.34515277 -0.10049114 -0.38029113 -0.29980287
-0.07196626 0.06304469 0.105026394 -0.19162087 0.23117305 -0.11387898 0.20213512 -0.30585498
0.2628428 -0.2689258 0.22220492 -0.108966425 0.050564613 -0.28004485 -0.0152820265 -0.17376058
-0.14459848 -0.05874211 -0.27068013 -0.21694328 0.15727125 -0.32560882 -0.12480643 -0.14701854
0.103307955 0.3382971 0.05391396 -0.20159319 -0.11186185 0.30872774 0.09312441 -0.18104656
0.29650113 -0.030779604 0.0670261 -0.19447064 0.095341735 -0.09401626 -0.049790606 -0.29418528
-0.17250216 -0.27971226 0.035076875 0.21110928 -0.24591805 0.34589633 0.035713315 0.2110637
0.20258193 -0.07350364 -0.30162582 0.16572097 0.0654219 -0.26623777 -0.0634803 -0.1820501
-0.37264222 0.16783881 -0.04815032 -0.35148203 -0.10226454 -0.3384097 -0.16489425 0.21171916
-0.24444786 -0.031700343 -0.20881614 -0.0005945132 -0.28177905 -0.11767214 -0.33260593 -0.05640598
-0.40393263 -0.08622859 -0.38207352 0.15239897 -0.23817605 -0.17739387 0.21731351 0.26076984
-0.22398087 -0.19493751 -0.17421263 -0.3284086 -0.12664697 -0.43264738 -0.13938214 0.11413579
0.0065341624 0.11551807 0.36942863 -0.12630145 -0.14304146 -0.06650566 0.17477353 -0.22665738
-0.25660634 0.12321671 -0.44850975 0.18111578 -0.07176616 0.18785429 0.19539832 -0.17126499
0.3285977 -0.3484031 -0.35435835 -0.06448517 -0.058797546 -0.3679154 -0.1255566 0.28256062
-0.3688679 -0.25546518 0.211125 0.27859208 -0.32652673 -0.3932642 -0.16597712 -0.3263061
0.38171333 0.020533927 0.20547453 -0.012498776 -0.08041418 -0.032558464 -0.14434999 -0.3280415

weight f4 [100, 400]
00000000: bdd9 d4bd 08da f0bd 1540 27be 4d8e 9bbd
00000010: 13f8 b2bd 0709 f0bd 4170 90bc dc80 8ebd
00000020: e684 033e 1579 aebc 65c6 87bd 2eca c5bd
00000030: f8a2 b8bd 2a8d 9fbd 02dd fbbd 0c21 58be
00000040: a666 a1bc 781a 0b3c 1e7e 403d 6268 08be
00000050: 509f f03c d61e d2bc 14d8 61bd b76e f3bd
00000060: bc76 2cbd a777 dfbd 7f6a 48be 567b 0cbe
00000070: e3c7 c13d 9348 82bd 2418 17be 419f abbd
00000080: 345b 83be 4781 33bd 22e6 023e b6b7 393d
00000090: bdfe 87be d41b 41be 376a 223d 587c 3bbe
000000a0: d5cc a2bd bd31 2bbe b2d3 d9bd 2e96 073d
000000b0: 686b 25bd 7f0c 7abe 7155 c43c a8f9 a33d
000000c0: 4d95 fdbd 4728 da3d 72f2 18be 537f e4bc
000000d0: dbb5 2fbe 02d8 3abe 1c55 2abe 1fb5 57bd
000000e0: 6b08 25bd d611 99bc ec00 06be aa8d 92be
000000f0: e9dd 63bd da06 9bbc 47f3 813d 65d3 e2bd
00000100: 21e8 39be 69a8 3bbe 497a a7bd 2ca5 a23b
00000110: d478 95bd 980d a43d 7086 99bc faff 1cbe
00000120: 1eec 49be a107 0dbe 805b 21be b4ea cbbe
00000130: b29b 6cbe 7b3a b6bd c74e 1d3d 789e 1abd
00000140: aae5 993c 7433 453d c701 b2bd 76a9 dcbd
00000150: 3f9c 2abd 0838 e6bd 7a45 b8bd 3e2a f2bd
00000160: e8b7 e23c 5ee1 41bd f983 c1bd 1e59 c53d
00000170: 2e13 7dbe 25f1 853d 44dc 92bd 31d4 c0bd
00000180: 9753 003d db80 2ebb 7ba0 3a3e a49c c1bc
00000190: b21d a2bd 623b 8ebe 6823 cabd c475 6c3d
000001a0: c55b fabd d6e9 f9bd 00d2 33be ec56 4ebe
000001b0: ff4b 9fbe e9b0 5bbd 5426 b5bc 74b7 09be
000001c0: 880d 8bbe df0e 12be 19a2 34be 0301 45be
000001d0: edc1 fb3c d6cb 28be 2b73 10bd ac48 31be
000001e0: 978c 41bf 1c27 fcbd d271 2cbe d17d 4a3e
000001f0: b50d babd 5535 09be b99a b6bd 6d81 afbd
00000200: 0f8a 083e ffd0 37bd 6a20 a03b 894d e9bd
00000210: 5750 183e dc67 1ebe 47eb 81bb 0026 a7be
00000220: ae39 323d fd57 39be 22a2 653d 20b2 fbbb
00000230: 6c40 0ebb d401 03be 4871 183a cebf d3bc
00000240: 8a04 fabd 6af5 02be 8011 49be 954e 4abe
00000250: 0608 61bd a5ca 6ebd 9fcb a0bd cf2c f9bd
00000260: 4228 293d c06d 453d 05ae 24be a313 3abd
00000270: cdd8 2abe 1d1c d63d 46b1 e63d c239 3cbd
00000280: a9d9 a53c c277 c8bd e704 203d a76e 15bd
00000290: d5ce 2fbb 9afd e6bd 47fe abbd 0e48 12be
000002a0: 10b3 a4bd c1cd dabd 1fb7 8d3d 313c df3c
000002b0: 3be3 6fbe 1f25 233e d6ef 2a3c dd80 fb3d
000002c0: d2b9 bebd 5569 893d 16d5 debd e3be 2fbb
000002d0: 92f0 27be 888b f0bd 0807 ffbd 418f fcbd
000002e0: cf1f f7bd 8e2b 1dbd 4372 a1bd 2889 46be
000002f0: f160 47be 9f45 18be e720 f1bd ac54 d03b
00000300: e2cb 7fbe f6d6 1ebe 2b78 62be 30ed 8a3d
00000310: ea7d 02bf 9cc3 443d 2ac2 eabd b4f8 08be
00000320: 35bb a9bd c104 d3bc 4bc8 90be 68ce 26bd
00000330: 141f 0fbe c862 f7bd 2614 9b3d ebc3 a63d
00000340: 0167 43be cd18 d3bd 6b80 39be 8ae4 2abe
00000350: 2011 bcbd 7e98 b4bd 5537 fabd d124 4e3d
00000360: 0674 1bbd 7c94 55bd 46d2 eabc 7804 20be
00000370: e5b0 bebd 5859 c0bd da5c b53c 793d ecbd
00000380: 48ec 65bd a0a4 553d 1728 3cbe ce6f b8bd
00000390: bd10 55be 19f7 a83c ed2a 1ebb 34de 7dbd
000003a0: 63ad a43b 9a8f 19be 28be 7abe 756f 54bd
000003b0: 8c6e b7bc e049 69bd 98c0 07be 4c4f 0a3e
000003c0: 83bc adbe 92bb 4bbd 5c49 4b3d 2fe8 5c3e
000003d0: e036 e5be 825d a3be 8217 56bd cc2f b2be
000003e0: f570 593c ba2a c1bd 4397 c63d b30f b9bd
000003f0: db2a 03be 8d11 01bd b3a8 b7bd 9446 9abe
-0.10393093 -0.11760336 -0.16333039 -0.07595501 -0.08738723 -0.11720472 -0.017631652 -0.06958172
0.12843665 -0.02129797 -0.06629638 -0.09657703 -0.09015459 -0.07790597 -0.12298013 -0.21106356
-0.019702267 0.008490197 0.046995275 -0.13321069 0.029372841 -0.02564947 -0.05513771 -0.118863516
-0.04210542 -0.10911494 -0.19571875 -0.13718924 0.094619535 -0.06361499 -0.14755303 -0.08379985
-0.2565552 -0.04382446 0.12783101 0.045341216 -0.26561537 -0.18858272 0.039652076 -0.18309152
-0.07949225 -0.16718192 -0.10636081 0.033102207 -0.040385634 -0.2441883 0.023966523 0.080066025
-0.123819925 0.106522135 -0.14936236 -0.027892744 -0.17159216 -0.18246463 -0.16634029 -0.052662965
-0.04029123 -0.018685263 -0.13086289 -0.28623706 -0.055631552 -0.018924166 0.063452296 -0.110754766
-0.18154956 -0.18325962 -0.08177621 0.0049635377 -0.07298437 0.08010405 -0.018740863 -0.15332022
-0.19718978 -0.13772441 -0.1575756 -0.39827502 -0.23106268 -0.08897873 0.038405206 -0.037748784
0.01878627 0.048144773 -0.08691745 -0.107745096 -0.041652914 -0.11241156 -0.089976266 -0.11824463
0.027675584 -0.047334068 -0.09449 0.096361384 -0.24714348 0.06540135 -0.071709186 -0.09415472
0.031329717 -0.0026627097 0.18225281 -0.023634262 -0.0791582 -0.2777968 -0.098700345 0.057729498
-0.12224535 -0.12202804 -0.17560577 -0.20150346 -0.31112668 -0.05363551 -0.022113003 -0.13448888
-0.2715876 -0.14263485 -0.1763996 -0.19238667 0.03073212 -0.16484007 -0.035266083 -0.17312878
-0.7560515 -0.12312147 -0.16840294 0.19774558 -0.09084646 -0.13399251 -0.0891623 -0.08569608
0.13333915 -0.04487705 0.0048866766 -0.11391742 0.14874397 -0.15469307 -0.003964815 -0.3264618
0.04351204 -0.18099971 0.056062825 -0.0076811463 -0.002170588 -0.12793666 0.000581522 -0.025848296
-0.12207897 -0.1278893 -0.19635582 -0.19756539 -0.054939292 -0.058298726 -0.07851338 -0.1216675
0.04129816 0.04820037 -0.16082008 -0.045428883 -0.16684265 0.10454581 0.11264281 -0.04595352
0.02024539 -0.09788467 0.039067175 -0.03648248 -0.0026826162 -0.112788394 -0.08398109 -0.14285299
-0.08041966 -0.10683776 0.06919693 0.027250381 -0.23426525 0.1593213 0.010433158 0.12280438
-0.09312786 0.067095436 -0.10880487 -0.0026816658 -0.16400364 -0.117453635 -0.12452513 -0.12332011
-0.12066614 -0.038371615 -0.07883122 -0.19388258 -0.19470574 -0.14870308 -0.11773854 0.00635775
-0.24980119 -0.15511689 -0.22116153 0.06783521 -0.5097338 0.04803811 -0.11462815 -0.13376123
-0.0828766 -0.025759103 -0.2827781 -0.040724188 -0.13976699 -0.12079388 0.075722024 0.08142837
-0.19082262 -0.10307465 -0.18115394 -0.16688743 -0.09182954 -0.08818148 -0.12217585 0.05032808
-0.037952445 -0.05214356 -0.02866472 -0.15626705 -0.09311084 -0.09392041 0.022139002 -0.115351625
-0.05613354 0.05215895 -0.18374668 -0.090057 -0.20807166 0.020625638 -0.0024134472 -0.061979488
0.005025552 -0.14996186 -0.24486601 -0.051864106 -0.02239158 -0.05695522 -0.13257062 0.13506812
-0.33932886 -0.049739428 0.049630508 0.21572946 -0.4476843 -0.31907278 -0.052268513 -0.3480209
0.01327156 -0.094319776 0.0969682 -0.090361975 -0.12809317 -0.03151088 -0.08967724 -0.30131972

bias f4 [100]
00000000: 20d8 cf3e 84d5 b7bd ef46 79bb bfd3 d2bd
00000010: a8fb 7fbd aed0 a83c 0c52 96bd eef3 983d
00000020: 38f7 263d 121a 1b3d 1102 c9bd f175 073d
00000030: 0706 7ebd f6e4 85bd 1bc8 043e 8444 a3bd
00000040: def8 24bd f8d2 823a 5608 333e a2ee 88bd
00000050: 165c 8ebd 3e22 103d 3f6a c73d 6229 47bd
00000060: 42c7 afbd 4472 d4bc 20cf 3dbd cd0c debd
00000070: 6b2a 713d e36e 10bd 4850 a23d d510 b83d
00000080: 331e 53bd af6d 073c 5c9f ceb8 96d7 95bd
00000090: 1633 8c3d 0a78 283e c7c2 633d 4994 503d
000000a0: b05a 933c 538b b0bd ef09 433d ec6e f23c
000000b0: eecc 6b3d 3b55 c9bd e876 d53d adcb dd3d
000000c0: 425c b6bd 4d91 d63d 6373 673c d999 cc3c
000000d0: 3eae adbd e780 0abd 2e0a d8bd 2deb 8b3d
000000e0: b870 cabd 170d 073d 8831 b4bd aa1b 96bd
000000f0: 04ac 783d d30b 31bd f0d5 8bbc 921e 22bd
00000100: a3e5 b0be 5124 06be 0dce 203d 84b3 c83d
00000110: 4132 b9bc d331 0e3d 55de 503d 99db 433c
00000120: 3dfc 2dbd d45d a9bd 3023 b6bd b970 a3bd
00000130: 1ef5 6bbd f738 d4bb ae22 c9bd 53bd a83d
00000140: 6293 40bd 6b46 efbd ebf3 133e 1659 183d
00000150: 13a4 733d d285 c4bd a842 b8bc 40db 243d
00000160: b23f f83c 8e0f 743d 6015 0a3e 8131 d53d
00000170: dcd5 f0bc 2987 a5bc 617a d2bd f7ec 24bc
00000180: b353 a7bd c7ba 36bc 07b1 d23d 22f4 3f3d
0.40594578 -0.08976272 -0.0038036664 -0.102942936 -0.062495857 0.020607319 -0.07339868 0.07468401
0.04076311 0.03786666 -0.09814847 0.033071462 -0.062017467 -0.065378115 0.12966959 -0.07972053
-0.0402764 0.0009981086 0.17483649 -0.066861406 -0.06951158 0.035188906 0.09737062 -0.04862345
-0.08582927 -0.025933392 -0.046340108 -0.10842285 0.058878344 -0.035262 0.07925469 0.089875855
-0.051542472 0.008265897 -9.8525285e-05 -0.073165104 0.06845681 0.16452041 0.055605676 0.050922666
0.01798758 -0.08620324 0.047616895 0.029593907 0.057568483 -0.098307095 0.1042307 0.10829864
-0.089043155 0.10476933 0.014126631 0.024975704 -0.084805 -0.033814337 -0.105488166 0.068319656
-0.09884781 0.032971468 -0.0879851 -0.07329495 0.060710922 -0.043224167 -0.017069787 -0.039579935
-0.345502 -0.13099791 0.039259005 0.09799865 -0.02260697 0.034715485 0.050993282 0.011954212
-0.04247688 -0.082698494 -0.0889343 -0.079804845 -0.05760681 -0.0064765173 -0.09821068 0.08239236
-0.047015555 -0.11683353 0.14448516 0.037194334 0.059482645 -0.09595837 -0.022492722 0.040248156
0.03030381 0.059585147 0.13484716 0.10409833 -0.029398851 -0.020206051 -0.10277248 -0.010066262
-0.08170261 -0.01115293 0.102876715 0.046863683

weight f4 [1, 100]
00000000: 50ac 2cbe 1b2c cfbc 28ca 01be 49a6 86bc
00000010: a199 2e3d 733d 16be 74f7 a9bc 6958 1d3d
00000020: d6ad efbd b126 73bd aa96 b43c ab63 7cbd
00000030: c1a0 583c e4b9 ecbd 9ec1 963c 970f 00bc
00000040: ed8f 9fbc 585b babd bc4c 473d a468 a6bd
00000050: d996 c9bc ce0f fabd d5c0 4cbe 8d6a ecbb
00000060: 5044 2a3d 1875 35be 8377 b0bb c4ce 85bd
00000070: 62aa ec3c 261f d6bc c322 ddbd aaa9 93bc
00000080: e299 33be 1f0b cebc 2b15 20be bdc0 123d
00000090: 2553 33be 04df 81bd 8f7b b83c ac48 093d
000000a0: 5653 0d3c 54c5 0bbe 581b 60be 0e75 4dbe
000000b0: 4ee0 8dbb c72b f23c ad5d 30bd 8aad 43be
000000c0: 68a7 93bb 5dfa 32be c03d 1abe 2ebf 3cbe
000000d0: 66f9 15bd 314f d93c 0531 fbbc f911 1ebd
000000e0: 2f3d c93b 38b8 47be a8f4 29bd ee41 9bbc
000000f0: 0817 2abe 81a6 b8bc 9845 09bd 097c 383c
00000100: 5bd7 86be 51d0 94bc 24f0 26be c2c4 acbb
00000110: f28d 40bd ccb3 703c bc64 3bbe 0e04 37be
00000120: b489 04bd 4ca3 1ebe 23d5 623c d2ee 14bd
00000130: 710f 4b3d 25c5 12be b869 7abd e6fd 59be
00000140: b67a 6e3d 410d 25bd ee6e 1ebd 4119 04be
00000150: 476f 10be 0d38 1ebd 5024 8abd b1e3 6fbd
00000160: 8332 b4bc 35ae 45bc e25e 5c3c 4c53 183c
00000170: 485b 453c 566d 8ebc daa7 19bd ce14 5abc
00000180: 9e3e d33c a7f0 92bb ca38 7dbd d9cb 583d
-0.16862607 -0.025289586 -0.12674773 -0.016436713 0.04262698 -0.14671879 -0.020747878 0.038414393
-0.117030784 -0.05936307 0.022044498 -0.06161849 0.0132219205 -0.11558893 0.01840287 -0.007816217
-0.019477809 -0.09099454 0.048657164 -0.08125427 -0.024608063 -0.12210046 -0.19995435 -0.0072148503
0.041569054 -0.17720449 -0.0053853407 -0.06533578 0.028889839 -0.0261379 -0.10797646 -0.018025238
-0.1753917 -0.025151787 -0.15633075 0.03582834 -0.17512186 -0.06341365 0.022519855 0.03351657
0.008625826 -0.13649493 -0.21885431 -0.20064184 -0.0043297177 0.02956189 -0.043058086 -0.19109169
-0.0045060404 -0.17478319 -0.15062618 -0.18432304 -0.036614798 0.02652702 -0.030663023 -0.03859136
0.006141327 -0.19503868 -0.041493088 -0.018952336 -0.16610348 -0.022540333 -0.033513635 0.011260041
-0.26336178 -0.01816574 -0.16302544 -0.005272479 -0.04701037 0.014691304 -0.18300146 -0.1787264
-0.032357886 -0.1549198 0.013844761 -0.03636057 0.049575273 -0.14333017 -0.061135978 -0.21288261
0.058222495 -0.040295843 -0.03868001 -0.12900259 -0.14104949 -0.038627673 -0.06745207 -0.058566753
-0.021996742 -0.01206546 0.013450356 0.009297203 0.012045689 -0.01738612 -0.03751359 -0.013310624
0.025786694 -0.0044842544 -0.061821736 0.05292878
