Gibbs_MINE/pw_res/model_lk_b=10_s=0.5_p=24.pth (torch, 203415 bytes, 5 tensors)

weight f4 [400, 24]
0	0xbc46e029	-0.012138405
1	0x3e886b01	0.26644138
2	0x3e359034	0.1773079
3	0xbe51e39e	-0.20496985
4	0x3dba0dff	0.09084701
5	0x3e6a309c	0.22870106
6	0xbd0132e9	-0.031542692
7	0xbecb7396	-0.39736623
8	0xbe7d6148	-0.24744141
9	0xbe8ea67c	-0.27861392
10	0x3c5ede1a	0.013602758
11	0x3df8c9e7	0.12147885
12	0x3c238b5d	0.009981957
13	0x3e26c8d3	0.16287546
14	0x3d5c03fe	0.053714745
15	0xbe3408c2	-0.17581466
16	0x3e5c869f	0.21535729
17	0x3d46bf31	0.048522178
18	0xbe9a5c89	-0.30148724
19	0xbe3c775e	-0.1840491
20	0x3e1a2fc8	0.1505729
21	0xbe597a18	-0.21237981
22	0x3da4674e	0.08027516
23	0x3e7e5d0e	0.24840185
24	0xbebac41b	-0.36477742
25	0x3d30e66a	0.04318849
26	0x3e627686	0.22115526
27	0xbd047b06	-0.032343887
28	0x3ca94c8c	0.020666383
29	0xbde9a427	-0.11408263
30	0x3e8e691a	0.2781456
31	0xbc35d082	-0.011097075
32	0x3e3fa587	0.18715487
33	0x3e2e8bf1	0.17045571
34	0x3ea5126a	0.3224061
35	0xbda345e2	-0.079723135
36	0x3dd3f20d	0.10348902
37	0x3d57074b	0.05249719
38	0xbe54e231	-0.2078941
39	0xbe48984a	-0.19589344
40	0x3d98795c	0.074450225
41	0x3e921529	0.2853177
42	0xbe60228a	-0.21888176
43	0xbd7d47e8	-0.061836153
44	0xbe899832	-0.26873928
45	0xbe1ed991	-0.15512682
46	0x3e10d26b	0.14142768
47	0xbe86510a	-0.26233703
48	0xbdabe70e	-0.083936796
49	0xbd959938	-0.07304615
50	0x3b790138	0.0037995111
51	0xbd2eb7bd	-0.042655695
52	0xbe4c4622	-0.19948629
53	0x3e62ce1c	0.22148937
54	0x3e5c4d11	0.21513774
55	0xbdc5642b	-0.09638246
56	0x3e93512c	0.28772867
57	0xbe80297d	-0.25031653
58	0xbe8ad37d	-0.27114478
59	0xbcfe01aa	-0.031006653
60	0x3ec694f7	0.38785526
61	0x3d08fb8b	0.033443015
62	0x3d001497	0.031269636
63	0xbe5010a3	-0.20318846
64	0x3dc98e9a	0.09841652
65	0xbb477771	-0.0030436183
66	0x3e93e8d8	0.28888583
67	0xbd805367	-0.06265908
68	0x3ce57861	0.028011503
69	0xbd2310cc	-0.03981094
70	0x3e287a0f	0.16452812
71	0xbd9edcd6	-0.07756965
72	0x3e9e17a1	0.30877402
73	0x3e03a6f9	0.12856664
74	0xbe159bd4	-0.14610225
75	0x3c87db77	0.016584141
76	0x3d92304d	0.07138119
77	0xbe57d701	-0.21078111
78	0x3e8917ad	0.26775876
79	0xbe5ce24a	-0.21570697
80	0x3e99a855	0.3001124
81	0x3d51943e	0.051166765
82	0xbd1f5330	-0.038897693
83	0xbe6c1164	-0.23053509
84	0xbe873957	-0.26410934
85	0x3dc9d5c7	0.09855228
86	0x3dd183dd	0.10230229
87	0x3e560c3c	0.20903105
88	0x3e12548d	0.14290066
89	0x3e3d588c	0.18490809
90	0x3d8d5541	0.069010265
91	0xbe052c99	-0.13005294
92	0x3d9083f5	0.07056419
93	0x3dca3681	0.09873677
94	0xbd8016a3	-0.062543176
95	0xbaf4e5c5	-0.0018684199
96	0x3cd31f7e	0.025771853
97	0x3e920445	0.28518882
98	0x3e94e83d	0.29083434
99	0x3c7004a8	0.014649548
100	0xbe5b9d76	-0.21446785
101	0xbe43ce5f	-0.19121693
102	0x3e020a0e	0.12699148
103	0xbe7f5441	-0.24934484
104	0x3c84b9d9	0.0162019
105	0x3dc55956	0.0963618
106	0xbce5eae7	-0.028066112
107	0xbe40d3e6	-0.18830833
108	0x3cac0118	0.020996615
109	0x3e8b017d	0.27149573
110	0x3e92b6d3	0.2865511
111	0xbe737a27	-0.23777066
112	0x3e3f5e9b	0.18688433
113	0x3dcdd613	0.10050597
114	0x3cb6eced	0.022329772
115	0x3e4b22ac	0.19837445
116	0x3eaaed52	0.33384186
117	0xbe948028	-0.29004025
118	0x3d7a9b44	0.06118323
119	0xbd098994	-0.03357847
120	0xbdd1074c	-0.1020647
121	0x3cc79bb8	0.024366245
122	0xbe909bdb	-0.28243908
123	0xbe23973b	-0.15975659
124	0x3ccab7cf	0.02474585
125	0xbde7a4a8	-0.113107026
126	0x3e242a3f	0.1603174
127	0xbe1c0303	-0.15235524
128	0x3e815627	0.25261042
129	0x3e13a744	0.14419276
130	0xbe8a8ec7	-0.27062055
131	0xbda0225d	-0.07819054
132	0x3e2e0ae7	0.16996346
133	0x3e1da56d	0.15395136
134	0xbdaf18e7	-0.085496716
135	0xbd92ec13	-0.07173934
136	0xbd0616d2	-0.032736607
137	0x3e5f657c	0.21816057
138	0xbdda8920	-0.10670686
139	0x3eaa2086	0.33227938
140	0x3da2f8bc	0.079575986
141	0x3ee1614d	0.44019547
142	0xbdc4341c	-0.095802516
143	0x3d7067aa	0.05869261
144	0xbe1c9513	-0.15291242
145	0x3e66c3ec	0.22535676
146	0xbe8c0621	-0.27348426
147	0xbe8d90ee	-0.27649635
148	0x3d7b6ce4	0.061383143
149	0xbe2920aa	-0.16516367
150	0xbc9d7a2b	-0.019223293
151	0xbdadc27b	-0.0848436
152	0x3bac26ee	0.005253664
153	0x3e563808	0.20919812
154	0x3ea5edd7	0.3240802
155	0xbbb91692	-0.0056484425
156	0x3e2b3ec7	0.16723166
157	0x3de7ff7a	0.11328025
158	0x3e17735a	0.14790097
159	0x3de1451f	0.10999512
160	0xbe5f533d	-0.21809097
161	0x3e597c43	0.21238808
162	0xbdb88e76	-0.09011547
163	0x3e3f9ca7	0.18712102
164	0xbeab06dc	-0.3340367
165	0x3c41356f	0.011792525
166	0x3e6c0a57	0.2305082
167	0x3ecee9db	0.40412793
168	0x3e11110e	0.14166662
169	0xbe431f93	-0.19055013
170	0x3d8f1b9e	0.069876894
171	0x3e101cd3	0.14073496
172	0x3e156d91	0.14592578
173	0xbe228d48	-0.15874207
174	0xbdabe9fb	-0.083942376
175	0x3e59202f	0.21203683
176	0x3e2cac0f	0.1686251
177	0x3e252f31	0.16131283
178	0xbe8d26e7	-0.27568743
179	0xbe00574b	-0.125333
180	0x3e9cd8f7	0.3063428
181	0xbdf65f89	-0.12029941
182	0x3bc5eba9	0.006040056
183	0x3e66a12c	0.2252242
184	0xbe8627a1	-0.2620211
185	0x3e62cdeb	0.22148864
186	0x3e5b4c05	0.21415718
187	0xbd9fb8a7	-0.077988915
188	0x3d91fa25	0.071277894
189	0xbd1aa770	-0.037757337
190	0x3e159cf9	0.14610662
191	0x3e03cd9b	0.12871401
192	0xbe634fc1	-0.22198392
193	0x3c8ee356	0.017442387
194	0x3e1909b7	0.14945112
195	0xbde4f23f	-0.11179017
196	0xbe523fa6	-0.20532092
197	0xbd8d7e1f	-0.06908821
198	0xbe404a7e	-0.18778417
199	0xbe949bbd	-0.2902507
200	0x3e8546f8	0.26030707
201	0x3d8a5a5c	0.06755516
202	0xbdd42307	-0.103582434
203	0x3e36412b	0.17798297
204	0xbdd0c55f	-0.101938955
205	0xbe45eadd	-0.19327874
206	0x3e310ad6	0.1728929
207	0x3e06f0ed	0.13177843
208	0x3ea3545d	0.31900302
209	0x3d327391	0.043567244
210	0x3e961966	0.29316252
211	0xbe55ec09	-0.20890822
212	0x3e631a21	0.22177936
213	0x3e83d675	0.25749555
214	0x3d08a1a7	0.03335729
215	0xbea35053	-0.3189722
216	0xbdb96e3f	-0.09054231
217	0xbeab3b46	-0.3344366
218	0xbd90b373	-0.07065477
219	0x3de02f6e	0.109465465
220	0x3dd3dfe0	0.10345435
221	0x3d40ab76	0.047038518
222	0xbe0d6dea	-0.1381146
223	0xbe1e564d	-0.15462609
224	0xbe0697fc	-0.13143915
225	0x3df58c21	0.11989618
226	0x3c4a911d	0.012363699
227	0x3d49fd8f	0.049314078
228	0x3ce834ae	0.028345432
229	0xbe021355	-0.12702687
230	0xbe1210e2	-0.14264253
231	0x3e740a02	0.23831943
232	0x3e722767	0.23647843
233	0xbe2b4074	-0.16723806
234	0xbd97a6e1	-0.074048765
235	0xbcf97ab7	-0.030454023
236	0xbe94624b	-0.28981242
237	0xbe8bbf05	-0.27294174
238	0x3e2653bd	0.16242881
239	0xbde00458	-0.109383285
240	0x3e448e34	0.19194871
241	0x3e126992	0.14298084
242	0x3e7d1a95	0.24717171
243	0x3e2d4291	0.16919924
244	0xbe9a36eb	-0.30120024
245	0x3dea5ea5	0.11443833
246	0x3c8d5e7a	0.017256964
247	0x3e2c8e87	0.16851245
248	0xbe10e8e0	-0.14151335
249	0x3d1973a3	0.037463795
250	0x3dd4c84b	0.10389765
251	0xbd8e3032	-0.06942786
252	0x3d996444	0.07489827
253	0x3d4aed61	0.04954279
254	0xbd51edc7	-0.051252153
255	0xbea777b2	-0.32708508

bias f4 [400]
0	0xbc85d8bf	-0.016338704
1	0x3d7dda6e	0.06197589
2	0x3d90e970	0.07075775
3	0xbe99d081	-0.30041888
4	0xbe27df5b	-0.16393797
5	0xbe5a54ce	-0.21321413
6	0xbdf1b34f	-0.118017785
7	0xbe40b5e4	-0.18819386
8	0xbb7085f5	-0.0036700938
9	0xbe5a1863	-0.21298365
10	0xbe9318a1	-0.28729728
11	0xbe46bb26	-0.19407329
12	0xbe92166b	-0.2853273
13	0xbcbaa935	-0.022785762
14	0xbe3e8b45	-0.18607815
15	0xbeaf77d4	-0.3427111
16	0xbe2b842c	-0.16749638
17	0xbd94f1ce	-0.07272683
18	0xbdfe75cf	-0.12424814
19	0xbe7b9e7b	-0.24572174
20	0xbe16dab5	-0.14731868
21	0xbeb57ebf	-0.35448262
22	0xbd8b4d95	-0.06801907
23	0xbe1fdc8b	-0.15611474
24	0xbe6a2dde	-0.2286906
25	0xbe1912c7	-0.14948569
26	0xbe3ce48e	-0.18446562
27	0xbe18e15a	-0.14929715
28	0xbe23e32a	-0.16004625
29	0x3d27ec9f	0.040997144
30	0xbe787404	-0.24263006
31	0xbe7c290e	-0.24625036
32	0xbdcefecc	-0.101071924
33	0xbe73e4ca	-0.23817745
34	0xbe92d8ab	-0.2868093
35	0x3cd747bb	0.026279321
36	0x3d830476	0.06397335
37	0x3d17cdb2	0.0370614
38	0xbe22c7e1	-0.1589656
39	0xbdfd7898	-0.12376517
40	0xbdb51dd8	-0.08843583
41	0xbdfd62f6	-0.12372391
42	0xbe3e63b9	-0.18592729
43	0xbe93bdf5	-0.28855863
44	0xbe33e7b0	-0.1756885
45	0xbd504ca7	-0.05085435
46	0xbe849930	-0.25898123
47	0x3a49d339	0.0007699016
48	0xbe53f6cf	-0.20699619
49	0xbd007edd	-0.031370986
50	0xbe76474c	-0.24050635
51	0xbcf2a40c	-0.02961924
52	0xbd9c35e8	-0.07627469
53	0xbdba6e0e	-0.091030225
54	0xbe088116	-0.13330492
55	0xbe1ab9ae	-0.15109894
56	0xbec971db	-0.39344677
57	0xbdc1834d	-0.09448872
58	0xbe587f35	-0.21142276
59	0xbe3ffcc2	-0.18748763
60	0x3a322d22	0.00067968864
61	0xbc4a1030	-0.012332961
62	0xbea518e0	-0.3224554
63	0xbeac023f	-0.33595464
64	0xbe0f7db0	-0.1401279
65	0xbe43fda1	-0.1913972
66	0xbd018e31	-0.031629745
67	0xbd195146	-0.037431024
68	0xbe15a892	-0.14615086
69	0xbdeb6fe1	-0.114959486
70	0xbe6b8b31	-0.23002316
71	0x3bbaee40	0.005704671
72	0xbda443e5	-0.08020762
73	0x3e1200bb	0.14258091
74	0xbe54d87d	-0.20785709
75	0x3d87a4b3	0.06623211
76	0xbeb021fd	-0.3440093
77	0xbd69317d	-0.05693196
78	0xbe365d8d	-0.17809124
79	0xbded5214	-0.11587921
80	0xbd21a320	-0.03946221
81	0xbebc88e9	-0.36823204
82	0xbe0fce06	-0.14043435
83	0xbca7a571	-0.02046463
84	0xbd80622b	-0.06268724
85	0xbd41dd14	-0.047329977
86	0xbe5c174c	-0.21493262
87	0xbe6a8adb	-0.22904532
88	0xbe447a91	-0.1918738
89	0xbe56a4ff	-0.20961379
90	0xbdd3346b	-0.10312732
91	0xbe5548f2	-0.20828608
92	0xbd088176	-0.03332659
93	0xbd24e613	-0.04025848
94	0xbd898d8f	-0.06716453
95	0xbcdda51c	-0.02705627
96	0xbe0935c7	-0.1339942
97	0x3dad3e02	0.08459093
98	0xbea010ca	-0.3126281
99	0x3d1a1e70	0.037626684
100	0xbe2a2d17	-0.16618763
101	0xbe8773af	-0.26455447
102	0xbe499791	-0.19686724
103	0xbe9ab8fa	-0.3021925
104	0xbd864dbe	-0.06557797
105	0xbd8c7a33	-0.06859245
106	0xbe994236	-0.29933327
107	0xbdd9ec96	-0.10640828
108	0xbe39d4c2	-0.18147567
109	0xbdee1d49	-0.116266795
110	0xbdee4a50	-0.11635268
111	0xbe872090	-0.2639203
112	0xbe8abe31	-0.2709823
113	0xbe1b8f4a	-0.15191379
114	0xbe2d3e82	-0.16918376
115	0x3c9b5c52	0.01896492
116	0xbe9dc40d	-0.30813637
117	0x3e13949a	0.14412156
118	0xbe887cae	-0.26657623
119	0xbecac4b5	-0.396032
120	0xbe717802	-0.23580936
121	0xbddc80e7	-0.10766774
122	0xbe897eb8	-0.2685449
123	0x3d499845	0.04921748
124	0xbee0ea58	-0.4392879
125	0x3bc24586	0.005928698
126	0xbd252608	-0.040319473
127	0xbe23da0e	-0.1600115
128	0xbebd7ca6	-0.37009162
129	0xbd5f895a	-0.054574348
130	0xbe0a68b2	-0.135165
131	0xbe70fde3	-0.2353435
132	0xbd8dafac	-0.069182724
133	0xbdae8dc9	-0.08523137
134	0xbda83fd4	-0.08215299
135	0x3cae1f09	0.021255033
136	0xbe904535	-0.281778
137	0xbe377087	-0.1791402
138	0x3c8047c1	0.015659215
139	0xbe87ef0e	-0.26549572
140	0xbe511ad2	-0.20420387
141	0xbebb4c02	-0.36581427
142	0xbe8f38a8	-0.27972913
143	0xbe2828b0	-0.16421771
144	0xbe6e5f5e	-0.23278567
145	0xbe8e2f5b	-0.27770504
146	0x3cb73e9a	0.022368718
147	0xbe3c117c	-0.18366045
148	0xbdcf134b	-0.10111102
149	0xbe457726	-0.19283733
150	0xbeaacdc5	-0.33360115
151	0x3d5c7d99	0.053830717
152	0xbe20a13e	-0.15686509
153	0xbcb85314	-0.022500552
154	0xbeab3de2	-0.3344565
155	0xbdad86a4	-0.08472946
156	0x3b63078c	0.003464195
157	0xbdd11bb0	-0.10210359
158	0xbe1e14b7	-0.1543759
159	0xbe3e8b82	-0.18607906
160	0xbdb6171d	-0.08891127
161	0x3c00b417	0.007855437
162	0xbdc05842	-0.09391834
163	0xbdba2df8	-0.09090799
164	0xbe2f5674	-0.17122823
165	0xb9378204	-0.00017500675
166	0x3df3689e	0.118851885
167	0xbe2eb1a1	-0.17059948
168	0xbdbee31c	-0.093206614
169	0xbd040479	-0.032230828
170	0xbe8a75da	-0.2704304
171	0xbdcdbb3f	-0.1004548
172	0xbd0f2d6a	-0.03495542
173	0xbe65bbff	-0.22434996
174	0xbe3b6db5	-0.18303569
175	0xbd8180c3	-0.063233875
176	0xbda18dfc	-0.078884095
177	0xbe0df30d	-0.13862248
178	0xbe1effbc	-0.15527242
179	0x3cc76aed	0.024342978
180	0xbbdfa1b4	-0.0068246964
181	0xbe2c933c	-0.1685304
182	0x3e44bd1f	0.19212769
183	0xbe3ad53a	-0.18245402
184	0xbeae5c73	-0.34054908
185	0xbe3dbd7e	-0.18529317
186	0xbdc09f4d	-0.09405384
187	0xbe0f3125	-0.13983591
188	0xbe423820	-0.18966722
189	0xbec49836	-0.38397378
190	0xbea6aaf1	-0.32552293
191	0xbe247960	-0.16061926
192	0xbe36baa5	-0.17844637
193	0xbe262828	-0.16226256
194	0xbdd787cc	-0.10523948
195	0xbd868046	-0.06567435
196	0x3aafa18d	0.0013399586
197	0xbe837bc2	-0.25680357
198	0x3dcb8803	0.099380516
199	0xbe4e6063	-0.20153956
200	0xbe1314e0	-0.14363432
201	0xbe3daeaf	-0.18523668
202	0x3db69ea5	0.08916978
203	0xbe4dc69a	-0.20095292
204	0xbd8bdb6f	-0.06828963
205	0x3c967654	0.01836697
206	0x3ae9641c	0.0017806324
207	0xbd819031	-0.063263305
208	0xbe7240ad	-0.23657484
209	0xbe9073d4	-0.2821337
210	0xbea5e751	-0.32403043
211	0xbeceace0	-0.40366268
212	0xbe839144	-0.25696766
213	0xbe56fdeb	-0.209953
214	0xbe3ea55b	-0.18617766
215	0xbc2ca396	-0.010537049
216	0xbcd5f704	-0.026118763
217	0xbe45d4fc	-0.19319528
218	0xbd807540	-0.06272364
219	0xbe3665e4	-0.17812306
220	0xbe16e946	-0.14737424
221	0xbe4f718c	-0.20258158
222	0xbe893169	-0.2679551
223	0xbcd1dfa1	-0.02561933
224	0x3d920826	0.071304604
225	0xbe83e37b	-0.2575949
226	0x3e6bd7b7	0.23031507
227	0xbe32e6e0	-0.17470884
228	0xbd92e42d	-0.07172427
229	0xbed5a95a	-0.41730767
230	0xbe989c18	-0.2980659
231	0xbdf4988f	-0.11943161
232	0xbe1fb3d8	-0.15595949
233	0xbe260907	-0.16214381
234	0xbe3d612d	-0.18494101
235	0x3d941c41	0.072319515
236	0xbd2e091c	-0.042489156
237	0xbe9b074a	-0.30279
238	0xbe60b0ce	-0.21942446
239	0x3d8bfb57	0.06835049
240	0xbe04ba05	-0.12961586
241	0xbd1e685d	-0.038673747
242	0xbdbb0fc3	-0.09133866
243	0xbe228930	-0.15872645
244	0xbdbd9340	-0.09256601
245	0xbe77d148	-0.24200928
246	0xbe3f47e5	-0.1867977
247	0xbe83d331	-0.25747064
248	0xbd930f4e	-0.071806535
249	0xbea52394	-0.32253706
250	0xbda0f9cb	-0.07860144
251	0xbcfbeaf9	-0.030751692
252	0xbe81d964	-0.25361168
253	0xbe5fe07f	-0.21862982
254	0x3d6a83eb	0.057254713
255	0xbe8cfa4a	-0.27534705

weight f4 [100, 400]
0	0x3d5ac751	0.05341274
1	0x3d8245f2	0.06360997
2	0x3d848590	0.064707875
3	0x3da2f971	0.079577334
4	0x3e0a8689	0.13527884
5	0x3e365cf3	0.17808895
6	0x3e1af1bf	0.15131281
7	0x3d979185	0.074008025
8	0x3dc3c36f	0.095587604
9	0x3da35a50	0.0797621
10	0x3e5409cb	0.2070686
11	0x3e0fe840	0.1405344
12	0x3e42566c	0.1897828
13	0x3e580e96	0.21099314
14	0x3deb558e	0.11490928
15	0x3e483792	0.19552448
16	0x3e1f6630	0.15566325
17	0x3dff7514	0.12473503
18	0x3e5eb963	0.21750407
19	0x3dee8502	0.11646463
20	0x3e4a8427	0.19776975
21	0x3e5206f6	0.20510468
22	0x3e10bb36	0.14133915
23	0x3e5a8264	0.21338803
24	0x3e0fb764	0.14034802
25	0x3e5a8494	0.21339637
26	0x3da3408a	0.07971294
27	0x3dc93d8f	0.098261945
28	0x3e0e3457	0.13887154
29	0x3ded9b50	0.11601889
30	0x3e30f9da	0.17282811
31	0x3d7e6285	0.062105674
32	0x3d7be05d	0.061493266
33	0x3e5030df	0.20331143
34	0x3d93ad5a	0.072107986
35	0x3be55f21	0.0069998656
36	0x3dc87378	0.09787649
37	0x3d96c998	0.0736267
38	0x3dc0666f	0.09394538
39	0x3cbc37d2	0.022975836
40	0x3da32f6e	0.07968031
41	0x3de71e81	0.11285115
42	0x3d6e2ac5	0.058146257
43	0x3e0313ee	0.12800571
44	0x3ddbe8ed	0.107377864
45	0x3e067bcc	0.13133162
46	0x3c9dd61c	0.019267134
47	0x3ddbec98	0.10738486
48	0x3d5cf018	0.05393991
49	0x3e278f52	0.16363266
50	0x3df06f51	0.11739982
51	0x3d8c1443	0.06839802
52	0x3d25554d	0.040364552
53	0x3d89e499	0.06733055
54	0x3da6dfdf	0.08148169
55	0x3dd56f79	0.10421652
56	0x3e930d30	0.28721
57	0x3d5b232e	0.053500347
58	0x3dca3f4f	0.098753564
59	0x3dd67960	0.10472369
60	0x3e207a5b	0.15671675
61	0x3e36e706	0.17861566
62	0x3de59934	0.11210862
63	0x3e8fa4ca	0.28055412
64	0x3d8be11a	0.06830044
65	0x3d907cc7	0.070550494
66	0x3d31d895	0.04341944
67	0x3c893a6e	0.016751494
68	0x3d750877	0.059822526
69	0x3d2f3ee4	0.042784587
70	0x3e51827e	0.20459935
71	0x3dcfddb2	0.10149707
72	0x3e283acb	0.16428678
73	0x3e5bce08	0.21465313
74	0x3dfc0c16	0.12306993
75	0x3c009531	0.00784807
76	0x3d50eac5	0.051005144
77	0x3dfc8004	0.123291045
78	0x3daac7d0	0.083388925
79	0x3d895d9c	0.06707308
80	0x3f106d89	0.5641714
81	0x3e43097f	0.19046591
82	0x3e166746	0.14687833
83	0x3dd1d222	0.10245158
84	0x3d64d0a5	0.05586304
85	0x3ddb60b8	0.10711807
86	0x3df6c092	0.120484486
87	0x3d8dd94a	0.0692621
88	0x3dca6cd6	0.0988404
89	0x3dae279f	0.08503651
90	0x3e101f60	0.14074469
91	0x3d059ad6	0.032618366
92	0x3d6c6b8f	0.057719763
93	0x3dcb2cf5	0.09920684
94	0x3cda59d8	0.026654169
95	0x3d97ce8b	0.07412442
96	0x3e08dd4f	0.13365673
97	0x3d296025	0.041351456
98	0x3e5f1f14	0.21789199
99	0x3e0fd948	0.1404773
100	0x3d1dd310	0.038531363
101	0x3dbf1b60	0.09331393
102	0x3df5ad1b	0.11995908
103	0x3e1ea973	0.15494327
104	0x3d8f4d09	0.06997115
105	0x3e0e0718	0.13869894
106	0x3e1edeb9	0.1551465
107	0x3def9d48	0.11699921
108	0x3e02a5d4	0.12758571
109	0x3db0d373	0.08634081
110	0x3e13fe55	0.14452489
111	0x3dff3184	0.12460616
112	0x3e10f61f	0.14156388
113	0x3e174d89	0.14775671
114	0x3e5beadb	0.21476309
115	0x3df14765	0.117811956
116	0x3e23c829	0.15994324
117	0x3e7357e1	0.23763992
118	0x3e632ce5	0.22185095
119	0x3e892d7b	0.2679251
120	0x3db075d1	0.08616222
121	0x3e13b2f7	0.14423738
122	0x3dc7a268	0.097477734
123	0x3c9aa1f1	0.018876048
124	0x3eae57e8	0.34051442
125	0x3dc9ae1e	0.09847663
126	0x3d9f09a3	0.0776551
127	0x3df1ab6f	0.118002765
128	0x3e61b67e	0.22042271
129	0x3e4b8626	0.19875392
130	0x3da5a85c	0.080887526
131	0x3defe9a8	0.11714488
132	0x3e4652a4	0.19367462
133	0xba8afa84	-0.0010603224
134	0x3e045479	0.12922849
135	0x3ddeebfc	0.10884854
136	0x3e1418d3	0.14462595
137	0x3e4dc3c4	0.2009421
138	0x3d81f8d6	0.0634629
139	0x3c217990	0.009855643
140	0x3df8a2cd	0.12140427
141	0x3e36fe02	0.17870334
142	0x3e71fbd9	0.23631229
143	0x3d5e58b1	0.0542838
144	0x3e0fd0c6	0.14044484
145	0x3e17540f	0.1477816
146	0x3e15285c	0.14566177
147	0x3e37735c	0.179151
148	0x3db94bd1	0.09047664
149	0x3e0ab728	0.13546431
150	0x3e7b24e1	0.24525787
151	0xbae60c7d	-0.0017551329
152	0x3e268cd5	0.1626466
153	0x3c05c61d	0.00816491
154	0x3e291a6c	0.16513985
155	0x3da33b30	0.079702735
156	0x3dfea9c0	0.12434721
157	0x3e1a1999	0.15048827
158	0x3dc05b6a	0.09392436
159	0x3e04178c	0.12899607
160	0x3d65c07f	0.05609178
161	0x3d8ae6f2	0.067823306
162	0x3e37761b	0.17916147
163	0x3e08fc59	0.13377513
164	0x3e12c674	0.14333516
165	0x3e5dfc74	0.21678334
166	0x3df1a6f4	0.11799422
167	0x3ddc2ae6	0.1075037
168	0x3dba016d	0.09082303
169	0x3d897aa7	0.06712847
170	0x3e7ec462	0.24879602
171	0x3d8dcf49	0.06924302
172	0x3e51a8b0	0.20474505
173	0x3e254b06	0.161419
174	0x3d97e092	0.0741588
175	0x3ddfffab	0.10937437
176	0x3da24dec	0.07925019
177	0x3da069dd	0.07832692
178	0x3c07012f	0.008240028
179	0x3e3005d4	0.17189723
180	0x3ddb6a18	0.10713595
181	0x3e04002b	0.12890689
182	0x3ee3c72c	0.44487894
183	0x3e8415dc	0.25797927
184	0x3e065979	0.13120069
185	0xbcad0f60	-0.021125495
186	0x3e18f43e	0.14936921
187	0x3dcb7e89	0.09936244
188	0x3dd17378	0.10227102
189	0x3e5417bd	0.2071218
190	0x3df84b85	0.12123779
191	0x3e1e8a93	0.1548255
192	0x3d90f632	0.07078208
193	0x3c20a7fe	0.009805677
194	0x3da75315	0.081701435
195	0x3ee0aba8	0.43880963
196	0xbb6761a5	-0.0035306003
197	0x3db7b393	0.08969798
198	0xbc7f794e	-0.015592886
199	0x3d998e33	0.074978255
200	0x3e2f5912	0.17123821
201	0x3f043087	0.51636547
202	0xbc999f7c	-0.018752806
203	0x3e0fd600	0.14046478
204	0x3da4f791	0.08055032
205	0x3e055c19	0.13023414
206	0x3e11b2e1	0.14228393
207	0x3daaea40	0.08345461
208	0x3e8e55c2	0.27799803
209	0x3da2cf5b	0.07949706
210	0x3e27ab1c	0.16373867
211	0x3e173282	0.14765361
212	0x3e10f18e	0.14154646
213	0x3e254fa4	0.16143662
214	0x3d2be47c	0.041965947
215	0x3d271f75	0.040801484
216	0x3d2bd87d	0.041954506
217	0x3cd08443	0.025453692
218	0x3e5c3d61	0.21507789
219	0x3dd6319b	0.1045868
220	0x3d820f80	0.06350613
221	0x3e1726a1	0.1476083
222	0x3ded40c5	0.115846194
223	0x3d99609f	0.07489132
224	0x3dbfbaa0	0.09361768
225	0x3e17151c	0.14754146
226	0x3e48b1a7	0.19599019
227	0x3de2c84b	0.11073359
228	0x3dd8c2a1	0.105839975
229	0x3ebc99b8	0.36836028
230	0x3dbcd4b1	0.09220255
231	0x3dc1db0a	0.094656065
232	0x3e02449d	0.12721486
233	0x3dbade5f	0.09124445
234	0x3e3c0ceb	0.18364303
235	0x3e00aa2a	0.12564912
236	0x3e03cad4	0.12870342
237	0x3c45462c	0.012040656
238	0x3e5316b3	0.20614128
239	0x3da78107	0.08178907
240	0x3d772c07	0.060344722
241	0x3e44b47e	0.19209477
242	0x3eaada91	0.33369878
243	0x3e12595a	0.14291897
244	0x3d73c4d4	0.05951388
245	0x3dcb8735	0.09937898
246	0x3dfc99cd	0.12334023
247	0x3db22abd	0.08699558
248	0x3e8213c2	0.254057
249	0x3e2f4880	0.171175
250	0x3d6ea43f	0.058262106
251	0x3df722cb	0.12067183
252	0x3e636c37	0.2220925
253	0x3df2897c	0.11842629
254	0x3e2b1ac2	0.16709426
255	0x3e06c40f	0.13160728

bias f4 [100]
0	0x3d18c61a	0.0372983
1	0xbd913a82	-0.070912376
2	0x3b937755	0.0045003095
3	0xbd24d18f	-0.040238913
4	0x3de98e9f	0.11404156
5	0x3dd96441	0.10614825
6	0xbdb956c3	-0.090497516
7	0x3cee8557	0.029116316
8	0x3c989664	0.0186264
9	0xbc351ffa	-0.011054987
10	0x3d4fa758	0.0506967
11	0xbd880525	-0.06641606
12	0xbdcdf4e7	-0.10056477
13	0xbc136485	-0.008996134
14	0x3d20e401	0.03927994
15	0xbdd99e27	-0.10625868
16	0xbd9467aa	-0.07246335
17	0xbd74355a	-0.059621193
18	0xbd8abf7e	-0.067748055
19	0xbd381b2d	-0.04494779
20	0x3cfb8cef	0.03070685
21	0xbdcfaac7	-0.10139995
22	0xba8d9912	-0.0010803065
23	0xbd1a8921	-0.037728433
24	0xbdcb7c1b	-0.099357806
25	0xbd7d3e45	-0.061826963
26	0xbdfe6ab6	-0.12422697
27	0xbded1433	-0.11576118
28	0xbdacb8bc	-0.08433673
29	0x3e03c0bf	0.12866496
30	0x3d0aa97b	0.033853035
31	0xbddd686c	-0.108109325
32	0x3db3c467	0.08777695
33	0xbca2ddf2	-0.019881222
34	0xbcee64d0	-0.029100806
35	0x3d81aca6	0.06331758
36	0xbd4ef278	-0.050524205
37	0x3d15d44b	0.03657941
38	0x3d1c2bcc	0.038127705
39	0xbda4ada7	-0.08040934
40	0xbd83c49b	-0.06433984
41	0xbde0aaea	-0.10970099
42	0xbda466ae	-0.08027397
43	0xbcb9fbee	-0.022703137
44	0xbd85f15a	-0.06540175
45	0xbd4ea091	-0.050446097
46	0xbded8887	-0.11598306
47	0xbdfb02e0	-0.12256408
48	0xbd9e7c1f	-0.07738518
49	0x3e2e919d	0.17047735
50	0xbe196080	-0.14978218
51	0xbd3ccbea	-0.046092905
52	0xbd5fab0e	-0.05460649
53	0x3d014d04	0.03156759
54	0x3d3604cc	0.04443817
55	0xbd32dff2	-0.043670602
56	0xbd895948	-0.06706482
57	0x3c516486	0.012780314
58	0x3cde3729	0.027125912
59	0x39a1dc46	0.0003087243
60	0x3c86a09f	0.016434012
61	0xbdca784b	-0.09886225
62	0xbd5fa5ed	-0.0546016
63	0x3e440453	0.19142275
64	0xbd017baf	-0.031612094
65	0xbd3da4e3	-0.046299826
66	0xbd392291	-0.04519898
67	0xbd7b64ef	-0.061375555
68	0xbdb1b630	-0.08677328
69	0x3cc866a8	0.024463013
70	0xbd76d7d4	-0.060264423
71	0x3cca0094	0.024658479
72	0xbdab5d4d	-0.08367405
73	0xbd59b2f9	-0.053149197
74	0xbdf62b6f	-0.12020003
75	0xbc4cd5c1	-0.012502135
76	0xbd9d9bd8	-0.076957405
77	0xbd5d8b68	-0.054088026
78	0xbdfbcf34	-0.1229538
79	0xbd51ae03	-0.05119134
80	0x3d1b773e	0.037955515
81	0xbdb8ea7c	-0.09029099
82	0xbd667125	-0.056260247
83	0xbc9621ba	-0.018326629
84	0x3d925034	0.07144204
85	0xbe01c000	-0.12670898
86	0x3d9d2b59	0.076742835
87	0xbcfbc922	-0.030735556
88	0xbb89519a	-0.004190636
89	0xbd924b43	-0.07143261
90	0x3c3e60bf	0.011619746
91	0x3d97ad6b	0.07406124
92	0xbc645927	-0.013937271
93	0xbc80e3d4	-0.015733637
94	0x3dc5c0f5	0.09655944
95	0x3c9f6fd9	0.019462513
96	0x3d12ac07	0.03580859
97	0xbd97add3	-0.07406201
98	0xbdaf72bd	-0.085668065
99	0xbd650de7	-0.05592146

weight f4 [1, 100]
0	0xbe4c18c2	-0.1993132
1	0xbd8cc2c8	-0.06873089
2	0xbe6ae976	-0.22940621
3	0xbe27f05c	-0.16400284
4	0xbe4399e3	-0.19101672
5	0xbe312535	-0.1729935
6	0x3c908c54	0.017645039
7	0xbd93ae03	-0.072109245
8	0xbd8248e6	-0.063615605
9	0xbc87cf93	-0.016578471
10	0xbd754b8a	-0.059886493
11	0x3d4833a1	0.048877362
12	0xbd0f1040	-0.034927607
13	0xbe067a5f	-0.13132618
14	0xbdf83fa4	-0.121215135
15	0xbdb13beb	-0.086540066
16	0x3d3581a2	0.04431308
17	0xbcdaef8d	-0.026725555
18	0xbd1248f3	-0.0357141
19	0xbc5d38f2	-0.013502346
20	0xbea3b1c0	-0.3197155
21	0x3cf0a934	0.029377557
22	0xbca51007	-0.020149244
23	0xbcf3c14d	-0.029755259
24	0x3d10d56c	0.035359785
25	0xbe38e353	-0.18055467
26	0xbd822aaf	-0.063557975
27	0xbd37fd57	-0.044919338
28	0xbbc805b3	-0.006104195
29	0xbe2d3647	-0.16915236
30	0xbe9075a0	-0.2821474
31	0xbcd72119	-0.0262609
32	0xbe2b81cb	-0.16748731
33	0xbd6f068a	-0.058355846
34	0xbdb83afd	-0.08995626
35	0xbcf4d862	-0.029888336
36	0x3d109510	0.035298407
37	0xbe39b21d	-0.18134351
38	0xbd258a34	-0.040415004
39	0x3d5fd929	0.05465046
40	0xbd7ad3e3	-0.061237227
41	0xbbfbfe0d	-0.0076901973
42	0x3d301ec5	0.042998094
43	0xbd785fbe	-0.060638182
44	0xbc34732b	-0.011013786
45	0xbd54aa45	-0.051920194
46	0x3d5bfe24	0.053709164
47	0xbcbb780d	-0.022884393
48	0xbce1dd10	-0.027571231
49	0xbe003811	-0.12521388
50	0xbc97a60e	-0.018511798
51	0x3d16e0c1	0.036835436
52	0xbd1462a2	-0.036226876
53	0xbcfaadc6	-0.03060044
54	0xbe032277	-0.12806116
55	0x3c7c9fcf	0.015418961
56	0xbcb78779	-0.022403466
57	0xbe5b343d	-0.21406646
58	0xbd960114	-0.073244244
59	0xbdcc9caa	-0.09990819
60	0xbd008fe2	-0.031387217
61	0xbc46d953	-0.012136775
62	0x3cdd8db0	0.0270451
63	0xbe1618bf	-0.14657877
64	0xbdda43e1	-0.10657478
65	0xbd9218ad	-0.07133613
66	0xbbd2e08b	-0.006435459
67	0x3c5c8332	0.013459014
68	0x3c46bebb	0.012130435
69	0xbeb4f0de	-0.35340017
70	0x3c7a9650	0.015294626
71	0xbd3a7fe8	-0.045532137
72	0x3d335189	0.04377893
73	0xbd20830b	-0.039187472
74	0xbd651e3a	-0.05593703
75	0x3d5b5e62	0.053556807
76	0xbdaf2075	-0.085511126
77	0x3d1ee84a	0.038795747
78	0x3d55d720	0.052207112
79	0xbcfe4854	-0.031040348
80	0xbda8f158	-0.08249158
81	0xbbb14147	-0.005409393
82	0x3c773f52	0.01509078
83	0x3d0a624a	0.033785142
84	0xbe662489	-0.22474875
85	0xbbeacadc	-0.007165296
86	0xbc5d7cfd	-0.013518569
87	0xbd1146af	-0.0354678
88	0xbd818f5e	-0.06326173
89	0x3cb0707d	0.021538014
90	0xbd8661d2	-0.065616265
91	0x393497b6	0.00017222654
92	0xbd4d0fde	-0.05006396
93	0x3d1a98f2	0.037743516
94	0xbe787ae2	-0.24265626
95	0xbe505a4b	-0.20346944
96	0xbd1ede08	-0.038785964
97	0x3d5b3e69	0.053526316
98	0x3d4fd090	0.05073601
99	0xbcb56d19	-0.022146748
