Gibbs_MINE/pw_res/model_lk_b=10_s=0.5_p=8.pth (torch, 177815 bytes, 5 tensors)

weight f4 [400, 8]
000000 b1 fd dd bd ae 65 46 3e 68 e0 9e 3e cc ed 5a be
       -0.108394034 0.19374725 0.31030583 -0.21379775
000010 70 12 85 3e 13 17 9f 3e bf bb 4b bd 84 af 65 be
       0.2599063 0.31072292 -0.049739596 -0.22430235
000020 1d e5 08 bf 50 af 0e be 22 c0 85 3d 37 70 71 bd
       -0.534746 -0.13934064 0.06530787 -0.058944907
000030 28 5e 0d 3e 0b 56 51 3e 5f ca f0 bd 78 e3 a3 bd
       0.13805449 0.20442979 -0.11757349 -0.080023706
000040 0b 3e ac 3e f0 32 0b 3e 28 0c a5 be 5b c3 70 be
       0.33641085 0.1359365 -0.32235837 -0.23512022
000050 4d 94 88 3e 47 86 9b be 21 08 ae bd 9d 3b 93 3e
       0.26675645 -0.30375883 -0.08497644 0.2875642
000060 7f 8e 7c be 94 64 50 3e 81 7d d6 3e 7b c4 89 be
       -0.24663733 0.20350868 0.41892627 -0.26907715
000070 c8 fb 88 3d c6 cc d4 bc 06 3b bd 3e 89 3a 10 3e
       0.066886485 -0.02597655 0.36959094 0.1408483
000080 b9 51 9b 3e 31 9b 27 3e 7f cf 85 3e 0e 3c fa bd
       0.30335787 0.16367795 0.2613487 -0.12218486
000090 36 b2 08 3d f5 88 c0 bd 9b d7 8f be 80 a8 81 be
       0.03337308 -0.094011225 -0.2809418 -0.25323868
0000a0 bb a0 62 3e 09 73 3a 3e bd 4d 56 be 37 23 bf 3c
       0.22131626 0.18207945 -0.20928092 0.023332221
0000b0 bb e5 8c be 7f 5f b8 be 72 92 bc 3e 0f 98 8f be
       -0.2751902 -0.36010358 0.3683048 -0.280457
0000c0 36 5c c1 bd d6 90 28 3e 0c ce da 3e cc 1c 02 3d
       -0.09441416 0.164615 0.42735326 0.031765744
0000d0 82 ce 64 bd 81 74 98 3e de ab 33 3e af 14 a3 3c
       -0.055861004 0.29776385 0.17546031 0.019907324
0000e0 da a0 4b 3e b9 26 c3 bd 0a 8c ee be 6b cb 84 be
       0.19885579 -0.0952887 -0.46591216 -0.25936446
0000f0 1b e1 99 3e f9 d4 ee bd e9 4d 0f be 69 49 84 bd
       0.30054554 -0.11661715 -0.13994564 -0.064593144
000100 ed 29 54 3e de 30 35 be 04 88 5d 3e d1 fb cf bd
       0.20719118 -0.17694423 0.21633917 -0.10155452
000110 40 7c e7 ba 32 f1 ce bd 09 a8 21 3e a1 33 3c bd
       -0.0017660931 -0.10104598 0.15786757 -0.045947675
000120 35 8e 74 3e 7c 31 88 3e c7 bc 48 be 76 33 1e 3e
       0.23882373 0.26600254 -0.19603263 0.15449318
000130 9a 1c 4b 3e 3c f7 3f be d3 8f 1a 3e 2a 7e 79 be
       0.1983513 -0.18746656 0.15093927 -0.24364534
000140 e6 29 aa 3e b8 61 50 3d 09 85 7c be 5d f7 46 be
       0.3323509 0.05087444 -0.24660124 -0.19430299
000150 fe e0 de be a3 d0 77 bc c1 ff 85 3e 67 26 66 3e
       -0.4353103 -0.015125426 0.26171687 0.22475587
000160 51 d8 8b 3e 21 2f 90 3e 65 a2 8d 3d 78 86 89 be
       0.27313474 0.28160957 0.0691574 -0.26860404
000170 c5 b1 9a 3d f4 0c de bc 56 61 d4 bd 91 19 3a 3d
       0.07553438 -0.027105786 -0.10370128 0.04543454
000180 52 cb 4e be c8 23 0c 3e ac 0e 34 3e 3a 59 b6 bd
       -0.20194748 0.13685524 0.17583722 -0.08903737
000190 8a bb 24 be 83 ad 58 be 62 aa 20 3e fe 1e e8 be
       -0.16087165 -0.2115994 0.15689996 -0.45336145
0001a0 51 6d 74 3d 56 72 17 3e 2b 5f 83 be 23 d5 94 be
       0.059674565 0.1478971 -0.25658545 -0.2906886
0001b0 a0 76 14 3e 32 c3 9a 3e 54 de af 3e 3d f7 2a be
       0.14498377 0.30227047 0.3434931 -0.16695876
0001c0 c1 67 9d 3e aa 8c 16 3d 91 b8 98 3d 47 33 65 3e
       0.3074322 0.03675524 0.07457078 0.22382842
0001d0 d9 3b 84 3e d9 b3 4b be d2 22 1e be 19 c7 80 be
       0.2582691 -0.19892825 -0.1544297 -0.251519
0001e0 7a 96 c2 3c 09 2a 4e 3d 0a d6 ac be 60 4e ab be
       0.023753393 0.050333057 -0.3375705 -0.33458233
0001f0 af 55 46 bd b4 64 9b be 01 ae 8a 3d c2 38 fa be
       -0.048421558 -0.30350268 0.0677147 -0.48871428
000200 d4 c0 09 3e 5e 53 55 3e 09 0d be be 2c 39 0f be
       0.13452464 0.20832583 -0.3711932 -0.13986653
000210 11 80 86 3d dd e0 18 3d 58 ed 0b be d3 16 69 bd
       0.065673955 0.03732382 -0.13664758 -0.056906532
000220 e0 03 00 be f8 3a 69 3e af 01 a5 be 67 ec 6c 3e
       -0.12501478 0.22776401 -0.32227847 0.23137055
000230 44 b7 9a 3d ed 6b b9 3e a3 49 95 be 72 36 83 bc
       0.075544864 0.36215153 -0.29157743 -0.016017172
000240 1c c4 a4 be 7c c9 74 3e 51 9d 9c be 6d 1d 93 be
       -0.3218087 0.23904985 -0.30588773 -0.28733388
000250 5b d4 bb 3d 8e 35 85 3d 72 cd 16 3d b5 5a 48 be
       0.09171363 0.06504355 0.03681702 -0.19565852
000260 81 5f 83 be b1 f3 65 3e 5b 43 00 3f f0 15 46 3e
       -0.256588 0.22456242 0.50102776 0.19344306
000270 18 06 b1 3e 7e e7 06 3e 8c dc 27 3e 9c 09 06 3e
       0.34574962 0.13174245 0.16392726 0.13089603
000280 35 2b 1a be d6 3e 6f 3e fb 3a f6 3d 3e 3f 8b 3e
       -0.15055545 0.23363814 0.120229684 0.27196687
000290 1b 3c 1f be 72 79 04 3d eb 32 ff 3d 41 c4 54 3e
       -0.15550272 0.03234238 0.12460884 0.2077799
0002a0 d3 32 3b 3e 11 d1 75 be 07 86 5e 3e 78 e3 20 3e
       0.18281107 -0.24005534 0.21730815 0.15711772
0002b0 c9 8c 1d 3e ed 6f 49 be 76 d1 8c bb 6b ca 8b 3e
       0.15385737 -0.19671603 -0.0042974306 0.2730287
0002c0 23 c5 a2 3d 5f 9f f4 bc 4c 77 af be 1d f8 6d be
       0.07947757 -0.02986115 -0.34270704 -0.23239179
0002d0 54 6f 9e 3e 2d 2c de bd 00 e3 f4 bd f4 09 5d 3e
       0.30944312 -0.108482696 -0.11957359 0.21585828
0002e0 00 9b be be 69 18 96 3e 3f 8c cc 3e 68 c5 b4 bd
       -0.3722763 0.29315498 0.3995075 -0.08826715
0002f0 13 bd b1 3c a4 eb 99 3d 9f 48 ba 3e a2 9f 8c 3d
       0.021696603 0.07515648 0.3638353 0.06866385
000300 24 c5 dd be 1f 7e 91 bb 71 66 4c 3e 19 79 3d be
       -0.4331447 -0.0044400836 0.19960953 -0.18503226
000310 b7 b7 ef bc 1d 3c 90 bb f7 93 83 bd c0 f2 b3 be
       -0.029262407 -0.0044016973 -0.064247064 -0.3514614
000320 55 64 f1 3d 29 f7 be 3d 62 c7 6d 3c fc e0 9e 3e
       0.11786715 0.09324486 0.014512869 0.31031024
000330 c9 3f 89 be 33 19 0b be f2 d9 4d 3e fd 0d 75 3e
       -0.26806477 -0.13583831 0.20102671 0.23931117
000340 64 07 64 3e 49 ec e8 3d ef 2b 01 3e c2 4d 0d be
       0.22268444 0.11373193 0.12614416 -0.13799194
000350 a2 88 25 3e dd 5d ab 3e dc 20 ab bb 28 3f 45 be
       0.16165403 0.3347005 -0.005222423 -0.19262373
000360 50 b7 96 be 84 7a 9b be 8a fa 01 be 2d 80 d2 3c
       -0.2943673 -0.3036691 -0.1269323 0.025695885
000370 a0 4c 72 bb 16 31 35 3d ad 46 5b be 5e 27 3d be
       -0.0036971942 0.044236265 -0.2141368 -0.18472049
000380 b0 92 1b be 95 e2 ac 3e d5 4e 83 3e eb 57 8e 3e
       -0.15192676 0.33766618 0.25646082 0.2780145
000390 9a fb e1 3c 52 d1 b1 bd c0 f4 59 be 8f b1 78 3e
       0.027585793 -0.08682503 -0.21284771 0.24286483
0003a0 fd 23 82 3e 6f 94 22 be 00 41 a5 bd 5c c5 4b be
       0.25418082 -0.15876935 -0.080690384 -0.19899505
0003b0 e5 8c c6 be 55 60 9b be d8 95 9c 3e dd 40 61 be
       -0.3877937 -0.30346933 0.30583072 -0.219974
0003c0 cb f5 59 3e fa 09 37 3e d3 f0 20 3e 9c f0 90 3e
       0.21285169 0.178749 0.15716867 0.2830857
0003d0 92 b4 2a be ca 9e 60 be 34 55 2e be 52 5d e8 3d
       -0.16670445 -0.21935573 -0.1702469 0.113459244
0003e0 5b 3e b5 be 99 7c bf 3d b1 ee c4 3d 6d e9 ca bd
       -0.35399136 0.09349937 0.09615839 -0.09907804
0003f0 89 38 5b 3e a5 a1 92 3d aa 4c 00 be 50 fc a5 be
       0.21408285 0.071597375 -0.12529245 -0.32419062

bias f4 [400]
000000 a1 7d 32 bd 8f 40 e5 3c 73 9e 97 be 00 87 19 3e
       -0.04357684 0.027984885 -0.29613075 0.14992905
000010 3e d7 cf 3e d9 2a 26 be b1 e9 a9 bd 67 c3 51 be
       0.40593904 -0.16227283 -0.08296526 -0.20484696
000020 c4 2d 8b 3e 10 16 c0 3e a5 c7 d8 bd 19 30 7d 3e
       0.27183354 0.37516832 -0.10584954 0.24725379
000030 ab 9c 76 bd 18 16 b4 be 72 42 8c 3e 2e a6 79 bd
       -0.060208004 -0.35173106 0.27394444 -0.060949497
000040 39 e5 a1 bb d6 52 9b be ca 75 3b be 8e 65 6d be
       -0.0049406555 -0.30336636 -0.18306652 -0.23183271
000050 13 36 32 be 9e 99 b8 be f0 2f 46 be 7d 75 24 be
       -0.1740344 -0.360547 -0.19354224 -0.16060443
000060 c7 b8 50 be 97 a3 bc 3e 9b 4f 9a 3e e7 b1 f7 3d
       -0.20382987 0.3684356 0.3013886 0.12094479
000070 69 9c 27 3d 4a 84 79 be c1 60 e0 3d 96 55 4c bd
       0.04092065 -0.2436687 0.10955954 -0.04988631
000080 9e 06 92 be 11 d1 d6 be 9e a3 c7 be af cf 83 bd
       -0.28520674 -0.4195638 -0.38992018 -0.06436097
000090 bd 29 91 3d db 64 81 3e b0 d7 0b 3d 99 98 1d be
       0.07088039 0.2527226 0.034141243 -0.15390243
0000a0 59 6d b7 be 36 a0 a9 3e 80 86 3e 3d 34 ff 7e be
       -0.35825613 0.33130044 0.046514988 -0.2490204
0000b0 f3 1a 86 3c 8c c8 3c 3e 09 2f 91 be a0 f9 8b 3d
       0.016370272 0.18435878 -0.28356197 0.068347216
0000c0 35 7e 63 3e c2 31 cf 3e a0 b4 81 bd eb f7 5c bd
       0.22216113 0.4046765 -0.063332796 -0.05394737
0000d0 65 e2 80 bd 0e 87 2f 3d df 9f 04 3e e1 25 dd be
       -0.06293181 0.042853408 0.12951611 -0.43192962
0000e0 ad 97 82 3e da 6f 9f 3d 33 00 ec be 58 ba a1 be
       0.25506344 0.07785006 -0.46093902 -0.31587481
0000f0 b9 57 63 3d 9c 7a 81 3e 53 41 b9 3e 49 7c f4 bd
       0.05550358 0.25288856 0.3618265 -0.11937768
000100 53 6e 7f be 39 6b af be d7 f4 96 3d e6 d0 c6 3d
       -0.24944429 -0.34261492 0.07370918 0.09707813
000110 53 e0 6b be 67 06 5d 3e 80 02 bb be 84 f2 84 3e
       -0.23034792 0.21584474 -0.36525345 0.25966275
000120 95 fe 4d bd 61 14 aa 3e 33 84 b2 be 55 da 7d 3e
       -0.050291616 0.33218673 -0.34866485 0.24790318
000130 4d a6 bc 3d a3 8b 61 3e cf bb 65 3e dd 43 fd 3d
       0.09211407 0.22025923 0.22434925 0.123664595
000140 4c ff e6 bd 93 e4 9a 3d e5 23 12 bf a3 26 88 3e
       -0.11279163 0.07563128 -0.5708602 0.26591977
000150 e1 5c 57 be 4c 2d a5 3e fb 4f 48 bd 9e c5 87 3e
       -0.21031524 0.3226112 -0.0489044 0.26517957
000160 f1 d0 b0 be af a1 8c 3d 36 22 cf 3d e1 9e 95 be
       -0.3453441 0.06866776 0.10113947 -0.29222777
000170 20 e4 59 bd 19 1c b6 3e d5 6a 17 3e 2f 15 59 3e
       -0.053196073 0.35568312 0.14786847 0.21199487
000180 3d e8 a2 be 72 ab 2e bd 3b 6c 1e be 01 62 74 3e
       -0.3181781 -0.04264397 -0.15470974 0.2386551
000190 80 ec 86 3e 7c 39 a9 3c 9e fb 9a be 02 d8 96 be
       0.2635231 0.020657293 -0.30270094 -0.29461676
0001a0 a5 ee 68 be cc 69 2a 3e f4 4e cf be f9 09 3e 3d
       -0.22747286 0.16641921 -0.40489924 0.04639623
0001b0 8d 8b 45 be f3 36 5c 3e 30 f7 c5 3d b9 42 46 bd
       -0.19291516 0.21505336 0.09666288 -0.048403475
0001c0 52 87 cc bc 78 20 02 3e d7 af 4b 3e 6b 72 cd 3e
       -0.02496687 0.12707698 0.19891296 0.40126356
0001d0 dc 1b 98 3c b6 72 a7 be ea 65 98 3d 63 1b 0f bd
       0.018567972 -0.32704705 0.074413136 -0.034938227
0001e0 70 c7 76 3e 8b 24 bb bc 25 76 cb 3e 55 37 5b 3e
       0.24099517 -0.022844573 0.39738575 0.21407826
0001f0 92 41 aa bd 88 d0 b0 bd 30 32 cb bd 21 ce 4b 3d
       -0.08313288 -0.08633524 -0.09921682 0.049757127
000200 b1 b4 ba 3e 26 14 ae be 6e f6 f4 bd fe 98 38 be
       0.36465982 -0.33999747 -0.11961065 -0.18027112
000210 aa f8 0e be 02 d0 ac be 2e ff 0e 3e 42 e0 31 bc
       -0.13962045 -0.33752447 0.13964531 -0.01085669
000220 d0 ef a3 be b5 6a 8e be 05 e3 26 3e 0d e0 a7 3d
       -0.320189 -0.27815786 0.16297539 0.08197031
000230 42 83 b1 be b9 c2 fd bd a8 d8 89 be 3b 13 8f be
       -0.34670454 -0.12390656 -0.26923108 -0.2794436
000240 3e 1e e7 bd 6f 43 f1 be 66 d1 ee be 30 a5 81 be
       -0.11285065 -0.4712176 -0.46644133 -0.2532134
000250 c6 71 a5 bd b8 cf 0a 3b 93 4c 9d 3b c9 40 42 bd
       -0.08078341 0.002118094 0.004800388 -0.047425065
000260 9b 48 89 3e 19 f4 ea bd 29 54 c9 3a c7 b9 c8 3d
       0.26813206 -0.11472339 0.0015360165 0.09801059
000270 36 85 1b 3e bc 9f fa bd 6f 17 a1 be 3b a1 1a 3e
       0.15187535 -0.12237498 -0.3146319 0.15100567
000280 7e 64 97 3e fb 14 e0 3d bf 77 f9 be d9 dc 82 be
       0.29568857 0.10941502 -0.48724172 -0.25559118
000290 93 24 e1 3c d5 78 81 be 86 66 ac 3e ac d7 a4 3e
       0.02748326 -0.252875 0.3367197 0.32195795
0002a0 71 2c 8f be 0f 3c b0 be de af aa be d7 2d b0 3e
       -0.27963594 -0.3442082 -0.333373 0.34409973
0002b0 c2 09 88 be 6c 76 6c 3e 70 a1 5e be cd 1e 99 be
       -0.26569945 0.2309205 -0.21741271 -0.29906312
0002c0 fc d3 c3 be ee dd 85 bd a0 c4 fc 3d 7c 67 55 3e
       -0.3824767 -0.0653647 0.12342191 0.20840257
0002d0 75 72 82 3d ce d0 c6 bd 10 11 38 be 14 ab 9b be
       0.06369487 -0.09707795 -0.17975259 -0.3040396
0002e0 6e 08 e3 bd fc 9b 63 be fd 35 46 3e 5c 0c 4a be
       -0.11085592 -0.22227472 0.19356532 -0.19731277
0002f0 6a d7 6a 3d 41 18 b3 3e 2f 0b 36 be 04 ba 58 3e
       0.05733434 0.34979442 -0.17777704 0.2116471
000300 74 7f 8c be bd 56 8b 3d 79 0c 25 be 7f 1d f0 bd
       -0.2744099 0.068036534 -0.16118039 -0.11724376
000310 2c f4 88 3e bf f4 79 be da 39 80 bc 44 9d b9 be
       0.26748788 -0.2440977 -0.015652586 -0.36252797
000320 70 c3 d9 be e2 dd 98 be b1 55 a5 3e 53 41 52 be
       -0.4253192 -0.29856783 0.3229194 -0.20532732
000330 55 61 f7 3c fd 2e e0 be b3 1c 00 bf 50 c1 77 3e
       0.030197779 -0.4378585 -0.5004379 0.24194837
000340 f0 b3 7d be 99 fe 2a 3e bd 44 78 3e 33 d7 79 3e
       -0.24775672 0.16698684 0.24244972 0.24398498
000350 aa ad b1 3d 7d 16 12 3e b2 db 7c be af fa 16 3e
       0.08675702 0.14266391 -0.24693182 0.14744066
000360 ed e0 12 be c6 83 76 3d 59 d6 6e bd 17 32 81 3e
       -0.14343615 0.060184263 -0.058309887 0.25233528
000370 a7 64 af be 9e 85 ba 3d 96 01 9e be d6 c1 0b be
       -0.3425648 0.09107517 -0.30860585 -0.13648161
000380 81 e0 03 3e ae 9f 66 be 0f 2c a8 be 61 16 64 be
       0.1287861 -0.2252185 -0.32846114 -0.22274162
000390 d9 0b a1 be 3e a7 16 be 0e e1 af be 86 0d d6 bd
       -0.31454352 -0.14712235 -0.3435139 -0.10451798
0003a0 c1 5d 83 3e d2 fe 4b 3e 75 b9 94 be 11 69 d9 bd
       0.25657466 0.19921425 -0.29047742 -0.10615743
0003b0 e0 e7 d8 3d fe 48 e9 3e 74 1e bf 3d 7c 6b c8 ba
       0.10591102 0.455635 0.0933198 -0.0015290822
0003c0 85 41 4b be 6b e6 6f be 36 ef 86 be 7d ae 16 be
       -0.19849212 -0.23427741 -0.26354378 -0.14715
0003d0 53 ee a5 3e 66 36 9c 3e 10 c2 3d bd 84 16 57 3e
       0.3240839 0.30510253 -0.04632765 0.21004683
0003e0 66 c7 72 3c 27 f5 bb be d7 d9 40 3d 08 f4 6d be
       0.014818048 -0.36710474 0.04708275 -0.23237622
0003f0 fc b7 03 3d e4 a5 0d 3e 7a a7 84 bd e2 b1 d7 3e
       0.032157883 0.13832814 -0.06477256 0.421279

weight f4 [100, 400]
000000 6a 1c 2f bd fc 22 95 3b 22 a0 bc 3d 5a ee c4 bc
       -0.042751707 0.0045512896 0.092102304 -0.024039436
000010 c0 c3 01 3d 28 33 aa 3d f5 8b bc bd 09 37 3f 3d
       0.031680822 0.083105385 -0.09206382 0.046683345
000020 a5 9e 05 bd f8 ed b8 3c df 1d d2 3c dc 29 54 bd
       -0.032622 0.02257441 0.02564901 -0.051797733
000030 ee 1a 79 3c 73 27 0c bd 9a 8e d5 bb ff 58 4d 3e
       0.015204174 -0.03421731 -0.0065172436 0.2005348
000040 82 ce e8 bc f2 e6 80 bd 77 f6 df 3d 10 44 21 3d
       -0.028418783 -0.06294049 0.10935681 0.03937155
000050 7f f2 46 be 5b 9f 77 bd 58 c9 84 3d ba 3f 07 3d
       -0.19428442 -0.060454708 0.06483716 0.03301976
000060 dd 4b d1 3d fc c1 ac bd c1 f1 18 be 6c fb 39 3b
       0.10219548 -0.08435437 -0.14935972 0.002837862
000070 4b 8f 2c bd 1f d1 a1 3d 3e ed 79 bd e6 9a 0e 3e
       -0.042128842 0.07901215 -0.061017267 0.13926277
000080 7f f6 53 3d e8 69 b2 bb 08 a3 13 3d 3b d1 18 bd
       0.05174875 -0.005444754 0.03604415 -0.037308913
000090 40 9e f6 bd 35 85 21 be 94 13 91 bd d6 82 f2 3d
       -0.120419025 -0.1577347 -0.07083812 0.11841361
0000a0 9f 2a 4e 3d ce 1c 2d bd 57 8d 0a bd e6 8d fa bd
       0.050333615 -0.0422638 -0.0338262 -0.12234096
0000b0 38 77 f8 ba 69 64 d8 bd 79 da c8 3d d1 33 0e 3e
       -0.0018956428 -0.10566027 0.09807295 0.13886954
0000c0 63 0d fd 3a 1b 1c c4 3d 7f a2 60 3d 6c 06 7c 3d
       0.0019306358 0.09575673 0.05484247 0.061529562
0000d0 db 05 26 3e 29 9c 3b 3c b8 d8 84 bd 0a f0 14 3e
       0.16213171 0.011450806 -0.06486648 0.14544693
0000e0 da 32 44 3d e2 c1 30 bd 8d 83 ad bc 27 fc 56 bd
       0.04790006 -0.04315365 -0.021180892 -0.052486565
0000f0 9b 11 08 be 82 a4 5c 3c 19 4c 16 bc 81 78 a8 bd
       -0.13287966 0.013466956 -0.0091734165 -0.08226109
000100 ef 78 87 3d 4f fc ed bd 81 e6 31 bd 32 3e 97 bd
       0.06614863 -0.1162039 -0.043432716 -0.0738491
000110 ec 3d 00 bc 8f 50 5a bd 17 c8 f4 3d ed b1 92 bd
       -0.007827263 -0.053299483 0.119522266 -0.07162843
000120 21 dd 13 be fc 48 0d bc 53 52 32 be c4 b4 58 3d
       -0.14439823 -0.008623358 -0.17414217 0.052906767
000130 b3 e1 1c bd c9 c3 8a bd 07 47 74 bc 1b f0 38 3e
       -0.03830118 -0.06775624 -0.014909512 0.18060343
000140 bb 69 df bd be 50 87 3b 20 6e e4 3d 7f a3 1b 3e
       -0.10908838 0.0041294983 0.11153817 0.15199088
000150 a0 78 4a bd 8f 4f 92 bc 0b a4 05 bd de da 8c 3c
       -0.049431443 -0.017860202 -0.032627147 0.017194208
000160 50 99 ff 3c 66 e3 14 be 9c 97 72 3d e2 b6 1f be
       0.031201035 -0.1453987 0.059226617 -0.15597108
000170 b1 3a 10 3c b9 1a 01 3d d8 88 42 be 0b be ad 3c
       0.008803056 0.031519625 -0.18997514 0.021208784
000180 2a 5a d1 3d 4a 27 ee 3d 94 ac f5 3c bd 7b 3c 3d
       0.102222756 0.116285875 0.029989518 0.046016444
000190 53 24 1c be fb 57 1f be b1 f0 80 3c 05 a2 b6 bd
       -0.15248232 -0.15560906 0.01573977 -0.089176215
0001a0 87 ae 8b 3c 16 79 b7 3c 56 70 1f be c2 b9 5e bd
       0.017050995 0.022396605 -0.15570197 -0.05437637
0001b0 2e 2d 26 3e f3 22 a0 bd 1a a8 41 3d 3c 45 67 bd
       0.16228172 -0.07819166 0.047279455 -0.05646251
0001c0 c9 84 cd bc 48 bd 8f bd 73 a8 85 bd 54 14 08 3d
       -0.025087731 -0.070185244 -0.0652627 0.03322251
0001d0 27 94 37 3e 8e 6a 83 bd 16 24 7e bd 32 4f 63 3c
       0.1792761 -0.06416808 -0.062046133 0.013873862
0001e0 86 ba 01 3d cc f0 13 be b2 48 05 3d dd 95 e2 3b
       0.031672023 -0.14447325 0.03254003 0.0069148378
0001f0 bd a3 91 bd e8 01 96 bd 28 01 24 3d 04 fc 16 3b
       -0.07111309 -0.07324582 0.040040165 0.0023038397
000200 9e 06 07 3e b5 26 9a bd b3 20 a1 bc a1 f3 63 bd
       0.13186118 -0.07526914 -0.019668913 -0.055652265
000210 cd 9d 02 bc 24 6d d1 3b fc b1 02 3e 91 9a 6e 3b
       -0.007972193 0.0063911844 0.12763208 0.0036408047
000220 92 10 f7 bd 00 76 86 bd 85 99 e5 bd 2f fc 29 be
       -0.120637074 -0.065654755 -0.11210922 -0.16600107
000230 52 d0 c0 bd ac d7 a2 3d 93 b5 14 be 99 50 9a 3d
       -0.09414734 0.079512924 -0.1452239 0.07534904
000240 5d 07 ad bd 0c b2 e2 3c 07 83 11 bd 00 15 9e 3c
       -0.0844867 0.02767279 -0.035525348 0.019297123
000250 6e 0f 18 3d 57 8c 96 3c 9f a7 a2 bb bf 4c 84 bd
       0.03712409 0.018377466 -0.0049638296 -0.06459951
000260 ff c9 9c 3d e5 51 76 3d a3 65 1b 3e 03 26 08 be
       0.07655715 0.060136694 0.1517549 -0.1329575
000270 b7 cc e1 3c b2 30 d1 bd c8 dc c1 3d 0d 65 e2 3d
       0.027563436 -0.10214366 0.09465939 0.1105443
000280 6a b4 9b 3d ef 57 49 3d 7b fa 5b 3e fa 89 d1 3b
       0.076027706 0.049156126 0.2148227 0.006394622
000290 3c 09 53 bd df 08 44 3d 09 da 8d 3d 61 e3 33 3b
       -0.05152248 0.047860023 0.069263525 0.002744876
0002a0 de 9e e1 bc b5 b5 13 3d 79 58 1e bd 14 15 94 38
       -0.027541574 0.03606196 -0.038658593 7.061116e-05
0002b0 3c b8 20 3d 23 66 a0 bd 46 b1 50 be 5c 0e 4b 3b
       0.0392382 -0.07831981 -0.20380124 0.00309839
0002c0 94 57 a6 bd 04 cf 86 bd 98 9c e4 bd 0d cd 10 3d
       -0.08122173 -0.06582454 -0.111626804 0.0353518
0002d0 a0 28 3d bd 49 05 4a be 95 fb 46 3d a2 ab 0f 3e
       -0.04618132 -0.19728579 0.04857977 0.14030316
0002e0 6a 96 eb bd 55 16 f8 3c f9 23 6a 3d cf dd d9 bc
       -0.115032986 0.030284086 0.057163212 -0.026595024
0002f0 b3 ff e6 bc a3 e4 c8 bd e0 b5 f5 3d f0 f1 e7 3c
       -0.028198099 -0.09809234 0.119975805 0.028313607
000300 ee 34 07 3e d6 ff 82 3c c3 62 2b 3e f8 95 08 be
       0.13203785 0.015991133 0.16736893 -0.13338459
000310 e0 ed 6c 3d 1b 82 ef 3d 6e 89 2f bd 8e e6 8b 3a
       0.057844043 0.116947375 -0.042855673 0.0010673569
000320 ef 02 08 be 90 c0 1f 3e 28 c5 1d bc 5d 6b 99 bd
       -0.13282369 0.156008 -0.009629525 -0.07491181
000330 e4 b0 b2 3c ef e9 d5 3d e2 b2 e6 bd 57 05 22 3c
       0.021812864 0.1044501 -0.11264588 0.009888968
000340 cc 1c b5 3c f2 8b f8 bd 6b 80 32 bc 0e c7 f7 3b
       0.022108458 -0.121360675 -0.010894875 0.007561571
000350 72 00 fe bd 4a ed 4d 3c 80 40 81 bd 57 4e d9 bd
       -0.12402429 0.012568781 -0.063111305 -0.10610645
000360 61 58 18 be 24 30 6c bd 5f a2 6f bd 8e e8 9a 3d
       -0.14877464 -0.057663098 -0.05850446 0.075638875
000370 95 cd 03 be 23 a2 7b 3c dc 7d 1e bd 90 90 74 3d
       -0.12871392 0.015358481 -0.038694248 0.059708178
000380 33 a1 45 be df 9f 57 bd 93 cb c9 bd a3 1c f7 3d
       -0.19299774 -0.0526427 -0.09853282 0.12066009
000390 77 85 16 be c0 94 dc 3d 9d 30 15 be a0 c5 8e bc
       -0.1469935 0.10770559 -0.14569326 -0.01742822
0003a0 2f c8 07 be 3b 91 44 bd a1 79 5a bc 1b 30 e2 3c
       -0.13259958 -0.047990065 -0.013334663 0.02761083
0003b0 c0 59 2f be 9a 73 c0 bd ec c2 c5 bc d8 c6 74 bd
       -0.1712408 -0.09397049 -0.024140798 -0.059759945
0003c0 76 0f c5 bd e6 ad 08 be 87 b2 3e bd 02 71 25 bd
       -0.096220896 -0.13347587 -0.046556976 -0.040390976
0003d0 46 38 84 bd f6 b7 e1 3c 91 88 a7 3d 76 a9 91 bd
       -0.06456046 0.02755354 0.08180345 -0.071124
0003e0 a9 f6 07 3e e5 27 c0 bd 30 82 1e bb 82 eb 38 3d
       0.13277687 -0.09382609 -0.0024186485 0.045146473
0003f0 92 9d de 3b 8d 74 97 bd 1c 70 46 3d d8 2e a1 3d
       0.006793686 -0.07395277 0.04844676 0.07870263

bias f4 [100]
000000 d9 a5 3a bc 7a f0 6f bd 8f c4 d2 3d 43 25 4d bd
       -0.01139208 -0.058578946 0.10291397 -0.050084364
000010 64 14 62 3e ab 89 b8 bd 49 36 9b bd 9a d4 49 bd
       0.22078091 -0.09010633 -0.075787134 -0.04927502
000020 cc 55 5b bc c2 cc bc bd 08 58 1c 3d 68 b0 c8 bd
       -0.013387155 -0.09218742 0.03816989 -0.09799272
000030 c9 dc d7 3d 12 d6 07 be 62 cb a9 3d 8e 26 45 3d
       0.10540158 -0.13265255 0.08290745 0.04813247
000040 69 52 37 3e c4 8d bb 3c 0c 16 0f 3e e4 e9 ae 3e
       0.1790253 0.022894748 0.13973254 0.3416282
000050 db 66 a3 bd f8 29 a1 bd 19 b0 c0 3d f9 cc 57 3d
       -0.079786025 -0.07869333 0.09408588 0.05268571
000060 e7 a9 3c bc d0 48 38 bd 4c 20 60 3d b4 4b e3 bb
       -0.011515117 -0.044991314 0.0547183 -0.0069365148
000070 dc 19 82 bd ce 3c 98 3d 70 db 87 bc e4 48 de 3c
       -0.063525885 0.074334726 -0.016584128 0.027134366
000080 25 50 67 bd a7 75 bd bc df 23 8b bc bb 48 db 3d
       -0.056472916 -0.02312739 -0.016984878 0.107072316
000090 0a 76 5d 3d fe 29 28 3b 53 41 3a 3e 74 8f 14 3c
       0.05406765 0.0025659795 0.18188982 0.009067405
0000a0 af 45 aa bd 87 0b 26 bd 1d 0e 12 bd 6c a2 a7 bd
       -0.08314072 -0.040538337 -0.03565799 -0.081852764
0000b0 8e f5 32 3e f6 ca 2f 3d 42 b5 06 bc 82 70 56 3a
       0.17476484 0.042918168 -0.008221926 0.0008180217
0000c0 d2 84 c5 3c 78 e4 53 bd 54 ed ba bd c5 8f c5 3c
       0.024111185 -0.051731557 -0.09127298 0.024116406
0000d0 eb 3f ad bd f5 11 73 bd 0e cd 44 bd 18 b0 8c bc
       -0.08459457 -0.059343297 -0.048047118 -0.017173812
0000e0 21 06 1d 3e 83 4c 04 bd 59 da 3e 3a c2 f6 4c bd
       0.15334369 -0.03229953 0.0007280461 -0.050040014
0000f0 4a 41 b0 3d 15 89 24 3c 67 a9 99 bd 73 03 9d 3d
       0.08606203 0.0100424485 -0.07503014 0.076666735
000100 64 fe 9a bd ac 43 b7 bd 22 da 41 bd ed c7 f3 bc
       -0.075680524 -0.08948454 -0.04732717 -0.029758418
000110 a3 08 98 3d 7b 18 cc 3d c6 cc 21 be 27 7f 53 3d
       0.07423522 0.09965607 -0.15800771 0.051634934
000120 01 5b d4 bc c3 bf c6 bd 2d 24 5c bd e9 34 2c bd
       -0.0259223 -0.097045444 -0.053745437 -0.042042647
000130 ae a8 46 bd e1 2f 32 be 77 0e 52 3d c2 c9 2e bd
       -0.04850071 -0.17401077 0.051283326 -0.04267288
000140 f3 1a 10 3e 5f 6d d6 bd 4d 0e 46 bd e9 c1 7a 3d
       0.1407278 -0.1047008 -0.048353482 0.061220083
000150 5e 0a 1e 3d 32 8a 14 3d a7 5d 8e bc 11 ec 24 3e
       0.038584106 0.036264606 -0.017378641 0.16105677
000160 72 8f 93 ba 4a 7b 00 bd 4e 7c 88 bd d0 e3 17 3d
       -0.001125796 -0.031367578 -0.06664334 0.037082493
000170 6d a1 08 bd 2a 08 d0 3d 05 bf f6 bb b1 2f 8e bd
       -0.033357073 0.10157807 -0.0075300955 -0.0694269
000180 d8 91 e9 bd 88 1b 0f 3e 81 81 3a bd 7b f1 1b 3d
       -0.114047706 0.13975346 -0.04553366 0.03807209

weight f4 [1, 100]
000000 28 f3 0a 3c 8b 1c 63 bd 92 17 6b bb d2 72 71 bb
       0.0084808245 -0.055447143 -0.0035872203 -0.003684212
000010 55 fe 07 be 0b c7 df 3c b8 9c a6 bc f6 49 f4 bd
       -0.13280614 0.02731659 -0.020338401 -0.119281694
000020 7b c9 e8 bc ad f2 99 bd df 0f 1b be 2f 44 4e bd
       -0.028416386 -0.0751699 -0.15142773 -0.050357994
000030 8e e4 4d be e0 5a 8b bd 50 84 1c be aa 10 30 be
       -0.20106718 -0.068044424 -0.15284848 -0.17193857
000040 38 be fe bc ec c3 45 be 87 51 49 bd f3 bc 63 be
       -0.031096563 -0.1931302 -0.049150016 -0.22240047
000050 09 39 c1 bc e7 76 b2 3c c5 cc 62 be ea 70 18 be
       -0.023586767 0.021785213 -0.22148426 -0.14886823
000060 c6 3c fa 3c 45 ba 59 bc 86 3e ad bc f6 6a fd bb
       0.030546557 -0.013289039 -0.021147978 -0.007733698
000070 c4 bf 87 bd e8 7f 54 be 9a 42 8f 3c 8c 65 a2 bc
       -0.06628373 -0.20751917 0.017487813 -0.019823812
000080 94 f5 0d bd 66 1e 72 3b 53 bc e8 bd 4c bd 45 3c
       -0.03465803 0.0036944388 -0.11364045 0.012069058
000090 22 d3 a5 bd cd 62 c6 bd 39 62 80 bd 0b 63 bb bc
       -0.08096911 -0.096868135 -0.062687345 -0.022874376
0000a0 4b 85 9c bc 43 f2 13 be 0f 9c 64 bd 01 10 0d ba
       -0.019106528 -0.14447884 -0.05581289 -0.0005381108
0000b0 53 18 4e bd 76 f5 4b be e9 2f 1f be c0 2d e3 3b
       -0.050316166 -0.19917855 -0.1554562 0.006932944
0000c0 ea 06 13 be 3e f2 80 bc b8 46 fa 3b 28 a1 ad 3b
       -0.14358106 -0.01574051 0.007637825 0.0052987523
0000d0 32 1b 3b bd c5 e5 c3 3d 2a 8d 83 3c 8c ce 0f be
       -0.045680232 0.095653094 0.016058523 -0.14043635
0000e0 4d 90 d1 bc 4c 6a de 3c 3e bd 53 3c 90 0a e6 bc
       -0.025581503 0.027150296 0.012923537 -0.028081208
0000f0 ab 63 37 bd 0b 46 fc bd 42 9a cf bd 3a b8 9a bc
       -0.044772785 -0.12318047 -0.10136844 -0.018886674
000100 d2 73 20 bb d1 eb e7 3c 51 04 ca 3c a5 b9 42 3c
       -0.0024483097 0.028310688 0.024660261 0.011885081
000110 c8 81 4c be 49 4a b8 bd 4c c2 53 bd 91 7e fd 3b
       -0.19971383 -0.08998544 -0.051698968 0.007736035
000120 54 60 aa 3c a7 de 8a bd 3e d5 66 bd d3 83 1c bd
       0.020797886 -0.06780749 -0.056355707 -0.038211655
000130 46 9d 92 3d f1 f5 d2 3d 3f 8a a6 bd 1f 6c 0b bd
       0.07158904 0.10300816 -0.08131837 -0.03403866
000140 ba c4 81 3c 6d 65 45 bc 9d a3 4a bd 0a 24 39 be
       0.015840877 -0.012048108 -0.04947244 -0.18080154
000150 b7 4a 01 bc 31 b9 61 be 61 85 58 bc 18 02 2a bd
       -0.007891349 -0.22043301 -0.013215394 -0.041505903
000160 98 a4 5b 3c 71 dc 94 bc f9 f9 1a 3c 19 db c5 bd
       0.013405941 -0.01817152 0.009459012 -0.0966093
000170 bf ec 0f bd 19 f7 3a be 66 6f 95 bd c6 4f 98 3c
       -0.035137888 -0.18258323 -0.07296638 0.018592726
000180 88 c6 25 bc be 19 15 3d f4 2e e8 bd ba 0d 16 bd
       -0.010118134 0.036401503 -0.113370806 -0.036634184
