Gibbs_MINE/pw_res/model_lk_b=10_s=0.5_p=27.pth (torch, 208215 bytes, 5 tensors)

weight f4 [400, 27]
00000000: 1e6b b8bd 7e97 ee3d 8c4e 8c3e af31 a8be
00000010: 38e1 893d 39ee 9e3e 9bbb 1a3d 8091 25be
00000020: d8d4 5bbe 353f a3be ab9c 1c3e 77b5 a2bd
00000030: b41b 5a3d e9bc 403e 0af3 97bc 5d95 00be
00000040: ac98 1a3e b4c6 873d 213c 7abd b265 3dbe
00000050: 4be2 843e 24d2 ddbd 11ee dc3d 58de 383e
00000060: 467b 4ebe ca4d 8c3d 29d9 5b3e b4b9 79be
00000070: 8bcd c43d 7acd 0fbd c7b0 703e e46d 823e
00000080: 760b 4f3d fe06 243e 7142 f13d c370 3ebe
00000090: b045 23bc e1fb 94bd 9a49 37be 313e 36be
000000a0: 2321 ca3d ef4a 393e c90c eebd 71b2 51bb
000000b0: 1d56 58be afa2 73be 7edf 623e d599 76be
000000c0: 8238 d2bd b9f9 4cbd a45e 7f3e f665 10bd
000000d0: 162f 9f3d 4783 2d3e b990 e53d 5e6f 91bd
000000e0: 6587 b63d 87ff f4bd 2fd9 c5be 68be 823d
000000f0: 0dc4 8a3e 365b e8bd 7701 39bc 8cad 1cbe
00000100: 91da 033e b664 4abd 7b92 253e f706 cabd
00000110: 0e35 3b3d 64d2 fdbd 33c2 473e e6d0 2e3e
00000120: 8204 c33e dc52 343e 4f52 2abd 381f 043d
00000130: 06f3 ad3d 286c 9fbe 25ef 5d3e 9827 80be
00000140: 8719 ad3e c561 b73d ea0b bdbe 74ad bdbd
00000150: 4fd2 2ebe 5b3d 63bd f943 013e 8425 4d3e
00000160: 4e9b 633e 59be 433e cf68 c13d 66cb 4fbe
00000170: 6d4c a33d b6e5 c5bc 2769 4dbe fcfc ddbd
00000180: 9e15 d9bd 4205 213e 4242 433e 3ce7 823d
00000190: 8a3b 83bd e0fa 8dbd 5012 9f3d de78 61be
000001a0: 8ce1 6c3c a155 3f3d d10d 9abd 052f 25be
000001b0: a40d 053e 6f2c d93d be9e 5a3d 0048 c63c
000001c0: da4e 8c3e ef03 203c 4d76 dfba 02f5 313e
000001d0: 17a1 a03e 7511 38be d2b4 aabd 1be6 e7bd
000001e0: 8958 d3bd e42b e8bd bd0e 2bbe c9fe a2be
000001f0: e4d1 783c 83e3 79be 57e6 75bc 03e2 b4bd
00000200: e8e2 943b d60a 313d 7477 19be a34f 0bbd
00000210: 3ad7 21be c406 1b3e 5282 27bd 03b7 88be
00000220: d607 28bd ccb6 4f3e c171 9cbe 68c9 a43e
00000230: 6e3e 68bc ee3c 943e bbcc 88be cc12 ecbd
00000240: 3d6c 3dbe dbf1 823e 35e1 82bc b9ef b3bc
00000250: 9c54 8e3e 32bb 893e 750a 9e3d e6c1 49be
00000260: 1fab 92bd 240e 0fbe 1537 1a3e efb1 633d
00000270: 7552 1c3e fa8a 2ebb 3dc7 4a3e d64a 853c
00000280: bfb1 64be 3286 223e e64c b9bd ebbe 9e3d
00000290: 8070 3bbe adbd 73bd 02df e83d b28d 493e
000002a0: a5c3 2b3e 4d61 3dbe e072 1d3d ea02 873d
000002b0: fc6c 233e 40f3 82be e6f3 3e3e cc04 663e
000002c0: 944d 123d a809 a0be 6b81 0ebe 2a00 aebd
000002d0: 4784 583e 31fe faba e3f4 28be 1309 633d
000002e0: 6656 a7bd a4d2 7d3e 4f55 8c3d feee 9ebc
000002f0: e554 d93d e334 743d a30f 803e 37dc 40bd
00000300: 73fc 8fbe 8566 353c 09a3 2fbe 8406 803e
00000310: 5ecb fabd 1890 c93d a015 b53d efe7 58be
00000320: 9738 d43d 2f15 453e 09b9 803e 8a27 b03e
00000330: 42c6 a4be 6820 eebd f5ed 733e 4f11 4abe
00000340: cd07 023f 6cd9 043e ad84 853e 879b da3c
00000350: 1280 703e 3721 873e 7ab1 e0bc 67a5 fcbd
00000360: 4199 e0bd b1d5 b0be 1565 64be 608e ec3c
00000370: ebf1 ab3d 2f49 d63d f97a 7bbe 65ae 84bd
00000380: 3987 61bd 6994 873e eb37 aabd 247f 193e
00000390: 34eb 203d de43 d5bd c4e6 a1be dcca dc3d
000003a0: fc6f a53e 24d9 4cbe d85a 943e 8446 70be
000003b0: 10d0 0dbe 2ba5 ebbd 09c9 79bd 1b59 b0be
000003c0: bfca 28bd dace 653e dc1d 953e 3d35 143e
000003d0: 6858 bc3c 9b8d 53bb 721c 99bd 27d6 9d3d
000003e0: 7cbf 51be 62a2 c53d a1f4 893d 2ac5 e13c
000003f0: be20 c23d a0af f2bb 3328 103d cb18 93be
-0.09004806 0.116499886 0.27403677 -0.32850406 0.0673241 0.31041124 0.03777657 -0.16168785
-0.21467912 -0.3188416 0.15294139 -0.07944768 0.053249076 0.18822064 -0.018548507 -0.12556978
0.15097302 0.066296965 -0.0610925 -0.18495825 0.25953898 -0.10831097 0.10787595 0.18053567
-0.20164213 0.068507746 0.21469559 -0.24387246 0.09609517 -0.035108067 0.23504935 0.25474465
0.05054804 0.16018292 0.11780251 -0.18597703 -0.009965345 -0.072746046 -0.1789917 -0.17797162
0.098696016 0.18094991 -0.11623532 -0.0031997229 -0.211266 -0.23792528 0.22155568 -0.2408212
-0.10264684 -0.05004284 0.24938446 -0.035253488 0.07772653 0.1694461 0.11209244 -0.0710132
0.08912543 -0.119628005 -0.3864226 0.06383973 0.271027 -0.11345522 -0.011291853 -0.15300578
0.12876345 -0.04941245 0.16169159 -0.0986461 0.045704894 -0.123936445 0.19507675 0.17071876
0.38089377 0.17609733 -0.0415824 0.032256335 0.08493619 -0.31137204 0.21673258 -0.25030208
0.33808538 0.08954195 -0.36923152 -0.09261599 -0.17072414 -0.055478435 0.12623586 0.20033842
0.22227213 0.1911558 0.09443819 -0.20292434 0.079735614 -0.024157386 -0.20059644 -0.108392686
-0.10599826 0.15724662 0.19068244 0.06391761 -0.064078405 -0.06932616 0.07767165 -0.22018763
0.014458071 0.04671252 -0.075221665 -0.16131218 0.12993485 0.10604178 0.053374045 0.024204254
0.2740391 0.009766563 -0.0017048806 0.1737862 0.31372902 -0.1797541 -0.0833527 -0.11323186
-0.10319621 -0.113364965 -0.16704841 -0.3183501 0.015186761 -0.24403195 -0.015008531 -0.08832171
0.004543651 0.043223225 -0.14986974 -0.034011494 -0.15804759 0.151393 -0.040895768 -0.26702127
-0.041023098 0.20284575 -0.30555537 0.3218491 -0.014175041 0.28952736 -0.26718697 -0.11527023
-0.18498321 0.25575146 -0.015976528 -0.021964895 0.27798927 0.2690063 0.07716838 -0.19702873
-0.07161545 -0.13970238 0.15060075 0.055589613 0.1526583 -0.002663313 0.19802566 0.016271036
-0.2233343 0.15871504 -0.0904787 0.077512585 -0.18304634 -0.05950706 0.1137066 0.19682959
0.16773851 -0.18494149 0.03843963 0.06592353 0.15959543 -0.2557621 0.18647727 0.22462767
0.035718516 -0.31257367 -0.13916557 -0.08496125 0.2114421 -0.0019149241 -0.16499667 0.055428576
-0.08170776 0.24787384 0.06852209 -0.01940107 0.106118955 0.05962075 0.2501193 -0.047085013
-0.2812229 0.011071806 -0.17152037 0.2500497 -0.122458205 0.09841937 0.08842015 -0.21182226
0.10362356 0.19246362 0.2514117 0.34405166 -0.3218251 -0.11627275 0.23821242 -0.19733165
0.50793153 0.12973565 0.26077786 0.02668549 0.23486355 0.26392528 -0.027428377 -0.123362355
-0.10966731 -0.34538034 -0.22304185 0.028876483 0.083957516 0.104631774 -0.24558629 -0.064785756
-0.0550606 0.26480415 -0.08311447 0.14989907 0.039286807 -0.10413335 -0.31621373 0.1078088
0.32312 -0.20004708 0.28975558 -0.234644 -0.13848901 -0.11506113 -0.060982738 -0.34442982
-0.04120898 0.22442189 0.29124343 0.14473434 0.022991374 -0.0032280448 -0.07476129 0.07706862
-0.20483202 0.09650113 0.067361124 0.027559835 0.09478901 -0.00740619 0.035194587 -0.28729853

bias f4 [400]
00000000: cb80 45bd 9e2e 81be 22d7 503d 6aec 3cbe
00000010: 89d7 8fbe 3204 f53b f6a4 98bb 4f8a 92be
00000020: 2c70 1d3e 20c5 9ebe a7e5 11be 0674 9dbe
00000030: 87b0 1fbe fcff 8cbd fa81 2cbe df1b fcbd
00000040: 8495 99be 6758 77be 1330 6cbd d2b8 4cbe
00000050: 7c0f 55be 29ce 18bd 5371 70be d806 babe
00000060: 03c5 d9bd 5c0f 81be 214e f33c 84e8 99bc
00000070: f802 41be d309 35be 7afb 80be cdd9 f2bb
00000080: bfec e4bd 2c53 e7bc 78ac 1dbe 2821 a2be
00000090: 7a36 20be d289 4bbd 325e a63d d876 55be
000000a0: 9d89 c6bd 741a 35be 9ee4 4fbe 890f 30be
000000b0: 37eb c5be e945 223e 929e 27be 6bcc 56bd
000000c0: 1a67 16be 60c7 2abe 620a 0abe b60e 81be
000000d0: b281 29be 9c24 02be fff4 0fbe b97c ffbd
000000e0: e9bb 5fbe 7864 f3bc f6a9 27be 97d2 a3be
000000f0: 73e4 36be 0edd 4f3d 84a6 27be bff8 70be
00000100: ff0b a0bc 3315 45be 646e 4ebe 131b 5dbe
00000110: 8313 98be cdc1 53be d510 76be 1fd4 dabd
00000120: 92a0 b4bd 2c37 6cbd e386 95be 7529 92be
00000130: 49c5 61be 68b2 37be 28d7 c2bd f06c eebd
00000140: 8e03 3cbe e981 7abe df72 03be 7d66 0f3e
00000150: 0022 68be 42ce a1bd 65e3 9cbd 0226 48be
00000160: 246a 543d 588e 99be 27e8 8dbe d36b b3bd
00000170: 34dd a7be c5c7 4fbe cee0 39be d06e 60be
00000180: eb7e 56be 7d55 dabd c594 c7bd 5781 95be
00000190: 4600 9abe 5cf8 f4bc e72a acbd b4ba 2cbe
000001a0: 03d1 93bd 54a5 15be daa4 53be 88c1 6abe
000001b0: 754b 8e3c ffcd 15be 8006 46be 253b 08be
000001c0: 5a87 29bc d047 24be 5801 90be 7d7d 13be
000001d0: 80d6 46be c906 68be 9b44 30be b023 84bd
000001e0: c577 a3bd f582 2dbe 1ce0 10bd 2f22 c5be
000001f0: 6836 9fbe 0cbc 62be af57 8cbe 46b5 07bd
00000200: 936f 99be 4f0f c8bd cb63 a9be 061e 5fbe
00000210: 6c1c 83be b62f fc3c acf6 433d 158e d1be
00000220: eadb d7bd d8d2 cbbd adca 3ebd e024 0bbe
00000230: 971a 60bd 2bba 12be ff93 32be 6568 8e3d
00000240: e330 78be 80ba 43be cea2 46bd 5ab3 bbbe
00000250: 3d6b 82be d59f 14be 9d75 33be 0a9a dabd
00000260: c70d fdbd 1a79 42be 1e0e e9bd bd8b 93bc
00000270: 3f89 1bbd 5933 82be 5230 b2bd 4b5f 24be
00000280: a6f6 d1bd 9a03 36be 995d 34be f58a 99be
00000290: 3b9d 36be b303 f2bd 6866 6cbd 0e73 85be
000002a0: 94aa 69be ea15 a6be 1569 5cbc 7d0e 46be
000002b0: 6259 5abd 718f 51be 957c 503c bf6f ad3d
000002c0: 514a 09be 0b06 8fbe cace 7cbe e507 c7bd
000002d0: 7461 b1bc d20c 8fbe e66b 01be 1854 88be
000002e0: ad16 76bd 2819 3bbe 58cc 21be aa5a 26bd
000002f0: 3608 babd d65e c6bd 2f7f d1be e0f5 22bd
00000300: 24bb 14be 4880 89be e113 87be ee46 80be
00000310: 0669 bfbd 6966 dabd 80e7 92bd 05d5 01be
00000320: c2d1 1ebe eebf 9abd 5360 38be 1fb6 13be
00000330: c1fc 92be ccfe 0abe e589 80be faa1 a73c
00000340: 9d38 03be 869f 99be 085d 3fbe 3435 0abe
00000350: d978 acbd 8e27 77be 4bdf b6be 4291 4dbe
00000360: d6fd 3fbb 5235 0fbe 7474 39be 503f c8bc
00000370: 2812 d2bc c5d5 8fbe 25a5 01be 436b 2dbe
00000380: 3316 05be 952b 91bd d662 b4be 1bda eb3c
00000390: c2f9 46bd cd1a cdbd 27ea 39bd 0676 79be
000003a0: 0137 ecbd 6f2e 78bd 2c85 4abd 0f7a 31be
000003b0: 0697 36be 8535 d5bd b961 73be b3dc 0ebe
000003c0: ebe7 0ebe c047 e5bd 04d6 72be f711 fabd
000003d0: 5368 59bd 9c9d 37be 4b49 01be 5149 27be
000003e0: 9fab 003d 3dc5 a8bd 1619 20be 0bf1 7abe
000003f0: a28d babe df5f 53be 61fc a9be 95b6 78be
-0.04821853 -0.2523088 0.050986417 -0.1844956 -0.28094128 0.0074773068 -0.0046583368 -0.28621146
0.15374821 -0.3100977 -0.14247762 -0.3075258 -0.15594684 -0.06884763 -0.16846457 -0.123100035
-0.29996884 -0.24154817 -0.057663035 -0.19992378 -0.20806688 -0.037305985 -0.2348073 -0.36333346
-0.1063328 -0.2520703 0.02970034 -0.01878763 -0.18848789 -0.17679529 -0.2519186 -0.007411218
-0.11177968 -0.028237902 -0.15397823 -0.3166592 -0.15645781 -0.049691983 0.08123435 -0.20846117
-0.096942164 -0.17685872 -0.20302054 -0.17193426 -0.38656017 0.15846981 -0.16369084 -0.052441042
-0.14687768 -0.16677618 -0.13480523 -0.25206536 -0.16553381 -0.12709278 -0.14058302 -0.12474961
-0.21849026 -0.029710993 -0.16373429 -0.31996605 -0.17860584 0.050747924 -0.16372114 -0.23532389
-0.01953697 -0.19246368 -0.20159298 -0.21592359 -0.29702386 -0.20679398 -0.24029858 -0.1068499
-0.08819689 -0.057669804 -0.29204473 -0.28547254 -0.22047915 -0.1793915 -0.09513694 -0.11641872
-0.18360731 -0.2446362 -0.12836789 0.1400394 -0.2266922 -0.07900669 -0.076605596 -0.19545749
0.051859036 -0.29991412 -0.2771618 -0.087608 -0.32785952 -0.2029105 -0.18152162 -0.21917272
-0.20946853 -0.10660837 -0.097451724 -0.2920024 -0.30078334 -0.029903583 -0.084066205 -0.16868097
-0.072176 -0.14613849 -0.20668355 -0.22925389 0.017369965 -0.14629363 -0.19338417 -0.13303812
-0.010347212 -0.1604302 -0.28126025 -0.14403339 -0.19417763 -0.22658838 -0.17213671 -0.06452119
-0.079818286 -0.16944487 -0.035369977 -0.38502643 -0.31096196 -0.22142047 -0.27410647 -0.03313186
-0.29967937 -0.09768545 -0.33083948 -0.21788797 -0.25607622 0.03078447 0.047842667 -0.40928712
-0.10539992 -0.09952325 -0.046580005 -0.13588285 -0.054712858 -0.1432883 -0.17439269 0.069535054
-0.24237399 -0.19114113 -0.048495106 -0.36660272 -0.2547244 -0.14514096 -0.17525335 -0.10673912
-0.123561434 -0.18991509 -0.11379646 -0.018010968 -0.037972685 -0.254298 -0.087006226 -0.16051976
-0.102521226 -0.17774811 -0.1761383 -0.29988828 -0.17833416 -0.11817112 -0.05771485 -0.26064342
-0.22818977 -0.32438594 -0.013452788 -0.19341464 -0.0533079 -0.20464875 0.012725015 0.084685795
-0.13407256 -0.27934298 -0.24688259 -0.09718303 -0.021652915 -0.2793947 -0.12638816 -0.26626658
-0.06008022 -0.18271315 -0.15800607 -0.040613808 -0.09083597 -0.09686057 -0.40917346 -0.039785266
-0.14524513 -0.26855683 -0.26382354 -0.25054115 -0.093462035 -0.106640644 -0.07173061 -0.12678917
-0.15509704 -0.07556139 -0.18005495 -0.14424942 -0.2870846 -0.1357376 -0.25105205 0.020462979
-0.12814565 -0.3000452 -0.18687832 -0.13496858 -0.08421487 -0.24136183 -0.35717234 -0.20074943
-0.0029295585 -0.13985184 -0.1811083 -0.024444252 -0.025643423 -0.2809278 -0.12660654 -0.16935448
-0.1299675 -0.07088391 -0.35231656 0.028790524 -0.04857803 -0.100148775 -0.04538932 -0.24361429
-0.11533929 -0.060591158 -0.04944341 -0.17331718 -0.17831048 -0.10410599 -0.23767747 -0.13951378
-0.13955657 -0.11195326 -0.23714453 -0.12210458 -0.053078007 -0.17931217 -0.12625615 -0.16336562
0.03141367 -0.08240745 -0.1563457 -0.24506013 -0.36436182 -0.2064204 -0.33200362 -0.242884

weight f4 [100, 400]
00000000: 9a9e e03d 373e c23d 3943 c03d 019d f63d
00000010: 6ac0 cb3d 92ec 063e 57d1 5c3d 55fa 433e
00000020: e7c5 933e a0f5 ff3d df2a 3e3e 1b8a ea3e
00000030: c682 7b3d 5811 a43d efa4 643d 123e 083e
00000040: 51ed 883e 19ec ad3c 3405 e73d ca8c 473d
00000050: 7a7c af3d b8d1 7b3d 4b07 273e b596 483e
00000060: 2472 313c f76e e73d eb82 cf3c bbe8 353d
00000070: 0b88 063e accf c23d 1203 e03d 1e9e 6c3e
00000080: 4164 0f3e 2055 fa3d 8d15 a53d 569d 9c3d
00000090: 604b 493d f50e 183d b8af 803e ae76 f73d
000000a0: dd2f aa3d 1329 fa3d c027 a73d dbb5 2e3e
000000b0: 8876 173e d698 f13d 3150 0b3e d8a1 ec3d
000000c0: bea6 3d3d a5b3 2f3e 7cd7 eb3d a080 143e
000000d0: 4e6f 323d 394d 823d 7b62 e23d 7c5e 9c3d
000000e0: 6907 0b3d 1fa0 103e 061d 183e 15ab 133e
000000f0: 548a fc3d 1208 be3e ac08 573d 3178 d43d
00000100: 9b8f fd3d 5dfc a83d 024c fa3d aeb2 973d
00000110: 2af5 1a3e 0a5e 0a3e 2669 da3d 223a ef3d
00000120: cc72 8b3d 7c90 df3d 24d0 453d c129 0d3e
00000130: 95f2 383d 7898 cc3c 0ff6 3c3d 1702 ee3d
00000140: db02 293e 84b0 dc3d e356 9f3d 2100 8b3e
00000150: e79e 6d3e d452 c53d 0104 163e f358 aa3d
00000160: 4f4c 403e 19b0 453e 7a2b 073e 5234 833e
00000170: a604 d03d 4ac3 bf3d 7ecb 073e df7b 983e
00000180: 7dd1 db3d 19b6 3f3e 32ff 083d cff9 003e
00000190: b36d 103e 1181 9d3e 644d cd3d 7dd8 d93d
000001a0: 4cfa 113e 68ff 593d 0499 cf3d 1431 363d
000001b0: 6ea9 243e 20d5 733d 793c a43d a34e 153e
000001c0: 841c b03d 43c3 6d3d b33c 403d e518 da3d
000001d0: 72d2 9d3d fe73 873d 60e8 443c 3d50 1d3e
000001e0: 784b c73d 9ae0 9e3d d3ef f43d d2b6 053e
000001f0: 0987 fb3d 60ee a03d 26b6 5a3d e8cd 083e
00000200: 50de f53d 8539 3c3d f958 173e 4a6d 3f3e
00000210: 6795 1b3e 01a9 1a3e 3578 963d b279 b23d
00000220: da85 243d 596e 6d3d f5b4 e13d a3fb d43c
00000230: be18 db3d 293c 473d 9cea e83d 2e98 ed3d
00000240: 9601 563e 9f7b cc3d d1cc 273d 8789 693e
00000250: 39ff ff3d 3750 bc3d 54a4 ed3d 68a9 e43b
00000260: 23e5 393c 28d6 493d d062 3c3e 4c76 ea3d
00000270: 165a ee3d 0f13 403e 6c4b 623d ab26 823d
00000280: 8437 1f3d 03d2 843d 9bff b33d 5245 433e
00000290: d798 833d b7ea 073e 8962 3e3e ce11 b43d
000002a0: 3ec9 f93d a2b8 273e 3634 993d 9e98 153e
000002b0: bee7 d43d b56e 453e aa26 333d 40ac c63d
000002c0: c68b 383e edf9 283e 6422 883d b6bc b43d
000002d0: f797 213d d61d 823d b398 4b3d be64 433e
000002e0: 5a86 ea3d 2df7 af3d b08b 3c3e c567 9f3d
000002f0: 64c4 423d 20ae 1e3e c069 f23d 4b01 b43d
00000300: 0cf8 a23d 74b1 d63d ff81 ad3d bc4b c13e
00000310: 49bc d13d a961 cc3d abd9 463d 8f06 1a3e
00000320: b20b e23d d561 e43d b352 c83d d381 053e
00000330: 09d8 253e 3bd0 e83d c7d1 a33d 804d e53d
00000340: 3588 863d 8bb8 103e d4ed 183e 8823 283e
00000350: 0518 293e 2442 113e a7f3 fe3d a761 2a3e
00000360: 4ac1 203d 0cfe f83d 5f32 0a3e 8535 823d
00000370: c0dd 523e 19ce 2b3e d6ef e53d 4b9c 153e
00000380: 074e c33d 2152 0c3e 42e9 fa3d 5be8 853e
00000390: 8815 dd3d e7ff b23d 183b a33d 6396 023d
000003a0: 333c 613d 65ad 023e 9b17 043e bd79 ac3d
000003b0: c329 8d3e d975 f73d 3cdf af3d f894 cf3d
000003c0: 2b40 783d a14c 363d 3bc9 a43d d916 5f3e
000003d0: dfab e73d c01b d63d 0215 3b3e dace a13d
000003e0: c6bc 063e a8e8 073d 340e cf3d 1dad 023e
000003f0: 8049 ae3d 204c 2c3d 965a c43d 5376 793d
0.10967751 0.09484523 0.09387822 0.12041665 0.099488094 0.13176182 0.05391058 0.19138463
0.28861925 0.12498021 0.18571042 0.4580849 0.061404012 0.080111206 0.055821355 0.13304928
0.26743558 0.021230744 0.11280289 0.04871825 0.08568664 0.0614793 0.16311376 0.1958874
0.010830436 0.11300462 0.025330981 0.044411402 0.13137834 0.095122665 0.109380856 0.23107192
0.14003088 0.122232676 0.08060751 0.07647197 0.04914415 0.03712364 0.25134063 0.12083183
0.083099104 0.122148655 0.081618786 0.1706156 0.1479131 0.11796729 0.1360481 0.11554307
0.046301596 0.17158373 0.1151571 0.14502192 0.04356318 0.06362385 0.1105394 0.07635209
0.033942614 0.14123581 0.14854822 0.14420731 0.123310715 0.37115532 0.052498505 0.10374487
0.12380906 0.082512595 0.122215286 0.07407127 0.15132585 0.13512436 0.10664587 0.1168101
0.06809005 0.1091623 0.0482942 0.13785459 0.04515322 0.024975047 0.046133097 0.11621492
0.16504996 0.10775855 0.07780244 0.27148536 0.23205148 0.09634939 0.14649965 0.08317747
0.1877911 0.19305457 0.13200179 0.25625855 0.101571366 0.0936342 0.1326122 0.29782006
0.10733316 0.18721808 0.0334465 0.12595294 0.14104347 0.30762532 0.10024527 0.10636995
0.14255637 0.05322209 0.10136607 0.0444804 0.16080257 0.059529424 0.08019347 0.14580779
0.08599189 0.058047544 0.046932887 0.106492795 0.07706155 0.06613921 0.012018293 0.1536264
0.097311914 0.07757683 0.11959805 0.13058022 0.12281615 0.078579664 0.053396367 0.13359797
0.12005293 0.045953292 0.14780034 0.18694034 0.15193711 0.15103532 0.073471464 0.08714618
0.040166713 0.057966564 0.11020843 0.025998896 0.106980786 0.048641358 0.11372873 0.116012916
0.20899042 0.09984516 0.040966813 0.22806369 0.12499852 0.09194987 0.11603609 0.0069782026
0.011346134 0.0492765 0.18397069 0.114483446 0.11638276 0.1875727 0.05524771 0.063550316
0.038871303 0.06485369 0.08788987 0.19069412 0.06425636 0.1327313 0.18592276 0.087924585
0.12196587 0.16379026 0.074806616 0.14609 0.10395764 0.19280513 0.043738045 0.09700823
0.1802207 0.16501589 0.066471845 0.08825056 0.039451566 0.06353347 0.049706172 0.19081399
0.11451407 0.08592067 0.18412662 0.07783464 0.047550574 0.15496111 0.118365765 0.08789309
0.079574674 0.10483065 0.084720604 0.37753093 0.10240991 0.09979565 0.048547428 0.15041564
0.11037387 0.111514725 0.097813986 0.13037805 0.16195692 0.11367842 0.07998996 0.111964226
0.06568948 0.14132898 0.14934474 0.16419804 0.16513069 0.14185387 0.12448817 0.16638814
0.039246835 0.121578306 0.13495778 0.06357864 0.20592403 0.16777839 0.11227386 0.14610402
0.09536367 0.13703205 0.12251522 0.26153836 0.107951224 0.08740216 0.079702556 0.0318817
0.05498905 0.12761457 0.1289963 0.08421657 0.27570924 0.120830245 0.085875005 0.101358354
0.06060807 0.044506673 0.08046194 0.2178606 0.11312079 0.10454512 0.18269733 0.07900782
0.13157949 0.033180863 0.10110131 0.1276135 0.08510113 0.042064786 0.095875904 0.06090386

bias f4 [100]
00000000: 7b58 843d 2e13 c2bd 330f 3ebc e54f a43d
00000010: 65ba f6bc 671f c6bd b9d0 91bd 9a7e 99bd
00000020: 59a1 e1bd cee2 80bc 03f2 30be 7088 90bd
00000030: 839b 09be fbbf 16bd f025 443d bafb a63d
00000040: c3f3 953d cf1f 2cbd 34c4 273d f19a 84bd
00000050: ec13 e7bc 1918 673c 44bb 7ebc a183 833d
00000060: 1264 293d dbc4 27be 7bfe 133c 72f0 af3c
00000070: ee39 b8bd d63d 8fbc 6323 b0bd addc 973d
00000080: 232e 143e ce0c ccbd c206 f1bc 7ab6 f2bb
00000090: f109 4fbd 2dfd 073c faef 23bb b92a 0ebd
000000a0: fb72 a03d f12f ca3d 328a df3d 0aac 12ba
000000b0: 2e5d 00be ffb4 d1bd 6cbe 8ebd cfc2 893d
000000c0: 8fe3 1dbd 0f93 cbbd 9ab7 bbbd db3f 753d
000000d0: 1768 fcbd d339 c83d f07b 1dbd edb0 fdbb
000000e0: 6d07 ed3c fb45 cdbd 6589 34bd 50c2 4cbd
000000f0: 802f 41bd be31 1a3e c6d0 8e3c 002b 26bd
00000100: 1cde fa3c 4f84 8abd cf3b 9cbd 3881 abbd
00000110: f7b0 d2bd cb5b a7bd ed90 3abd ebc3 07bc
00000120: ce26 88be 3088 4a3d 3cb3 5dbd bc62 c6bd
00000130: 03b8 0bbd 6a59 28bd cfbd 9f3d de8e 34bc
00000140: 6f6c f3bd 1611 8abd 1792 a53c 3d1b ffbc
00000150: 2fd2 6bbd 390f f2bc 0c2c dabc 8b10 3f3d
00000160: 38ad 00be 752a 85bc 4f36 d6bd f0d1 643d
00000170: be7e 313d e8b3 81bd a2de dcbd 8b7e 403d
00000180: be6a 93bd ff95 e2bd 6ad4 bebd e137 3e3d
0.06462189 -0.094763145 -0.011600303 0.08023051 -0.030118177 -0.09673958 -0.07119889 -0.074948505
-0.11017103 -0.015733149 -0.1727982 -0.070572734 -0.1343823 -0.03680418 0.047887743 0.08153482
0.073218845 -0.042022523 0.0409586 -0.06474865 -0.028207742 0.014104866 -0.015547577 0.064215906
0.0413552 -0.16383688 0.009032841 0.021476958 -0.08995424 -0.01748554 -0.086004995 0.074151374
0.14470725 -0.0996338 -0.029422168 -0.007407007 -0.05054659 0.008300108 -0.0025014863 -0.034708712
0.07834431 0.09872425 0.109150305 -0.0005595094 -0.12535545 -0.102396004 -0.06969914 0.0672661
-0.038547095 -0.099401586 -0.091658786 0.05987535 -0.12324541 0.09776654 -0.038448274 -0.0077420385
0.028934205 -0.10023113 -0.044076342 -0.04999 -0.04716444 0.15058038 0.017433535 -0.04056835
0.030623488 -0.06763517 -0.07628595 -0.08374256 -0.102876596 -0.08171805 -0.04554837 -0.008286457
-0.26592106 0.049446285 -0.05412601 -0.09686801 -0.034111034 -0.041100897 0.07799875 -0.01102039
-0.118859164 -0.0674154 0.020211263 -0.031140918 -0.057573494 -0.029548274 -0.026632331 0.046646636
-0.12566078 -0.016255597 -0.10459577 0.055864275 0.04333376 -0.063331425 -0.10784651 0.04699568
-0.07198094 -0.11063766 -0.093178585 0.04644001

weight f4 [1, 100]
00000000: ad54 1fbe f56d 5ebc af42 0fbd 215a 57be
00000010: 1426 1d3d 908d 18bd e649 0dbc 3221 833b
00000020: 3a8a b7bc 4532 1abd 5009 dcbd ac5f a7bc
00000030: 0ff5 823c 66d5 e83c 8497 5e3c e427 7abd
00000040: 4799 65bc 7468 2cbd 2728 8bbe 8260 e6bc
00000050: ff8e cdbc d96e d93c e3d5 67be df57 63bc
00000060: b327 a0bd 1fa9 e4bc d3bf 88be cda4 68be
00000070: 17e3 c03c 9adc 15bd 6dae d5bc 94fc 69be
00000080: 4f28 4abd 31d5 b43c 6392 d23c 3a30 93be
00000090: 17ab 9139 bc82 52be f803 14be 425b 4dbe
000000a0: 8e6a 4fbe 5c5a 39be 8b6a b83b 82e5 1c3d
000000b0: 6bfc 43bd 4649 103d 4184 c43c 040a 80be
000000c0: 5e15 f2bc 7217 60bc f64f f8bc d37f 39be
000000d0: c8e8 d2bc c14a 91be 1e72 66bc dc69 19bd
000000e0: 4cdc 41bd ba79 05bd c024 b0bd 30fd 5ebd
000000f0: 2d58 753d a8c4 31be 3713 1bbc bef6 aabc
00000100: bca5 72be 421e 03bc 22d2 92bd fde5 93bc
00000110: de31 69bc 59bf a2bc ae38 23bd 13b0 83be
00000120: e919 843a ded9 54be 83f2 acbd dd48 9ebd
00000130: e803 e8bc a37f abbc a488 5ebd f131 333d
00000140: 46fc abbd 778c 8dbc d4d9 37be 9f8a fb3c
00000150: 3372 d63c ddc2 603c bc53 82bc 805f 54bd
00000160: 90df 8bbd fbdd 3abd 1308 82bc 1451 6bbe
00000170: 2dfb 33bd a22f 70bd d49c b33b 0741 b8bd
00000180: 68a0 3fbd 59bd 8ebd 6bf5 8c3d f6a5 a0bd
-0.15559645 -0.0135760205 -0.034975704 -0.21030475 0.038366392 -0.03724438 -0.008623576 0.00400176
-0.022404779 -0.037645597 -0.10743964 -0.020431362 0.015985994 0.028422069 0.013585929 -0.0610732
-0.014013595 -0.0420918 -0.2717907 -0.02812219 -0.0250926 0.026542114 -0.22640185 -0.013875931
-0.07820072 -0.027912674 -0.2670885 -0.22719117 0.023545785 -0.036587335 -0.02608415 -0.22850257
-0.049354848 0.022074314 0.025704568 -0.2874773 0.00027784027 -0.20557684 -0.14454639 -0.20054343
-0.20255491 -0.18100876 0.0056279353 0.038304813 -0.047848146 0.03522613 0.023988845 -0.2500764
-0.029551204 -0.013677465 -0.030311566 -0.18115167 -0.025745764 -0.28377345 -0.014065294 -0.03745447
-0.047329232 -0.03258679 -0.086007595 -0.054440677 0.059898544 -0.17360175 -0.00946503 -0.020869609
-0.23696035 -0.0080028195 -0.07168986 -0.018054003 -0.014233081 -0.019866632 -0.039848976 -0.2572027
0.0010078523 -0.20786235 -0.08444693 -0.07728741 -0.028322175 -0.020934885 -0.05432953 0.0437488
-0.08397727 -0.017278893 -0.17954189 0.030705748 0.026177501 0.013718334 -0.015909068 -0.05184889
-0.068297505 -0.045621853 -0.01587299 -0.22980148 -0.04394071 -0.058639176 0.005481342 -0.08996778
-0.046783835 -0.06969709 0.06882747 -0.078441545
