Gibbs_MINE/pw_res/model_lk_b=10_s=0.5_p=12.pth (torch, 184215 bytes, 5 tensors)

weight f4 [400, 12]
-0.016667556 0.1213562 0.28404212 -0.35298395 0.2024652 0.30156824 -0.019288784 -0.07945546
-0.36424205 -0.24453706 0.104364336 -0.122379966 0.059918173 0.13452256 -0.135848 -0.12410082
0.2303152 0.051410366 -0.26657495 -0.23958303 0.26027322 -0.32647276 -0.055787645 0.27211532
-0.2550445 0.18423153 0.36841625 -0.29366264 0.08948118 -0.015823778 0.37828517 -0.010538067
0.13569967 0.101817265 0.37869146 -0.085261755 -0.06601871 -0.008637583 -0.30122018 -0.1813545
0.2172017 0.21909708 -0.17408541 0.10246739 -0.31554812 -0.24953371 0.33296847 -0.27526578
-0.0157545 0.032769434 0.2587876 -0.0044493894 -0.039286807 0.23887819 0.2481135 -0.032945044
0.22396109 -0.21868606 -0.18759096 -0.062100984 0.24805835 0.060057778 -0.21091008 -0.26727626
0.20062673 -0.2122486 0.109731995 -0.17196587 -0.045776874 -0.22246318 0.19796748 -0.19416915
0.258758 0.23553433 -0.22818448 -0.09063151 0.11482474 -0.31172553 0.3002935 -0.2940599
0.27283478 0.007780315 -0.25709802 -0.05463448 -0.23050223 0.099575266 0.32669815 0.28945068
0.181377 0.2872017 0.1644199 -0.07523051 0.17758998 -0.144798 -0.11639888 -0.0696082
-0.19328941 0.23685552 0.25935993 0.047773443 -0.15683186 -0.13010736 0.07460638 -0.1979086
0.13248184 0.062692255 -0.060673937 -0.24278374 0.043881044 0.20533076 0.2837244 -0.17434934
0.23340678 0.07546773 -0.00241995 0.31093752 0.13940421 -0.2883607 -0.042646494 -0.23050867
-0.048443176 -0.035445895 -0.3752827 -0.23435675 -0.11521206 -0.2834647 -0.037204783 -0.26075017
0.17595622 0.26431295 -0.266138 0.18097845 0.1553979 0.0017589417 -0.22027916 0.04057604
-0.11088322 0.15938485 -0.2770038 0.20529614 0.0031572864 0.32121664 -0.25756487 -0.05286003
-0.40084413 0.105009876 -0.21420065 -0.2874368 0.11382808 -0.0014202355 0.050042808 -0.32769284
-0.16431506 0.012980006 0.27206972 0.04337936 0.31463155 0.029446613 0.25842777 0.047369372
-0.14024073 0.2547554 0.04148539 0.2501674 -0.17279853 -0.15985592 0.0073094275 -0.020810181
0.038728915 -0.17119698 0.101140276 0.171206 0.19738604 -0.24716727 0.13495298 0.30448306
0.13769233 -0.07539004 -0.26792395 -0.108907774 0.1633572 -0.043279614 0.109620735 0.22726353
-0.35542986 0.29754773 0.28496894 -0.14135054 0.17793103 -0.15709083 0.2854667 0.13955712
-0.31600422 0.049372032 0.16702291 -0.0798662 -0.16087967 -0.034899566 -0.029477209 -0.34570014
0.21750917 -0.09729583 0.01194614 0.23312083 -0.24140313 -0.21298993 0.4041216 0.22921209
0.17503989 0.15132546 0.2325485 -0.086390644 0.18508051 0.1581654 0.015733013 -0.17555182
-0.3862188 -0.2596955 -0.10976265 0.0686078 -0.08837166 0.056380175 -0.07598192 -0.14113607
-0.04342863 0.16077802 0.14798824 0.12271777 -0.11833018 -0.13184102 -0.14659274 0.13791633
0.25331458 -0.10123459 -0.044128217 -0.07071299 -0.26962003 -0.28913772 0.19904165 -0.23889698
0.22416602 0.16642548 0.31451368 0.18344188 0.0010029671 0.13025 0.00938436 0.2596971
-0.32730156 0.12225235 0.027351823 -0.20529453 0.065458715 0.046545275 -0.11181469 -0.25156695
00000000: 668a 88bc 9989 f83d f86d 913e 50ba b4be
00000010: 0a53 4f3e 2767 9a3e 8303 9ebc 8bb9 a2bd
00000020: ef7d babe ec67 7abe f8bc d53d 59a2 fabd
00000030: c26c 753d 48c0 093e bd1b 0bbe 9228 febd
00000040: bfd7 6b3e ad93 523d 837c 88be 4155 75be
00000050: 8842 853e 7027 a7be 9681 64bd b352 8b3e
00000060: 3195 82be 31a7 3c3e 0ea1 bc3e f35a 96be
00000070: e941 b73d dea0 81bc 98ae c13e dba7 2cbc
00000080: dbf4 0a3e 9285 d03d d9e3 c13e b79d aebd
00000090: d134 87bd a684 0dbc 8839 9abe feb4 39be
000000a0: 1f6a 5e3e fc5a 603e 7243 32be 6cda d13d
000000b0: 868f a1be c485 7fbe d87a aa3e a3ef 8cbe
000000c0: 950f 81bc 3e39 063d cf7f 843e 2fcc 91bb
000000d0: 34eb 20bd 7c9c 743e 7711 7e3e 62f1 06bd
000000e0: 0e56 653e 3def 5fbe d817 40be 9a5d 7ebd
000000f0: 0203 7e3e 25ff 753d d0f8 57be 6fd8 88be
00000100: 1871 4d3e b257 59be 2bbb e03d d217 30be
00000110: 8880 3bbd 63cd 63be fdb7 4a3e 47d4 46be
00000120: ee7b 843e e92f 713e 31a9 69be 039d b9bd
00000130: 3c29 eb3d 7d9a 9fbe 12c0 993e 058f 96be
00000140: 00b1 8b3e 03f2 fe3b 5aa2 83be 68c8 5fbd
00000150: c708 6cbe 1eee cb3d fb44 a73e e132 943e
00000160: e4ba 393e 1a0c 933e b15d 283e 7412 9abd
00000170: 26da 353e ed45 14be 8962 eebd be8e 8ebd
00000180: a9ed 45be 418a 723e d3ca 843e 16ae 433d
00000190: 8898 20be dd3a 05be 3bcb 983d 8da8 4abe
000001a0: 52a9 073e cc64 803d 3c85 78bd 4d9c 78be
000001b0: 9cbc 333d 3a42 523e 5344 913e a288 32be
000001c0: 3002 6f3e d38e 9a3d 0698 1ebb 3433 9f3e
000001d0: fabf 0e3e 03a4 93be 17ae 2ebd 770a 6cbe
000001e0: 5a6c 46bd b72f 11bd 0e25 c0be 37fb 6fbe
000001f0: 4df4 ebbd 4922 91be 0b64 18bd 0c81 85be
00000200: de2d 343e 0754 873e 3d43 88be 6a52 393e
00000210: a120 1f3e 4a8c e63a dc90 61be 1033 263d
00000220: be16 e3bd c835 233e 71d3 8dbe 2739 523e
00000230: 7aea 4e3b 8276 a43e 8bdf 83be c283 58bd
00000240: 713b cdbe 6b0f d73d 6a57 5bbe eb2a 93be
00000250: b21e e93d 3227 baba b0f9 4c3d 5bc7 a7be
00000260: 3542 28be 17aa 543c b94c 8b3e 8eae 313d
00000270: 6317 a13e 063a f13c a550 843e 6306 423d
00000280: 449b 0fbe 4d6f 823e 96ec 293d f115 803e
00000290: 19f2 30be 45b1 23be ec83 ef3b 1d7a aabc
000002a0: 36a2 1e3d 434e 2fbe a222 cf3d a050 2f3e
000002b0: 911f 4a3e 6b19 7dbe 1d31 0a3e 34e5 9b3e
000002c0: 38ff 0c3e 1866 9abd 542d 89be 0a0b dfbd
000002d0: 1c47 273e f745 31bd d680 e03d c5b7 683e
000002e0: e7fa b5be 2d58 983e 73e7 913e 32be 10be
000002f0: 8d33 363e 6bdc 20be b128 923e 10e8 0e3e
00000300: 4ecb a1be 543a 4a3d 0e08 2b3e e490 a3bd
00000310: a4bd 24be d9f2 0ebd 307a f1bc 9cff b0be
00000320: b9ba 5e3e 0943 c7bd beb9 433c 3ab7 6e3e
00000330: 6232 77be 081a 5abe 07e9 ce3e 93b6 6a3e
00000340: a83d 333e 10f5 1a3e 3221 6e3e 94ed b0bd
00000350: bf85 3d3e 1cf6 213e 85e2 803c dbc3 33be
00000360: 78be c5be cff6 84be 3ecb e0bd 3f82 8c3d
00000370: 33fc b4bd e6ee 663d 699c 9bbd f985 10be
00000380: 38e2 31bd fea2 243e 3b8a 173e 7453 fb3d
00000390: 1857 f2bd 5501 07be 681c 16be f039 0d3e
000003a0: 73b2 813e 1554 cfbd cabf 34bd f9d1 90bd
000003b0: a30b 8abe dc09 94be 93d1 4b3e 69a1 74be
000003c0: c78b 653e 716b 2a3e f007 a13e 30d8 3b3e
000003d0: fe75 833a 4260 053e dcc0 193c 05f7 843e
000003e0: 1294 a7be 715f fa3d ee10 e03c bb38 52be
000003f0: 380f 863d 42a6 3e3d 1aff e4bd 62cd 80be

bias f4 [400]
-0.27914315 0.019666241 -0.13092402 -0.018555721 -0.048804052 -0.39311576 -0.31858486 -0.2858541
0.00562656 0.18717441 0.06194034 -0.23033135 0.01461134 -0.24682088 0.013406405 -0.11969668
0.27048898 0.22196713 0.019707743 0.14529516 -0.31372744 -0.1278493 -0.32359496 -0.1769898
-0.31414774 0.003205882 -0.029066607 0.20775172 0.07642268 0.211757 -0.31761208 -0.17737229
-0.25417882 0.18047974 0.22722857 -0.20783237 0.055887002 -0.33424735 -0.17638299 -0.030262034
-0.24487141 -0.2930039 -0.2538304 -0.25186646 0.15109119 -0.11955558 0.08230043 -0.13179083
-0.24801032 0.10435689 -0.09076069 0.2467599 -0.3074176 0.11112358 -0.10526067 -0.34289128
0.25110915 -0.22610876 -0.044790365 0.013347698 -0.021731414 0.0097330175 -0.039833553 -0.26693976
-0.06372088 -0.22315402 -0.026216524 -0.16935538 -0.3558301 -0.39292946 0.38696575 -0.2819362
-0.11057863 0.32674223 -0.18203102 0.118710704 -0.18860073 0.10517607 0.14495522 -0.17303544
-0.15149751 -0.25886625 -0.2575774 -0.117047645 0.05033262 0.04999774 -0.1564572 0.06146285
-0.31983775 0.07888299 0.14473216 -0.17680445 -0.13566199 0.12070774 0.026666507 -0.28714937
-0.17166947 -0.36788896 -0.07292062 0.09786744 -0.0023141075 -0.077884056 -0.09577404 -0.022461789
-0.05016829 -0.26055467 -0.18397284 0.10958237 -0.07174452 0.21323751 -0.050689522 0.17219079
-0.11123595 -0.013951661 -0.22272605 -0.13822903 -0.16764796 -0.26967862 0.21104147 -0.40511614
-0.074266285 -0.25577262 -0.23039578 0.08572052 0.1397492 -0.27211702 -0.09204159 -0.27796578
0.0160438 -0.29967618 0.10621249 0.24719264 0.037116297 -0.16520688 0.41304207 -0.28200588
-0.13109872 0.14067188 -0.27155352 0.1439912 -0.08260992 0.08444918 -0.23914754 -0.19091596
0.07743559 0.013502794 -0.19958477 0.29394287 -0.32103652 -0.17916478 -0.14086911 -0.33531168
-0.14369497 -0.3351931 -0.30759317 -0.3291749 0.012438165 -0.29322305 -0.3628179 0.055504445
0.15516135 0.016296726 0.053108227 -0.059639074 -0.18749051 -0.015650166 0.22524211 -0.30294722
-0.28226283 0.12850778 -0.26672417 -0.26188883 0.15984838 -0.07291124 -0.19647987 -0.12947388
-0.080567025 -0.16877359 -0.16333075 -0.262001 0.08476255 -0.35620248 0.04299038 0.0024912334
-0.048843127 -0.1518752 -0.1744481 -0.1828641 -0.4000728 -0.21367334 -0.194493 -0.2088678
-0.055651236 0.316899 0.068908356 -0.15325727 -0.28476188 0.096663006 -0.22234385 0.13143262
-0.30072635 0.18131064 -0.22127172 -0.32216197 -0.25225937 -0.25083384 0.10964932 0.05835104
0.10565729 -0.1401964 -0.055729005 -0.28673676 -0.3326881 0.064399086 -0.24145447 -0.13071875
0.09307756 -0.28278628 -0.12508112 -0.12761271 0.11438175 -0.3100303 0.07956609 -0.15882622
-0.076464035 -0.1663539 -0.05113539 -0.115409985 -0.07292599 -0.21084423 0.16894981 0.11144512
0.13102151 -0.37928075 -0.0134192305 -0.17848006 -0.28730682 0.1576874 0.010162045 -0.28103992
0.10279793 -0.07414017 -0.061600722 0.4064258 -0.21441461 -0.000612195 0.060627025 -0.06748712
-0.38844875 -0.1867714 -0.008109566 -0.09058842 -0.036676407 -0.39113894 0.18334411 0.22229795
00000000: daeb 8ebe 191b a13c f210 06be 2b02 98bc
00000010: c2e6 47bd 7846 c9be 8e1d a3be 785b 92be
00000020: 025f b83b a6aa 3f3e 27b5 7d3d fbdb 6bbe
00000030: 6764 6f3c 9dbe 7cbe 8aa6 5b3c 8823 f5bd
00000040: 887d 8a3e 5a4b 633e 2272 a13c 41c8 143e
00000050: e2a0 a0be edea 02be 3dae a5be d03c 35be
00000060: f9d7 a0be c619 523b 181d eebc debc 543e
00000070: 7e83 9c3d d4d6 583e 0d9e a2be 15a1 35be
00000080: ba23 82be aecf 383e 9bae 683e 02d2 54be
00000090: c5e9 643d 7822 abbe be9d 34be 16e8 f7bc
000000a0: 92bf 7abe 9b04 96be 0ff6 81be a4f4 80be
000000b0: a6b7 1a3e 8ed9 f4bd 218d a83d 2df4 06be
000000c0: 6bf6 7dbe 11b9 d53d bee0 b9bd a1ae 7c3e
000000d0: d765 9dbe c294 e33d e892 d7bd 728f afbe
000000e0: 6191 803e 0e89 67be 1a76 37bd 4eb0 5a3c
000000f0: 1406 b2bc 3c77 1f3c 8228 23bd 54ac 88be
00000100: 1880 82bd 7d82 64be 09c4 d6bc 7f6b 2dbe
00000110: 5d2f b6be 0d2e c9be 6020 c63e f159 90be
00000120: 0c77 e2bd c24a a73e 5766 3abe 991e f33d
00000130: 8d20 41be 8d66 d73d 246f 143e 3430 31be
00000140: 2a22 1bbe 1e8a 84be 2fe1 83be adb6 efbd
00000150: 9429 4e3d 6eca 4c3d 5136 20be 78c0 7b3d
00000160: c6c1 a3be 688d a13d ab34 143e 3a0c 35be
00000170: faea 0abe 9f35 f73d b873 da3c 3e05 93be
00000180: 1fca 2fbe f15b bcbe 6857 95bd b96e c83d
00000190: 48a8 17bb ad81 9fbd 2e25 c4bd c901 b8bc
000001a0: 447d 4dbd 6c67 85be 6063 3cbe b96c e03d
000001b0: caee 92bd ef5a 5a3e d19f 4fbd c852 303e
000001c0: accf e3bd 8295 64bc 4c12 64be e98b 0dbe
000001d0: e8ab 2bbe 5113 8abe 411b 583e 626b cfbe
000001e0: ec18 98bd a1f4 82be dfec 6bbe 3d8e af3d
000001f0: 6a1a 0f3e ec52 8bbe 4d80 bcbd 8851 8ebe
00000200: 4a6e 833c 286f 99be ef85 d93d 1120 7d3e
00000210: 4207 183d fe2b 29be 407a d33e 1363 90be
00000220: be3e 06be 4a0c 103e 1009 8bbe 6e72 133e
00000230: 642f a9bd b1f3 ac3d 18e3 74be 797f 43be
00000240: 8d96 9e3d d33a 5d3c f35f 4cbe ae7f 963e
00000250: e65e a4be f976 37be fe3f 10be f9ad abbe
00000260: c624 13be 6e9e abbe da7c 9dbe 9d89 a8be
00000270: 72c9 4b3c 5521 96be 45c3 b9be a158 633d
00000280: 9ee2 1e3e b680 853c 0388 593d 1a48 74bd
00000290: 83fd 3fbe c734 80bc dea5 663e e61b 9bbe
000002a0: c184 90be 8b97 033e 1290 88be 4b16 86be
000002b0: 4baf 233e 7d52 95bd 0532 49be cd94 04be
000002c0: 5300 a5bd fcd2 2cbe 2d40 27be ff24 86be
000002d0: fd97 ad3d 2c60 b6be ae16 303d f643 233b
000002e0: bb0f 48bd 2c85 1bbe 86a2 32be ba40 3bbe
000002f0: 58d6 ccbe 2fcd 5abe 2c29 47be 71e1 55be
00000300: 8df2 63bd 9640 a23e d31f 8d3d 79ef 1cbe
00000310: 4fcc 91be 41f7 c53d 1bae 63be 4696 063e
00000320: cef8 99be 7fa9 393e 0e95 62be 6af2 a4be
00000330: 2428 81be 4b6d 80be d38f e03d 8001 6f3d
00000340: d962 d83d a58f 0fbe 1944 64bd 29cf 92be
00000350: 1856 aabe abe3 833d d73f 77be 23db 05be
00000360: 739f be3d 5dc9 90be 4415 00be e8ac 02be
00000370: fb40 ea3d 4bbc 9ebe 8cf3 a23d 57a3 22be
00000380: 2d99 9cbd ad58 2abe 5873 51bd 125c ecbd
00000390: 395a 95bd 8de7 57be 2e01 2d3e 573d e43d
000003a0: 812a 063e 1631 c2be 55dc 5bbc 7ac3 36be
000003b0: e119 93be ce78 213e b57e 263c 77e4 8fbe
000003c0: b987 d23d cdd6 97bd 0a51 7cbd 0b17 d03e
000003d0: 818f 5bbe b67b 20ba 0b54 783d b036 8abd
000003e0: c1e2 c6be 0041 3fbe fcdd 04bc 6c86 b9bd
000003f0: 003a 16bd 5d43 c8be 8fbe 3b3e 13a2 633e

weight f4 [100, 400]
-0.066529974 -0.0026588866 -0.08870554 -0.04535454 -0.09289102 -0.034848697 -0.056202397 -0.08109679
-0.042220414 -0.056210138 -0.124476545 -0.011483375 -0.051088918 -0.010214307 -0.06411124 -0.01260908
-0.04139946 -0.11592791 -0.10595552 -0.11358217 -0.0035115792 -0.07665931 -0.06801181 -0.010156507
-0.020501073 -0.019299177 -0.070979185 -0.03726722 -0.076308884 -0.04934395 -0.05736674 -0.023220286
-0.033534206 -0.022113958 -0.08711684 -0.016898695 -0.009915305 -0.08708741 -0.055311047 -0.08056657
-0.063070126 -0.10289815 -0.00043898507 -0.07289792 -0.0037228486 -0.06600061 -0.039042395 -0.034964968
-0.012139207 -0.082693025 -0.03295484 -0.061323017 -0.08278201 -0.09704332 -0.057059787 -0.11507168
-0.078734964 -0.060379036 -0.08757993 -0.07629982 -0.031996008 -0.037760504 -0.11335497 -0.07244588
-0.08456092 -0.029049933 0.059135105 -0.013909849 -0.012841499 -0.018628668 0.029210811 -0.04055796
-0.06949695 -0.004794001 -0.10190266 -0.092231244 0.01617068 -0.10002429 -0.12856203 -0.07302169
-0.05453098 -0.060889173 -0.08763414 -0.110740185 -0.08686996 -0.05659261 -0.116125226 -0.031945758
-0.10883444 -0.030745922 -0.083118126 -0.11259922 -0.066231616 -0.09132958 -0.03740796 -0.037649196
-0.08371252 -0.013750124 -0.033728763 -0.091741726 -0.0333387 -0.14872298 -0.06659827 -0.09086324
-0.0605707 -0.04740022 -0.063943855 0.0021515554 -0.051116522 0.028149374 -0.036104977 -0.006019233
-0.053430513 -0.08204482 -0.03418616 -0.023951173 -0.06256016 -0.054461285 -0.016078262 -0.035173703
-0.024933862 -0.079482906 -0.11792404 -0.087483406 -0.077253714 -0.1204164 0.085210636 -0.12279037
-0.022028832 -0.10382364 0.012390829 0.037926186 -0.0661927 -0.0650248 0.06773908 -0.047143437
-0.021099404 0.07672525 -0.04978396 -0.03611043 -0.05660411 -0.12775448 -0.026138196 -0.074416794
-0.01651911 -0.054703478 -0.03760392 0.048655167 -0.0074955113 -0.084678054 -0.052573822 -0.040854305
-0.05008474 -0.08744127 -0.101485424 0.00025830392 -0.019059528 -0.014227895 -0.06738655 -0.010341058
-0.06873861 -0.0068002595 -0.11628818 -0.11911091 -0.02394827 0.024068335 0.045656804 -0.10275125
-0.04482942 -0.059631173 -0.048885282 -0.037128072 -0.046943266 -0.08164605 -0.008736792 -0.11451466
0.011202383 -0.0911003 -0.039867602 -0.076334484 -0.11024387 -0.12461572 -0.00027694277 -0.08996377
-0.03341487 -0.118406124 -0.031453352 -0.028292792 -0.057116933 -0.105119854 -0.10206238 -0.03512975
-0.05408244 -0.032678172 0.07495823 0.04370399 -0.11906775 -0.055693477 -0.1127086 -0.097919926
-0.04573466 0.002385394 -0.08609607 -0.113476105 -0.09468729 -0.0805674 -0.06931004 -0.042507477
-0.06611732 -0.035912618 -0.054788947 -0.081070215 -0.051770728 -0.0059256623 -0.06598616 -0.026852319
-0.014141863 -0.118327245 -0.10407214 -0.02496087 -0.05838303 -0.0581791 -0.040070444 -0.08018684
-0.08929156 -0.039091263 -0.061252274 -0.08470435 -0.09256472 0.0042767134 -0.062065925 -0.03414135
-0.0435401 -0.07383533 -0.08768233 -0.039970845 -0.056652516 -0.017010551 -0.063964956 -0.015201581
-0.0062085357 -0.03488469 -0.055531662 -0.06936039 -0.02903225 0.047554012 -0.010953666 -0.0846749
-0.081399605 -0.019701919 -0.053823255 -0.035245713 0.015425491 -0.09668172 -0.050947722 0.007736138
00000000: de40 88bd b740 2ebb 40ab b5bd afc5 39bd
00000010: a63d bebd 82bd 0ebd 7c34 66bd 1316 a6bd
00000020: 50ef 2cbd 9a3c 66bd 8fed febd c424 3cbc
00000030: 9d42 51bd e959 27bc c14c 83bd 5196 4ebc
00000040: 7b92 29bd 9d6b edbd 35ff d8bd c59d e8bd
00000050: 8622 66bb 8eff 9cbd c749 8bbd 7a67 26bc
00000060: def1 a7bc 4f19 9ebc 895d 91bd 83a5 18bd
00000070: d547 9cbd e21c 4abd 63f9 6abd 7838 bebc
00000080: 2a5b 09bd 5528 b5bc 506a b2bd 226f 8abc
00000090: ce73 22bc e25a b2bd d68d 62bd 1600 a5bd
000000a0: e92a 81bd 44bc d2bd 9427 e6b9 814b 95bd
000000b0: 09fb 73bb 542b 87bd ebea 1fbd 6d37 0fbd
000000c0: 86e3 46bc f65a a9bd a8fb 06bd d82d 7bbd
000000d0: 9d89 a9bd a6be c6bd 86b7 69bd b3aa ebbd
000000e0: cc3f a1bd 0250 77bd 1b5d b3bd 1443 9cbd
000000f0: 3f0e 03bd c2aa 1abd a726 e8bd 815e 94bd
00000100: 472e adbd 20fa edbc a737 723d 23e6 63bc
00000110: 2765 52bc 269b 98bc 834b ef3c 1a20 26bd
00000120: 6b54 8ebd ff16 9dbb 58b2 d0bd bce3 bcbd
00000130: 6078 843c 89d9 ccbd c4a5 03be 658c 95bd
00000140: e05b 5fbd ed66 79bd 8779 b3bd c0cb e2bd
00000150: e1e8 b1bd a7cd 67bd 10d3 edbd 8ed9 02bd
00000160: 97e4 debd dfde fbbc d639 aabd 6b9a e6bd
00000170: 71a4 87bd 010b bbbd 1739 19bd 0b36 1abd
00000180: 7871 abbd 3348 61bc 2c27 0abd 16e3 bbbd
00000190: 298e 08bd d64a 18be ac64 88bd 8216 babd
000001a0: fb18 78bd bc26 42bd fff4 82bd 1c01 0d3b
000001b0: 8f5f 51bd 8499 e63c d0e2 13bd fc3c c5bb
000001c0: f4d9 5abd 1d07 a8bd c906 0cbd 4035 c4bc
000001d0: 8b1f 80bd cc12 5fbd 8fb6 83bc 4d12 10bd
000001e0: 1942 ccbc efc7 a2bd 2982 f1bd 802a b3bd
000001f0: 3237 9ebd e09c f6bd ea82 ae3d 8479 fbbd
00000200: cf75 b4bc 7da1 d4bd e702 4b3c 7d58 1b3d
00000210: 0a90 87bd b92b 85bd c9ba 8a3d 7a19 41bd
00000220: a8d8 acbc 2122 9d3d 44ea 4bbd 88e8 13bd
00000230: b6d9 67bd 12d2 02be c51f d6bc d567 98bd
00000240: 1653 87bc c110 60bd 9106 1abd a44a 473d
00000250: e89c f5bb b06b adbd a657 57bd d856 27bd
00000260: a825 4dbd 6914 b3bd 97d7 cfbd f76c 8739
00000270: ba22 9cbc 1e1c 69bc f601 8abd 8a6d 29bc
00000280: d4c6 8cbd b6d4 debb 7f28 eebd 6cf0 f3bd
00000290: 2a2f c4bc f52a c53c a102 3b3d 3f6f d2bd
000002a0: 0e9f 37bd d13f 74bd ef3b 48bd 9b13 18bd
000002b0: 9547 40bd 0b36 a7bd c324 0fbc a986 eabd
000002c0: 338a 373c cb92 babd 364c 23bd 4155 9cbd
000002d0: 8ac7 e1bd 8736 ffbd a132 91b9 ed3e b8bd
000002e0: 08de 08bd e97e f2bd 3bd5 00bd 49c6 e7bc
000002f0: 72f3 69bd 1449 d7bd 1506 d1bd 36e4 0fbd
00000300: 8c85 5dbd 8cd9 05bd b383 993d f402 333d
00000310: cbd9 f3bd d81e 64bd c4d3 e6bd 3e8a c8bd
00000320: 4454 3bbd 4554 1c3b 2353 b0bd 2966 e8bd
00000330: 69eb c1bd 8500 a5bd 6cf2 8dbd 521c 2ebd
00000340: 8468 87bd 1c19 13bd 606a 60bd 2408 a6bd
00000350: 8b0d 54bd 0f2c c2bb c023 87bd 65f9 dbbc
00000360: 46b3 67bc 8e55 f2bd c623 d5bd bd7a ccbc
00000370: 0b23 6fbd 354d 6ebd e820 24bd ff38 a4bd
00000380: 7ede b6bd 291e 20bd aae3 7abd 7979 adbd
00000390: 9292 bdbd ac23 8c3b d738 7ebd cdd7 0bbd
000003a0: 1b57 32bd fa36 97bd cb92 b3bd 78b8 23bd
000003b0: 780c 68bd b659 8bbc 0f00 83bd 0d10 79bc
000003c0: f970 cbbb 40e3 0ebd 2b75 63bd d20c 8ebd
000003d0: 0bd5 edbc ffc7 423d 0177 33bc 096a adbd
000003e0: d6b4 a6bd eb65 a1bc c675 5cbd cf5d 10bd
000003f0: 33bb 7c3c 1101 c6bd 8fae 50bd 6e7f fd3b

bias f4 [100]
-0.08081457 -0.09340978 0.08550434 0.13127354 0.107113145 -0.028776225 0.0026985537 0.08790578
-0.04548685 -0.02247395 0.06798131 0.016092898 -0.03737012 -0.043920312 -0.116775334 -0.019738916
-0.11585678 0.02240574 0.15896338 0.08067854 -0.077413246 -0.07970699 0.037244156 -0.0025511323
-0.07213943 -0.04400442 -0.11022288 -0.06939086 0.002991617 0.38047373 -0.0031944492 -0.11581971
0.0212531 -0.024556592 -0.08690418 0.01580953 0.06371819 -0.07167943 -0.12594226 -0.068260185
0.013892573 0.02454579 -0.097680755 -0.103949815 0.06919879 -0.08165544 -0.055013597 -0.12975192
0.02392262 -0.0055975085 -0.15009125 -0.033475768 0.08924608 -0.050460476 0.07289616 -0.008495643
0.06533324 0.015810214 -0.025983525 0.041995782 -0.076873146 -0.059474565 0.02043235 -0.10188277
0.06944215 0.0781249 0.07183561 0.0026527187 -0.10497625 0.061780803 -0.1210618 -0.048221942
-0.025368055 0.0707442 0.014187023 -0.11150964 -0.13346165 0.07241125 -0.09351241 -0.08070249
-0.031100728 -0.03387015 0.5741195 0.036659967 0.05723747 -0.09603311 0.031032147 -0.07741112
-0.020073676 0.08391029 -0.049518228 -0.109098755 -0.4827846 0.0020812312 -0.11626055 -0.037174903
0.0007030092 -0.09451865 0.19877201 0.0020541546
00000000: 1c82 a5bd a04d bfbd e61c af3d 926c 063e
00000010: 235e db3d 1ebc ebbc 38da 303b f207 b43d
00000020: 6b50 3abd 4a1b b8bc c939 8b3d 41d5 833c
00000030: 6911 19bd c9e5 33bd e827 efbd 82b3 a1bc
00000040: 5246 edbd 3e8c b73c 4cc7 223e ca3a a53d
00000050: d68a 9ebd 6b3d a3bd 548d 183d e630 27bb
00000060: d6bd 93bd fb3d 34bd 89bc e1bd cc1c 8ebd
00000070: 010f 443b 74cd c23e f759 51bb e232 edbd
00000080: fb1a ae3c e82a c9bc d2fa b1bd fd82 813c
00000090: af7e 823d aacc 92bd 02f7 00be ffcb 8bbd
000000a0: ad9d 633c 4114 c93c d90c c8bd a4e3 d4bd
000000b0: 18b8 8d3d f83a a7bd f055 61bd b0dd 04be
000000c0: 5ff9 c33c 4e6b b7bb 85b1 19be e31d 09bd
000000d0: a6c6 b63d a5af 4ebd 954a 953d 4f31 0bbc
000000e0: 6fcd 853d 6c84 813c 67db d4bc c503 2c3d
000000f0: ab6f 9dbd 9a9b 73bd be61 a73c eaa7 d0bd
00000100: b037 8e3d f3ff 9f3d 8c1e 933d 3cd9 2d3b
00000110: cafd d6bd de0d 7d3d 40ef f7bd 5f84 45bd
00000120: abd0 cfbc 56e2 903d b070 683c 2b5f e4bd
00000130: 2caa 08be 594c 943d 6f83 bfbd 5947 a5bd
00000140: f4c6 febc 6dbb 0abd 7ff9 123f c328 163d
00000150: d671 6a3d 02ad c4bd 2137 fe3c b989 9ebd
00000160: 8d71 a4bc 28d9 ab3d a0d3 4abd 2b6f dfbd
00000170: 8b2f f7be 4465 083b 031a eebd b644 18bd
00000180: 264a 383a fe92 c1bd e48a 4b3e ff9e 063b

weight f4 [1, 100]
0.023635723 -0.00049337023 -0.23967677 -0.012843562 -0.2542157 0.012850586 -0.0016330322 -0.004770651
-0.079018556 -0.20983274 -0.16229337 -0.1938021 -0.03856712 -0.02770637 -0.010271596 -0.1450164
-0.040022906 -0.26464087 0.015954448 -0.17541069 0.020468878 -0.08200004 -0.0417254 -0.060258448
-0.014857409 0.018896837 -0.02136771 0.0025914512 -0.016526503 -0.2237453 0.05824105 -0.01670128
-0.25299188 -0.003104973 -0.06819207 -0.26137602 0.005275702 0.05772946 -0.084066324 -0.033709303
-0.022016067 -0.1537313 -0.05228894 -0.038105007 -0.046583552 -0.040242016 0.036644675 -0.010976973
-0.24100895 -0.0265309 0.017113367 -0.044422083 -0.011235854 -0.032617502 0.016697843 -0.021475865
-0.26996502 -0.09203592 -0.118225046 0.03109356 0.0063626296 -0.06794029 -0.1662641 -0.017934743
-0.16530564 -0.22228877 -0.06606538 0.029377706 0.004529165 -0.00817924 -0.022250416 0.02020516
0.03338316 -0.014492054 -0.10937378 -0.05882324 -0.059487868 -0.16486584 0.037521888 -0.07222616
0.03671497 -0.13785642 -0.3413194 -0.14201435 -0.03946127 -0.017714381 -0.21685144 0.0060151266
-0.067260526 -0.23192197 -0.037738457 0.0012635714 -0.088806294 0.023830585 -0.03071842 0.031480372
-0.09368433 -0.005238629 0.049970433 -0.17254652
00000000: b49f c13c 8455 01ba d46d 75be ce6d 52bc
00000010: 8f28 82be 448b 523c 780b d6ba 1f53 9cbb
00000020: 7bd4 a1bd 65de 56be 3c30 26be 0f74 46be
00000030: 8ef8 1dbd 78f8 e2bc 324a 28bc 2e7f 14be
00000040: 0fef 23bd 027f 87be e7b2 823c dc9e 33be
00000050: 59ae a73c a3ef a7bd 41e8 2abd 90d1 76bd
00000060: 7d6c 73bc 8acd 9a3c 560b afbc 56d5 293b
00000070: 9762 87bc 7d1d 65be 2b8e 6e3d 1fd1 88bc
00000080: 2788 81be cd7c 4bbb 49a8 8bbd 14d3 85be
00000090: ccdf ac3b ba75 6c3d f72a acbd c412 0abd
000000a0: 0a5b b4bc bd6b 1dbe ed2c 56bd ff13 1cbd
000000b0: 65ce 3ebd d0d4 24bd ba18 163d c3d8 33bc
000000c0: 0dcb 76be 5457 d9bc 5531 8c3c eef3 35bd
000000d0: 9616 38bc ee99 05bd eac9 883c 27ee afbc
000000e0: db38 8abe 547d bcbd f91f f2bd ecb7 fe3c
000000f0: 9b7d d03b 4724 8bbd 2341 2abe e2eb 92bc
00000100: e245 29be ab9f 63be 494d 87bd 84a9 f03c
00000110: 6469 943b 3802 06bc 8146 b6bc 4b85 a53c
00000120: c8bc 083d 1470 6dbc 5cff dfbd a3f0 70bd
00000130: 8da9 73bd 97d2 28be 8db0 193d 4feb 93bd
00000140: 7062 163d 3c2a 0dbe 6bc1 aebe 366c 11be
00000150: 24a2 21bd c01d 91bc 4e0e 5ebe 8a1a c53b
00000160: e3bf 89bd f47c 6dbe a493 1abd 6c9e a53a
00000170: 13e0 b5bd 5c38 c33c 32a5 fbbc 90f1 003d
00000180: 92dd bfbd cea8 abbb ccad 4c3d 09b0 30be
