Gibbs_MINE/pw_res/model_lk_b=10_s=0.5_p=22.pth (torch, 200215 bytes, 5 tensors)

weight f4 [400, 22]
-0.091604725 0.14868556 0.29230228 -0.036659595 0.12714109 0.3362824 0.09989027 -0.11423226
-0.16386253 -0.3523426 0.13734998 -0.024340399 -0.0636986 0.1224642 0.06359752 -0.064168565
0.15365039 -0.019701928 -0.1755162 -0.23180799 0.34710434 -0.25974664 -0.040330194 0.012782968
-0.18099958 -0.0655519 0.21221952 -0.10994857 0.060849566 -0.119301274 0.38070375 0.10149957
0.16691889 0.15256427 0.3597762 -0.01816853 0.01219439 0.12107207 -0.21007204 -0.050208922
0.06589277 0.24089281 0.07972097 0.18860787 -0.121573836 -0.15085869 0.25774837 -0.24454366
-0.02356214 0.102924295 0.23168106 -0.066044785 0.050619323 0.16795665 0.1822505 0.101531796
0.23700821 -0.016748304 -0.31382233 -0.0026760367 0.17051777 -0.099456124 -0.055370115 -0.2474749
0.2603636 -0.09268146 0.0006615663 0.0861 0.010017025 -0.16900839 0.3263663 0.03913012
0.08849691 0.07457774 -0.272036 -0.09620895 0.2010235 -0.25742579 -0.02447883 -0.37445617
0.219832 0.054812398 -0.2794889 -0.17397583 -0.19664133 0.08839657 0.18716641 0.1224303
0.17152156 0.07011578 0.20135942 -0.13026851 -0.050735004 -0.021397302 -0.057052687 0.19876772
-0.27307618 -0.057560526 0.116933614 0.07589284 -0.16287668 -0.21621014 -0.01358009 -0.093222134
0.13176349 0.120114654 0.028089633 -0.30523786 0.021334287 0.13116968 0.14629339 -0.16577823
0.28047255 0.055375364 -0.08026276 0.27263147 0.25857848 -0.15696758 0.021566186 -0.4076318
-0.090651356 -0.012395961 -0.021147914 -0.032463584 0.05108619 0.016859071 0.08000649 -0.26489368
0.12665047 0.08834034 -0.09769006 -0.2327618 0.030499073 -0.03189553 -0.05595024 0.1269135
-0.052669775 0.15843327 -0.27904963 0.10510882 -0.06029236 0.3929692 -0.23892078 -0.1795708
-0.13556917 0.0628563 -0.34249288 -0.1556291 0.013085514 0.21819897 0.15505604 0.032519087
-0.2329491 0.16451567 0.3426969 0.09577571 0.19886594 0.053817544 0.08600249 0.005152716
-0.24409176 0.20038277 0.023265818 0.19350743 -0.13656342 -0.04437529 0.089697465 -0.0018611911
0.07359449 -0.2994195 0.15662447 0.041464295 0.117052704 -0.13533524 0.05664447 0.1417159
0.013808317 -0.0362018 -0.3165592 -0.15430653 0.30292472 0.07507548 0.041343857 0.059717566
-0.23616758 0.251088 0.18746994 -0.09629895 0.13285007 0.015036282 0.1741394 0.023921909
-0.26796278 0.084506266 0.07498895 0.0032578334 -0.24226457 0.02149544 -0.099720865 -0.28850704
0.22394814 0.065569244 0.013685676 0.3632398 -0.31283072 -0.24896295 -0.055817284 -0.0111121405
0.26163542 0.09904337 -0.008551485 -0.11468452 0.21519302 0.28799188 -0.093564995 -0.3129166
-0.05049291 -0.34961593 -0.078413986 -0.23716249 0.030989286 -0.0069962754 0.04993536 -0.36805376
-0.14092262 0.18163845 -0.05531062 -0.010057832 0.051629588 -0.21574964 -0.21784455 0.22968052
0.1155235 -0.15778105 0.039924327 0.0715397 -0.14073047 -0.26026502 0.14142583 -0.16703011
0.16041139 0.06972643 0.26098007 -0.09997767 -0.27188113 0.050860204 -0.23596226 0.03961345
0.0052897152 -0.056169193 0.043617904 -0.120976835 -0.12367677 0.17463307 0.052300055 -0.3509206
00000000: 429b bbbd 0741 183e a5a8 953e 5f28 16bd
00000010: 4631 023e 352d ac3e 4593 cc3d 9af2 e9bd
00000020: 94cb 27be 4066 b4be 79a5 0c3e 8465 c7bc
00000030: 6974 82bd 83ce fa3d 6b3f 823d cf6a 83bd
00000040: 8756 1d3e f065 a1bc 85ba 33be 135f 6dbe
00000050: a9b7 b13e 83fd 84be 4631 25bd a76f 513c
00000060: f457 39be 1340 86bd 1350 593e b72c e1bd
00000070: 653d 793d 3a54 f4bd 9aeb c23e 02df cf3d
00000080: c9ec 2a3e cf39 1c3e 9634 b83e 2bd6 94bc
00000090: fbca 473c a2f4 f73d 201d 57be dfa7 4dbd
000000a0: caf2 863d 9bac 763e bf44 a33d 6c22 413e
000000b0: b4fb f8bd b37a 1abe 98f7 833e a769 7abe
000000c0: 6405 c1bc f9c9 d23d cd3d 6d3e 7d42 87bd
000000d0: 3556 4f3d d4fc 2b3e e09f 3a3e e7ef cf3d
000000e0: 48b2 723e bd33 89bc 52ad a0be 7260 2fbb
000000f0: 369c 2e3e a7af cbbd c6cb 62bd 0f6a 7dbe
00000100: 614e 853e c7cf bdbd f66c 2d3a 3255 b03d
00000110: 731e 243c 8910 2dbe 7c19 a73e e846 203d
00000120: de3d b53d 37bc 983d 4d48 8bbe 3309 c5bd
00000130: 1bd9 4d3e 50cd 83be d487 c8bc b8b8 bfbe
00000140: a41b 613e f782 603d 2b19 8fbe b826 32be
00000150: 585c 49be 4309 b53d 8da8 3f3e bdbc fa3d
00000160: 59a3 2f3e dd98 8f3d 2a31 4e3e 1c65 05be
00000170: 82cf 4fbd 6549 afbc 14b0 69bd c489 4b3e
00000180: a4d0 8bbe 96c4 6bbd e47a ef3d b56d 9b3d
00000190: 25c9 26be 3166 5dbe 077f 5ebc 3feb bebd
000001a0: 02ed 063e acfe f53d 3b1c e63c 2348 9cbe
000001b0: 3ec5 ae3c 5851 063e efcd 153e c5c1 29be
000001c0: 199a 8f3e 47d1 623d cd60 a4bd 5a96 8b3e
000001d0: 6664 843e 1cbc 20be 92ab b03c 1eb5 d0be
000001e0: 6ba7 b9bd 6e18 4bbc 643e adbc 89f8 04bd
000001f0: c13f 513d 091c 8a3c 71da a33d 25a0 87be
00000200: a9b0 013e c8eb b43d ba11 c8bd 1c59 6ebe
00000210: 31d9 f93c e3a4 02bd 142c 65bd 9df5 013e
00000220: 43bc 57bd 553c 223e 98df 8ebe 4b43 d73d
00000230: 1ff5 76bd 4233 c93e a6a7 74be 68e1 37be
00000240: a5d2 0abe ceba 803d 3a5b afbe 3c5d 1fbe
00000250: a064 563c 8d6f 5f3e 03c7 1e3e bc32 053d
00000260: 358a 6ebe cc76 283e f875 af3e 0e26 c43d
00000270: 83a3 4b3e c96f 5c3d 1322 b03d 1dd8 a83b
00000280: 31f3 79be 2431 4d3e f597 be3c d026 463e
00000290: 48d7 0bbe ddc2 35bd 4eb3 b73d 36f3 f3ba
000002a0: b5b8 963d 834d 99be 2a62 203e 77d6 293d
000002b0: 54b9 ef3d 5295 0abe 0804 683d f91d 113e
000002c0: 473c 623c 5748 14bd 0c14 a2be 8802 1ebe
000002d0: f318 9b3e 2cc1 993d 2d58 293d 689a 743d
000002e0: ead5 71be 9b8e 803e 1ff8 3f3e 6238 c5bd
000002f0: d909 083e bd5a 763c 9951 323e e1f7 c33c
00000300: 6b32 89be 9f11 ad3d ce93 993d 6081 553b
00000310: 3414 78be 3417 b03c 743a ccbd 32b7 93be
00000320: a952 653e 2b49 863d e339 603c 91fa b93e
00000330: 592b a0be 25f0 7ebe aaa0 64bd b20f 36bc
00000340: 14f5 853e 40d7 ca3d 871b 0cbc b8df eabd
00000350: 8f5b 5c3e ac73 933e 019f bfbd 9b36 a0be
00000360: a7d1 4ebd dc00 b3be 8397 a0bd b9da 72be
00000370: 3edd fd3c 0341 e5bb 0589 4c3d 8b71 bcbe
00000380: 054e 10be 6eff 393e 648d 62bd 9bc9 24bc
00000390: 8c79 533d 79ed 5cbe a412 5fbe 5f31 6b3e
000003a0: 9697 ec3d 5b91 21be b187 233d 6883 923d
000003b0: a61b 10be 7541 85be efd1 103e f109 2bbe
000003c0: e242 243e bbcc 8e3d 2e9f 853e 18c1 ccbd
000003d0: 0134 8bbe ca52 503d 17a0 71be b741 223d
000003e0: 5955 ad3b ab11 66bd b0a8 323d b4c2 f7bd
000003f0: 3f4a fdbd 03d3 323e 9538 563d ddab b3be

bias f4 [400]
0.03003696 -0.02853343 0.02757589 -0.18797393 -0.30845863 -0.17141946 -0.28231773 -0.31991485
-0.08591071 0.052315976 -0.27726117 -0.22572711 -0.1816895 -0.29356396 -0.036995035 0.063688554
-0.15101585 -0.13663688 -0.025681483 -0.10950384 -0.25079703 -0.3533175 0.005948313 -0.15908077
-0.041267302 0.10883448 -0.096089356 -0.06452435 0.06061435 -0.22631319 -0.15534353 -0.13916926
-0.061571714 0.019222915 -0.05342236 -0.036178205 -0.027221093 -0.2369188 -0.10813209 -0.079574555
0.0038694788 -0.110481225 0.064074434 -0.024798768 -0.16753872 0.04972682 -0.15159683 -0.4555564
-0.07314384 0.01212963 -0.008416617 0.0943664 -0.15799105 -0.074053705 -0.31930095 -0.118366465
0.07279725 -0.048367094 -0.18741778 -0.08807643 -0.1385208 -0.21987163 -0.123786695 -0.11985061
-0.1483447 -0.28154472 -0.09737643 -0.11241385 -0.35359263 0.1269095 -0.13389955 0.09521649
0.09566143 -0.21172158 -0.01886521 -0.111311585 -0.17093055 0.020974698 -0.23020461 -0.0574968
0.014199969 -0.23359412 -0.42802146 -0.21247615 -0.0752061 -0.32604223 -0.21767186 -0.18163346
-0.30216143 -0.2529602 -0.116749935 -0.20944047 -0.033243295 -0.11215444 -0.08165927 0.13330126
-0.07864918 -0.2963185 -0.047298145 -0.27914426 -0.12387369 -0.32726276 -0.30767497 0.052185424
0.06728006 -0.22443022 -0.10603292 -0.203568 -0.05439832 -0.24425615 -0.08896866 -0.1543256
-0.08804065 -0.10409714 -0.099225126 -0.011145724 -0.3180709 -0.11420023 -0.34782994 -0.23873897
-0.010079044 -0.22795974 -0.18126376 0.099521376 -0.09485261 -0.26386774 -0.16250487 -0.21143837
-0.27614433 -0.06385747 -0.2988592 -0.26388726 -0.09920508 -0.30404276 -0.07231993 0.00674439
-0.30188593 -0.12982571 -0.18212044 -0.08640527 -0.09928051 -0.12639643 0.027893748 0.0280383
-0.3385963 -0.06357416 0.07250284 -0.14335462 -0.0405944 -0.22318044 -0.2731155 -0.025787603
-0.025367819 0.0013241464 -0.31471288 -0.22248235 -0.19964689 -0.20088445 -0.16950458 -0.34378332
0.018344535 -0.16672304 -0.15403736 -0.061650094 -0.27546018 -0.2162511 -0.008303898 -0.12717341
-0.31616917 -0.07711155 -0.029107839 -0.10458418 -0.20152622 -0.29119927 -0.03142979 -0.38860285
-0.18158092 -0.23129018 -0.29474723 -0.32269153 0.11864481 0.044792023 -0.19634137 0.05448159
-0.19962178 -0.0064634355 -0.26510593 -0.18269579 -0.1993634 -0.2506396 -0.22211947 -0.0036052794
-0.25462466 -0.17459513 -0.008614022 0.06971173 -0.020373734 -0.19975999 -0.016439157 -0.19624062
-0.0838424 0.07287751 -0.0045415317 -0.2240982 -0.06565983 -0.084088705 -0.09817555 0.007235554
-0.13738093 -0.016923333 -0.08976016 -0.11257219 -0.08607873 0.097362265 0.12269758 -0.36585844
-0.066209786 -0.16609712 0.113133624 -0.18842366 -0.14542532 0.12322511 -0.12628391 -0.08656998
-0.24792096 -0.023649804 0.1443928 -0.20312722 -0.16593967 0.104116544 -0.20283109 -0.13421701
-0.030576454 -0.19844487 -0.18061814 -0.34063452 -0.15570408 -0.22383316 -0.13883026 -0.11781665
-0.029750435 -0.23553078 0.0949395 -0.23628561 -0.27701038 -0.04640535 -0.056182634 0.052746184
0.01056144 -0.17853826 -0.11141067 -0.40963364 -0.06632089 0.04132516 0.061881986 -0.10753043
00000000: 1210 f63c f1be e9bc d5e6 e13c 3d7c 40be
00000010: 4aee 9dbe 9588 2fbe f38b 90be e1cb a3be
00000020: f4f1 afbd 4749 563d 2df5 8dbe 0225 67be
00000030: d00c 3abe 044e 96be 1b88 17bd 256f 823d
00000040: e6a3 1abe 8aea 0bbe f961 d2bc 8d43 e0bd
00000050: 7868 80be 08e6 b4be 11ea c23b 12e6 22be
00000060: e707 29bd 9de4 de3d 7fca c4bd 5825 84bd
00000070: c146 783d a5be 67be 6012 1fbe 6382 0ebe
00000080: 9f32 7cbd 6079 9d3c 68d1 5abd 992f 14bd
00000090: c5fe debc d89a 72be 5b74 ddbd fcf7 a2bd
000000a0: 1597 7d3b fb43 e2bd 7539 833d c926 cbbc
000000b0: 458f 2bbe 5aae 4b3d 333c 1bbe b03e e9be
000000c0: 70cc 95bd 5bbb 463c dae5 09bc 2c43 c13d
000000d0: 68c8 21be 78a9 97bd 6a7b a3be 1e6a f2bd
000000e0: b916 953d 931c 46bd 72ea 3fbe 6a61 b4bd
000000f0: 66d8 0dbe 0726 61be e183 fdbd 3d74 f5bd
00000100: ace7 17be a126 90be 4b6d c7bd 3c39 e6bd
00000110: 180a b5be 90f4 013e f71c 09be dd00 c33d
00000120: 24ea c33d 8bcd 58be 368b 9abc 54f7 e3bd
00000130: 6b08 2fbe 21d3 ab3c c2ba 6bbe c481 6bbd
00000140: fda6 683c 4c33 6fbe a125 dbbe 5993 59be
00000150: a805 9abd 02ef a6be 5fe5 5ebe 1ffe 39be
00000160: e7b4 9abe 0084 81be 971a efbd 9077 56be
00000170: 1f2a 08bd 3ab1 e5bd fa3c a7bd 2080 083e
00000180: d212 a1bd 0fb7 97be b3bb 41bd ffeb 8ebe
00000190: 7db1 fdbd fc8e a7be 9387 9dbe 62c0 553d
000001a0: 21ca 893d 09d1 65be ca27 d9bd 2174 50be
000001b0: c6d0 5ebd 491e 7abe 3335 b6bd 8807 1ebe
000001c0: a84e b4bd e230 d5bd 8b36 cbbd 8e9c 36bc
000001d0: 30da a2be cfe1 e9bd c416 b2be fd77 74be
000001e0: 9322 25bc 476e 69be 359d 39be ddd1 cb3d
000001f0: 1642 c2bd ac19 87be ad67 26be 4d83 58be
00000200: ca62 8dbe b5c7 82bd 1304 99be 3b1c 87be
00000210: 082c cbbd 7eab 9bbe 791c 94bd 0b00 dd3b
00000220: cb90 9abe 08f1 04be c87d 3abe 3ff5 b0bd
00000230: 9453 cbbd 116e 01be 6e81 e43c 94b0 e53c
00000240: 7f5c adbe 2b33 82bd 5e7c 943d 8ecb 12be
00000250: 5046 26bd 6a89 64be cbd5 8bbe 8640 d3bc
00000260: 2cd0 cfbc fb8e ad3a 0c22 a1be 6ad2 63be
00000270: 3c70 4cbe a7b4 4dbe 9c92 2dbe 5e04 b0be
00000280: 4747 963c 72b9 2abe f8bb 1dbe cf84 7cbd
00000290: 1e09 8dbe ee70 5dbe 130d 08bc bf39 02be
000002a0: ede0 a1be a9ec 9dbd 9073 eebc 3b30 d6bd
000002b0: e45c 4ebe 1218 95be 86bc 00bd f4f6 c6be
000002c0: 59f0 39be 55d7 6cbe 1ce9 96be d337 a5be
000002d0: 0dfc f23d d777 373d b60d 49be 1628 5f3d
000002e0: a769 4cbe 3acb d3bb f7bb 87be 9b14 3bbe
000002f0: eb25 4cbe d553 80be 4973 63be 8d46 6cbb
00000300: 2a5e 82be 11c9 32be d421 0dbc 06c5 8e3d
00000310: d1e6 a6bc e28d 4cbe 69ab 86bc 4df3 48be
00000320: 90b5 abbd ce40 953d 21d1 94bb 007a 65be
00000330: a978 86bd b336 acbd 4310 c9bd 3a18 ed3b
00000340: 96ad 0cbe cda2 8abc 2dd4 b7bd 408c e6bd
00000350: 0c4a b0bd de65 c73d de48 fb3d cc51 bbbe
00000360: ff98 87bd 5d15 2abe 9ab2 e73d 22f2 40be
00000370: 60ea 14be 725d fc3d 9250 01be 9a4b b1bd
00000380: fede 7dbe 3cbd c1bc b5db 133e 9500 50be
00000390: 17ec 29be 0e3b d53d f4b2 4fbe 2f70 09be
000003a0: 797b fabc 2235 4bbe f6f3 38be a667 aebe
000003b0: e470 1fbe 8534 65be 8529 0ebe db49 f1bd
000003c0: 2fb7 f3bc fb2e 71be a46f c23d dbf4 71be
000003d0: 4ed4 8dbe 8913 3ebd c31f 66bd 620c 583d
000003e0: e409 2d3c bcd2 36be 472b e4bd 80bb d1be
000003f0: 3fd3 87bd 9244 293d f777 7d3d ea38 dcbd

weight f4 [100, 400]
0.116154574 0.01121426 -0.017148111 0.011290777 0.05867655 0.07753295 0.09347185 0.06411093
0.094871275 0.074052595 -0.035348985 0.08054662 0.040339954 0.009715852 0.068811715 0.098052725
0.15185364 0.024675792 -0.0016828568 0.13085961 0.06346592 0.0021825796 0.107275255 -0.04466709
0.14128262 0.0067733056 0.028244525 0.04112691 0.11478887 -0.0066365055 0.069033176 0.009820671
0.13615714 0.033469792 -0.008561926 0.08636014 -0.05582494 0.11975496 0.095231704 0.032095823
0.07813031 0.02870477 0.046352323 -0.016846268 -0.020737756 0.035113163 -0.09092148 0.19243856
0.068621084 0.09596594 0.112183824 -0.011687762 0.090637214 0.012201335 0.002282631 0.023648784
-0.008895258 0.042373646 0.050640628 0.030057337 0.030330408 -0.015305522 0.04195552 0.03188342
0.013653741 0.19028518 0.012617251 0.1670457 0.26789284 0.08034292 0.016350413 0.12091956
0.07556631 0.036534313 0.054988615 0.015908105 0.054687556 0.14076377 -0.02364128 0.068375215
0.084043846 0.20379013 0.08204512 0.0019401192 0.0022272111 0.101479955 0.04128655 0.046347037
0.09274553 0.192299 0.16147453 0.0028567684 0.085914664 0.04726754 -0.051957972 0.14780876
0.037573695 -0.011976371 -0.023061749 0.14510253 -0.08919751 0.07813651 0.09475308 0.088244565
0.064449884 0.1667765 -0.019161804 0.091620654 0.027501704 -0.0746191 -0.0320646 -0.011429141
0.022408234 0.069551684 -0.016090779 0.25018522 0.058484804 0.1942525 0.11510671 0.10879412
-0.009136856 0.1230749 0.20524132 0.11997306 0.106268786 0.13201562 0.030078862 -0.04855926
0.07809163 0.12203589 0.19795482 0.027244631 0.15177247 0.0023505583 -0.023421405 0.072217114
0.16399637 0.041814994 0.10706013 -0.0014605524 0.043479566 0.021464022 -0.012237903 0.06966053
0.18595779 0.036977943 0.025288604 0.06592946 -0.07058955 -0.03710237 0.021116814 -0.0074983127
0.023293655 -0.02415723 0.097741626 0.08406648 -0.04086045 0.05415914 0.11423509 -0.019804535
0.13521324 -0.11468552 0.072939105 0.07752192 0.06406665 -0.003908318 0.11263963 -0.041954417
0.1825612 -0.02704044 0.17948553 0.03347343 0.088703126 0.12659113 0.11967783 0.08396053
0.10456126 0.05485523 0.019449444 0.113659844 0.10540737 0.076456845 0.017700337 0.08388126
-0.044359628 -0.035766337 -0.021698289 0.1564942 -0.01970894 0.08291755 -0.022037324 0.13849363
0.009008188 0.36416087 -0.0010023144 0.1324715 0.06861885 -0.08454754 0.01482241 -0.013294479
-0.085302584 0.14516197 0.11474133 0.1436602 0.19678614 -0.038767375 0.106123574 0.09334215
0.03823223 0.05729917 0.01042251 -0.03125737 -0.004879322 0.017404769 0.016484292 -0.04902077
-0.06521395 -0.044725172 -0.027358068 0.119408816 0.040751174 0.076132655 -0.009570267 0.021057548
-0.040598914 0.038902726 -0.09725495 0.002264929 0.13436984 0.024411054 -0.007138082 -0.057483327
0.10026385 -0.03056532 0.13079774 0.03941675 0.030989062 -0.04532597 0.0032888001 0.041468147
0.05720971 0.079498656 -0.08464986 0.06281781 0.029122563 0.078560986 0.03480725 0.11128804
0.050966095 0.048917726 0.13021134 0.22366323 0.09245772 0.15012445 0.028354963 0.06791587
00000000: 73e2 ed3d 04bc 373c 327a 8cbc f3fc 383c
00000010: d256 703d 98c9 9e3d 2b6e bf3d 974c 833d
00000020: df4b c23d e3a8 973d 19ca 10bd a0f5 a43d
00000030: 823b 253d 3d2f 1f3c 28ed 8c3d decf c83d
00000040: 857f 1b3e e324 ca3c 4e93 dcba 1000 063e
00000050: 6cfa 813d 9c09 0f3b 21b3 db3d d7f4 36bd
00000060: 64ac 103e 9bf2 dd3b 1061 e73c b174 283d
00000070: 6d16 eb3d 0b77 d9bb 4461 8d3d e1e6 203c
00000080: c76c 0b3e 9f17 093d 5247 0cbc 96dd b03d
00000090: b1a8 64bd 1742 f53d d708 c33d e976 033d
000000a0: c902 a03d 4426 eb3c efdb 3d3d 2f01 8abc
000000b0: 3ae2 a9bc d2d2 0f3d 0a35 babd 9d0e 453e
000000c0: 3689 8c3d ca89 c43d a2c0 e53d 077e 3fbc
000000d0: 01a0 b93d 1ce8 473c 3198 153b 18bb c13c
000000e0: 6bbd 11bc fd8f 2d3d 8c6c 4f3d ce3a f63c
000000f0: 7a77 f83c 03c4 7abc 8dd9 2b3d 3098 023d
00000100: f1b3 5f3c 1eda 423e 96b8 4e3c 070e 2b3e
00000110: 4029 893e d48a a43d 4df1 853c ada4 f73d
00000120: 82c2 9a3d 01a5 153d be3b 613d b751 823c
00000130: 0f00 603d 6124 103e 5cab c1bc 4e08 8c3d
00000140: 2e1f ac3d 5cae 503e 4607 a83d 994b fe3a
00000150: 67f6 113b b9d4 cf3d 161c 293d 64d6 3d3d
00000160: 5ef1 bd3d 07ea 443e 9459 253e 9f38 3b3b
00000170: 07f4 af3d 9c9b 413d e2d1 54bd 2e5b 173e
00000180: e0e6 193d 8a38 44bc feeb bcbc c295 143e
00000190: 2fad b6bd 0906 a03d e70d c23d 91b9 b43d
000001a0: 4dfe 833d 75c7 2a3e 37f9 9cbc 9ca3 bb3d
000001b0: 414b e13c e6d1 98bd 2c56 03bd 4b41 3bbc
000001c0: 7991 b73c 1d71 8e3d cfd0 83bc 4718 803e
000001d0: c38d 6f3d 21ea 463e 11bd eb3d 74cf de3d
000001e0: c0b2 15bc b10e fc3d c82a 523e 70b4 f53d
000001f0: 73a3 d93d 1a2f 073e f267 f63c 13e6 46bd
00000200: 81ee 9f3d f4ed f93d abb4 4a3e 2230 df3c
00000210: 3e6a 1b3e d30b 1a3b 3fde bfbc 91e6 933d
00000220: aaee 273e 3346 2b3d 5742 db3d 0270 bfba
00000230: a117 323d 51d5 af3c 7c81 48bc 2eaa 8e3d
00000240: b86b 3e3e 2f76 173d 0c2a cf3c 0606 873d
00000250: 4191 90bd a8f8 17bd 2bfd ac3c 68b4 f5bb
00000260: 56d2 be3c 62e5 c5bc c32c c83d 0c2b ac3d
00000270: 4a5d 27bd f9d5 5d3d 16f4 e93d 1f3d a2bc
00000280: 5775 0a3e 3ee0 eabd 1961 953d d0c3 9e3d
00000290: 6035 833d 5911 80bb 9baf e63d 65d8 2bbd
000002a0: 53f1 3a3e ea83 ddbc 0ecb 373e 6f1b 093d
000002b0: fca9 b53d 1ba1 013e a619 f53d 80f3 ab3d
000002c0: 3724 d63d e1af 603d 7154 9f3c 7ec6 e83d
000002d0: d2df d73d 6895 9c3d 4c00 913c f0c9 ab3d
000002e0: 71b2 35bd b97f 12bd 9cc0 b1bc 0440 203e
000002f0: a574 a1bc add0 a93d 9e87 b4bc 46d1 0d3e
00000300: 1497 133c 4b73 ba3e 1760 83ba 9ca6 073e
00000310: 0a88 8c3d 4327 adbd b2d9 723c 16d1 59bc
00000320: 1fb3 aebd 57a5 143e 81fd ea3d a91b 133e
00000330: 4e82 493e 8aca 1ebd 5157 d93d 2b2a bf3d
00000340: 6699 1c3d 89b2 6a3d 2dc3 2a3c ba07 00bd
00000350: b8e2 9fbb 7294 8e3c 110a 873c 01ca 48bd
00000360: e48e 85bd be31 37bd 071e e0bc 9c8c f43d
00000370: b4ea 263d 70eb 9b3d 9ccc 1cbc e180 ac3c
00000380: 0c4b 26bd 7758 1f3d 9a2d c7bd 346f 143b
00000390: 3f98 093e b1f9 c73c 92e6 e9bb a373 6bbd
000003a0: 2257 cd3d 1f64 fabc d8ef 053e 7573 213d
000003b0: c6dc fd3c b9a7 39bd e988 573b 81da 293d
000003c0: bb54 6a3d 31d0 a23d e85c adbd a0a6 803d
000003d0: 7192 ee3c 95e4 a03d 0c92 0e3d fcea e33d
000003e0: d3c1 503d f45d 483d 1f56 053e f907 653e
000003f0: 795a bd3d 39ba 193e ab48 e83c 7a17 8b3d

bias f4 [100]
0.081515424 0.10860042 -0.037462685 -0.098247916 0.016682403 -0.09204147 0.0326995 0.002152765
0.0612953 -0.10892189 -0.040844344 -0.09993322 -0.107468136 0.08762518 0.07743358 -0.097907655
-0.096377805 -0.08687653 -0.05687028 0.043489277 -0.103209086 -0.048107807 -0.043695983 -0.023778971
-0.030798683 -0.11845547 -0.082989655 -0.084947415 -0.002129835 -0.034884393 -0.03469453 -0.08833594
-0.06162222 -0.038959492 0.023365961 0.034910027 -0.121760026 0.12286636 0.06117796 0.093536004
-0.06580518 -0.041167766 -0.075219944 -0.09573791 -0.032844335 0.040138636 -0.011772821 -0.010995016
0.008258751 -0.002549893 0.0716962 -0.13340099 -0.12111055 0.024511743 0.040442538 1.180755
-0.024525253 -0.072196 0.030309329 -0.11172823 -0.11813425 -0.03823812 -0.0674784 -0.0097497525
-0.012981626 -0.082181096 0.16338697 -0.18683244 -0.0688743 -0.081063375 0.04533169 0.0030720893
-0.01766164 0.12321764 -0.0644389 -0.093524806 -0.041375007 0.07522723 0.049489774 -0.07367436
-0.00091440853 -0.03206632 -0.068379804 0.024273822 -0.08526294 -0.100590535 0.08651587 -0.094503045
0.09453634 0.07490468 0.04909453 -0.070733055 -0.07323798 -0.039781474 -0.022396658 -0.016253833
-0.0062586516 -0.09244874 -0.1337286 0.08014538
00000000: 8ff1 a63d e669 de3d 7972 19bd 3436 c9bd
00000010: 89a9 883c 3d80 bcbd e9ef 053d 6715 0d3b
00000020: c810 7b3d 7112 dfbd 664c 27bd caa9 ccbd
00000030: 4118 dcbd d574 b33d 7f95 9e3d cf83 c8bd
00000040: ba61 c5bd 52ec b1bd d0f0 68bd d021 323d
00000050: 495f d3bd b10c 45bd 8ffa 32bd 1ecc c2bc
00000060: 854d fcbc c898 f2bd 7bf6 a9bd e9f8 adbd
00000070: b494 0bbb f0e2 0ebd da1b 0ebd 79e9 b4bd
00000080: 9567 7cbd fd93 1fbd f969 bf3c d1fd 0e3d
00000090: 525d f9bd 5ca1 fb3d be95 7a3d ce8f bf3d
000000a0: dec4 86bd 889f 28bd ea0c 9abd 3d12 c4bd
000000b0: c887 06bd 6968 243d cae2 40bc 7124 34bc
000000c0: b64f 073c 1b1c 27bb 75d5 923d 459a 08be
000000d0: cf08 f8bd dacc c83c 13a7 253d fb22 973f
000000e0: 2fe9 c8bc 7fdb 93bd 454b f83c c5d1 e4bd
000000f0: 5ff0 f1bd 939f 1cbd 1e32 8abd 6dbd 1fbc
00000100: e3b0 54bc 904e a8bd ea4e 273e 0151 3fbe
00000110: f80d 8dbd 8e04 a6bd b9ad 393d 1b55 493b
00000120: 25af 90bc 8859 fc3d 8bf8 83bd ef89 bfbd
00000130: d778 29bd bc10 9a3d cab5 4a3d 95e2 96bd
00000140: ebb4 6fba f957 03bd b60a 8cbd e5d9 c63c
00000150: 569e aebd 6902 cebd 3c2f b13d d08a c1bd
00000160: 459c c13d a067 993d 5917 493d 7edc 90bd
00000170: cbfd 95bd e6f1 22bd 3279 b7bc c226 85bc
00000180: 6015 cdbb c455 bdbd 26f0 08be 4323 a43d

weight f4 [1, 100]
-0.05749857 -0.2598009 -0.019093808 0.03886522 -0.062502846 0.019135244 -0.022107964 -0.2082156
-0.08294972 0.048715334 -0.03744345 -0.025234833 0.036347125 -0.27285036 -0.12510146 -0.013610264
-0.039109964 0.028908126 -0.031561088 -0.018259147 -0.041840967 -0.017486926 -0.003928408 -0.055550672
0.041648123 -0.018798225 0.034258585 -0.028766653 -0.08898898 0.034037583 -0.068068124 0.023555787
0.017400183 0.02068929 -0.2147467 -0.26557752 -0.0075884187 -0.023699615 -0.035575923 -0.29891476
-0.014258192 0.04929464 -0.033698734 0.016266366 -0.12268714 -0.267619 -0.07035434 0.024047771
-0.035456914 0.016199484 -0.17940673 -0.027240511 -0.070915595 -0.25070256 -0.043523636 -0.3194993
0.016610222 -0.039952762 -0.23345482 -0.053997353 -0.010164373 0.007394229 0.0007984281 -0.007414074
-0.052623417 -0.010842446 -0.24174665 -0.04495741 0.0039300704 -0.019598756 -0.15028137 -0.1673808
-0.07625664 -0.012299381 0.0010898974 0.007528168 -0.07559794 -0.1196734 -0.21079065 -0.0007026969
-0.25152147 0.034678943 0.07081348 -0.006525462 -0.024087856 0.032824855 -0.23055235 -0.0034860328
-0.04791937 -0.26258808 -0.03010884 -0.10408024 -0.011937742 -0.015168479 0.00091213884 -0.048486937
-0.08271494 -0.0037662857 -0.032790937 -0.25343037
00000000: 9f83 6bbd a004 85be 9e6a 9cbc 2331 1f3d
00000010: 7e01 80bd 84c1 9c3c c31b b5bc 7836 55be
00000020: 8be1 a9bd bb89 473d 4e5e 19bd 48b9 cebc
00000030: b9e0 143d 0bb3 8bbe 991a 00be 96fd 5ebc
00000040: c531 20bd bcd0 ec3c 3346 01bd 3594 95bc
00000050: 6f61 2bbd be40 8fbc e0b9 80bb 1a89 63bd
00000060: 3997 2a3d bcfe 99bc bb52 0c3d 0ba8 ebbc
00000070: db3f b6bd fe6a 0b3d 4d67 8bbd 11f8 c03c
00000080: d48a 8e3c 967c a93c 8fe6 5bbe c7f9 87be
00000090: 45a8 f8bb b225 c2bc 0fb8 11bd 5b0b 99be
000000a0: 319b 69bc 2de9 493d af07 0abd 0b41 853c
000000b0: 6543 fbbd 5c05 89be f015 90bd d5ff c43c
000000c0: 453b 11bd c8b4 843c 66b6 37be 7e27 dfbc
000000d0: 323c 91bd 165c 80be d745 32bd 6a95 a3be
000000e0: 2912 883c 82a5 23bd c80e 6fbe 542c 5dbd
000000f0: 7888 26bc 4a4b f23b 9a4d 513a c3f1 f2bb
00000100: a78b 57bd 84a4 31bc 6f8c 77be 4325 38bd
00000110: d2c7 803b 928d a0bc 5ce3 19be df65 2bbe
00000120: 712c 9cbd 5883 49bc e3da 8e3a daae f63b
00000130: 18d3 9abd 5417 f5bd 81d9 57be 3135 38ba
00000140: 6cc7 80be 820b 0e3d a806 913d 8bd3 d5bb
00000150: e553 c5bc 5b73 063d ea15 6cbe ed75 64bb
00000160: 1a47 44bd f271 86be d0a6 f6bc 0528 d5bd
00000170: 8596 43bc 3685 78bc 9a1c 6f3a 3d9a 46bd
00000180: 7366 a9bd cad3 76bb ca4f 06bd a0c1 81be
