Gibbs_MINE/model_lk_b=10_s=0.5_p=20_i=20000.pth (torch, 197015 bytes, 5 tensors)

weight f4 [400, 20]
000000 e9 bf 43 bd 12 86 05 3e 54 f3 6d 3e 51 13 f4 bc
       -0.04779044 0.13039425 0.23237354 -0.029794367
000010 a7 c6 a3 3d 06 42 b1 3e 2c ef d1 3b 02 23 3b be
       0.07996874 0.34620684 0.0064066853 -0.18275073
000020 a8 6d 05 be ed 91 bf be c3 d4 55 3e a1 61 70 3b
       -0.13030112 -0.3741602 0.20881943 0.0036679285
000030 d0 89 02 3d d8 73 e0 3d fd 7d b4 3d 92 38 02 bd
       0.03186971 0.109595954 0.08813093 -0.03179223
000040 09 6c b1 3d 61 5c 21 bd 5e ab c1 be 09 48 40 be
       0.08663184 -0.03939474 -0.37826055 -0.18777479
000050 3d 0a c1 bd 91 c4 3f bd 72 5f 00 3e 73 40 c4 bd
       -0.09425781 -0.04681832 0.1253641 -0.09582605
000060 62 9c c7 be bb 2d 36 3e 9e 35 02 3f 9d 58 d5 be
       -0.38986498 0.17790882 0.50863063 -0.4166917
000070 9c a2 cb 3e 38 3c d2 be 1c 22 a2 3e 30 2e 61 3e
       0.397725 -0.41061568 0.31666648 0.21990275
000080 98 d7 b1 3d d4 9a d0 3e 36 e5 dd 3e 32 f1 c3 bd
       0.08683699 0.40743124 0.43338937 -0.09567489
000090 5f 37 28 bc e1 81 3a 3e 72 fb f2 bd 3d b8 72 be
       -0.010267108 0.18213607 -0.11864366 -0.23703094
0000a0 5b 97 19 3e 72 e6 58 3e 05 ca 08 be 25 32 04 bd
       0.14999144 0.21181658 -0.13358314 -0.032274384
0000b0 35 41 ca be a4 27 85 be c8 f9 9f 3e 16 0b 3e be
       -0.39502874 -0.26006806 0.31245255 -0.18558916
0000c0 1e 74 0b 3e 23 15 17 3d 8e f5 a2 3d bf 65 a2 bc
       0.13618514 0.036885392 0.07956992 -0.019823907
0000d0 93 e7 85 3d 19 99 3a 3e e2 1d 77 3e 55 8d ca bd
       0.0653831 0.18222465 0.24132493 -0.09890238
0000e0 b9 84 17 3c 2f 55 26 bd 12 4c ba be a6 c2 6a 3c
       0.009247952 -0.04060858 -0.36386162 0.014328634
0000f0 2e 2f bd 3d 50 e5 f1 bd cc 88 21 be 9c 96 32 be
       0.092375144 -0.11811316 -0.1577484 -0.17440265
000100 31 ae a2 3d 83 d4 3a be 74 11 ab 3d 10 e9 00 be
       0.079433806 -0.1824513 0.08352938 -0.12588906
000110 63 60 ef 3d ae f1 78 be 96 18 ef 3d e2 69 7f 3e
       0.11688306 -0.24310943 0.11674611 0.24942735
000120 8a fc c7 3e 81 b8 88 3e 38 d3 d9 bc 30 3a 7c bd
       0.3905986 0.26703265 -0.026589975 -0.06157893
000130 0f d3 17 3e 75 d1 07 be 81 a8 44 3e 56 28 76 be
       0.14826606 -0.13263495 0.19204904 -0.24038824
000140 c4 db 90 3e 8c 07 2d 3d a4 26 67 be e2 0b 4c bd
       0.28292668 0.042243525 -0.22573334 -0.04981602
000150 90 0e 81 be 78 d7 99 bb 7c a8 38 3e 6a 37 6d 3e
       -0.25206423 -0.0046948753 0.18033022 0.2316567
000160 86 3c 50 3e c4 c2 a9 3e 2e 10 5b bd 59 83 0a be
       0.20335588 0.33156407 -0.053482227 -0.13526668
000170 cd 79 cd 3d f9 54 f0 3d 2a 3a 08 be 3b e1 9f bd
       0.10032997 0.11734957 -0.13303438 -0.07806631
000180 33 97 cb bd e5 2d 2f 3e 02 85 6b 3e fb 94 39 3e
       -0.09940948 0.17107351 0.22999957 0.18123238
000190 dc b3 48 be 2d ba 5e be a7 dc ed bd 9b c0 61 be
       -0.19599861 -0.21750708 -0.11614352 -0.2204613
0001a0 8b f5 15 3e 63 9d 23 3e 66 31 3f be db 36 53 be
       0.14644448 0.15978007 -0.18671188 -0.20626394
0001b0 3e 5f 57 3e 32 a6 ea 3d 24 85 3b 3e a3 6a b2 bd
       0.21032426 0.114574805 0.18312508 -0.087117456
0001c0 15 ea 96 3e 11 a6 06 be 2f fc 9d bc 20 5e ba 3e
       0.29475465 -0.13149287 -0.01928529 0.36399937
0001d0 dd c9 ae 3d c7 99 35 be f8 33 1c be 83 3d b0 bd
       0.08534596 -0.17734443 -0.152542 -0.086054824
0001e0 00 20 3e bd 6d 7e 3b 3e 05 13 6b be 26 ef af be
       -0.046417236 0.18309946 -0.22956474 -0.34362143
0001f0 bd 5f ae 3d 11 1a 89 be 49 6b c2 3d 71 e0 0e be
       0.085143544 -0.267777 0.09493119 -0.13952805
000200 47 8c bc 3d 78 02 ce 3e fb f1 81 be 7d f1 10 bd
       0.09206443 0.40236259 -0.2537993 -0.03538655
000210 f9 4a 04 3e bf 42 0a 3e 2d ad 85 bd ab 05 db bd
       0.12919225 0.13502024 -0.06527171 -0.106944405
000220 73 a1 78 be 0c d0 b4 3d 33 00 80 be f1 9e ac 3e
       -0.24280338 0.08828744 -0.25000152 0.33715013
000230 02 74 a3 bc 79 f2 99 3d 80 44 94 be 9c c8 05 be
       -0.019952778 0.07516951 -0.2895851 -0.13064808
000240 98 13 aa be 14 ff 55 3d 16 a8 37 be 9f 2a 78 be
       -0.33218074 0.052245215 -0.17935213 -0.24235009
000250 82 44 a7 3e 25 9d 2d bd a4 39 1e 3e 9d 37 94 bd
       0.32669455 -0.042386193 0.15451676 -0.0723717
000260 7a 82 d8 3c 95 c9 00 3e cd c3 bc 3e 63 29 a6 3d
       0.026429404 0.12576897 0.36868134 0.08113363
000270 4f d2 93 3e 23 35 89 bd ed 1b 8e 3d 69 1a 8a bc
       0.2887139 -0.06699588 0.0693892 -0.016858296
000280 77 43 0e be 5d 82 13 3e 16 01 f6 3d 30 cb 2f 3e
       -0.13892923 0.14405198 0.12011926 0.17167354
000290 05 aa 3f be 32 62 9c bc 5a 6b 93 3c ea 0d 52 bb
       -0.18717201 -0.019089792 0.017995525 -0.003205175
0002a0 f7 6e 34 3e d6 86 df be 0d eb c8 3d aa c2 80 3e
       0.17620455 -0.4365756 0.098104574 0.25148517
0002b0 13 49 3d 3d a7 ae e7 bd 0b 10 a1 3d 21 c0 33 3e
       0.046212267 -0.11312609 0.07864388 0.1755376
0002c0 f0 af 37 3e 1b f5 0c bd 57 31 64 be c9 88 8a be
       0.17938209 -0.03441344 -0.22284447 -0.27057484
0002d0 2c 4b 8c 3d 70 6c 20 3e cf e6 4c 3e 04 eb 2e 3e
       0.068502754 0.15666366 0.20009921 0.17081839
0002e0 0d 92 60 be 6e 70 21 3e 58 4a c7 3d 01 34 2f bd
       -0.21930714 0.15765545 0.09730977 -0.042774204
0002f0 3f 00 04 3d fd 0a a7 be 50 09 66 3e 55 7c 22 3d
       0.032226797 -0.3262557 0.2246449 0.039669354
000300 b3 ec 95 be a7 3c 04 3e 46 94 23 3e b4 c0 65 3d
       -0.2928215 0.12913762 0.1597453 0.05609198
000310 bc 23 7c bd be 6d dd 3c 46 1e 81 bd 6e dc a8 be
       -0.061557516 0.027029868 -0.06304602 -0.32980675
000320 63 09 29 bc 5a c2 3b 3e 28 9e c8 bd b3 df 26 3e
       -0.010317179 0.18335858 -0.09795791 0.16296272
000330 2d 09 9d be 4e b4 80 be 7f e0 84 3e 7f fb 90 3c
       -0.30671063 -0.25137562 0.25952527 0.017698048
000340 e7 b3 7d 3e 83 c7 ce 3d 58 99 7c 3e c2 e6 e8 bd
       0.24775659 0.100966476 0.24667871 -0.113721386
000350 e0 07 f5 3d bb d6 5c 3e 05 b2 78 bd a0 97 17 be
       0.11964393 0.21566288 -0.060716648 -0.14803934
000360 2c 94 38 be 41 e2 11 be d9 c9 8b 3d f3 0e 10 3e
       -0.18025273 -0.14246465 0.06825609 0.14068203
000370 64 61 0c be f7 bf 8a bc a2 21 59 bd d1 d4 f0 bd
       -0.13709027 -0.01693724 -0.05301059 -0.117593415
000380 75 f6 92 bd 92 d4 86 3e 48 9f 0a 3e aa 4c a3 3d
       -0.07175914 0.26334053 0.13537323 0.07973607
000390 26 b1 8b 3d 3c be 9b be 1f 45 99 bd 1a 4c 49 3e
       0.06820898 -0.30418575 -0.07483887 0.19657937
0003a0 5f 25 56 3e c8 27 29 be 3c d4 f4 3b 1e 3e c4 bc
       0.20912693 -0.16519082 0.0074715894 -0.023955401
0003b0 69 80 16 be d9 15 3c be 6e a5 ab 3d 34 fb 3c be
       -0.14697422 -0.18367709 0.083811626 -0.18455201
0003c0 5e 02 20 3e cf 94 02 3e 7d db e7 3d 70 aa 25 3e
       0.15625903 0.12752078 0.11321161 0.16178298
0003d0 af 8b 88 be a4 ab 65 bb 19 73 47 be cc 7f 3a 3e
       -0.2666907 -0.0035044933 -0.194775 0.18212813
0003e0 76 89 eb bd d3 1b 11 3b 2b 13 0d 3e 68 05 13 bc
       -0.11500828 0.0022141829 0.13776843 -0.008973457
0003f0 7c 5a ff 3d 31 ce dc 3d 69 56 ab bd 14 be 31 be
       0.124684304 0.107815154 -0.08366091 -0.17357665

bias f4 [400]
000000 fc 42 c3 ba 0c 79 5d 3e 70 10 01 be e5 c2 c2 3d
       -0.0014897282 0.21628207 -0.12603927 0.095098294
000010 2f 5a 20 be 91 28 f7 3d e4 5e 68 be 30 48 65 bd
       -0.15659402 0.12068284 -0.22692448 -0.055977046
000020 02 9f 90 bd fb ea 16 bd 4a f0 23 be 7b f2 ab bd
       -0.07061578 -0.03684519 -0.16009632 -0.08395859
000030 dd a1 1b be fd a7 dd bd 1b b2 81 be f5 7d 90 be
       -0.15198465 -0.10823057 -0.25331196 -0.28221098
000040 29 44 d8 bd 20 ae 2d be 8f a9 b2 be 6e f6 2c be
       -0.105598755 -0.16960955 -0.34894988 -0.1689088
000050 2e 5b 9b bd e8 10 92 bc f7 16 6d be 31 bf 4a bd
       -0.075857505 -0.017830327 -0.23153292 -0.04949874
000060 c5 0b 84 be 0f cd 8a be ea e2 4d be e3 0f e3 bd
       -0.2579023 -0.27109572 -0.20106092 -0.110870145
000070 fd 95 64 3d 29 fa 85 be 2c a8 84 bd a4 0f 6f be
       0.055807102 -0.2616742 -0.06477389 -0.2334581
000080 23 b8 ce bd 57 8c 02 3d e3 49 5a be 53 2d ff bd
       -0.10093715 0.03187212 -0.21317248 -0.12459817
000090 db 5a 1e be bc bf 3b be d3 3b 0e be c7 a1 6e be
       -0.15464346 -0.1833486 -0.13890009 -0.233039
0000a0 e0 1e ad be a1 84 79 be 76 eb 0f bd 37 0b 99 be
       -0.33812618 -0.24367 -0.035136662 -0.2989137
0000b0 ec 44 f4 ba 53 69 8b be cc c9 a7 be 41 3d 39 bd
       -0.0018636263 -0.27228794 -0.32771146 -0.045224432
0000c0 db 3b 26 be 95 df 98 3d 17 be 9d ba 46 e7 e4 3d
       -0.1623377 0.0746452 -0.0012034801 0.111769244
0000d0 14 38 3a bc 71 3f 0f be 8b 08 d5 bd 56 71 2e bd
       -0.011365909 -0.13989045 -0.1040202 -0.042588554
0000e0 ed f2 e2 bd 83 c8 58 be 8a 60 a8 be f1 ea 3f be
       -0.11081491 -0.21170239 -0.32886153 -0.18741967
0000f0 91 86 64 bc 57 d2 fb bd 48 e0 53 3e 2f f8 04 be
       -0.013948099 -0.122959785 0.20691025 -0.129853
000100 82 f1 93 3d 0e d9 ba 3d 2d 79 52 3e 19 44 0f be
       0.07223798 0.09123431 0.20554037 -0.13990821
000110 c9 a0 81 be 6d e7 a6 be 58 8b b1 be 62 74 29 be
       -0.25317982 -0.3259844 -0.34676623 -0.16548303
000120 23 f7 03 3e 9d 03 ba be 4c 2e 08 be c1 03 94 be
       0.12887244 -0.36330882 -0.13298911 -0.28909114
000130 b0 8c 4b 3d f5 6c 8d be dc fa 5d be 84 ba 47 be
       0.049694717 -0.2762219 -0.21677727 -0.19504744
000140 b6 34 12 be 96 ac d5 be 27 95 05 be 69 89 3e bd
       -0.1427792 -0.41733235 -0.13045178 -0.046517763
000150 09 4d 22 be 44 1c ed bd 3f bb f7 bc 89 8d 96 be
       -0.15849699 -0.11577657 -0.030240653 -0.29404858
000160 c3 e9 28 be 22 69 62 be 03 b3 1a 3d e0 a6 67 3c
       -0.16495423 -0.22110417 0.037768375 0.014138907
000170 f8 bc 8d be 6d e7 21 be 03 d1 fc bd a9 38 a6 bd
       -0.27683234 -0.15810938 -0.12344553 -0.08116276
000180 8a 4c 9c 3d 5f ae 7e be 6b b2 5e be 96 16 57 be
       0.07631786 -0.24871205 -0.21747749 -0.2100471
000190 f6 c5 40 be 15 3e be bd db 9f 3b bd 58 84 89 3d
       -0.18825516 -0.09289185 -0.045806747 0.06714696
0001a0 e0 25 03 be 08 f7 9e bd aa 8e 76 be 84 c1 a8 be
       -0.12807417 -0.07761961 -0.2407786 -0.3296014
0001b0 8d 4b e4 3d 62 2f 94 be b9 3a 3d bd 74 9f 5c be
       0.11147223 -0.289424 -0.04619858 -0.21545202
0001c0 ff 3d 64 be a8 97 75 be 07 ad d7 bd 32 59 db bd
       -0.22289275 -0.23983634 -0.10531049 -0.10710372
0001d0 bd 5e b0 bc 0c 1b d9 be 3f 96 d6 bd 7b d0 74 3d
       -0.02152955 -0.42403448 -0.10477876 0.059769135
0001e0 0f fc 60 be f4 3a 90 be e5 9f 8a 3b 68 1b c7 bd
       -0.21971153 -0.28169978 0.0042304867 -0.09722024
0001f0 64 28 2e be d3 60 c2 be 32 87 43 be ca 96 99 bd
       -0.17007595 -0.37964496 -0.19094542 -0.07499464
000200 48 b6 f4 bd 70 db 34 bc fe b5 ef 3b 0e af 52 be
       -0.1194883 -0.011038646 0.0073153963 -0.2057459
000210 9c 89 6c be 07 a7 51 be 00 41 35 be 42 1f c8 be
       -0.23099369 -0.20473872 -0.17700577 -0.39086348
000220 c8 65 a4 bd 14 73 44 be 59 cd 2b bd 50 4d 5e be
       -0.08027226 -0.19184524 -0.04194388 -0.2170918
000230 6d 48 95 be b5 06 0a bd b5 8b 98 be a6 38 3b be
       -0.2915682 -0.033697803 -0.29794088 -0.18283328
000240 9d 38 b8 3c 0e 83 b3 3d a1 bb fd bd 88 e8 69 be
       0.022487933 0.08765231 -0.12389303 -0.2284261
000250 ca 97 0d bd 14 ab 73 be 39 98 55 3e 81 ad b6 bd
       -0.034568585 -0.2379573 0.2085885 -0.08919812
000260 37 27 a1 bd 77 2f d0 be c1 c1 99 be 09 ef 4e 3e
       -0.07868808 -0.40661213 -0.30030635 0.20208372
000270 6f 6e 89 bd c3 7b 30 be 0c ac ca bd fc 9e 35 be
       -0.06710517 -0.17234711 -0.098960966 -0.17736429
000280 72 4c 71 bc e6 31 c7 3d 18 f1 ae bd 40 0f c7 bd
       -0.014727699 0.09726314 -0.08542079 -0.097197056
000290 8e a9 97 be fa ee 76 be 8f 28 94 be 49 32 3e 3e
       -0.29621547 -0.241146 -0.28937194 0.1857387
0002a0 10 b7 4b be 1e cb 8a bd 9f 7a 8d be 1e 35 e6 3b
       -0.19894052 -0.06777023 -0.27632615 0.007025375
0002b0 1f 02 51 be d3 04 2f be 48 db 5f be 1a e1 3a be
       -0.20410965 -0.17091684 -0.21860993 -0.18249932
0002c0 83 f0 17 bd fa c0 a5 be 31 50 de 3c 05 7f 84 bd
       -0.037094604 -0.32373792 0.027137848 -0.064695396
0002d0 4f d9 91 be e8 3e 96 bd 17 7e 1c 3c 4c 52 13 be
       -0.28486106 -0.07336217 0.009551547 -0.14386863
0002e0 9e ab 8a be 11 5b 01 be f0 3f b9 bd 8a 4a f4 3c
       -0.2708406 -0.12632395 -0.09045398 0.0298207
0002f0 3f ec 80 bd fb 92 03 be ff 38 5c bd 68 d3 42 be
       -0.0629506 -0.12849037 -0.053765293 -0.19025958
000300 2e f3 18 be e4 df e2 bd 8c 18 0e be 79 b9 40 3c
       -0.14936516 -0.1107786 -0.13876551 0.01176297
000310 58 93 89 bd 6c 96 d8 bd 7a 4a 30 3e f8 30 72 be
       -0.06717557 -0.10575566 0.1721591 -0.23651493
000320 86 23 ae bd f0 cb 3a be 22 ef 98 bd 6e 06 9f bd
       -0.08502869 -0.18241858 -0.07467486 -0.07764898
000330 9f 16 61 bd 99 87 ac 3d f4 63 2f 3c 6c 35 5f 3d
       -0.054953214 0.08424301 0.010704983 0.054494306
000340 02 dd 4f be d1 7f 6a be e3 35 bc bc 52 0f 01 be
       -0.20299152 -0.2290032 -0.022974914 -0.126035
000350 05 1b 66 be 28 82 2f be 27 1b 2f bd 07 1d 7b be
       -0.22471245 -0.17139494 -0.042750504 -0.24522792
000360 e9 e4 5f bd 98 4a b5 bd e2 32 51 be aa c4 4d 3d
       -0.054661665 -0.08852118 -0.20429567 0.05023638
000370 b6 45 31 be 4e 78 51 bd 87 28 91 be fb c1 a0 bd
       -0.17311749 -0.051140122 -0.28351232 -0.07849499
000380 b4 1d a5 be 96 d8 80 be 7e 57 03 3d 22 34 bb 3c
       -0.32249224 -0.25165242 0.03206586 0.022852007
000390 6e c5 82 bd a0 8d 01 3e 6c aa 41 3e f9 d2 47 bd
       -0.06385313 0.12651682 0.18912667 -0.048785184
0003a0 9c d9 e0 bd 2c 0a 70 bd 9b af 8a be c5 9c c9 bd
       -0.10979006 -0.05860345 -0.270871 -0.098443545
0003b0 a3 c3 07 be 8e 52 dc 3c f5 4a 4c 3d 95 ad af be
       -0.13258223 0.026894834 0.049876172 -0.3431212
0003c0 02 8c e6 bb 47 cf 72 be 7d d8 bd bc 76 72 1c be
       -0.007035733 -0.23711883 -0.023174519 -0.15278038
0003d0 39 7e 70 bd 6a 41 7c be e8 00 1b be e2 ca db be
       -0.058714125 -0.24634328 -0.15137064 -0.42928225
0003e0 57 61 11 be 30 0f 28 be 9a 2d 33 be 2b ad a2 bd
       -0.14197288 -0.16412044 -0.17497864 -0.079431854
0003f0 b5 68 07 be 35 f3 9f be ee 10 27 bc 8e 94 91 be
       -0.13223536 -0.3124024 -0.010196907 -0.2843365

weight f4 [100, 400]
000000 f5 e7 a0 3d ba 89 5d 3e ef 9e ae 3d 6b 47 bb 3d
       0.07856742 0.2163457 0.08526408 0.09144481
000010 db b2 04 3e 40 64 6c 3d 99 d5 12 3e c0 74 f1 3d
       0.12958853 0.057712793 0.14339294 0.117898464
000020 24 25 fe 3c 91 f6 8a 3d b4 7d e1 3d f3 42 7f 3d
       0.03102357 0.0678531 0.11010304 0.062319707
000030 7a b6 74 3c d6 d1 8a 3d f7 2a b8 3d 59 cd 9d 3d
       0.014936084 0.06778304 0.0899257 0.077051826
000040 aa 90 3f 3e ba 58 fc 3d ca 3d d4 3d ae 21 9f 3d
       0.18707529 0.12321611 0.10363348 0.07770096
000050 98 e1 13 3e 84 bc 84 3d 81 85 1f 3e 3a 29 ad 3d
       0.14441526 0.06481269 0.15578271 0.08455129
000060 b4 c3 38 3e 9a 70 e0 3d e1 3f 87 3d e7 86 9d 3d
       0.18043405 0.10958977 0.06603981 0.07691746
000070 3c f8 98 3d 94 89 a5 3d ea b7 15 3d 16 da a5 3d
       0.07469222 0.080828816 0.036552347 0.08098237
000080 32 06 02 3c 7b d6 10 3e 37 e9 03 3e c1 c8 ad 3d
       0.007936047 0.14144318 0.12881933 0.084855564
000090 30 8d ad 3d 79 e2 34 3e 4d 4f 81 3d 87 ce a0 3e
       0.08474195 0.17664517 0.063139535 0.31407568
0000a0 0c 6c e9 3d 9b e2 08 3e b9 ba b7 3c 2c 6d f4 3d
       0.113975614 0.13367693 0.022427903 0.119348854
0000b0 78 10 cf 3d be fc 00 3e 01 b9 92 3e 0a 38 16 3d
       0.10110563 0.12596413 0.28656772 0.036674537
0000c0 88 fb 9e 3d 11 56 10 3e 75 da bb 3d 9f 72 89 3d
       0.077628195 0.14095332 0.09172527 0.06711315
0000d0 d2 56 34 3d ec 26 bc 3b fb 54 77 3d 57 06 37 3d
       0.04402811 0.0057419445 0.060383778 0.04468378
0000e0 5c 69 7c bc d6 db 37 3e 62 fd 0e 3e 41 d8 b5 3d
       -0.015405979 0.17954955 0.13963845 0.08879138
0000f0 24 da 39 3d 6a 0a 73 3d 3f c9 6e 3c f5 4b 97 3d
       0.04537405 0.059336103 0.014574348 0.073875345
000100 4e 90 69 bc 3e d3 9c 3d ac c0 d1 bb ab 7e 75 3e
       -0.014255596 0.07657479 -0.006401142 0.23974101
000110 4f 68 31 3c 6d ea 2e 3e a5 8c 39 3e 04 10 63 3d
       0.010828092 0.17081614 0.18120058 0.055435196
000120 77 43 0c 3e 81 6d 36 3e a4 cf 61 3e 80 35 09 3d
       0.13697611 0.1781521 0.22051865 0.033498287
000130 d6 ed 00 3c 6b 65 98 3d aa 1c 01 3e a7 7d 0d 3d
       0.0078692045 0.07441219 0.1260859 0.03454366
000140 e5 0f 7a 3d eb 2c 88 3e 70 6e a2 3d ff 84 26 3d
       0.061050314 0.2659677 0.079312205 0.04065418
000150 4c f0 06 3d 60 c6 83 3d a2 dc 8b 3d 74 30 62 3d
       0.03294401 0.064343214 0.06829192 0.05522199
000160 b3 aa 10 3c 7a c4 86 3d 7e 31 20 3e 81 73 91 3d
       0.00882976 0.06580444 0.1564388 0.07102109
000170 1b a5 23 3e 60 f3 c1 3d 8f 1a 1f 3d 38 64 f0 3d
       0.15980951 0.09470248 0.038843688 0.11737865
000180 f3 26 55 3e 47 ce 1f 3e c9 5f ed 3d 8a 16 99 3d
       0.20815639 0.15606032 0.11590535 0.07475002
000190 e2 a9 a0 3d 52 51 46 3c 13 4f aa 3d 45 b2 a9 3d
       0.078449026 0.012104349 0.083158635 0.08285955
0001a0 49 83 66 bc dd 18 a3 3d 28 2b a1 3d 6b a0 07 3e
       -0.014069387 0.07963727 0.078695595 0.13244788
0001b0 74 e7 08 3e b5 0f eb 3b 6c ac 12 3e dc 5e 14 3e
       0.13369542 0.0071735033 0.14323586 0.14489311
0001c0 1a 97 9b 3d 52 a4 c6 3d 41 ca 54 3d fb 27 7a 3d
       0.0759718 0.0969931 0.051950697 0.061073285
0001d0 24 a7 b4 3d ac 56 e6 3d 78 66 cd 3d 1a 0b cc 3d
       0.08820942 0.11247 0.1002931 0.09963055
0001e0 44 59 25 3e 82 e2 e9 3d 01 3c 53 3c f5 7c a9 bc
       0.16147333 0.11420156 0.012892724 -0.020689467
0001f0 7f 11 1f 3d 26 1e b3 3d 21 2c aa 3d e6 98 b4 3d
       0.038835045 0.08745985 0.08309198 0.088182256
000200 d4 a9 6b 3d b2 38 3e 3d 67 af 68 3d 18 8d 98 3d
       0.057535008 0.046440788 0.0568079 0.074487865
000210 8e 40 f6 3d b6 7d 12 3e 83 c3 d7 3d eb df d4 3c
       0.120240316 0.14305767 0.10535338 0.025985679
000220 6f 2a d9 3d cb f5 cb 3d bf 6f 51 3d 04 7a c2 3d
       0.10603797 0.09958991 0.05113196 0.09495929
000230 cd 5b 26 3e 95 5c 18 3e 3c 39 b2 3d 21 0b 53 3d
       0.16245957 0.14879067 0.08702323 0.051524285
000240 3a 7b 69 3d ab 05 5c 3d 0b 6c 62 3d 54 bf 1a 3d
       0.057002284 0.053716343 0.05527882 0.03778012
000250 48 88 bf 3d bf 12 89 3d 22 c1 be 3c c2 01 3c 3d
       0.093521655 0.06693029 0.023285452 0.045900114
000260 1b 50 98 3d 90 ef 18 3e 3d 5c bb 3d 36 e5 0f 3e
       0.07437154 0.14935136 0.091484524 0.14052281
000270 48 f8 e6 3c 82 f6 0d 3e 66 13 c4 3d 70 87 ea 3d
       0.028194562 0.13863567 0.095740125 0.11451614
000280 c0 90 7f 3d 8f 31 9b 3d c3 6c d2 3d 24 6e 4b 3c
       0.062393904 0.07577812 0.10274651 0.012416396
000290 56 6c 1c 3e d8 70 7c 3d 7c 5f b2 3d dd b3 7d 3d
       0.15275702 0.061631054 0.087096184 0.06193911
0002a0 a1 40 42 3d 6a fc 91 3d c8 cd ac 3d 48 53 a4 3d
       0.047424916 0.07128222 0.08437687 0.08023697
0002b0 94 7c b7 3d d4 ff d6 3d 32 6c 82 3d d7 dd 20 3d
       0.08959308 0.10498014 0.06368293 0.039274063
0002c0 2d 7a 24 3d 4e 1d b0 3d c2 19 bc 3c ad e6 71 bc
       0.04015558 0.085993394 0.022961501 -0.01476447
0002d0 b6 ab bb 3e 5b 70 8f 3d 04 47 c4 3b 98 58 0a 3d
       0.36654443 0.07003852 0.005989911 0.033775896
0002e0 fe c6 e4 3d f1 a7 66 3c e3 60 e4 3d e6 c1 4d 3e
       0.11170767 0.014078126 0.11151292 0.20093498
0002f0 8c 3e b8 3d d5 11 02 3e 60 7a f5 3d 7b ae f8 3d
       0.08996305 0.12702115 0.11986232 0.121426545
000300 93 81 cc 3d 06 66 ba 3c bd 71 4a 3e e5 b6 81 3d
       0.09985652 0.022753727 0.1976995 0.063337125
000310 01 b9 d5 3d 2f 89 ae 3d c3 85 51 3e e8 66 de 3d
       0.10435677 0.085222594 0.20461182 0.108594716
000320 24 f8 f9 3d c8 0e 82 3d c4 7f 25 3c 6e 0e 25 3c
       0.12205532 0.063504755 0.0101012625 0.010074241
000330 42 c2 1f 3e 2a 2a 9d bc e9 2f c6 3d fe 38 d0 3d
       0.15601447 -0.019185144 0.09677107 0.101671204
000340 6f 00 9e 3d 8b e4 e9 3d 2c 9a b1 3d 6c 07 bc 3d
       0.077149265 0.11420544 0.08671984 0.09181103
000350 32 13 ec 3d 9f 06 cf 3d 5e 4e 05 3e e3 5b e5 3d
       0.11527099 0.10108685 0.13018176 0.111991666
000360 28 47 e6 3d 1a fa 87 3d b0 f3 4d 3e be c0 f3 3d
       0.11244041 0.066395 0.2011249 0.11901997
000370 39 46 26 3d 4f 19 0e 3e 65 74 14 3e 17 3d 19 3e
       0.040594313 0.13876842 0.14497526 0.1496471
000380 6b a5 ec 3d 7e 5c 3c 3d 59 92 7a 3d 3b 57 96 3d
       0.115549885 0.045986645 0.061174724 0.07340857
000390 89 d5 a0 3d 23 9c bd 3d 72 7a c1 bc 14 ce de 3d
       0.078532286 0.09258296 -0.023617957 0.1087915
0003a0 d8 1c 16 3d 95 d3 14 3d c6 ae 0d 3e 59 aa c8 3d
       0.0366486 0.036334593 0.13836202 0.09798116
0003b0 b8 65 26 3d a9 ab 2c 3d d5 f1 b2 3d 9d bd 14 3e
       0.04062435 0.042155895 0.08737532 0.14525457
0003c0 b4 12 a5 3d f9 b2 ca 3d 89 87 b5 3d 40 d1 88 3d
       0.08060208 0.098974176 0.08863742 0.06680536
0003d0 f4 1c 19 3d ea a5 25 3e 5d 67 cf 3d 12 22 40 3e
       0.037381127 0.16176572 0.10127137 0.18762997
0003e0 61 7b f7 3d 41 ae 9c 3c 7f 45 b8 3d 90 59 09 3e
       0.120840795 0.01912606 0.0899763 0.13413072
0003f0 ec 34 03 3d 8c 48 92 3d 0c c9 8d 3d be e2 fa 3d
       0.032032892 0.071427435 0.06923112 0.12250279

bias f4 [100]
000000 c2 54 fb bc 0c a9 8a 3d 4a 0e 16 3d 04 f9 87 bd
       -0.030680064 0.067705244 0.03663472 -0.06639293
000010 ee e7 97 3c b9 31 cf 3e 79 24 95 bd f2 e9 0a 3d
       0.01854321 0.40467623 -0.07282347 0.033914514
000020 64 b1 93 bc e7 f9 d0 3d 00 55 b7 3c 52 12 18 bd
       -0.018028922 0.10203915 0.022379398 -0.037126847
000030 08 6a cf 3c 38 1a d6 bd 5e f2 82 bd 70 cb b5 3c
       0.025319114 -0.104542196 -0.06393884 0.022191733
000040 89 11 c0 3d 24 77 6e 3a 76 d1 9b 3d 57 9b a0 bd
       0.093783446 0.0009096733 0.07608311 -0.07842129
000050 92 7d 87 bd c7 7f d5 3d 9d 26 8a 3e c1 1d 19 3d
       -0.066157475 0.10424762 0.26982585 0.03738189
000060 f5 10 3e bc cf a5 9b 3d 83 fb ac bd 09 af 65 3d
       -0.011600723 0.07599985 -0.084464096 0.05607513
000070 b5 27 b6 3c a0 d0 a5 3f 3b 5e ac bd fc b5 0d bc
       0.02223573 1.2954292 -0.084164105 -0.0086493455
000080 69 8e 82 39 c1 35 af 3d 12 09 aa bd 9c f5 9e 3d
       0.00024901636 0.085551746 -0.08302511 0.0776169
000090 c6 c3 1a be d2 9c ec bc 04 19 88 3d 68 ac 22 3d
       -0.15113744 -0.028883372 0.06645396 0.0397152
0000a0 dd 1f 54 3c bd 68 51 bc 3d b6 cf bd f1 7f 9b 3d
       0.01294705 -0.012781319 -0.10142181 0.07592762
0000b0 33 67 78 3d 93 1f e6 bb 9e 53 75 3d 4f 1d 20 3d
       0.060645293 -0.007022807 0.059894197 0.03909045
0000c0 3e a2 cc 3d e8 99 b8 bd 1e 23 24 be 23 09 04 bd
       0.09991883 -0.0901373 -0.16029021 -0.032235276
0000d0 5f 34 c2 3d 42 e1 81 bd c9 cf 91 bd 0a 9a 43 bf
       0.09482645 -0.06341793 -0.0711971 -0.7640692
0000e0 b8 5a 76 bd af 3c 25 3d f5 3f bf bd c4 24 e3 3d
       -0.06014511 0.040341076 -0.09338371 0.11090997
0000f0 11 e5 1a 3f e7 9c 03 3d 7b 06 ea bd 8a 27 76 bd
       0.6050578 0.032132056 -0.11427017 -0.0600963
000100 a5 6c a0 3b 36 37 b2 3c c2 b0 b5 bd c8 33 84 bd
       0.004895764 0.021754842 -0.088716045 -0.06455189
000110 47 cb 66 3c 6c 5a cf bd 2f 02 c5 bd 30 8d 65 bd
       0.014086551 -0.101246685 -0.09619557 -0.05604285
000120 b7 19 ec 39 aa f0 83 3d 74 8a 92 bc 48 2c 0b bd
       0.00045032587 0.064423874 -0.017888285 -0.033977777
000130 4c e0 c7 3d 8e 33 b0 3d be 89 b7 3b 1c 09 a0 bd
       0.09759578 0.08603583 0.005601137 -0.078142375
000140 81 5f 54 bd 2c 67 e2 bd dc d3 19 3d 0a ff cb bd
       -0.051848892 -0.11054835 0.03755556 -0.09960754
000150 a2 a7 15 be 31 2f 30 3f b9 fd 58 bd 75 04 c6 bd
       -0.14614728 0.6882201 -0.052976344 -0.09668819
000160 1a e3 90 bd 3d 1b 7b bd 7c 58 28 bd d6 89 6d bd
       -0.07074566 -0.061305273 -0.04110001 -0.05799278
000170 e7 40 21 be 78 7b e7 bd 46 4f fd 3c 0b 0e 23 3d
       -0.15747415 -0.11302847 0.03092159 0.039808314
000180 02 65 5b bd aa 20 71 bd 26 a8 aa bd cf 66 35 3d
       -0.053563125 -0.05886904 -0.08332853 0.0442875

weight f4 [1, 100]
000000 87 ad 12 be ea 86 65 bd 19 c0 7b be 95 25 bd bc
       -0.14324008 -0.056036867 -0.24584998 -0.02308921
000010 a7 ec 34 be 0d 6a 88 bd d5 5c fb bc 2c 2e 8f be
       -0.176684 -0.066608526 -0.030683914 -0.27964914
000020 44 6b 3b bc 71 68 74 be fb 9a 65 3c 5b 8f 90 ba
       -0.011439148 -0.23867966 0.014014001 -0.0011029051
000030 ce f8 11 bd 37 4b 04 be a4 14 6c bb e2 27 6f be
       -0.03563767 -0.12919317 -0.0036023045 -0.23355058
000040 31 bc 71 be 12 73 cd bd 3f 11 18 bd d2 fc 03 bd
       -0.23606946 -0.100317135 -0.037125822 -0.03222353
000050 04 cd 22 bd b7 64 03 bd 72 90 c5 3b 78 fb 52 be
       -0.0397463 -0.03207847 0.006029182 -0.2060374
000060 82 8e 21 bd 79 93 81 be 6d 5b 28 bd ce 68 1c bd
       -0.039442547 -0.25307825 -0.041102815 -0.038185887
000070 d0 90 2b 3c c7 f9 cd be ea bc 17 3d 3e d0 7c bd
       0.010471538 -0.40229627 0.037045397 -0.061722033
000080 f4 44 fc bc 52 82 45 bc 70 ad ab bb 78 25 21 bd
       -0.030794598 -0.012054997 -0.005239181 -0.039342374
000090 c4 8e 1c bd d8 8f 55 be ec 2c 2e 3c 67 23 9d bd
       -0.03822209 -0.20855653 0.010630827 -0.07672768
0000a0 ba 59 46 be 8b ca 8a be fe a8 a8 3a fa 23 29 be
       -0.19370165 -0.27107653 0.0012867746 -0.1651763
0000b0 a8 34 53 be 33 0d 4c bc c1 2e 7f be e3 8f 0e be
       -0.20625556 -0.012454319 -0.24920179 -0.13922076
0000c0 11 b9 12 ba 38 40 5e bd a7 61 57 bd 91 6f 25 bb
       -0.0005597035 -0.054260463 -0.052583363 -0.00252435
0000d0 85 4c fd bb 97 7c 25 bd a5 cf 4b bd 4c ce d8 bd
       -0.007730069 -0.04040202 -0.049758572 -0.10586223
0000e0 76 d3 cb 3c 58 f3 85 bc bc cd 56 bd 71 48 5e be
       0.024881106 -0.016351387 -0.052442297 -0.21707322
0000f0 c3 39 c9 bd de 6b f8 bc eb 5a 65 bd 56 4f 8c 3c
       -0.0982547 -0.030324873 -0.05599491 0.017127674
000100 b5 d8 35 bd 4c 8b 1a bd a3 6f 7a bd 0e b0 e5 3b
       -0.04439612 -0.0377305 -0.06114162 0.0070095127
000110 a7 d4 80 bc da 6e 7a bd 58 ef 85 bc c3 d9 39 bd
       -0.0157264 -0.061140873 -0.01634948 -0.04537369
000120 8a d4 61 bd b8 16 61 be 0d 33 a7 3c 77 1c 94 3c
       -0.055134334 -0.21981323 0.020410085 0.01807998
000130 41 bc 64 be c7 84 6e be 9a cc 64 be 43 48 61 bd
       -0.22337438 -0.23292838 -0.22343674 -0.055000555
000140 a9 2c 0f bd 69 10 30 bd 75 46 40 bd b7 da 57 bd
       -0.0349547 -0.0429844 -0.046942193 -0.052698817
000150 82 52 41 bd ed 01 87 be ac f7 fd 3c 15 44 8f bc
       -0.047197826 -0.26368657 0.031001888 -0.017488519
000160 f3 71 40 be 33 1a 12 bd 07 e3 d3 bd 8f 91 39 bd
       -0.18793468 -0.035669517 -0.103460364 -0.04530483
000170 21 1f 88 bc 0c d2 68 bd 2f 1e 94 be fd dd 6c be
       -0.016616406 -0.05684094 -0.28929278 -0.23131557
000180 a1 f0 dd bc cf b9 4b bc da 2c 98 3b 13 2b 0e be
       -0.02709228 -0.012434437 0.0046440186 -0.13883619
