Gibbs_MINE/model_kl_4.pth (torch, 112015 bytes, 7 tensors)

weight f4 [200, 120]
0	0xbcb2ab5f	-0.021810232
1	0x3d593f49	0.05303887
2	0x3e101b95	0.14073022
3	0xbc4ca537	-0.012490562
4	0x3e092e99	0.13396682
5	0x3e6e4684	0.23269087
6	0x3dae3c32	0.08507575
7	0xbce53eb2	-0.027983997
8	0xbd693131	-0.05693168
9	0xbc56530d	-0.013081324
10	0xbdd0087c	-0.10157868
11	0xbe5b4fb1	-0.21417119
12	0x3c990ab7	0.018681867
13	0x3d459d95	0.048245985
14	0xbd7e578b	-0.062095206
15	0xbc4976d1	-0.012296394
16	0xbd874f39	-0.066069074
17	0xbdcbb6ab	-0.099469505
18	0xbc65b994	-0.014021296
19	0x3c46cfd3	0.01213451
20	0xbd8acb8a	-0.06777103
21	0xbd8dc3dd	-0.069221236
22	0xbde7edcc	-0.11324653
23	0xbe0f74e3	-0.14009432
24	0xbd86fa2b	-0.065906845
25	0xbd7bed14	-0.061505392
26	0xbbb4c58b	-0.005516713
27	0xbd7df6e9	-0.06200305
28	0xbc88ed13	-0.016714608
29	0xbde2b799	-0.11070175
30	0x3c1c9d20	0.009558946
31	0xbda407d5	-0.08009306
32	0xbda11a92	-0.07866396
33	0xbdc7ad0f	-0.09749805
34	0xbde45c00	-0.1115036
35	0xbd98f1bb	-0.074679814
36	0x3db311d5	0.087436356
37	0x3de29d80	0.11065197
38	0x3e06a235	0.13147815
39	0xbc95e391	-0.018296989
40	0x3c73f11e	0.01488903
41	0x3d96cc05	0.073631324
42	0xbd14a036	-0.0362856
43	0xbdd51c3e	-0.104057774
44	0xbda6ac99	-0.08138389
45	0x3daa62aa	0.083196
46	0x3b4b206f	0.0030994674
47	0xbdbceeed	-0.09225259
48	0xbd664b16	-0.05622395
49	0xbcc0b3d1	-0.023523243
50	0xbce24f53	-0.027625715
51	0x3d22c40c	0.039737746
52	0xbd5be2c4	-0.053683057
53	0xbdd0a89d	-0.101884104
54	0xbce8149e	-0.028330144
55	0xbd12149e	-0.035664193
56	0xbd80038e	-0.06250678
57	0x3d8f60e8	0.07000905
58	0xbe400f5c	-0.18755859
59	0xbe081657	-0.13289772
60	0x3cb3bf42	0.021941785
61	0x3d024607	0.031805065
62	0xbc86ede3	-0.016470855
63	0xbd99e664	-0.07514647
64	0x3ce5ab57	0.028035803
65	0x3dd33a3e	0.10313843
66	0x3d786fbc	0.060653433
67	0xbdf4e1bc	-0.11957118
68	0xbe01a342	-0.12659934
69	0x3c017fd5	0.007904013
70	0xbe32cccb	-0.17460935
71	0xbe7fb6a6	-0.24972019
72	0xbcd1a83c	-0.025592916
73	0xbc228679	-0.009919756
74	0x3c4cb630	0.012494609
75	0x3d86a087	0.06573587
76	0xbd35c516	-0.04437741
77	0xbda36c08	-0.0797959
78	0x3e1868ee	0.14883777
79	0x3f8bc1e0	1.0918541
80	0x3f9c6644	1.2218709
81	0x3e0459b7	0.12924848
82	0x3e24d50d	0.16096897
83	0xc00bffad	-2.1874802
84	0x3c868122	0.016418997
85	0xbd058529	-0.032597695
86	0xbdf1e8cb	-0.1181198
87	0x3d44618c	0.04794459
88	0xbe22f44a	-0.15913501
89	0xbe8b2391	-0.27175573
90	0xbd9bf7b2	-0.076156035
91	0x3de41820	0.11137414
92	0x3d6e92aa	0.05824534
93	0xbda55610	-0.08073056
94	0xbd5e9879	-0.054344628
95	0x3db36e20	0.08761239
96	0xbd75c3d0	-0.060001194
97	0x3b8cca74	0.004296595
98	0x3d387c52	0.045040436
99	0xbd9164fc	-0.07099339
100	0x3bc9433c	0.006142048
101	0x3bab47aa	0.005227049
102	0xbdb3b6e8	-0.08775121
103	0xbe37356c	-0.17891473
104	0xbe2002f1	-0.15626122
105	0x3d3cac74	0.0460629
106	0xbd6dca99	-0.05805454
107	0xbdf51c0a	-0.11968239
108	0xbd4e25b5	-0.05032893
109	0xbd047d05	-0.03234579
110	0xbe2a998c	-0.16660136
111	0x3bd12a7c	0.0063832384
112	0xbdfeaa91	-0.12434877
113	0xbe7be18e	-0.24597761
114	0x3dee27b5	0.11628667
115	0xbe2ac350	-0.16676068
116	0xbd3ddb61	-0.046351794
117	0xbd0acf5f	-0.03388917
118	0xbdcc55c5	-0.09977297
119	0xbded8012	-0.11596693
120	0x3e6b9340	0.2300539
121	0x3c98f0a7	0.01866944
122	0xbdbf8737	-0.09351962
123	0xbd4f0830	-0.050544918
124	0xbe34abf0	-0.17643714
125	0xbe8df7e5	-0.2772819
126	0x3ba5e54e	0.0050627356
127	0xbe3bcc66	-0.1833969
128	0xbd9e54a4	-0.07730988
129	0x3d62fa8d	0.055414725
130	0x3d395b43	0.04525305
131	0x3dfde783	0.12397673
132	0xbe679615	-0.22615846
133	0xbe07a18d	-0.1324522
134	0xbd987714	-0.07444587
135	0x3dd5c380	0.10437679
136	0x3e9bdf64	0.3044387
137	0x3f78855d	0.97078496
138	0xbdaeff4c	-0.08544788
139	0x3c3fd2b9	0.011707955
140	0xbd408e25	-0.04701056
141	0xbd96c873	-0.073624514
142	0xbcdd647b	-0.027025452
143	0x3e0346e6	0.12820014
144	0xbeef21df	-0.4670553
145	0xbec18f3b	-0.3780459
146	0xbdd5a86e	-0.10432516
147	0x3d9bc5f7	0.07606118
148	0x3e8d5bdf	0.27609155
149	0x3f9ca6f2	1.2238448
150	0x3c7d3f3d	0.015456972
151	0xbc807339	-0.015679942
152	0x3cf00623	0.029299801
153	0x3bf9cb2f	0.0076230983
154	0xbdfe3746	-0.12412886
155	0xbefb0abb	-0.49031624
156	0xbd824ed4	-0.063626915
157	0xbd5c0a2a	-0.05372063
158	0x3d531cc2	0.051541097
159	0x3dd2acc8	0.10286862
160	0x3d998846	0.07496695
161	0x3e5e588d	0.21713467
162	0xbe2e0244	-0.16993052
163	0x3ca4e7cd	0.020130062
164	0x3dc4d802	0.09611513
165	0xbda92515	-0.08259026
166	0x3dee03ad	0.11621795
167	0x3ef52dff	0.47886655
168	0x3dd51460	0.10404277
169	0x3daa0d73	0.083033465
170	0xbd68209c	-0.056671724
171	0x3cf06580	0.029345274
172	0xbe915911	-0.28388265
173	0xbecb4ae0	-0.39705563
174	0x3e506cb3	0.20353965
175	0x3e024f87	0.1272565
176	0x3d1d1d6a	0.03835813
177	0xbd0195fc	-0.031637177
178	0xbcbeceee	-0.023292031
179	0xbe9fb2a8	-0.3119099
180	0x3d50bc32	0.050960727
181	0xbcafdb84	-0.021466978
182	0x3c47e1b6	0.01219981
183	0x3db50a89	0.088399
184	0x3d99579f	0.074874155
185	0x3e4e080b	0.20120256
186	0xbc95c545	-0.018282542
187	0x3d253a4d	0.040338803
188	0xbd96404e	-0.07336484
189	0xbb4a4f0f	-0.0030869877
190	0xbdc3fd71	-0.095698245
191	0xbdbcd49e	-0.09220241
192	0x3bd7657d	0.0065733776
193	0xb8560d50	-5.1033974e-05
194	0x3dd74b90	0.10512459
195	0xbd7d82f9	-0.061892483
196	0x3bcc66e4	0.0062378515
197	0xbe21f923	-0.15817694
198	0xbe0a259c	-0.1349091
199	0xbce2ac7c	-0.027670138
200	0x3e18ca0e	0.14920828
201	0x3d0aef94	0.033919886
202	0x3da6e0a9	0.08148319
203	0x3e5a22a0	0.21302271
204	0x3e0c21b7	0.13684736
205	0x3e4aba49	0.19797625
206	0x3c96d135	0.018410305
207	0xbd018db4	-0.03162928
208	0xbe6b8ee4	-0.23003727
209	0xbebf4d2c	-0.37363565
210	0xbbd21248	-0.0064108707
211	0xbdbe46be	-0.09290837
212	0x3be82aee	0.0070851957
213	0x3c2468b8	0.0100347325
214	0xbdd579f5	-0.10423652
215	0x3c95cf5a	0.01828735
216	0xbda3ec41	-0.08004046
217	0xbd635edf	-0.055510398
218	0x3b98c943	0.004662664
219	0xbce345e9	-0.027743297
220	0x3df4263b	0.119213544
221	0x3daca656	0.084301636
222	0xbe66089c	-0.22464222
223	0xbefed45b	-0.4977139
224	0xbe86a30f	-0.2629628
225	0x3e0eb4c2	0.13936141
226	0x3e686d90	0.22698045
227	0x3fb47ae2	1.4100001
228	0x3c35e1ae	0.0111011695
229	0x3c5e0d3e	0.013552962
230	0x3c994a26	0.018712115
231	0x3b67ea76	0.0035387552
232	0xbe33c81b	-0.17556803
233	0xbe033739	-0.12814035
234	0xbd9d3637	-0.07676356
235	0xbdb471cd	-0.08810768
236	0x3b76eb0c	0.003767672
237	0x3d95d5b0	0.07316148
238	0x3c9e450e	0.019320037
239	0x3cc744e6	0.024324846
240	0xbd115ea9	-0.035490666
241	0xbd88426e	-0.066532955
242	0xbd84de41	-0.06487704
243	0x3c2658c1	0.0101529965
244	0xbbd620b8	-0.006534662
245	0xbe3ca22a	-0.18421236
246	0x3d1f653f	0.038914915
247	0x3e4b97d5	0.19882138
248	0xbc7cca61	-0.01542911
249	0x3e00dd07	0.12584315
250	0xbe515087	-0.20440875
251	0xbef683c8	-0.48147416
252	0x3d74d6ae	0.059775047
253	0xbd06e565	-0.03293361
254	0x3cb856e9	0.02250238
255	0x3e1e691c	0.15469784

bias f4 [200]
0	0xbdfb2e6a	-0.12264712
1	0xbe4a7e01	-0.19774629
2	0xbe5949b1	-0.21219517
3	0x3e1b7284	0.15180403
4	0x400a9be1	2.165764
5	0xbf46b9fd	-0.77627546
6	0xbedee86a	-0.43536693
7	0xbcfd819d	-0.030945593
8	0xbd084478	-0.033268422
9	0x3f807311	1.0035115
10	0xbe14bb79	-0.1452464
11	0xbe74b39d	-0.23896642
12	0x3f8a25be	1.0792768
13	0x3fab0211	1.3360006
14	0x3f818701	1.0119325
15	0xbe1adf66	-0.15124282
16	0xbe8acff8	-0.27111793
17	0xbf2f14f0	-0.68391323
18	0xbcd34d76	-0.025793772
19	0xbeb2fd3a	-0.34958822
20	0x3bcdcc26	0.00628044
21	0xbe9a2e7f	-0.301136
22	0xbe8f637b	-0.28005585
23	0xbd8a2cc2	-0.06746818
24	0x3e8cc945	0.27497306
25	0xbec1c4de	-0.3784551
26	0xbe0dab1a	-0.13834801
27	0xbe667693	-0.2250617
28	0xbc09e947	-0.008417434
29	0xbf28855e	-0.658285
30	0xbd0322a1	-0.032015447
31	0x3fa7e451	1.3116552
32	0xbe94df76	-0.29076737
33	0xbc296df8	-0.01034116
34	0xbeb88405	-0.36038223
35	0xbf022b25	-0.50847083
36	0xbe8f5eb5	-0.28001943
37	0x3f432498	0.7622771
38	0xbea8bf92	-0.32958657
39	0xbe2d73ee	-0.16938755
40	0x3f409515	0.7522748
41	0x3f3bdefa	0.7338711
42	0xbeb4f401	-0.3534241
43	0xbfdbe704	-1.7179875
44	0x4018ba6c	2.3863783
45	0xbe011153	-0.12604265
46	0x3fa41cd4	1.2821298
47	0xbe6ef091	-0.23333956
48	0x3fdb9bad	1.7156883
49	0xbd9d1985	-0.07670883
50	0xbde1390c	-0.10997209
51	0x400816f1	2.1264002
52	0xbe23c705	-0.15993889
53	0x3e761dea	0.24034849
54	0x3eed582f	0.4635634
55	0x3e9d273f	0.30694005
56	0xbef5046a	-0.4785493
57	0x3df1b03d	0.11801193
58	0xbe1a96b8	-0.15096557
59	0xbe4afd04	-0.1982308
60	0x3ee10951	0.4395242
61	0xbf0b8c3b	-0.5451085
62	0xbeb6376b	-0.35589156
63	0xbebf57b0	-0.37371588
64	0xbe6d44e4	-0.23170811
65	0x3bc6c1fd	0.0060656057
66	0xbfcc7481	-1.5973054
67	0xbf1de857	-0.6168265
68	0xbe001318	-0.12507284
69	0xba0c84aa	-0.00053603447
70	0xbf0c242d	-0.547427
71	0xbf1735a9	-0.59066254
72	0xbdfe1d33	-0.12407913
73	0xbe825cd0	-0.25461435
74	0x40110178	2.2657146
75	0xbe3bd4dc	-0.18342918
76	0xbeb32039	-0.3498552
77	0xbd9bb250	-0.0760237
78	0x3d49adfe	0.049238198
79	0x3f355feb	0.70849484
80	0x3e36391f	0.17795227
81	0xbd3409d4	-0.043954685
82	0x3ddfb85e	0.10923837
83	0x3fb0ad8a	1.380296
84	0xbeb9b260	-0.36268902
85	0xbe1f988a	-0.15585533
86	0x3e011fb2	0.12609747
87	0xbe0b5894	-0.13608009
88	0x3de7a592	0.11310877
89	0xbe784540	-0.24245167
90	0xbe121186	-0.14264497
91	0x3f685cb6	0.90766466
92	0xbeb81c3d	-0.35959044
93	0xbe5d54c8	-0.21614373
94	0xbe1cc67a	-0.15310088
95	0xbee3b7c4	-0.4447614
96	0xbe3dd103	-0.18536763
97	0xbf5238f0	-0.8211813
98	0xbe6c0647	-0.2304927
99	0xbe39e9fe	-0.18155667
100	0xbedb859b	-0.4287537
101	0xbe481cb9	-0.19542207
102	0xbe1dc535	-0.1540726
103	0xbec6b8ad	-0.3881277
104	0x3ff3c729	1.9045154
105	0xbe8db3e2	-0.27676302
106	0xbe8c8729	-0.2744687
107	0xbbce5539	-0.0062967804
108	0xbfce30bf	-1.6108626
109	0x3db17198	0.086642444
110	0x3e0c88c4	0.13724047
111	0xbdabac46	-0.08382468
112	0x3f5cc714	0.8624127
113	0xbcae44d9	-0.021273063
114	0xbed5e7b0	-0.41778326
115	0x3ef8ffe3	0.48632726
116	0x3c8f769d	0.017512614
117	0xbec5e7ca	-0.38653404
118	0x3eb73b8c	0.35787618
119	0xbf19ba6e	-0.60050094
120	0x3f9841d0	1.1895084
121	0x3e3467cc	0.1761772
122	0xbcd3a8ed	-0.025837386
123	0x4007196e	2.110927
124	0xbe94f446	-0.29092616
125	0xbdabc1af	-0.083865516
126	0x3e4af91b	0.19821589
127	0xbdd241f2	-0.10266484
128	0xbf38a3aa	-0.7212473
129	0xbecad5f0	-0.39616346
130	0xbe8d88ad	-0.27643338
131	0x3cb2209d	0.021744067
132	0xbe8524f9	-0.2600477
133	0x3fda10a3	1.7036327
134	0xbec7ce91	-0.39024785
135	0xbd60c62c	-0.05487649
136	0xbe50749a	-0.2035698
137	0x3ef6b417	0.48184273
138	0xbe96935c	-0.294093
139	0x3df1479e	0.11781238
140	0x3f561d84	0.8363879
141	0xbee324c7	-0.44363996
142	0xbfff0614	-1.992373
143	0xbe332bfc	-0.17497247
144	0x3f912553	1.1339515
145	0xbe17ec7b	-0.14836304
146	0x3da1dc60	0.07903361
147	0x3e03dc1c	0.12876934
148	0xbf6a5ad6	-0.91544855
149	0xbf61aeec	-0.88157535
150	0x3dc3906a	0.09549029
151	0xba368189	-0.0006962051
152	0xbea40448	-0.32034516
153	0xbe6078f5	-0.21921141
154	0xbf091624	-0.5354941
155	0x3e0dc5be	0.13844964
156	0x3f845ad3	1.0340217
157	0xbef2cbce	-0.47421116
158	0xbe096918	-0.13418996
159	0x4017a962	2.3697133
160	0x3d32f2ce	0.043688588
161	0xbe7ba9ea	-0.24576536
162	0x3e87f849	0.26556614
163	0xbeb38471	-0.35061982
164	0xbf06217e	-0.52394855
165	0x3faea95d	1.3645436
166	0xbf19fbc5	-0.60149795
167	0xbe9ee768	-0.31035924
168	0xbf0dc759	-0.55382305
169	0xbee4c818	-0.4468391
170	0xbfee619a	-1.8623536
171	0x3b4206e1	0.002960615
172	0xbce32cf7	-0.027731402
173	0xbd70548d	-0.058674384
174	0xbeaf8d65	-0.34287563
175	0xbdf001eb	-0.11719116
176	0x3d0f8d4a	0.035046853
177	0x3e943191	0.28944066
178	0x4016db17	2.3571222
179	0xbe528af9	-0.20560826
180	0xbdeccf0b	-0.11562928
181	0x3e549a88	0.20762074
182	0xbf53138d	-0.8245171
183	0x3e3aa010	0.18225121
184	0xbe4da704	-0.20083243
185	0x3e311359	0.17292537
186	0xbe9de049	-0.30835178
187	0x3ea3e590	0.3201108
188	0xbf3f0f2e	-0.7463254
189	0x3eb11e1c	0.34593284
190	0xbe4167df	-0.1888728
191	0x3f908fea	1.1293919
192	0x3f4c82d1	0.7988711
193	0x3cf42713	0.029803788
194	0x3ee2b59b	0.4427918
195	0xbd8a6a85	-0.06758598
196	0xbe1c052e	-0.15236351
197	0x3e4dccdf	0.20097683
198	0x3bb12455	0.0054059424
199	0xbeabf743	-0.33587083

weight f4 [200, 4]
0	0xbf4e9024	-0.8068869
1	0xbd264bba	-0.040599562
2	0xbf07713c	-0.52907157
3	0xbe8fd0b1	-0.28088906
4	0xbf0e9584	-0.5569689
5	0xbd914c6f	-0.07094657
6	0xbf1b4b99	-0.6066223
7	0xbf01c622	-0.5069295
8	0xbf879f0f	-1.0595416
9	0xbda524ac	-0.08063635
10	0xbf4f6daf	-0.8102674
11	0xbed1c008	-0.4096682
12	0xbf27a428	-0.6548486
13	0x3f2b8d04	0.6701205
14	0xc01feef9	-2.4989607
15	0x401522f0	2.3302574
16	0xbfa0d1b8	-1.2564001
17	0x3cfe46b6	0.031039577
18	0xbfafe35a	-1.3741257
19	0xbfa5eaa2	-1.2962229
20	0x3fff508b	1.9946455
21	0xbe86b4e1	-0.26309875
22	0x403b8c75	2.9304478
23	0xbfe36102	-1.776398
24	0xbf3b7841	-0.7323037
25	0xbe9e5e87	-0.30931494
26	0xbf0ad38a	-0.54229033
27	0xbf078af9	-0.5294643
28	0xbf391b6f	-0.72307485
29	0x3d22e2e9	0.03976718
30	0xbf06d656	-0.526708
31	0xbdf63ee0	-0.12023711
32	0xbf272e5e	-0.65305126
33	0xbe010ffd	-0.12603755
34	0xbeeea340	-0.46608925
35	0xbee19c1e	-0.4406442
36	0xbd9bfde6	-0.07616787
37	0xbf109b6d	-0.5648716
38	0xbeafa91a	-0.34308702
39	0xbf98a109	-1.1924144
40	0xbf2a00e1	-0.6640759
41	0xbeab6638	-0.33476424
42	0xbf2515cd	-0.6448639
43	0xbf49e69d	-0.7886751
44	0xbf030f85	-0.51195556
45	0x3dc25b4b	0.09490069
46	0xbecb1fa3	-0.39672574
47	0xbeecad3c	-0.46225917
48	0xbff7a223	-1.9346355
49	0xbf09e885	-0.5387042
50	0xbfc336d6	-1.525111
51	0xbee14423	-0.43997297
52	0xbf58b01d	-0.8464373
53	0xbf6e1113	-0.92994803
54	0xbfce68f2	-1.6125777
55	0xc03fe6d2	-2.9984632
56	0x402f9477	2.7434366
57	0x3df36838	0.118851125
58	0x3fef3577	1.8688191
59	0x3f04bdbe	0.51852024
60	0xbf1eef22	-0.6208364
61	0xbea22b3b	-0.31673607
62	0xbf2e7730	-0.68150616
63	0xbf4332bb	-0.76249284
64	0x3c85d9cd	0.016339207
65	0xbea702e3	-0.3261939
66	0x3f92a8bb	1.1457742
67	0xbe8b72dd	-0.2723607
68	0x405d35e0	3.4564133
69	0x3e1d1e93	0.15343694
70	0xbe109d4d	-0.14122505
71	0xc00e4d71	-2.2234766
72	0x3d90b1ac	0.07065138
73	0xbeba2c1c	-0.36361778
74	0xbe2c90e8	-0.16852152
75	0x3bd69762	0.006548808
76	0xbf73e3c5	-0.95269424
77	0xbe05a638	-0.13051689
78	0xbf200cd1	-0.62519556
79	0xbf003553	-0.50081366
80	0xbf3eca8f	-0.7452783
81	0xbe044348	-0.12916291
82	0xbf19216a	-0.5981661
83	0xbf282b52	-0.656911
84	0xbf0299a2	-0.51015675
85	0xbf0ccfbc	-0.5500448
86	0xbf345a9f	-0.70450777
87	0xbf04992f	-0.5179624
88	0xbf52bd0f	-0.8231973
89	0xbe8dc92c	-0.27692544
90	0xbef3c682	-0.47612387
91	0xbeb418c2	-0.3517514
92	0xbf1e1e19	-0.61764675
93	0xbe5931c3	-0.21210389
94	0xbf16d154	-0.5891316
95	0xbee2c0e9	-0.44287804
96	0xc039d373	-2.9035308
97	0x3e332fe9	0.17498745
98	0xbddf98ca	-0.10917814
99	0x4023a5c3	2.5569923
100	0x3f6cfd73	0.9257423
101	0xbe6950e8	-0.2278477
102	0xbeda2244	-0.42604268
103	0x3f58882a	0.8458277
104	0xbf6001f9	-0.8750301
105	0xbe37bd62	-0.17943338
106	0xbf6df2e2	-0.92948735
107	0xbeff22a4	-0.49831116
108	0xbf33006d	-0.69922525
109	0xbe402883	-0.18765454
110	0xbf1975aa	-0.59945166
111	0xbeb27b76	-0.34859818
112	0x3e70e3f0	0.23524451
113	0xbbbc2d16	-0.0057426794
114	0x3d5ce8e4	0.05393304
115	0xbe3a6a0e	-0.18204519
116	0x40500cff	3.2507932
117	0x3e3eafc9	0.18621744
118	0x3e7e8d8b	0.24858682
119	0xc0103a5e	-2.2535625
120	0x3e2630ae	0.16229507
121	0xbf4b0dbf	-0.7931785
122	0x3e8879cd	0.26655427
123	0x3e0ecf93	0.13946371
124	0x40589f23	3.384713
125	0x3f214a8c	0.63004375
126	0x3ec2a3d9	0.3801563
127	0x3eb52b82	0.35384756
128	0xbecab797	-0.39593193
129	0xbe841ad0	-0.25801706
130	0xbf025e2b	-0.5092494
131	0xbf03e3be	-0.5151938
132	0xbfdf7b4a	-1.74595
133	0x3f45d827	0.7728295
134	0x4007c4b1	2.12138
135	0x3fc5ed19	1.5462981
136	0x3f3973d4	0.72442365
137	0xbcfc5df0	-0.030806512
138	0x3f1c37f6	0.6102289
139	0x3ebb14bd	0.3653926
140	0xbf1f7cb5	-0.6229966
141	0xbed7e9e0	-0.4217062
142	0xbf542eea	-0.82884085
143	0xbecf7c2e	-0.4052443
144	0xbf9241e2	-1.1426356
145	0xbe2a87d0	-0.16653371
146	0xbef6cb98	-0.48202205
147	0xbf0bd7cb	-0.5462615
148	0xbe503763	-0.20333628
149	0xbf80f538	-1.0074835
150	0xbf40f9b5	-0.7538102
151	0xc0009518	-2.0091
152	0xbf7d17ed	-0.9886463
153	0xbf049192	-0.5178462
154	0xbf1907d4	-0.5977757
155	0xbf1ca01d	-0.61181813
156	0x3e9a3a53	0.30122623
157	0xbf17fad7	-0.59367126
158	0x3f0cacf2	0.54951394
159	0xbb829da3	-0.003986077
160	0xbfa19c73	-1.262587
161	0xbeae4625	-0.3403789
162	0xbf0d2df4	-0.55148244
163	0xbf203e95	-0.6259549
164	0x3f6a33d4	0.91485333
165	0xbfb60c0d	-1.4222428
166	0xbfcfe0b7	-1.6240453
167	0x3fe0a01e	1.7548864
168	0xbf8b2da7	-1.0873307
169	0xbd9c25c0	-0.07624388
170	0xbea76be4	-0.32699502
171	0xbe99a230	-0.30006552
172	0xc01db412	-2.4641156
173	0x3de3290c	0.110918134
174	0xbf8e80be	-1.1133039
175	0x3efbf486	0.49209994
176	0x3faa2492	1.329241
177	0xbdeb0d1e	-0.11477111
178	0xbf6085cf	-0.87704176
179	0xc00f3978	-2.2378826
180	0xbf2bc172	-0.6709205
181	0xbe29d094	-0.16583472
182	0xbf4b081a	-0.79309237
183	0xbe8562db	-0.26051983
184	0x405487ef	3.3207967
185	0x3f29f32d	0.6638668
186	0x3e9b0eff	0.3028488
187	0x3eb77fc1	0.35839656
188	0xbce80ecf	-0.028327374
189	0xbf3177b3	-0.6932327
190	0x3f124852	0.571416
191	0x3e67f5a1	0.22652294
192	0xc043762f	-3.0540884
193	0xbf5fa251	-0.8735705
194	0xbf51eaa3	-0.8199865
195	0xbf7a3734	-0.97740483
196	0x3e97a5e0	0.2961874
197	0xbec807ec	-0.39068544
198	0x3e0d0c59	0.13774242
199	0x3e634adc	0.22196525
200	0xbef65ef7	-0.48119327
201	0xbea848af	-0.32867953
202	0xbf0fa633	-0.56112975
203	0xbed90a17	-0.4239051
204	0x3fc3a0ad	1.5283409
205	0xbd05b899	-0.03264675
206	0xbf023527	-0.50862354
207	0xbfea9891	-1.832781
208	0xbe3ba2ad	-0.18323775
209	0x3d8a0121	0.067384966
210	0xbf119c82	-0.56879437
211	0xbeea9713	-0.45818385
212	0xbe8f5c4d	-0.28000107
213	0x3f4d9575	0.8030618
214	0xbda44da9	-0.08022625
215	0x4000504e	2.0049014
216	0xbea92b77	-0.33040974
217	0xbe45f605	-0.1933213
218	0xbe8298cb	-0.25507197
219	0xbf344aca	-0.7042662
220	0xbedf6037	-0.43628094
221	0xbec7b077	-0.3900182
222	0xbf5a34a0	-0.8523655
223	0xbfc8caee	-1.5686929
224	0xbf2ca8fc	-0.6744535
225	0xbf084d55	-0.53243
226	0xbf496dc9	-0.78683144
227	0xbf583f2d	-0.844714
228	0x40388b51	2.8835032
229	0xbe2b8187	-0.1674863
230	0x4039b04f	2.901386
231	0x3f997a90	1.1990528
232	0xbef2ebd2	-0.47445542
233	0xbe8db58b	-0.2767757
234	0xbe8a610f	-0.27027175
235	0xbee7e402	-0.45291144
236	0x3f0f9150	0.56081104
237	0xbf0836e3	-0.5320875
238	0x3e5937c0	0.21212673
239	0x3f1d2097	0.61377853
240	0x3f2f030b	0.6836402
241	0xbe97232a	-0.29519016
242	0x405a3b1c	3.4098577
243	0x3f2b39c9	0.6688505
244	0x3f952c13	1.1654075
245	0xbdb4487a	-0.08802886
246	0x3ea2cdb8	0.31797576
247	0xbebdf96d	-0.3710436
248	0xbf97e218	-1.1865873
249	0xbda051cd	-0.07828102
250	0xbf15bf04	-0.5849459
251	0xbe9b24ce	-0.30301517
252	0xbe1b7e51	-0.15184905
253	0xbdee8891	-0.11647142
254	0xbf1318b1	-0.5745955
255	0xbe021a41	-0.12705328

bias f4 [200]
0	0xbeedfb39	-0.4648073
1	0xbe11646b	-0.14198463
2	0xbeceb3c7	-0.40371534
3	0xbe3f85a6	-0.18703327
4	0x401c64ea	2.4436593
5	0xbf8adca6	-1.0848587
6	0xbe8088ee	-0.2510447
7	0xbe9151aa	-0.28382617
8	0xbf0b5e84	-0.54441094
9	0x3fb80672	1.4376967
10	0x3d918344	0.07105115
11	0xbf170bc6	-0.5900234
12	0x3fac762e	1.3473566
13	0x3fd1b8c4	1.6384511
14	0x3fb0af3a	1.3803475
15	0x3e65ae40	0.22429752
16	0x3e10282f	0.14077829
17	0xbf57e5ba	-0.8433491
18	0x3c985414	0.01859478
19	0xbf356f66	-0.70873106
20	0xbded2d22	-0.11580874
21	0xbeff21b1	-0.49830392
22	0xbec06715	-0.37578645
23	0xbefc09d1	-0.4922624
24	0x3ed93f19	0.42430952
25	0xbec2ee26	-0.38072318
26	0xbd99030d	-0.07471285
27	0xbf033fc8	-0.512692
28	0x3e5e0425	0.21681269
29	0xbf65008e	-0.8945397
30	0x3e2bc496	0.1677421
31	0x3f93b432	1.1539366
32	0xbe8d0612	-0.27543694
33	0x3e5277bc	0.20553488
34	0xbf47d7d5	-0.7806371
35	0xbeb8b54a	-0.36075813
36	0xbeeb0b1f	-0.45906922
37	0x3f2ec728	0.6827264
38	0xbe104b22	-0.14091161
39	0x3cc7c754	0.02438704
40	0x3f993220	1.1968422
41	0x3f5acce9	0.8546892
42	0xbf2e55ea	-0.68099844
43	0xc0082645	-2.1273358
44	0x403aca66	2.9186034
45	0xbf1bb694	-0.6082547
46	0x3fb643d1	1.4239446
47	0xbdb40f24	-0.0879195
48	0x40027ef5	2.0389988
49	0xbed65bda	-0.41866952
50	0xbeb0abfb	-0.3450621
51	0x401b1175	2.4229405
52	0xbf083609	-0.5320745
53	0x3f220413	0.63287467
54	0x3f15dbf4	0.58538747
55	0x3f219c8f	0.63129514
56	0xbe420288	-0.18946278
57	0x3f087e2e	0.53317535
58	0xbf13b713	-0.57701224
59	0xbf3a34ef	-0.7273702
60	0x3f498d4e	0.7873124
61	0xbeb53ba7	-0.35397074
62	0xbeeaaf43	-0.4583684
63	0xbf362f18	-0.7116561
64	0xbe71dc74	-0.23619252
65	0xbebd46f5	-0.36968198
66	0xbfb903b3	-1.4454254
67	0xbf5cece7	-0.86298984
68	0xbf070af6	-0.527511
69	0x3e9a8f2c	0.30187356
70	0xbf265e97	-0.6498808
71	0xbf58510b	-0.8449866
72	0xbe353d8c	-0.1769926
73	0xbe915909	-0.2838824
74	0x402d34bc	2.7063437
75	0xbdb286b6	-0.087171
76	0xbed9cc6b	-0.4253877
77	0xbeec1c7e	-0.46115488
78	0x3ebbe8a9	0.36700943
79	0x3f5036cd	0.8133362
80	0x3eb65536	0.35611886
81	0xbe1d9288	-0.15387928
82	0xbe8f214b	-0.27955088
83	0x3fe19257	1.7622784
84	0xbf115834	-0.5677521
85	0xbe0fd50c	-0.14046115
86	0x3d8e6a5b	0.069538794
87	0xbf1e07c0	-0.61730576
88	0x3f087ce6	0.5331558
89	0xbd114cbd	-0.035473574
90	0xbeeb5bf8	-0.45968604
91	0x3f9a8636	1.2072208
92	0xbf173eaa	-0.5907999
93	0x3d9b2697	0.0757572
94	0xbcc2d542	-0.02378333
95	0xbeb6b48c	-0.3568462
96	0xbee4b4c0	-0.4466915
97	0xbf3f7e50	-0.7480211
98	0xbf2b7142	-0.6696969
99	0xbf3a6cf5	-0.72822505
100	0xbf25829a	-0.6465241
101	0xbe8f30c0	-0.2796688
102	0xbeac27f1	-0.33624223
103	0x3d514ce9	0.051098738
104	0x400d2769	2.2055304
105	0xbcfe469b	-0.031039527
106	0xbdd4590b	-0.10368546
107	0xbef571c9	-0.47938374
108	0xbfdaf8d7	-1.710719
109	0xbd7b7194	-0.061387613
110	0x3e2f4026	0.17114314
111	0xbe21d6dd	-0.1580462
112	0x3f41300e	0.7546395
113	0xbe9fa577	-0.31180927
114	0xbeda0e84	-0.425892
115	0x3f48ba0c	0.78408885
116	0xbe2fcaca	-0.17167202
117	0xbe14633a	-0.14490977
118	0x3f045bce	0.5170258
119	0xbed430c7	-0.41443464
120	0x3f356225	0.7085288
121	0xbdd9879c	-0.106215686
122	0x3e6c2811	0.23062159
123	0x401edad4	2.4821062
124	0xbe8ebcd6	-0.27878445
125	0xbe99aec7	-0.30016157
126	0x3ed76db5	0.42075887
127	0xbe97405a	-0.29541284
128	0xbf1c60a0	-0.6108494
129	0xbf498dfb	-0.7873227
130	0xbc3d2189	-0.01154364
131	0xbef9ef3c	-0.48815334
132	0xbdfe5bd0	-0.124198556
133	0x40033750	2.050251
134	0xbe479085	-0.19488724
135	0xbe5320fc	-0.20618051
136	0xbee819af	-0.45332095
137	0x3f2fae7e	0.6862563
138	0xbd922db5	-0.07137624
139	0x3de5b1a1	0.11215521
140	0x3f68b0ec	0.9089496
141	0xbf710596	-0.9414915
142	0xbfd43fe7	-1.6582001
143	0xbf1148d1	-0.56751734
144	0x3fc50253	1.5391334
145	0xbe96fc8e	-0.2948956
146	0x3ec27004	0.37976086
147	0x3e2eab54	0.17057544
148	0xbf008dd3	-0.50216407
149	0xbe9c77a7	-0.30560037
150	0x3ee09b84	0.4386865
151	0xbd43c5d8	-0.0477961
152	0xbb45e690	-0.003019724
153	0xbee69d4f	-0.45041892
154	0xbe88a47a	-0.26687986
155	0x3ac99600	0.0015379786
156	0x3fb5bd23	1.4198345
157	0xbf3a80e6	-0.72852933
158	0xbe9b8e6b	-0.30382094
159	0x403124bf	2.7678678
160	0xbeb58fb8	-0.3546121
161	0xbed34fb3	-0.41271743
162	0x3e88cb35	0.26717535
163	0xbf1a71a6	-0.60329664
164	0xbf67bb3e	-0.90520084
165	0x3fc2919f	1.520069
166	0xbf48b2e7	-0.78397983
167	0xbd511d85	-0.051053543
168	0xbf223823	-0.6336691
169	0xbf27bd90	-0.65523624
170	0xbfc41bfa	-1.5321038
171	0xbbd90000	-0.0066223145
172	0xbe15034f	-0.14552043
173	0x3e4a22b6	0.19739804
174	0xbec24473	-0.37942848
175	0xbe11c056	-0.14233527
176	0xbeae33c6	-0.34023875
177	0x3f3533d1	0.7078219
178	0x402d3b79	2.706755
179	0xbedf30c4	-0.43591893
180	0xbec099b0	-0.37617254
181	0x3f366d45	0.7126048
182	0xbf2b70bb	-0.6696889
183	0xbda86e82	-0.08224203
184	0xbe5303b4	-0.20606881
185	0x3d236a9e	0.0398966
186	0xbea06dde	-0.31333822
187	0x3ea0eea7	0.31432077
188	0xbf2c7605	-0.67367584
189	0x3ed49786	0.41521853
190	0xbf2183b2	-0.63091576
191	0x3fbdd4ae	1.483053
192	0x3f047e59	0.5175529
193	0xbe5aaa89	-0.21354116
194	0x3f651a70	0.89493465
195	0x3ebf20c5	0.3732969
196	0xbea73e1e	-0.3266458
197	0xbe1ba0ef	-0.1519811
198	0x3f11219d	0.56691915
199	0x3d6859ab	0.05672614

weight f4 [10, 200]
0	0x3ddb3d82	0.10705091
1	0xbcf9dd65	-0.030501077
2	0x3d803e54	0.06261888
3	0xbd395454	-0.045246437
4	0xbd6d9ffd	-0.058013905
5	0xbdd2f4a3	-0.10300567
6	0xbe13ada7	-0.14421712
7	0xbce56388	-0.028001562
8	0xbdd32538	-0.10309833
9	0xbca46e77	-0.020072205
10	0xbc3b59ee	-0.011435015
11	0xbda257d9	-0.07926912
12	0xbdcdb3b3	-0.100440405
13	0xbc7ce5fc	-0.015435692
14	0xbd1ac66d	-0.03778689
15	0xbe082083	-0.13293652
16	0xbdf3f1d8	-0.119113624
17	0xbd216de5	-0.039411444
18	0xbde1829f	-0.11011242
19	0xbd073d75	-0.033017594
20	0xbde048f1	-0.109514125
21	0xbde6d02a	-0.11270173
22	0xbdb5c483	-0.08875372
23	0xbd8753e4	-0.06607798
24	0xbd988ec2	-0.07449104
25	0xbd4824a9	-0.048863087
26	0xbc927b8c	-0.017881177
27	0xbc91c095	-0.017792026
28	0x3d0ffc98	0.035153
29	0x3d254c97	0.040356245
30	0xbce9e10d	-0.028549695
31	0xbe111d6f	-0.14171384
32	0xbd86ac0a	-0.065757826
33	0xbe0b46fa	-0.13601294
34	0xbc02e75d	-0.007989732
35	0xbe048cd0	-0.1294434
36	0xbd23d6e1	-0.039999846
37	0xbd256fbc	-0.04038976
38	0xbd0acc99	-0.033886526
39	0xbd3f1e42	-0.046659715
40	0xbd3b4c35	-0.045726974
41	0xbd3611c1	-0.044450525
42	0xbd8a1f74	-0.067442805
43	0xbe099954	-0.13437396
44	0xbd5f5d64	-0.054532424
45	0xbd916f28	-0.071012795
46	0xbd9797e4	-0.07402018
47	0xbd695fad	-0.05697601
48	0xbdbaa733	-0.09113922
49	0xbe048cf2	-0.12944391
50	0xbdda17f5	-0.10649101
51	0xbd968690	-0.073498845
52	0xbce88c62	-0.028387252
53	0xbd466bc6	-0.048442625
54	0xbdddea33	-0.108356856
55	0xbd90e630	-0.07075155
56	0xbd665662	-0.056234725
57	0xb98fdc89	-0.00027439397
58	0xbda67f9d	-0.08129809
59	0xbda3daf7	-0.080007486
60	0xbd89b42f	-0.067238204
61	0x3c35a1a0	0.011085898
62	0xbd7165b1	-0.05893487
63	0xbcdb9df8	-0.026808724
64	0xbde5be8b	-0.11217984
65	0xbdc4b6b8	-0.09605163
66	0xbd01d86e	-0.031700544
67	0xbd1a661c	-0.037695035
68	0xbe06725f	-0.13129567
69	0x3c9b2310	0.018937618
70	0xbd993227	-0.07480269
71	0xbe0cec77	-0.13762079
72	0xbca2cc6d	-0.019872868
73	0xbd9ce6ea	-0.07661231
74	0xbddf2150	-0.10895026
75	0xbda2a934	-0.07942429
76	0xbccc1a00	-0.024914742
77	0x3cca36c9	0.024684327
78	0xbdea1de4	-0.114314824
79	0xbdcccc04	-0.099998504
80	0xba5fb9f8	-0.00085344864
81	0x3d78c306	0.060732864
82	0xbd95d35f	-0.073157065
83	0xbd9077ba	-0.07054086
84	0xbd8227e6	-0.06355266
85	0xbccb6d95	-0.024832526
86	0xbd9fba8e	-0.07799254
87	0xbd89f94d	-0.067370035
88	0xbd1300ca	-0.035889424
89	0x3c82a1d7	0.015946312
90	0xbdea9b2e	-0.114553794
91	0xbc1395e0	-0.009007901
92	0xbddad6d2	-0.10685505
93	0xbda27d44	-0.07934049
94	0xbe0b0b79	-0.13578595
95	0xbd17994e	-0.037011437
96	0xbdca3b86	-0.098746344
97	0xbda5626d	-0.08075414
98	0xbdeb28a6	-0.114823624
99	0xbdee6d3e	-0.1164193
100	0xbd9fe244	-0.078068286
101	0xbcdd5ff2	-0.02702329
102	0xbc2f330f	-0.010693326
103	0xbc9b83b8	-0.018983707
104	0xbc8e6ad0	-0.017384917
105	0xbdf3abcc	-0.11898002
106	0xbdbf0b63	-0.09328344
107	0xbd373be8	-0.044734865
108	0xbd9e6c43	-0.07735493
109	0xbdea5f5d	-0.1144397
110	0xbd8d39ce	-0.06895791
111	0xbd1f6d04	-0.038922325
112	0xbde61355	-0.11234156
113	0xbde4133f	-0.111364834
114	0xbd264c9b	-0.0406004
115	0xbe18c821	-0.14920093
116	0xbd79a171	-0.06094498
117	0xbdb15bf8	-0.0866012
118	0xbe009add	-0.12559076
119	0xbd39fef3	-0.045409154
120	0xbe0991cb	-0.13434522
121	0xbdc203fb	-0.094734155
122	0xbd9acd9c	-0.07558748
123	0xbe1736ab	-0.14766948
124	0xbc86403e	-0.016388055
125	0xbd437b50	-0.04772502
126	0xbe0d9a6d	-0.1382844
127	0xbbfc839f	-0.00770612
128	0xbcbf397e	-0.023342844
129	0x3d4c7a06	0.049921058
130	0xbda0bda5	-0.07848672
131	0x3d3c26c6	0.045935415
132	0xbe06ba6c	-0.13157052
133	0xbb6e187e	-0.0036330516
134	0xbe0cce68	-0.13750613
135	0xbddad2d1	-0.10684741
136	0xbd9361d9	-0.07196397
137	0xbdba7ca2	-0.09105803
138	0xbdb38795	-0.087660946
139	0xbe09811f	-0.13428162
140	0x3d430876	0.04761549
141	0xbafeb8e8	-0.0019433768
142	0x3cec5229	0.02884777
143	0xbd97b6f7	-0.07407945
144	0x3acc1d6b	0.0015572732
145	0xbcb87011	-0.022514375
146	0xbd463775	-0.04839273
147	0xbdcb2937	-0.099199705
148	0xbdbe2f90	-0.092864156
149	0xbd3ff1bb	-0.04686139
150	0xbd0dde1f	-0.03463566
151	0xbd759a91	-0.05996186
152	0xbdb3e21e	-0.08783363
153	0xbd4a1a1d	-0.04934131
154	0xbd9e0c88	-0.07717234
155	0xbe06c4d8	-0.13161027
156	0xba775a12	-0.0009435724
157	0xbcf9996e	-0.030468669
158	0xbc04b2ba	-0.008099252
159	0x3cb59879	0.022167431
160	0xbd3fa97a	-0.046792485
161	0xbbc9804b	-0.006149327
162	0xbd615345	-0.055011053
163	0xbcb485cf	-0.022036461
164	0x3bf62f8a	0.0075129913
165	0xbd9f36c9	-0.07774121
166	0xbceca866	-0.028888892
167	0xbe0bbca0	-0.13646173
168	0xbd7e1e48	-0.062040597
169	0xbda436f6	-0.080182955
170	0xbd8af310	-0.06784642
171	0xbd997ee7	-0.07494908
172	0xbc185830	-0.009298369
173	0xbdf45ef9	-0.11932177
174	0xbd903a25	-0.0704234
175	0x3da28ec0	0.07937384
176	0xbdc83fd3	-0.097777985
177	0xbca2e62b	-0.019885143
178	0x3cab5f35	0.020919422
179	0xbdadfe7c	-0.08495805
180	0xbdcff29f	-0.10153698
181	0xbd3b48ad	-0.045723606
182	0xbcb914dd	-0.022592956
183	0xbe0580ae	-0.13037369
184	0xbd9d86c3	-0.076917194
185	0xbdfa96a5	-0.122357644
186	0xbd3da9ef	-0.04630464
187	0xbddc2b28	-0.10750419
188	0xbd767cb2	-0.060177512
189	0xbcbd2d36	-0.023092847
190	0x3cb6eb1c	0.022328906
191	0xbc4ee868	-0.012628652
192	0xbd51a1d8	-0.051179737
193	0xbd615175	-0.055009324
194	0xbd861e56	-0.06548755
195	0xbe0dfc02	-0.13865665
196	0xbc63e800	-0.013910294
197	0x3d9f6f6e	0.077849254
198	0xbd5d3f35	-0.054015357
199	0x3c60a870	0.013712034
200	0xbd20acf9	-0.03922746
201	0xbd10b080	-0.035324574
202	0xbce34496	-0.027742665
203	0xbdae7402	-0.085182205
204	0xbd068ce3	-0.032849204
205	0xbd050e34	-0.03248425
206	0xbcbee612	-0.023303065
207	0x3cdc377d	0.026881928
208	0xbcd1dd9c	-0.025618367
209	0xbbbb418f	-0.0057146023
210	0xbe0f70dd	-0.14007898
211	0x3cbad71b	0.022807648
212	0xbdf9fa15	-0.122059025
213	0xbd92d6a5	-0.071698464
214	0xbc20e418	-0.009820007
215	0xbcb56b9f	-0.022146044
216	0x3ca8bc52	0.02059761
217	0xbcb9493c	-0.022617929
218	0x3ca4cca2	0.020117108
219	0x3ced1f1d	0.0289455
220	0x3d7fb0fd	0.06242465
221	0xbd7b2f6a	-0.061324514
222	0x3c171abd	0.0092226835
223	0xbd380027	-0.04492202
224	0xbdbedb18	-0.093191326
225	0xbc94a501	-0.018145086
226	0xbce421ea	-0.027848203
227	0xbde1fc7f	-0.11034488
228	0xbd2a35af	-0.041555103
229	0xbd71185c	-0.05886112
230	0xbdfed86c	-0.12443623
231	0x3ccccb5b	0.024999311
232	0x3cdc3c1a	0.026884127
233	0xbde05c22	-0.10955073
234	0x3c48be1d	0.012252358
235	0xbe08fc4f	-0.13377498
236	0x3bef78d9	0.0073081073
237	0xbdf745d0	-0.120738626
238	0xbb9d029c	-0.004791571
239	0xbd1bc0c4	-0.038025633
240	0xbd191627	-0.03737464
241	0xbdb46c50	-0.088097215
242	0x3cc28b9c	0.023748212
243	0xbc08f163	-0.008358332
244	0x3c0f009f	0.008728175
245	0xbd831293	-0.06400027
246	0xbd99c95c	-0.075091094
247	0xbd026fd6	-0.031844936
248	0xbce1936f	-0.027536122
249	0xbd08b763	-0.033378016
250	0xbc744950	-0.014910057
251	0xbd8f4f4f	-0.06997549
252	0xbdc74429	-0.097297974
253	0xbd1f4893	-0.03888757
254	0xbdc10901	-0.094255455
255	0xbd7185c4	-0.05896546

bias f4 [10]
0	0xbcd22458	-0.025652096
1	0xbd437c9b	-0.047726255
2	0xbe093491	-0.13398959
3	0xbf21e907	-0.63246197
4	0xbdd633bb	-0.104590856
5	0xbc745c07	-0.014914519
6	0x3ab3f13e	0.0013728512
7	0xbec9399a	-0.3930176
8	0x3f874c1c	1.0570102
9	0x3c3ba83a	0.011453683

weight f4 [1, 10]
0	0x3dff9adf	0.12480711
1	0xbe0b11c0	-0.1358099
2	0x3dea0370	0.11426437
3	0xbe731e88	-0.23742115
4	0xbe5716c8	-0.21004784
5	0xbdcfc13e	-0.1014428
6	0x3db65a3f	0.08903932
7	0x3e05c0ca	0.13061824
8	0x3e77bb80	0.2419262
9	0xbe738f44	-0.2378512
