Gibbs_MINE/model_kl_4_1.pth (torch, 112015 bytes, 7 tensors)

weight f4 [200, 120]
0.041261606 0.1490541 0.09050544 0.036653224 0.100169465 0.1431242 0.02223273 -0.11162521
-0.03591918 -0.03643449 -0.0963925 -0.09242992 0.008025021 0.06604322 0.011808259 -0.07427127
-0.027544342 -0.06539588 -0.05176034 -0.13724309 0.016762136 0.043841213 -0.031646032 -0.019495806
0.006419927 0.03264193 -0.036085777 -0.081373 0.025129085 -0.1046102 0.00699168 -0.08109563
-0.1589374 0.069153406 -0.092539616 -0.0129003655 -0.0023300732 0.153987 0.056497313 0.062552966
0.1255057 0.044421397 -0.04768488 -0.14940217 0.028911311 0.02825454 0.005852038 -0.099050194
-0.0673483 -0.1204014 -0.0066797007 0.11408754 0.008794077 -0.04400755 0.014062812 -0.15692878
-0.089131504 0.11633941 -0.037400495 -0.074134685 -0.029792832 -0.01594613 -0.020365048 -0.06439237
0.0057649612 0.061189495 0.010395768 -0.0765382 -0.04015444 0.0130947195 -0.12651338 -0.18752363
-0.015509795 -0.05699515 -0.017944528 0.03959478 -0.035874963 -0.047863625 0.10028725 1.6727571
1.7931478 0.25446767 0.16577667 -2.9877522 0.0134006245 -0.022063736 -0.06642251 -0.0041770637
-0.06360219 -0.15269765 -0.025822483 0.060562048 0.023334702 -0.017425105 0.042171706 0.122518696
-0.058617413 0.00023077591 -0.016419515 0.027222566 0.0557423 0.01903705 0.0027093377 -0.04776257
-0.08934389 -0.02143386 -0.10599737 -0.14092615 -0.021988926 -0.009609519 -0.01166164 0.007273346
-0.0054523544 -0.20235062 0.043074556 -0.11703852 -0.08425148 0.0496533 -0.0017375939 -0.085660115
0.053695757 0.008147383 -0.15114495 -0.005771292 -0.12402569 -0.30722493 -0.12693709 -0.1357733
-0.096358426 -0.02187484 0.08586016 0.27888393 -0.16844897 -0.085132085 0.27058464 -0.07441968
0.40168336 1.0424386 0.09859644 0.14090718 -0.025808403 0.03750806 -0.010136908 0.076324895
-0.48631802 -0.5870229 -0.061830096 0.08441162 0.2722283 1.8832884 0.11395631 0.033560723
-0.013631073 0.10047863 -0.1754419 -0.7070151 -0.005324111 0.02558109 0.07837413 -0.17932025
0.1446144 0.16284224 -0.24152209 -0.084417574 0.08947894 0.05821142 0.07191195 0.6753509
0.3364967 0.075698726 -0.09578127 -0.027861055 -0.2692051 -0.5796405 0.14761867 0.05484891
-0.17332584 0.024402156 -0.20445083 -0.21723819 -0.12795034 -0.11114231 0.018272167 0.03821403
0.009633654 0.44730058 -0.0024726912 0.017963469 -0.03942098 -0.071947925 -0.1001443 -0.27231482
0.07453938 -0.01420648 -0.050725207 -0.03440733 -0.14392962 -0.10050155 -0.12634756 0.062393393
0.14926401 0.01606814 0.110182665 0.19876204 0.16223305 0.18834381 -0.03622568 0.002340128
-0.31693754 -0.5428954 -0.053205352 -0.13684092 0.061315946 0.03511388 -0.03254095 0.041592713
-0.24153963 0.06826045 0.12098476 -0.023484683 0.02206519 0.07814159 -0.39745232 -0.3529546
0.14626491 -0.05378193 0.47793683 1.5451561 0.011750592 0.09520023 -0.01470434 -0.06151282
-0.1037919 -0.3150897 -0.08751662 -0.16133681 -0.0004930885 0.017939394 0.14274476 0.0998649
-0.11234588 0.010643639 -0.06294855 -0.04280504 -0.032124322 -0.1994627 0.17648692 0.044390395
-0.03758909 0.14256155 -0.21194144 -0.62692213 0.031755682 0.029864155 -0.12579118 -0.008653888
00000000: ee01 293d a3a1 183e eb5a b93d b121 163d
00000010: a625 cd3d 268f 123e 6a21 b63c c29b e4bd
00000020: fd1f 13bd 553c 15bd 6e69 c5bd e64b bdbd
00000030: 617b 033c ab41 873d 6e77 413c 891b 98bd
00000040: aca4 e1bc 46ee 85bd a602 54bd 7489 0cbe
00000050: bf50 893c d892 333d 459f 01bd abb5 9fbc
00000060: 405e d23b 8bb3 053d aece 13bd e3a6 a6bd
00000070: 83db cd3c df3d d6bd 761a e53b 7715 a6bd
00000080: 7cc0 22be 4da0 8d3d 6985 bdbd 0e5c 53bc
00000090: 24b4 18bb c5ae 1d3e ba69 673d c51b 803d
000000a0: 9184 003e 36f3 353d 3951 43bd e2fc 18be
000000b0: 6ad7 ec3c 1176 e73c 74c2 bf3b d4da cabd
000000c0: e8ed 89bd 0295 f6bd 64e1 dabb baa6 e93d
000000d0: 0815 103c 4341 34bd b567 663c f0b1 20be
000000e0: 948a b6bd 5b43 ee3d 4331 19bd edd3 97bd
000000f0: 1910 f4bc 75a1 82bc 9ad4 a6bc 26e0 83bd
00000100: 00e8 bc3b d6a1 7a3d 0353 2a3c 0fc0 9cbd
00000110: fb78 24bd 3c8b 563c b98c 01be 3206 40be
00000120: cc1c 7ebc bf73 69bd 6700 93bc 232e 223d
00000130: a0f1 12bd a60c 44bd 6763 cd3d e81c d63f
00000140: de85 e53f 9649 823e 5cc1 293e 5537 3fc0
00000150: 4b8e 5b3c 02bf b4bc 8608 88bd c0df 88bb
00000160: dd41 82bd c65c 1cbe ac89 d3bc e90f 783d
00000170: 6b28 bf3c 18bf 8ebc 3dbc 2c3d 15eb fa3d
00000180: d018 70bd 70fc 7139 3882 86bc dc01 df3c
00000190: 0a52 643d 96f3 9b3c 258f 313b afa2 43bd
000001a0: eef9 b6bd 1096 afbc 2615 d9bd f24e 10be
000001b0: 1f22 b4bc 3e71 1dbc 7710 3fbc 4055 ee3b
000001c0: aaa9 b2bb 0035 4fbe f26e 303d e4b1 efbd
000001d0: 0a8c acbd 4261 4b3d fabf e3ba 926e afbd
000001e0: 15f0 5b3d 9a7c 053c bec5 1abe 1b1d bdbb
000001f0: 2e01 febd 964c 9dbe ccfb 01be 2808 0bbe
00000200: 9157 c5bd dd32 b3bc 74d7 af3d e0c9 8e3e
00000210: e37d 2cbe bb59 aebd 128a 8a3e 5869 98bd
00000220: 71a9 cd3e a16e 853f eeec c93d f949 103e
00000230: 256c d3bc 0da2 193d 4615 26bc 3a50 9c3d
00000240: adfe f8be 2247 16bf 8e41 7dbd 00e0 ac3d
00000250: 8261 8b3e 980f f13f ed61 e93d f876 093d
00000260: dd54 5fbc bdc7 cd3d 0ba7 33be f1fe 34bf
00000270: e175 aebb 6f8f d13c 9e82 a03d ba9f 37be
00000280: cc15 143e 1ec0 263e 9151 77be 1fe3 acbd
00000290: bc40 b73d 196f 6e3d 9346 933d cce3 2c3f
000002a0: 4c49 ac3e ef07 9b3d f828 c4bd de3c e4bc
000002b0: 40d5 89be 5263 14bf 5929 173e 40a9 603d
000002c0: 547c 31be 08e7 c73c 8f5b 51be b073 5ebe
000002d0: 6a05 03be 949e e3bd 83af 953c 5186 1c3d
000002e0: 79d6 1d3c 9504 e53e e00c 22bb 2028 933c
000002f0: e577 21bd 6f59 93bd 7418 cdbd d96c 8bbe
00000300: 1aa8 983d 4cc2 68bc 3cc5 4fbd b3ee 0cbd
00000310: 4962 13be c2d3 cdbd 4161 01be 3790 7f3d
00000320: aad8 183e 55a1 833c 73a7 e13d 4788 4b3e
00000330: 6c20 263e 33dd 403e 6161 14bd d55c 193b
00000340: a345 a2be 31fb 0abf dbed 59bd 0720 0cbe
00000350: 6e26 7b3d 92d3 0f3d a949 05bd 1f5d 2a3d
00000360: 2a56 77be 23cc 8b3d dcc6 f73d f362 c0bc
00000370: 0fc2 b43c b308 a03d df7e cbbe 77b6 b4be
00000380: 78c6 153e 714a 5cbd 23b4 f43e adc7 c53f
00000390: 8e85 403c 57f8 c23d 79ea 70bc def4 7bbd
000003a0: d990 d4bd 7053 a1be ea3b b3bd 7a35 25be
000003b0: 9c42 01ba a3f5 923c af2b 123e f885 cc3d
000003c0: 9915 e6bd a862 2e3c 2beb 80bd 5654 2fbd
000003d0: cb94 03bd f33f 4cbe fdb8 343e b4d2 353d
000003e0: 05f7 19bd a8fb 113e 2d07 59be f87d 20bf
000003f0: 3f12 023d aca5 f43c 67cf 00be 09c9 0dbc

bias f4 [200]
-0.011034616 -0.2606886 -0.15231329 0.21681798 2.675725 -0.61770564 -0.4802365 0.017567605
-0.0140403295 0.68297595 0.048316494 -0.2328084 1.3424047 2.5604644 1.8484069 -0.034183852
-0.53010756 -0.7823507 -0.19145943 -0.42971072 0.004918756 -0.35170004 -0.3408792 -0.0037062326
0.35247508 -0.59934986 -0.19288936 -0.2706927 -0.21374533 -0.81211054 -0.25161135 2.20507
-0.42884016 0.49497446 -1.0381732 -0.65585124 -0.44214025 0.74178135 -0.4508047 -0.38850313
0.79006064 1.2091204 -0.4052969 -2.24066 2.7264867 -0.17377856 1.9630822 -0.5583187
1.9261005 -0.12397151 0.101959325 2.5123596 -0.11374933 0.57931924 -0.02183662 0.21128663
-0.7036684 0.87805504 -0.19921954 -0.3128278 1.0118613 -1.324412 -0.44575068 -0.35031274
-0.47763577 -0.08471127 -3.1920178 -0.76520884 -0.24091777 -0.17484818 -0.31152132 -0.08499748
-0.39457145 0.022378203 2.620381 -0.25820333 -0.3129059 -0.10814766 0.0122561855 0.26110554
-0.11532041 0.041936744 0.17266425 1.2737767 -0.5059916 -0.23725308 0.11428523 -0.23883852
-0.084777735 -0.32037905 0.17159718 1.6146275 -0.46966618 -0.2521607 -0.17842957 -0.6654734
-0.1622705 -0.9580203 -0.2115019 -0.05494231 -0.4914108 -0.023348968 -0.37891227 -1.083883
2.2810163 -0.29634944 -0.32683423 -0.19928518 -2.172023 0.26918766 -0.04884806 -0.017216457
1.7163658 -0.10759764 -0.43313584 1.1213523 -0.17253038 -0.46135992 0.25390542 -0.61198616
2.2004118 -0.083363585 -0.033407558 2.549657 -0.37341604 -0.11218726 0.27603316 -0.2737167
-0.8613831 -0.6515153 -0.20029281 -0.100664414 -0.41887555 1.8697605 -0.26573512 -0.11661588
-0.26997003 0.94343936 -0.27374095 0.26466602 1.6837331 -0.5824401 -2.5587184 -0.0012508167
1.2847155 -0.38376817 -0.08231956 -0.3369038 -1.1035706 -1.1882328 0.121259294 -0.17975858
-0.5348141 -0.25085658 -0.4380738 -0.10914833 1.2634963 -1.0470989 -0.21948709 2.6973374
-0.0011166376 -0.15808387 0.045730006 0.13559106 -0.6846716 2.1295812 -0.7960887 -0.43135053
-0.5670711 -0.5868751 -2.3623123 -0.09982579 -0.038168114 -0.0009959599 -0.06292857 0.0417294
0.91673243 0.097275965 2.734699 -0.38579524 -0.17367066 -0.017593924 -1.1228703 0.07344576
-0.15858166 0.19978115 -0.31573144 0.8960429 -0.89542407 -0.15108645 -0.20425472 1.1551641
1.619207 -0.13590276 1.0612938 -0.093281925 -0.32090467 0.022226043 -0.077219255 -0.34871024
00000000: 89ca 34bc fa78 85be 04f8 1bbe 8805 5e3e
00000010: 143f 2b40 f521 1ebf 8fe1 f5be f0e9 8f3c
00000020: 6909 66bc 83d7 2e3f 84e7 453d 5365 6ebe
00000030: ebd3 ab3f a6de 2340 9998 ec3f 5e04 0cbd
00000040: 21b5 07bf 2348 48bf f10d 44be 0b03 dcbe
00000050: 842d a13b 0712 b4be b887 aebe 44e4 72bb
00000060: 9d77 b43e fe6e 19bf ca84 45be 3c98 8abe
00000070: 0ee0 5abe 7ae6 4fbf 34d3 80be de1f 0d40
00000080: f090 dbbe 4b6d fd3e dce2 84bf dee5 27bf
00000090: 3560 e2be 62e5 3d3f e0cf e6be e2e9 c6be
000000a0: 6a41 4a3f 75c4 9a3f 1383 cfbe f966 0fc0
000000b0: c27e 2e40 02f3 31be 4746 fb3f f9ed 0ebf
000000c0: 768a f63f c6e4 fdbd 0dd0 d03d 80ca 2040
000000d0: 69f5 e8bd 444e 143f b6e2 b2bc 865b 583e
000000e0: 9d23 34bf 37c8 603f 3500 4cbe f72a a0be
000000f0: ac84 813f 5586 a9bf 6f39 e4be 315c b3be
00000100: ad8c f4be 1a7d adbd 054a 4cc0 bae4 43bf
00000110: 26b3 76be 670b 33be b97f 9fbe 2913 aebd
00000120: 4505 cabe 7e52 b73c 53b4 2740 3a33 84be
00000130: 3435 a0be 857c ddbd 2bce 483c a0af 853e
00000140: 1b2d ecbd ddc5 2b3d e6ce 303e 1d0b a33f
00000150: aa88 01bf 79f2 72be 600e ea3d 1692 74be
00000160: f39f adbd b908 a4be 2cb7 2f3e 1dac ce3f
00000170: 1678 f0be 351b 81be 3eb6 36be 775c 2abf
00000180: 3d2a 26be d240 75bf f493 58be 300b 61bd
00000190: 329a fbbe 5646 bfbc ca00 c2be aebc 8abf
000001a0: 2cfc 1140 1dbb 97be d156 a7be 6a11 4cbe
000001b0: 6d02 0bc0 f7d2 893e e714 48bd 8709 8dbc
000001c0: e0b1 db3f 275c dcbd fbc3 ddbe 7988 8f3f
000001d0: ceab 30be 5e37 ecbe e4ff 813e 20ab 1cbf
000001e0: 8cd3 0c40 87ba aabd 5dd6 08bd 952d 2340
000001f0: 6330 bfbe 6fc2 e5bd 3854 8d3e 9824 8cbe
00000200: 9a83 5cbf b5c9 26bf 8f19 4dbe 2529 cebd
00000210: db76 d6be 5054 ef3f 6f0e 88be 4ed4 eebd
00000220: 8339 8abe 3e85 713f c627 8cbe 4e82 873e
00000230: 9184 d73f cb1a 15bf 0bc2 23c0 72f2 a3ba
00000240: 8f71 a43f 437d c4be 2897 a8bd a87e acbe
00000250: cd41 8dbf 0318 98bf cb56 f83d a212 38be
00000260: 94e9 08bf 4670 80be 364b e0be 2989 dfbd
00000270: 3fba a13f 5607 86bf 39c1 60be 2da1 2c40
00000280: 245c 92ba bde0 21be 634f 3b3d 62d8 0a3e
00000290: a346 2fbf 0f4b 0840 78cc 4bbf fad9 dcbe
000002a0: 922b 11bf 723d 16bf 2030 17c0 7771 ccbd
000002b0: 2b56 1cbd de8a 82ba b2e0 80bd 73ec 2a3d
000002c0: faae 6a3f 9f38 c73d 4f05 2f40 f486 c5be
000002d0: b9d6 31be 2221 90bc 37ba 8fbf bb6a 963d
000002e0: 3b63 22be 6e93 4c3e 8da7 a1be 1163 653f
000002f0: 833a 65bf 68b6 1abe 2628 51be 6bdc 933f
00000300: 2d42 cf3f 182a 0bbe 7ad8 873f 980a bfbd
00000310: 9e4d a4be 6413 b63c 2125 9ebd 268a b2be

weight f4 [200, 4]
-1.0338627 -0.3076563 -0.7347574 -0.38787323 -0.61718595 -0.41583213 -0.89272875 -0.79995525
-1.8203039 -0.18868428 -0.8104575 -0.5900106 -2.1536365 -0.036145438 -1.6518654 3.7035148
-0.8088707 0.2926576 -1.6883305 -1.4371212 3.8398395 0.12188048 0.75972056 -3.1275978
-1.065633 -0.4884013 -1.1636217 -0.79956186 -0.9820965 -0.046595573 -0.63418037 -0.047075104
-1.263394 -0.18915544 -0.6844448 -0.6054993 -0.16027677 -0.36445016 -0.43403912 -1.3850256
-1.0136245 -0.39887053 -0.68068343 -0.6626914 -0.63383305 0.11052664 -0.6822952 -0.6135077
-4.3541656 -0.7934004 -2.4963136 0.47172904 -2.425553 -1.1438831 -3.3959196 -5.7343264
2.8651383 0.3787818 1.4303746 -0.41375557 -0.7477529 -0.30968547 -0.5315441 -0.56662166
-0.13951659 -0.47491133 1.9700992 -0.39500773 4.0016613 0.18791017 0.33246213 -2.9225268
0.23328425 -0.7672218 -0.06929412 0.3226498 -1.4581251 -0.12289986 -1.008071 -0.6223596
-0.9246121 -0.2536239 -0.84670204 -0.8535462 -0.5101984 -0.7950248 -1.5831403 -0.8952324
-0.91523266 -0.2213837 -0.6891789 -0.52568966 -0.53386056 -0.27833745 -0.6664657 -0.5863484
-3.2425246 -0.04903076 0.07108994 3.0325603 1.3221895 -0.2946432 -0.5862615 0.9714338
-0.51851386 -0.33957586 -0.9609932 -0.8625206 -1.0096487 -0.502563 -1.0207963 -0.71817636
0.370304 -0.14286548 0.38583398 -0.10079759 3.967427 0.34083298 0.52815354 -2.8463018
0.010268315 -0.5515179 0.31367713 0.11694888 3.1567569 0.35874844 0.26005927 -0.61536384
-0.7372728 -0.6250663 -0.8826058 -0.92188126 -2.1624143 -0.16026916 3.2371516 1.8586799
2.8217437 -0.24490573 1.3771119 -0.51715493 -0.80871755 -0.65199095 -1.7342979 -0.91079104
-1.4762836 -0.3645148 -1.0174739 -0.86263627 -0.19649915 -1.2754085 -0.96696573 -2.7209165
-1.7977272 -0.6687148 -1.2820917 -0.95891213 0.7173278 -0.45482847 0.5259269 -0.10653073
-1.8781313 -0.51019704 -1.162072 -0.40023044 1.1552411 -1.9278018 -1.6278632 1.7211483
-1.2288111 -0.16861562 -0.785199 -0.5399742 -2.4098694 -0.23563859 -0.8698133 1.1197199
1.5318055 -0.1688731 -0.47264215 -2.590115 -1.0889183 -0.3345519 -0.9489296 -0.56483465
3.1646369 0.2999251 -0.12518705 -0.17324987 -0.24878241 -0.9391993 1.830728 -0.07095266
-3.9124322 -1.0039068 -0.827062 -0.6536243 0.3922999 -0.52502763 0.16479333 0.3878589
-0.23648398 -0.21213491 -0.41957533 -0.35954025 1.5376338 -0.026581457 -0.27282375 -2.1752286
-0.579831 -0.063901156 -0.7753347 -0.6008603 0.11176181 1.2582874 -0.8594009 2.6356435
0.8663828 -0.7309472 0.800774 -1.1396666 -0.5962781 -0.54004157 -0.9421308 -1.795641
-1.0544151 -0.7010847 -1.6983818 -1.2609615 3.9660544 0.24490118 3.0544004 0.87367713
-0.60006607 -0.29496816 -0.89222103 -0.58503634 0.48316368 -0.40974146 -0.20412493 0.8908213
0.9398237 0.32196328 4.275278 0.31716514 4.877376 0.14670998 0.90332747 -2.9109983
-1.5118687 -0.21781467 -0.47285903 -0.44010624 -0.34175822 -0.0861869 -0.83933914 -0.05673422
00000000: 9d55 84bf 2085 9dbe 1019 3cbf 5297 c6be
00000010: e6ff 1dbf f3e7 d4be df89 64bf dec9 4cbf
00000020: b8ff e8bf 7436 41be 257a 4fbf ef0a 17bf
00000030: 2ed5 09c0 3d0d 14bd 5370 d3bf 6306 6d40
00000040: 2612 4fbf 38d7 953e 371b d8bf 96f3 b7bf
00000050: eebf 7540 799c f93d 0c7d 423f 902a 48c0
00000060: aa66 88bf bc0f fabe 8ef1 94bf 16b0 4cbf
00000070: ad6a 7bbf 00db 3ebd a559 22bf d3d1 40bd
00000080: e5b6 a1bf f7b1 41be c637 2fbf 0102 1bbf
00000090: 981f 24be 3699 babe 603a debe 8548 b1bf
000000a0: 73be 81bf c238 ccbe 4541 2ebf 25a6 29bf
000000b0: e242 22bf cb5b e23d e6aa 2ebf d70e 1dbf
000000c0: 5355 8bc0 4a1c 4bbf 9ac3 1fc0 7886 f13e
000000d0: 433c 1bc0 c36a 92bf bf56 59c0 9a7f b7c0
000000e0: 6d5e 3740 b0ef c13e 8416 b73f c5d7 d3be
000000f0: bc6c 3fbf 188f 9ebe 4613 08bf 1e0e 11bf
00000100: 70dd 0ebe 9427 f3be 362c fc3f 743e cabe
00000110: 9c0d 8040 866b 403e 7a38 aa3e ae0a 3bc0
00000120: 11e2 6e3e a668 44bf 13ea 8dbd 5b32 a53e
00000130: d8a3 babf ecb2 fbbd 7808 81bf f552 1fbf
00000140: 61b3 6cbf feda 81be 77c1 58bf 0182 5abf
00000150: 5d9c 02bf bf86 4bbf 57a4 cabf f32d 65bf
00000160: b04c 6abf 69b2 62be 076e 30bf 9993 06bf
00000170: 16ab 08bf 3f82 8ebe 7f9d 2abf ee1a 16bf
00000180: 8685 4fc0 7ad4 48bd 9a97 913d 7815 4240
00000190: 813d a93f 79db 96be 3c15 16bf e3af 783f
000001a0: 53bd 04bf e3dc adbe a603 76bf 26ce 5cbf
000001b0: 2b3c 81bf f8a7 00bf 74a9 82bf 68da 37bf
000001c0: 7c98 bd3e 544b 12be 088c c53e f86e cebd
000001d0: 53ea 7d40 a981 ae3e 1235 073f cf29 36c0
000001e0: 6f3c 283c 4730 0dbf 4a9a a03e e582 ef3d
000001f0: 4e08 4a40 e0ad b73e 7d26 853e 7c88 1dbf
00000200: e9bd 3cbf 5804 20bf 74f2 61bf 6900 6cbf
00000210: ff64 0ac0 991d 24be 7e2d 4f40 39e9 ed3f
00000220: 7397 3440 91c8 7abe 3445 b03f 4464 04bf
00000230: 1d08 4fbf e1e8 26bf 79fd ddbf 9a29 69bf
00000240: dcf6 bcbf afa1 babe 963c 82bf bbd5 5cbf
00000250: 1337 49be 9640 a3bf 118b 77bf 7f23 2ec0
00000260: ed1b e6bf e530 2bbf 951b a4bf 447b 75bf
00000270: cba2 373f 47df e8be 25a3 063f c92c dabd
00000280: 9b66 f0bf 469c 02bf c6be 94bf 01eb ccbe
00000290: f1de 933f 36c2 f6bf d25d d0bf 964e dc3f
000002a0: af49 9dbf 93a9 2cbe cd02 49bf c03b 0abf
000002b0: 4d3b 1ac0 3e4b 71be 16ac 5ebf fb52 8f3f
000002c0: 3412 c43f 12ed 2cbe 27fe f1be 72c4 25c0
000002d0: ad61 8bbf 634a abbe 0ded 72bf 0199 10bf
000002e0: 6989 4a40 c88f 993e 0931 00be 6a68 31be
000002f0: d1c0 7ebe 5e6f 70bf 4c55 ea3f a14f 91bd
00000300: 4a65 7ac0 0580 80bf 56ba 53bf ec53 27bf
00000310: 88db c83e 3668 06bf 95bf 283e 7195 c63e
00000320: db28 72be e539 59be 94d2 d6be a915 b8be
00000330: 2fd1 c43f 5bc1 d9bc 8eaf 8bbe f236 0bc0
00000340: ce6f 14bf 9cde 82bd 567c 46bf fbd1 19bf
00000350: 60e3 e43d 900f a13f b301 5cbf 62ae 2840
00000360: 43cb 5d3f 5b1f 3bbf 86ff 4c3f 98e0 91bf
00000370: aea5 18bf 2a40 0abf 7c2f 71bf 90d7 e5bf
00000380: 13f7 86bf 497a 33bf 9364 d9bf 3067 a1bf
00000390: d6d3 7d40 60c7 7a3e 4c7b 4340 4ea9 5f3f
000003a0: ee9d 19bf 1106 97be 9968 64bf f1c4 15bf
000003b0: 3b61 f73e a2c9 d1be 2006 51be dd0c 643f
000003c0: 4998 703f 5fd8 a43e 14cf 8840 7863 a23e
000003d0: 7713 9c40 243b 163e 7840 673f cc4d 3ac0
000003e0: ea84 c1bf cf0a 5fbe 941a f2be 9b55 e1be
000003f0: effa aebe c282 b0bd eede 56bf 2462 68bd

bias f4 [200]
-0.35319477 -0.20492688 -0.34383303 -0.12201929 2.9536202 -0.92628807 -0.2959142 -0.23531312
-0.52518195 1.1171616 0.26461428 -0.58386445 1.6104845 2.8629146 2.2168202 0.34135658
-0.11821102 -0.9417866 -0.14707078 -0.78885245 -0.11717042 -0.54886746 -0.4366098 -0.42850003
0.50181156 -0.6016179 -0.12925422 -0.5583235 0.011484645 -1.0483656 -0.051853847 2.047349
-0.41350973 0.7108503 -1.4584283 -0.5081381 -0.6211887 0.6622306 -0.26213017 -0.19472833
1.2346287 1.3299367 -0.73287165 -2.6500094 3.2587118 -0.65599 2.1048975 -0.4128984
2.2494133 -0.46593228 -0.13313048 2.8088999 -0.48588383 0.9718442 0.09998755 0.5356435
-0.41458228 1.2932202 -0.62526613 -0.8419659 1.3596514 -1.1332746 -0.54822546 -0.6882529
-0.4821203 -0.46045858 -3.0401366 -1.0113723 -0.64335614 0.12756121 -0.4139751 -0.33932248
-0.44748518 -0.0068898057 3.0610101 -0.16194488 -0.3884384 -0.49327832 0.3300276 0.36594647
0.06284591 -0.06798781 -0.21612489 1.6557592 -0.71105486 -0.22185878 0.05772668 -0.72006327
0.335269 -0.113400474 -0.14544368 1.9141842 -0.7008754 0.039739642 -0.0491122 -0.57755774
-0.42359453 -0.88486016 -0.6507063 -0.60161144 -0.7091808 -0.10759574 -0.56108195 -0.6446574
2.5820289 -0.050626196 -0.15605097 -0.6723718 -2.271879 0.12115732 -0.014945545 -0.09143793
1.6085918 -0.39813387 -0.44124463 1.4191134 -0.36171558 -0.21973556 0.413054 -0.4259209
1.7194314 -0.36575648 0.22305125 2.9208362 -0.3612744 -0.32848358 0.49857572 -0.466465
-0.75098515 -1.0426745 0.06459723 -0.6105611 -0.2830262 2.2163785 -0.070374615 -0.2679202
-0.51972145 1.1478523 -0.051024295 0.259009 1.7562944 -1.0802904 -2.2245445 -0.393796
1.6898974 -0.5303021 0.21840718 -0.29509798 -0.6902842 -0.61225784 0.46445557 -0.22685868
-0.21748841 -0.48206428 -0.16945928 -0.2460601 1.649309 -1.3014172 -0.38911727 3.0954921
-0.399417 -0.32503638 0.047339115 -0.11708576 -1.0659231 2.2851045 -0.9785706 -0.17204583
-0.6469171 -0.7952722 -2.03206 -0.10940876 -0.15595731 0.2550763 -0.099481575 0.016585138
0.5414468 0.51565725 3.0843318 -0.61610556 -0.43421426 0.48739013 -0.968039 -0.19104733
-0.16381805 0.066752404 -0.3207179 0.8902529 -0.8227729 -0.08180069 -0.64629716 1.5088252
1.3378888 -0.37924755 1.5134366 0.34760156 -0.49518654 -0.33073178 0.4842933 0.043886077
00000000: f2d5 b4be 5ad8 51be e20a b0be 40e5 f9bd
00000010: 1d08 3d40 3721 6dbf 1182 97be ecf5 70be
00000020: 5372 06bf 27ff 8e3f 867b 873e 2478 15bf
00000030: 5b24 ce3f fe39 3740 62e0 0d40 4ac6 ae3e
00000040: 9f18 f2bd ed18 71bf b999 16be 3cf2 49bf
00000050: 0cf7 efbd 9482 0cbf 528b dfbe 5b64 dbbe
00000060: b976 003f a103 1abf 385b 04be 4aee 0ebf
00000070: 182a 3c3c d830 86bf b364 54bd c407 0340
00000080: 8cb7 d3be 49fa 353f c7ad babf 5715 02bf
00000090: 3906 1fbf f287 293f ed35 86be dd66 47be
000000a0: 5008 9e3f 5e3b aa3f 7a9d 3bbf c199 29c0
000000b0: bc8e 5040 f6ee 27bf a4b6 0640 6b67 d3be
000000c0: 63f6 0f40 ad8e eebe 5b53 08be 04c5 3340
000000d0: c4c5 f8be c8ca 783f 46c6 cc3d ef1f 093f
000000e0: 2144 d4be 3d88 a53f 7111 20bf 148b 57bf
000000f0: 0f09 ae3f 240f 91bf 8158 0cbf 5831 30bf
00000100: 79d8 f6be 3ac1 ebbe 9991 42c0 a674 81bf
00000110: fdb2 24bf 689f 023e 8bf4 d3be adbb adbe
00000120: c71c e5be e1c3 e1bb 97e7 4340 e1d4 25be
00000130: 66e1 c6be fa8e fcbe 61f9 a83e 565d bb3e
00000140: 5bb5 803d 313d 8bbd d84f 5dbe ebef d33f
00000150: b107 36bf f32e 63be d072 6c3d 1156 38bf
00000160: 61a8 ab3e 823e e8bd 30ef 14be fd03 f53f
00000170: 926c 33bf 09c6 223d e029 49bd d3da 13bf
00000180: 62e1 d8be 3286 62bf b094 26bf 3503 1abf
00000190: df8c 35bf 285b dcbd 11a3 0fbf 4408 25bf
000001a0: f63f 2540 6a5d 4fbd d3cb 1fbe 8f20 2cbf
000001b0: 7766 11c0 5421 f83d 29de 74bc cf43 bbbd
000001c0: 56e6 cd3f 34d8 cbbe d1ea e1be 82a5 b53f
000001d0: c932 b9be 5c02 61be d07b d33e 4e12 dabe
000001e0: 5416 dc3f 6f44 bbbe 8c67 643e fbee 3a40
000001f0: f5f8 b8be 002f a8be 5145 ff3e 80d4 eebe
00000200: 9040 40bf 5c76 85bf 8d4b 843d bb4d 1cbf
00000210: cfe8 90be 25d9 0d40 9120 90bd d62c 89be
00000220: 770c 05bf d3ec 923f dafe 50bd d49c 843e
00000230: 41ce e03f f546 8abf f05e 0ec0 a19f c9be
00000240: 8f4e d83f e1c1 07bf 22a6 5f3e 1517 97be
00000250: 77b6 30bf eebc 1cbf 1fcd ed3e a44d 68be
00000260: 48b5 5ebe 21d1 f6be bc86 2dbe 2ef7 7bbe
00000270: 8f1c d33f d794 a6bf 613a c7be 8b1c 4640
00000280: 6380 ccbe 2b6b a6be a9e6 413d a9ca efbd
00000290: 2b70 88bf 273f 1240 9a83 7abf c82c 30be
000002a0: 5c9c 25bf f596 4bbf 450d 02c0 b311 e0bd
000002b0: 46b3 1fbe 5c99 823e ffbc cbbd 8edd 873c
000002c0: 429c 0a3f 1d02 043f b165 4540 18b9 1dbf
000002d0: 5551 debe 338b f93e 67d1 77bf e9a1 43be
000002e0: ebbf 27be 7cb5 883d 2335 a4be 9de7 633f
000002f0: 3fa1 52bf 1f87 a7bd bb73 25bf 2f21 c13f
00000300: f13f ab3f bc2c c2be 4ab8 c13f d5f8 b13e
00000310: 1789 fdbe ad55 a9be 4bf5 f73e e3c1 333d

weight f4 [10, 200]
0.10705091 -0.030501077 0.06261888 -0.045246437 -0.058013905 -0.10300567 -0.14421712 -0.028001562
-0.10309833 -0.020072205 -0.011435015 -0.07926912 -0.100440405 -0.015435692 -0.03778689 -0.13293652
-0.119113624 -0.039411444 -0.11011242 -0.033017594 -0.109514125 -0.11270173 -0.08875372 -0.06607798
-0.07449104 -0.048863087 -0.017881177 -0.017792026 0.035153 0.040356245 -0.028549695 -0.14171384
-0.065757826 -0.13601294 -0.007989732 -0.1294434 -0.039999846 -0.04038976 -0.033886526 -0.046659715
-0.045726974 -0.044450525 -0.067442805 -0.13437396 -0.054532424 -0.071012795 -0.07402018 -0.05697601
-0.09113922 -0.12944391 -0.10649101 -0.073498845 -0.028387252 -0.048442625 -0.108356856 -0.07075155
-0.056234725 -0.00027439397 -0.08129809 -0.080007486 -0.067238204 0.011085898 -0.05893487 -0.026808724
-0.11217984 -0.09605163 -0.031700544 -0.037695035 -0.13129567 0.018937618 -0.07480269 -0.13762079
-0.019872868 -0.07661231 -0.10895026 -0.07942429 -0.024914742 0.024684327 -0.114314824 -0.099998504
-0.00085344864 0.060732864 -0.073157065 -0.07054086 -0.06355266 -0.024832526 -0.07799254 -0.067370035
-0.035889424 0.015946312 -0.114553794 -0.009007901 -0.10685505 -0.07934049 -0.13578595 -0.037011437
-0.098746344 -0.08075414 -0.114823624 -0.1164193 -0.078068286 -0.02702329 -0.010693326 -0.018983707
-0.017384917 -0.11898002 -0.09328344 -0.044734865 -0.07735493 -0.1144397 -0.06895791 -0.038922325
-0.11234156 -0.111364834 -0.0406004 -0.14920093 -0.06094498 -0.0866012 -0.12559076 -0.045409154
-0.13434522 -0.094734155 -0.07558748 -0.14766948 -0.016388055 -0.04772502 -0.1382844 -0.00770612
-0.023342844 0.049921058 -0.07848672 0.045935415 -0.13157052 -0.0036330516 -0.13750613 -0.10684741
-0.07196397 -0.09105803 -0.087660946 -0.13428162 0.04761549 -0.0019433768 0.02884777 -0.07407945
0.0015572732 -0.022514375 -0.04839273 -0.099199705 -0.092864156 -0.04686139 -0.03463566 -0.05996186
-0.08783363 -0.04934131 -0.07717234 -0.13161027 -0.0009435724 -0.030468669 -0.008099252 0.022167431
-0.046792485 -0.006149327 -0.055011053 -0.022036461 0.0075129913 -0.07774121 -0.028888892 -0.13646173
-0.062040597 -0.080182955 -0.06784642 -0.07494908 -0.009298369 -0.11932177 -0.0704234 0.07937384
-0.097777985 -0.019885143 0.020919422 -0.08495805 -0.10153698 -0.045723606 -0.022592956 -0.13037369
-0.076917194 -0.122357644 -0.04630464 -0.10750419 -0.060177512 -0.023092847 0.022328906 -0.012628652
-0.051179737 -0.055009324 -0.06548755 -0.13865665 -0.013910294 0.077849254 -0.054015357 0.013712034
-0.03922746 -0.035324574 -0.027742665 -0.085182205 -0.032849204 -0.03248425 -0.023303065 0.026881928
-0.025618367 -0.0057146023 -0.14007898 0.022807648 -0.122059025 -0.071698464 -0.009820007 -0.022146044
0.02059761 -0.022617929 0.020117108 0.0289455 0.06242465 -0.061324514 0.0092226835 -0.04492202
-0.093191326 -0.018145086 -0.027848203 -0.11034488 -0.041555103 -0.05886112 -0.12443623 0.024999311
0.026884127 -0.10955073 0.012252358 -0.13377498 0.0073081073 -0.120738626 -0.004791571 -0.038025633
-0.03737464 -0.088097215 0.023748212 -0.008358332 0.008728175 -0.06400027 -0.075091094 -0.031844936
-0.027536122 -0.033378016 -0.014910057 -0.06997549 -0.097297974 -0.03888757 -0.094255455 -0.05896546
00000000: 823d db3d 65dd f9bc 543e 803d 5454 39bd
00000010: fd9f 6dbd a3f4 d2bd a7ad 13be 8863 e5bc
00000020: 3825 d3bd 776e a4bc ee59 3bbc d957 a2bd
00000030: b3b3 cdbd fce5 7cbc 6dc6 1abd 8320 08be
00000040: d8f1 f3bd e56d 21bd 9f82 e1bd 753d 07bd
00000050: f148 e0bd 2ad0 e6bd 83c4 b5bd e453 87bd
00000060: c28e 98bd a924 48bd 8c7b 92bc 95c0 91bc
00000070: 98fc 0f3d 974c 253d 0de1 e9bc 6f1d 11be
00000080: 0aac 86bd fa46 0bbe 5de7 02bc d08c 04be
00000090: e1d6 23bd bc6f 25bd 99cc 0abd 421e 3fbd
000000a0: 354c 3bbd c111 36bd 741f 8abd 5499 09be
000000b0: 645d 5fbd 286f 91bd e497 97bd ad5f 69bd
000000c0: 33a7 babd f28c 04be f517 dabd 9086 96bd
000000d0: 628c e8bc c66b 46bd 33ea ddbd 30e6 90bd
000000e0: 6256 66bd 89dc 8fb9 9d7f a6bd f7da a3bd
000000f0: 2fb4 89bd a0a1 353c b165 71bd f89d dbbc
00000100: 8bbe e5bd b8b6 c4bd 6ed8 01bd 1c66 1abd
00000110: 5f72 06be 1023 9b3c 2732 99bd 77ec 0cbe
00000120: 6dcc a2bc eae6 9cbd 5021 dfbd 34a9 a2bd
00000130: 001a ccbc c936 ca3c e41d eabd 04cc ccbd
00000140: f8b9 5fba 06c3 783d 5fd3 95bd ba77 90bd
00000150: e627 82bd 956d cbbc 8eba 9fbd 4df9 89bd
00000160: ca00 13bd d7a1 823c 2e9b eabd e095 13bc
00000170: d2d6 dabd 447d a2bd 790b 0bbe 4e99 17bd
00000180: 863b cabd 6d62 a5bd a628 ebbd 3e6d eebd
00000190: 44e2 9fbd f25f ddbc 0f33 2fbc b883 9bbc
000001a0: d06a 8ebc ccab f3bd 630b bfbd e83b 37bd
000001b0: 436c 9ebd 5d5f eabd ce39 8dbd 046d 1fbd
000001c0: 5513 e6bd 3f13 e4bd 9b4c 26bd 21c8 18be
000001d0: 71a1 79bd f85b b1bd dd9a 00be f3fe 39bd
000001e0: cb91 09be fb03 c2bd 9ccd 9abd ab36 17be
000001f0: 3e40 86bc 507b 43bd 6d9a 0dbe 9f83 fcbb
00000200: 7e39 bfbc 067a 4c3d a5bd a0bd c626 3c3d
00000210: 6cba 06be 7e18 6ebb 68ce 0cbe d1d2 dabd
00000220: d961 93bd a27c babd 9587 b3bd 1f81 09be
00000230: 7608 433d e8b8 feba 2952 ec3c f7b6 97bd
00000240: 6b1d cc3a 1170 b8bc 7537 46bd 3729 cbbd
00000250: 902f bebd bbf1 3fbd 1fde 0dbd 919a 75bd
00000260: 1ee2 b3bd 1d1a 4abd 880c 9ebd d8c4 06be
00000270: 125a 77ba 6e99 f9bc bab2 04bc 7998 b53c
00000280: 7aa9 3fbd 4b80 c9bb 4553 61bd cf85 b4bc
00000290: 8a2f f63b c936 9fbd 66a8 ecbc a0bc 0bbe
000002a0: 481e 7ebd f636 a4bd 10f3 8abd e77e 99bd
000002b0: 3058 18bc f95e f4bd 253a 90bd c08e a23d
000002c0: d33f c8bd 2be6 a2bc 355f ab3c 7cfe adbd
000002d0: 9ff2 cfbd ad48 3bbd dd14 b9bc ae80 05be
000002e0: c386 9dbd a596 fabd efa9 3dbd 282b dcbd
000002f0: b27c 76bd 362d bdbc 1ceb b63c 68e8 4ebc
00000300: d8a1 51bd 7551 61bd 561e 86bd 02fc 0dbe
00000310: 00e8 63bc 6e6f 9f3d 353f 5dbd 70a8 603c
00000320: f9ac 20bd 80b0 10bd 9644 e3bc 0274 aebd
00000330: e38c 06bd 340e 05bd 12e6 bebc 7d37 dc3c
00000340: 9cdd d1bc 8f41 bbbb dd70 0fbe 1bd7 ba3c
00000350: 15fa f9bd a5d6 92bd 18e4 20bc 9f6b b5bc
00000360: 52bc a83c 3c49 b9bc a2cc a43c 1d1f ed3c
00000370: fdb0 7f3d 6a2f 7bbd bd1a 173c 2700 38bd
00000380: 18db bebd 01a5 94bc ea21 e4bc 7ffc e1bd
00000390: af35 2abd 5c18 71bd 6cd8 febd 5bcb cc3c
000003a0: 1a3c dc3c 225c e0bd 1dbe 483c 4ffc 08be
000003b0: d978 ef3b d045 f7bd 9c02 9dbb c4c0 1bbd
000003c0: 2716 19bd 506c b4bd 9c8b c23c 63f1 08bc
000003d0: 9f00 0f3c 9312 83bd 5cc9 99bd d66f 02bd
000003e0: 6f93 e1bc 63b7 08bd 5049 74bc 4f4f 8fbd
000003f0: 2944 c7bd 9348 1fbd 0109 c1bd c485 71bd

bias f4 [10]
-0.025652096 -0.047726255 -0.13398959 -0.6986286 -0.104590856 -0.014914519 0.0013728512 -0.7573648
-1.0356578 0.011453683
00000000: 5824 d2bc 9b7c 43bd 9134 09be 53d9 32bf
00000010: bb33 d6bd 075c 74bc 3ef1 b33a a9e2 41bf
00000020: 6f90 84bf 3aa8 3b3c

weight f4 [1, 10]
0.12480711 -0.1358099 0.11426437 -0.16721557 -0.21004784 -0.1014428 0.08903932 0.10105119
0.21097387 -0.2378512
00000000: df9a ff3d c011 0bbe 7003 ea3d 8f3a 2bbe
00000010: c816 57be 3ec1 cfbd 3f5a b63d edf3 ce3d
00000020: 8909 583e 448f 73be
