Gibbs_MINE/model_lk_4.pth (torch, 14679 bytes, 5 tensors)

weight f4 [200, 4]
00000000: bc82 90bd 156a d53e dd89 8f3e 3ffe 97be
00000010: e771 393e 07e1 ed3e 8ca4 c4bd 5db6 adbe
00000020: c240 19bf 6487 95be b87f 5f3d 3635 993d
00000030: 030c 053e f3bf b33e b8fa 55be 88f1 f1bd
00000040: e12f cb3e 80b8 673e 9bf2 ecbe 3676 92be
00000050: 4a9c e53e 0c1a 89be ad14 85bc 6c24 aa3e
00000060: 2adf 573e 23c1 013f 9362 6c3f 7b4c 34bf
00000070: 64a7 c7bd 0256 373b 091b af3e 703c 913e
00000080: bf21 d93e 3241 bc3e d14a e23e 5da5 f8bd
00000090: 5e10 d5bc 9d4f 2f3d d57d f6be d03c 9dbe
000000a0: 4d65 a23e 5051 b93e b224 efbd dd78 8e3e
000000b0: 5f41 2cbe e0c3 4bbe 0532 143f 9192 4bbf
000000c0: 3250 3cbe f44b 513e 657f 2c3e 8562 e53d
000000d0: 509f d5bd eca5 863e 7828 883e d363 85bb
000000e0: 03b3 bd3e 9fec f5bb 3ce9 febe 46d8 23be
000000f0: 5b20 093f 0825 093e 6050 1dbe 04c5 1abe
00000100: e2ee e83e 9607 eabd 75ce fa3d e0c4 14bd
00000110: 59cb 5d3e 19b1 87be ddd5 033f 1605 9ebd
00000120: 69b3 f53e 13f4 9d3e a8fe 79be 0d3c 8cbd
00000130: 982c b13e 924f f9be 1c9e 123f 9b4c 2dbf
00000140: 2546 d63e e32d 563e 786b d8be 3c54 8cbe
00000150: 8be7 f6be 7208 84bb 36a5 db3e 4aeb af3e
00000160: 22ef 543e c6f2 173e 6d86 983e 3bdc 0fbf
00000170: 5bbf 413e 16b3 9f3d 00c0 ecbd 4d68 aa3c
00000180: 2f81 58be 508d 6b3e 733d ce3e 4a75 ee3d
00000190: 5fed 98be ca22 77be e9a5 b73b 015f d6be
000001a0: b217 3bbc c32b 783e b2bd 9ebe 706a b3be
000001b0: 6fd7 8a3c a61c a23e 5873 bf3e e127 49be
000001c0: ab17 1a3f 82f5 1a3e 859f 7d3d 342f c73e
000001d0: 4174 833e 3294 23bf 5cd2 07be 475f d1be
000001e0: bf16 45bd a279 61be 09cc 44be 038b 1ebf
000001f0: 31b4 2fbe b091 dabe 1247 893e 1b9e 35bf
00000200: 6212 ca3e 63c9 c63e ef65 d2be 2929 60be
00000210: 43e8 12be 6555 6d3d 6e25 debd c5de 70bd
00000220: 1c07 f2be 2bed 463e c423 bebe 6ee7 b03e
00000230: d20b b73d 0644 8f3e 6305 83be f7f1 3abe
00000240: 873d 09bf 9009 803e a9af c1be ffc6 dfbe
00000250: 437f ca3d 34cd 593e 482f 923d d778 0abe
00000260: ab3e c8be 1474 5e3e 37ce 003f c679 a73e
00000270: 1a15 0d3f 5afd 9d3d 9251 453e 7040 633d
00000280: c352 c1be fcda 893e d43b 473c 3f92 a63e
00000290: 60f1 b2be d485 05be 6067 9a3d 98e4 8f3e
000002a0: 586a 9f3e f25a e7be 348a 953e 4fb1 debd
000002b0: 42c8 5e3e b101 adbe 43d7 1c3e ef7d d83e
000002c0: ea4e 693e 62d7 15be a7f9 fabe 7dc6 a4be
000002d0: 9c17 f43e 40e2 dfbc e0d1 d8bc 57aa b53e
000002e0: 586f 01bf 86f5 d53e fe5f 803e c113 bb3d
000002f0: 2635 e83d 86ba 86bd f660 203f 95c3 be3d
00000300: 186d ebbe fc6a b53d 9e24 be3e 2d73 83bc
00000310: c95a 1cbe 0c7e 96bd 5720 34be 7a2c 1bbf
00000320: 825b b53e b634 473e 0fd0 b4bd 055e 9a3e
00000330: c2e2 05bf 8b56 e9be b226 6f3e 1f45 c13e
00000340: a270 813e e4d5 233c 51bc ed3e 5d18 f0be
00000350: 92ce 1b3e c364 f93e 14a8 8abd fc3d e7bd
00000360: 7c3c b1be 0d92 8dbe c11a 6bbe 99d1 bd3e
00000370: ab73 f7bc 5210 693e 4417 4bbe 5e47 1ebe
00000380: 1a3d afbe 53b0 d43e 7311 2d3e cb49 cb3e
00000390: eea5 2abe ef29 64be f3fb bcbe da96 d43e
000003a0: 1975 c43e b280 d4be 8b7c 043e 5732 6bbe
000003b0: b1fc b6be f07a b6be 6c44 443e 2112 9dbe
000003c0: 35fa b73d d093 9d3e 68a5 af3e 9e61 8a3e
000003d0: fbb7 f4be 210c 1ebb d202 e1be afc8 873e
000003e0: c307 b1be 4576 973c f218 423e 9a32 7fbc
000003f0: 7032 cc3d 12c5 5e3e 5c3e 5fbe 71f7 c7be
-0.070561856 0.41682497 0.2803487 -0.29686162 0.18109857 0.46460745 -0.09601697 -0.33928195
-0.5986444 -0.29204857 0.05456516 0.07480852 0.12992863 0.35107383 -0.20896423 -0.118136466
0.39684966 0.22628975 -0.46278843 -0.28605813 0.44845802 -0.26777685 -0.01624521 0.33230913
0.21081224 0.5068533 0.9233791 -0.704292 -0.09748724 0.0027974849 0.34200314 0.28366423
0.4240856 0.3676849 0.44197705 -0.121409155 -0.026008781 0.042800535 -0.48142877 -0.3071046
0.3171791 0.3619485 -0.11676921 0.27826586 -0.16821812 -0.19898939 0.57888824 -0.7952052
-0.18389967 0.2043913 0.16845472 0.11200432 -0.10430777 0.26298463 0.26593375 -0.004070738
0.37050638 -0.007505014 -0.4978732 -0.1600047 0.53564996 0.13393033 -0.15362692 -0.15114218
0.45494753 -0.11427228 0.1224641 -0.036320567 0.21659602 -0.26502302 0.51498204 -0.07715814
0.47988442 0.30850276 -0.2441355 -0.06847391 0.34604335 -0.4869352 0.57272506 -0.67695016
0.4185039 0.20915942 -0.42269492 -0.27408016 -0.48223528 -0.004029327 0.42899483 0.343592
0.20794347 0.14838704 0.2979006 -0.5619542 0.18920653 0.0779783 -0.115600586 0.020801688
-0.2114303 0.23003125 0.40281257 0.11643465 -0.298686 -0.24134365 0.005604495 -0.41869357
-0.011419224 0.24235444 -0.310041 -0.35042143 0.01694843 0.31662482 0.37392688 -0.19644119
0.60192364 0.15132716 0.061919708 0.389032 0.25674632 -0.63898003 -0.1326384 -0.40893003
-0.048117395 -0.22019055 -0.19218458 -0.61930865 -0.17158581 -0.42689276 0.26812035 -0.70944375
0.3946715 0.3882552 -0.41093394 -0.21890701 -0.14346413 0.057942767 -0.10846983 -0.0588062
-0.4727105 0.1942641 -0.37136662 0.34551567 0.089378014 0.27981585 -0.25590047 -0.18256365
-0.5360951 0.25007296 -0.3782933 -0.4370651 0.098875545 0.21269685 0.071379244 -0.13522659
-0.39110312 0.21723968 0.5031466 0.32710093 0.55110323 0.077143386 0.19269398 0.055481374
-0.37758455 0.26924884 0.01216026 0.32533452 -0.3494978 -0.13039333 0.075392485 0.2810409
0.3113582 -0.45186573 0.29207003 -0.10873663 0.2175608 -0.33790353 0.15316491 0.4228358
0.2278401 -0.14632943 -0.49018595 -0.32182685 0.47674263 -0.027329564 -0.026467264 0.3548152
-0.5056052 0.41788882 0.25073236 0.09134627 0.11338262 -0.06578545 0.6264795 0.09314648
-0.4598167 0.08858296 0.37137312 -0.016046131 -0.15269007 -0.0734826 -0.17590462 -0.6061474
0.35421377 0.19453701 -0.088287465 0.30149856 -0.5229913 -0.4557384 0.23354605 0.37748048
0.25281245 0.009999726 0.46432737 -0.46893588 0.15215519 0.48709688 -0.067703396 -0.112911195
-0.34616458 -0.2765049 -0.22959425 0.37073973 -0.030206522 0.22760132 -0.19833094 -0.15456912
-0.34226304 0.41540775 0.16901188 0.39704737 -0.1666486 -0.22281621 -0.36910972 0.4152134
0.38370588 -0.41504437 0.12938134 -0.22968422 -0.35739663 -0.3564067 0.19166726 -0.30677894
0.0898327 0.30776834 0.34305882 0.270276 -0.47796616 -0.0024116116 -0.43947464 0.26520297
-0.34576234 0.018489012 0.18954828 -0.015576029 0.09970558 0.21754864 -0.21801132 -0.3905597

bias f4 [200]
00000000: 1a58 033f 3cc4 d93e d571 a23e b7b1 ef3d
00000010: 2b01 823c faaf 853e 24db 973e 731b be3e
00000020: 85e7 103f 514d 7cbe 734e b73e a1a0 ee3e
00000030: 3131 833e 7fbd 843e f4f1 a93e f490 323e
00000040: 3294 273f 165e 54bd 6697 b43e 43ab 5d3e
00000050: 0482 1a3c 5881 b2bc 2009 04bf a32d f83e
00000060: 5739 e2bd 53e3 85be d04e 713d 6f01 49be
00000070: ec5a 163f 185a 493e 7b9f 293e c452 923e
00000080: 5a56 c23e bb52 c5be 0a83 0bbf 171f 233e
00000090: 8425 e53d ab49 873e 7cb7 0bbe 2e4d a73e
000000a0: 6154 f6be 68bb ddbe 417e 08be 6f53 f3be
000000b0: 0598 ffbd 40b7 ff3e 1d32 27be bd5a 87be
000000c0: 31c6 21be 9a31 a23e 2da4 b63e f652 e83e
000000d0: 28e4 fabe 3c63 b93b 1e05 403e 503f dc3e
000000e0: 746a 8fbe 67a0 983c c42e 7cbe 1cb2 a0bc
000000f0: 419b 28be e819 733d 5fdc c4bc a59f c53e
00000100: 09f3 8fbd 4835 b13e db27 b2bd cdc3 6d3c
00000110: d3bc bbbe d6ca 98be f2c2 8dbe 41de e23d
00000120: 8016 d23e 407c 09b8 9479 5dbe d2fe 9e3e
00000130: 165f cabe b9db 2cbe 0554 87bd 0d8c 123f
00000140: 37e4 183e 162a e23d ebdd 0a3e 40d4 10be
00000150: 1c13 c73e 051b f3be aaf2 f8be a0c5 07bf
00000160: d39f 573e 3dc7 01bf d9f6 c63e 6daa 13bf
00000170: 9c9b 0bbf 09b8 0e3f 753a a9bd 97cc f3bd
00000180: 2776 1cbf 4a69 893e 48ed b73e cb2f 47be
00000190: 19f7 da3e 0d02 973d b1d8 a63e 4340 2c3f
000001a0: d83c 963e 7dca ee3e ef4f 633d 04ce 6fbe
000001b0: 3f77 0c3f 0a35 8d3e 82d0 e73e 30e6 9a3d
000001c0: 1268 003e f7d9 a1bd 4e7f 08be fe9e 86bc
000001d0: d909 54be 6a0d e03e d157 f2bd 7b91 493e
000001e0: a013 7d3e 2278 c7be 5014 c5be 4fcb f8bd
000001f0: 28f6 1ebe 14d1 d3be 2a99 0ebf 1f4c 093d
00000200: ecb4 9abe f78f c53e b502 19bf 2cb8 1abe
00000210: bc39 a0bd 01a6 99bd 6999 69be 2ac9 88bd
00000220: d1e0 6dbe f44a df3d d8c4 743c 97ae eebe
00000230: be40 053d 86a2 8dbd a61a 223f f620 5fbd
00000240: cb45 78be 8641 ffbe db55 c6bd a9eb b93e
00000250: 9530 9f3e 887c c3be 4ee0 a33e 656e d53c
00000260: 214a b53e 94b0 043f 148b 34be 54c5 70be
00000270: 13ee e2be 4f86 0fbd ce9d e93e 4efa bfbe
00000280: 91d4 143e d557 ba3d 1929 ecbe a8d5 b2be
00000290: 2d5f d7bd ff2e d53d 6cf0 e43e 0210 843d
000002a0: f85b 15bf 98f8 283e 27ea c0be d920 cb3e
000002b0: fba9 25be b21d 163e 2e00 8a3e ca09 3b3e
000002c0: a0d7 c8be 484a ac3e 590a a9be 249f 9f3c
000002d0: 5a52 003e 49f8 0c3f bca7 b4be 81e9 a9be
000002e0: 5ac2 c3bd 2d96 aebe 8900 6dbe ff3b 37be
000002f0: 988c 6a3e da3f a7be 12fa aebe eff3 c53e
00000300: 9a4d a0be 4fc0 dcbe abff d7be a096 213e
00000310: 409b 073f ece9 d6be 2735 a03e 05a5 683e
0.5130631 0.42532527 0.31727472 0.11703818 0.015869698 0.26110822 0.2965938 0.37130317
0.5660327 -0.24638869 0.3580204 0.46606925 0.25623468 0.25925824 0.33192408 0.17438108
0.65460503 -0.05184754 0.35271758 0.21647362 0.009430412 -0.021790192 -0.51576424 0.48472318
-0.11046093 -0.26149997 0.058913052 -0.19629453 0.58732486 0.19663274 0.16564743 0.2857877
0.37956506 -0.3853968 -0.54496825 0.15929829 0.11188796 0.26423392 -0.13644212 0.3267607
-0.4811125 -0.43307042 -0.13329412 -0.47524592 -0.12480167 0.49944496 -0.1632771 -0.26436415
-0.1579826 0.31678468 0.3567213 0.45375794 -0.49002194 0.0056575816 0.18751952 0.43017054
-0.28010905 0.018631173 -0.24627215 -0.01961618 -0.16465475 0.059350878 -0.024030862 0.38598362
-0.07028777 0.34610963 -0.08699008 0.014512015 -0.366675 -0.29842252 -0.27687794 0.11077548
0.4103279 -3.2779062e-05 -0.2162841 0.31053787 -0.3952567 -0.16880693 -0.06607822 0.5724495
0.14930807 0.110431835 0.13561217 -0.14143467 0.38881767 -0.47481552 -0.48622638 -0.53035927
0.21057062 -0.5069464 0.38860205 -0.57681924 -0.54534316 0.55749565 -0.08263103 -0.11904257
-0.61117786 0.26838142 0.3592322 -0.19451825 0.42766646 0.07373438 0.32587197 0.67285556
0.29343295 0.4663886 0.055496152 -0.23418432 0.54869455 0.27579528 0.45276266 0.07563436
0.125397 -0.079029016 -0.13329813 -0.016433235 -0.20706882 0.43760234 -0.11833156 0.19684403
0.24714518 -0.38958842 -0.3849206 -0.12148153 -0.15523589 -0.4137045 -0.5570246 0.03351986
-0.30216157 0.385864 -0.59769756 -0.15109318 -0.07823512 -0.07502366 -0.22812428 -0.06678994
-0.23230292 0.10902968 0.014939509 -0.46617576 0.032532446 -0.069157645 0.6332191 -0.054474793
-0.24245374 -0.49854678 -0.096843444 0.36312607 0.31091753 -0.38180947 0.32007068 0.026053617
0.35408118 0.51831937 -0.17631179 -0.23512775 -0.4432226 -0.035040196 0.45628208 -0.37495655
0.14534213 0.09098784 -0.46125105 -0.34928632 -0.105162 0.104093544 0.44714677 0.06448366
-0.5834346 0.16501081 -0.37678644 0.39673498 -0.16178124 0.14659765 0.26953262 0.18265453
-0.3922701 0.33650422 -0.33015707 0.019485064 0.12531415 0.55066353 -0.3528422 -0.33185962
-0.09558554 -0.3409895 -0.23144735 -0.1789398 0.22905195 -0.32665902 -0.34175164 0.3866267
-0.31309205 -0.4311547 -0.42187247 0.15780115 0.5297127 -0.41975343 0.31290552 0.227192

weight f4 [10, 200]
00000000: 530a c83d 5967 843d fc37 cbbd 137c e33d
00000010: 00cd 2b39 bef6 8d3d 33ad 84be 9502 9c3d
00000020: 276f dd3d 08bf 85bd 2113 1f3d 6ffb 83be
00000030: cb45 563e c081 fd3c e05b 053e 9228 cd3d
00000040: 2de9 013d 670c 33be c220 293e d26c 66be
00000050: 9c2d 0f3a 0183 52bd 7aab 02be d40f a5bb
00000060: 64ea 1fbe c064 423d 29a6 5fbb b640 18bd
00000070: 2146 013e 81cb eebd 041d 73be 2852 78be
00000080: 2717 e23d 5cf5 11bc 27e5 aebd e2bd 093e
00000090: f083 0bbe d249 c93d 9d3d 5fbd 4996 673d
000000a0: 8ce9 56be 2969 003d 78cf 52be fe9a 673d
000000b0: dc24 d3bd 2c6c af3d 7e15 42be 0801 10be
000000c0: d01c 933b 3e44 bbbe 23d2 123e 109d 6bbe
000000d0: 0f0a fe3a d706 cd3d ba31 05be 12bc 623d
000000e0: 6107 9cbd fe1f 20bd 8af8 62bd 765c 1bbd
000000f0: 1451 3e3d 862c 0cbe 767a 41bd 4efc 9c3d
00000100: 8c39 133d 9172 fe3c 5256 85be 55b8 67be
00000110: 88c9 80bd bc2a 97be f6a1 c2bc 798a ac3d
00000120: 75a2 a93d bdca 0fbd e8b5 d6bd ace4 f03d
00000130: 38f8 313e f530 65bd 2c22 4cbe 46c0 b1bd
00000140: 7740 da3d c7a5 22be 74cd 7ebe 39dd a93d
00000150: f22c e8bd 9352 4abe bf41 7abd ce78 59be
00000160: a11a 843c 1429 05be c494 f33d 56d0 82bd
00000170: 3ee9 e4bd b542 953d bc91 febd 5d74 9abe
00000180: 4d3c 87be 0e49 eabd b53f c13d ead1 2ebe
00000190: 6a1f 6d3d 4449 b93c 5f0d 5c3e fa57 bcbe
000001a0: 9352 11be 76fc 33bc 82b9 1ebe a9c2 cd3d
000001b0: 6e9d dd3d 2e86 ad3d 7370 f53c 758b 8ebc
000001c0: 6ba7 1cbe 0875 8bbc d89d 0c3d f44f b3bc
000001d0: 8fa6 a43d d02a cc3d fba2 b63c 7aad d5bd
000001e0: 38cb b6be fbb0 69bd 803a 0cba 8946 8fbb
000001f0: df97 b9bd f029 4f3c 9ef0 11be 1dde 50bd
00000200: 2796 833d 70de 0abf 58c5 e63c 5bea 6abe
00000210: ab33 9ebe f24d b3bd 7d1f 2dbd 8c2f 9dbd
00000220: dbf7 99bc 25da 593d b0ed 6dbd fa1b babd
00000230: edda debd d2e1 103e 450f 023e e082 c33c
00000240: 3c8e 6a3d ee76 2dbd 540d a1bd f02f 003e
00000250: 1dda 82be 8175 4ebb a6f0 373d 360c 8cbd
00000260: 1bdc c3bd 11f8 063d d28a ab3d b72f 833d
00000270: 30ff 1dbe fbf6 31bd 62fc 953d 0956 a2bc
00000280: 4a92 8e3d b715 bc3d d223 0bbe f4b6 513d
00000290: 3a5c 513d cb18 8fbd 9b12 1fbe 15c8 fd3b
000002a0: 3cd2 6cb9 19b4 4bbe 8913 35be 0b4c 303e
000002b0: b889 023d f07a 0ebe efbd 91be 2e56 993d
000002c0: d0ef e5bd cc8e 8f3d 5a96 2a3d d722 e8bd
000002d0: 3c44 c13c 6087 9a3d e2a4 88bc 9fce e6bd
000002e0: 02ce d23b 2ad0 97bd beff fabd 3c76 9cbd
000002f0: 3fbe 25bd dbb3 a8bc c44b f9bd 08e2 1bbe
00000300: 5e75 01bd 50bf 53bd 85f4 a43c 8bc0 f63d
00000310: 3fab 6f3d bd87 0b3d 1f9c 4bbb 1f64 19be
00000320: 1f2f 8dbd 6e9c cfbd ecd2 2fbd 2648 c5bd
00000330: af2b 8abd 1ec5 6dbc 3d0d 50bc 9689 06bc
00000340: 2068 41bd a676 7d3d 6324 b7bb 9430 c63c
00000350: d8f4 a1bd bf10 1cbd 96be d8bd e3e3 e2bd
00000360: a015 82bd 89bd 8bbd c6f7 65bd dcb1 78bc
00000370: 0b2f bc3c 039c 7cbd 4936 b3bd b705 9bbd
00000380: 1108 18bd 7263 4e3d c794 a83c 9236 60bd
00000390: e7f1 a7bd 386b 513a 4daa 0ebc 77ff 98bd
000003a0: 0009 7fbd 12f7 97bc 3287 93bc 0fb8 aabd
000003b0: d56a 833d 043d 7fbd 80c9 77bd 3691 e3bc
000003c0: 59aa 11bd b9be 5bbd 6a27 583b f604 a33c
000003d0: c05e 04bd 9566 453c f0c1 283d ef5f 84bd
000003e0: c2ba babc abbb bebd 0084 b6bd b07d 86bd
000003f0: 60b3 90bd cd4e 703c 7ae8 1dba 086e 10bd
0.09767594 0.064650245 -0.099227875 0.1110765 0.00016384199 0.06931828 -0.2591339 0.0761768
0.10812216 -0.06530577 0.038836602 -0.25777766 0.20925061 0.030945659 0.13023329 0.10017504
0.031716514 -0.174852 0.16516402 -0.22502449 0.00054618134 -0.051394466 -0.12760726 -0.0050372873
-0.15616757 0.047459364 -0.0034126139 -0.03717109 0.12624408 -0.11659909 -0.23741537 -0.2425009
0.11039572 -0.008908596 -0.08539801 0.13451341 -0.13624549 0.09828533 -0.05450212 0.056539807
-0.20987529 0.03135029 -0.20586956 0.056544296 -0.10309765 0.08565554 -0.18953511 -0.14062893
0.0044895187 -0.36575502 0.14337973 -0.23009133 0.001938166 0.1001107 -0.1300725 0.05535514
-0.07618595 -0.03909301 -0.055412807 -0.037929974 0.04646404 -0.1368886 -0.04723593 0.07665311
0.035943553 0.031060489 -0.2604242 -0.22628911 -0.06288439 -0.2952479 -0.02375887 0.08424849
0.08282939 -0.035105456 -0.104839146 0.11762366 0.17379844 -0.055954892 -0.1993491 -0.086792514
0.10656827 -0.15883552 -0.24883062 0.08294148 -0.11336698 -0.19758062 -0.061097857 -0.2123749
0.016125979 -0.13003951 0.11893609 -0.06387393 -0.111773 0.07288114 -0.124301404 -0.30166903
-0.26413193 -0.11439715 0.09435979 -0.17072263 0.057891287 0.022617944 0.21489476 -0.3678587
-0.14191656 -0.010985484 -0.15500453 0.10046894 0.10821043 0.08472858 0.029960847 -0.017400483
-0.1529824 -0.017023578 0.03433022 -0.02188871 0.08039581 0.09969103 0.022294512 -0.10433479
-0.3570192 -0.057053547 -0.00053492934 -0.004372422 -0.0906217 0.012644276 -0.14251944 -0.050993074
0.06425124 -0.5424566 0.028170273 -0.22940962 -0.30898795 -0.08755101 -0.042266358 -0.076750845
-0.018794945 0.053186554 -0.058088005 -0.09087367 -0.108816005 0.14148644 0.12701137 0.023866117
0.05726455 -0.04234975 -0.0786387 0.12518287 -0.25557032 -0.0031503143 0.044907235 -0.068382666
-0.09563466 0.03295142 0.08376087 0.06405585 -0.15429378 -0.04344843 0.07323529 -0.019816415
0.06961496 0.09183829 -0.13587883 0.05119987 0.051113345 -0.06987151 -0.15534441 0.007744799
-0.00022585032 -0.1989292 -0.17683233 0.17216508 0.03186962 -0.13914084 -0.2846522 0.074871406
-0.11227381 0.07009658 0.041647293 -0.1133477 0.023592107 0.07545352 -0.016680185 -0.112698786
0.0064332495 -0.07412751 -0.1225581 -0.07639739 -0.040464636 -0.020593574 -0.12172654 -0.15222943
-0.03160607 -0.05169612 0.020136127 0.120484434 0.058512922 0.034064997 -0.0031068397 -0.149796
-0.06893753 -0.101372585 -0.04292576 -0.09632902 -0.06746613 -0.014512328 -0.012698469 -0.008211514
-0.047218442 0.06188073 -0.0055890544 0.024193086 -0.07908028 -0.038101908 -0.105832264 -0.11078622
-0.06351781 -0.0682326 -0.0561445 -0.015179124 0.02297165 -0.061672222 -0.087505884 -0.075694494
-0.037117068 0.050387807 0.020578755 -0.054739542 -0.08200436 0.0007988694 -0.008707595 -0.07470601
-0.062264442 -0.01855043 -0.018008802 -0.08335888 0.06416861 -0.06231405 -0.0604949 -0.027779203
-0.035562847 -0.053648684 0.0032982477 0.019899826 -0.032316923 0.012048383 0.04120058 -0.064636104
-0.022794131 -0.093131386 -0.08911896 -0.06566942 -0.07065463 0.014667225 -0.00060237164 -0.035261184

bias f4 [10]
00000000: 42a6 283e 421e 99bd e2e8 a2bd 9bee 6ebd
00000010: 6966 98bd ca9b 783e 12ea 52be 931f 0fbe
00000020: d9c3 183b 834d b7bd
0.16469672 -0.07476474 -0.07954575 -0.05833302 -0.07441408 0.24278179 -0.20597103 -0.13976888
0.0023310094 -0.08950331

weight f4 [1, 10]
00000000: a80c aa3d 5d69 873e e062 edbc 9a50 e2bd
00000010: 3e3d 8abe e44c ab3e ea5e bbbe a621 b5be
00000020: 153d c2be 0f4f 91be
0.08303195 0.26447573 -0.028977811 -0.1105053 -0.2699985 0.334571 -0.3659585 -0.35377234
-0.37937227 -0.2838063
