Gibbs_MINE/model_kl_4_2.pth (torch, 112015 bytes, 7 tensors)

weight f4 [200, 120]
000000 df 65 c7 3d 75 04 e1 3d b4 b8 dc 3d 8d 95 36 bd
       0.09736227 0.10987178 0.10777417 -0.044576216
000010 7d 54 e7 3d 45 67 bc 3d 39 a4 cc bc 2a 02 07 be
       0.11295412 0.091993846 -0.024980651 -0.1318442
000020 e5 c5 3f bd 74 7c 41 bd 42 27 94 bd a2 65 24 bd
       -0.046819586 -0.04723783 -0.0723405 -0.040135987
000030 a7 a2 b3 bc 63 18 38 3d b0 c0 36 bd 14 75 a8 bd
       -0.021928145 0.044945132 -0.044617355 -0.08225456
000040 67 ab e6 bd 5a 6c c9 3c 34 e2 a8 bd c2 bd 4a bd
       -0.11263161 0.024587799 -0.0824627 -0.049497373
000050 1e 71 b7 bc 86 7c 19 3c b8 c7 a5 3b 28 f1 a8 bd
       -0.022392806 0.009368068 0.0050592087 -0.08249122
000060 fc b8 84 3d 20 82 95 bb e7 62 ca bd 4f 5b 56 bd
       0.064805955 -0.0045626312 -0.098821454 -0.052333172
000070 e2 57 01 bd ed d6 ae bd 66 48 b7 bd 6d 1b c0 bd
       -0.031577952 -0.085370876 -0.08949356 -0.09380231
000080 d4 57 42 be 83 a3 e6 3b fe 54 76 bc 27 e5 9d bd
       -0.18978816 0.007038535 -0.015034912 -0.07709723
000090 40 b6 a4 3d 3f 9b 81 3d 38 96 06 3b 4c 80 07 be
       0.08042574 0.06328439 0.0020536315 -0.13232535
0000a0 78 52 52 bd 57 26 53 3d 43 61 a6 3c 80 86 f3 bd
       -0.05134818 0.051550236 0.02031005 -0.11890888
0000b0 0c 9e 08 be 9f 1d 1d 3b 72 2c eb bd 3c a3 88 3b
       -0.1334154 0.0023973954 -0.11483087 0.0041698497
0000c0 1a 78 f1 3c 90 16 c8 bd 67 c3 29 3d 42 d7 2d 3d
       0.029476214 -0.097699285 0.041446116 0.042441614
0000d0 2e d5 5d 3d 02 02 0f bd 13 19 32 3d 7a 9c 4b bd
       0.054158382 -0.034914024 0.043480944 -0.049709775
0000e0 3b 1b bb bc 49 30 28 3e a8 33 46 bd 76 5a 10 be
       -0.022840133 0.1642467 -0.048389107 -0.14097008
0000f0 86 93 51 bc fb f0 70 3c d4 3f ad 3a 14 96 a3 bc
       -0.01279152 0.014705892 0.0013217875 -0.019969024
000100 45 f1 b2 bd 07 4b 25 3c 54 f3 a4 3c 43 eb 55 bd
       -0.08737425 0.010088689 0.02013556 -0.052226316
000110 33 db fd 3b c7 60 00 bd 78 71 94 bd 58 9e 41 be
       0.007747078 -0.031342294 -0.07248205 -0.1890806
000120 65 44 2e 3d a9 b8 ea bd 64 9d d2 3a 00 ba 03 3e
       0.042545695 -0.114610024 0.0016068635 0.12863922
000130 01 1d 1e bd 31 8e 33 3c fe 7d f1 3d c1 ac f9 3f
       -0.03860188 0.010959194 0.11791609 1.9505845
000140 cf ad ec 3f b0 1c d8 3d ae 8d 57 3e be f2 54 c0
       1.8490542 0.10552347 0.2105014 -3.3273158
000150 a5 ed 73 bb 02 8c ff bb ad 9d 21 3c ae 0f 4f bc
       -0.0037220505 -0.0077986727 0.009864253 -0.012638016
000160 f1 4b e5 bd 15 79 04 bd 0f 82 ec 3c e1 db 80 3d
       -0.11196125 -0.032342035 0.02887061 0.062919386
000170 d3 b8 a5 3d 85 3a f2 bb c6 c5 aa 3d 3c 22 79 3d
       0.08091893 -0.00739223 0.083385035 0.060823664
000180 65 8c d1 bd a9 ea 0f 3b e8 e0 32 3a 84 6e 19 bd
       -0.10231856 0.0021959937 0.0006823675 -0.03745891
000190 2a 2a 6c 3c 93 67 5d 3b 39 b2 e1 3c 1e 04 41 bd
       0.01441435 0.003378366 0.027550803 -0.047123067
0001a0 63 95 b0 3d 67 4c 81 3d 69 0c d8 bd be 1c 3a be
       0.08622243 0.06313401 -0.10549242 -0.18175027
0001b0 0a 68 80 3c 00 cf aa bd b7 5b 80 3b 7e 26 0f 3d
       0.01567461 -0.08340263 0.0039171833 0.03494882
0001c0 08 95 09 be 28 12 f4 bd 29 de 61 3c 82 9e c5 bd
       -0.13435757 -0.119175255 0.013785877 -0.096493736
0001d0 6e d2 51 bd 2a e1 36 3d 91 fc cd 3c 04 60 a2 bd
       -0.051226072 0.044648327 0.025144847 -0.0792847
0001e0 0b 9f f1 3c 3b 6b 29 be 57 cb 42 be 85 8f 86 bd
       0.029494783 -0.16544811 -0.1902288 -0.06570343
0001f0 df 69 2f be 70 18 0f be af 37 63 be 36 2a aa bd
       -0.1713023 -0.13974166 -0.2218921 -0.08308832
000200 2f f6 63 3d 8d 6a 29 3d 33 57 bb 3e f2 26 4d 3e
       0.0556547 0.04136138 0.36589965 0.20034388
000210 f1 63 93 be 52 4d 9e 3d b9 ff bc 3e d5 7e ce bd
       -0.28787187 0.077295914 0.3691385 -0.10082785
000220 41 0e 22 3f 26 98 68 3f 92 17 1b 3e a2 41 78 3e
       0.63303 0.9085716 0.1514571 0.24243787
000230 c3 69 09 3e 27 e7 e8 3d 60 dd 4a bd a6 63 1d bd
       0.13419251 0.11372214 -0.049527526 -0.03842511
000240 16 5d 2f bf 7c 65 45 bf 7b 3d 1d be fa e1 e6 3c
       -0.6850141 -0.7710798 -0.15355484 0.028183926
000250 46 95 8f 3e 1f 7e 16 40 be f5 2f 3e 74 ba 60 be
       0.28043574 2.3514478 0.17183587 -0.21946126
000260 19 90 e0 3c 89 2e 7a 3e 6a f6 90 be 3e 0e 15 bf
       0.027412461 0.24431814 -0.28313 -0.58224857
000270 fc 18 24 bd 3b 04 30 3e 59 73 87 3d 2f fb 23 be
       -0.04006289 0.17189114 0.06613798 -0.16013788
000280 9f 6c 5f 3d 88 fd 50 3d 02 d5 fa bd d5 49 48 3c
       0.05454695 0.051023036 -0.12247659 0.012224634
000290 48 87 f5 3d aa 21 a0 3d 3e 04 55 3e c0 d5 0d 3f
       0.119886935 0.07818921 0.208024 0.5540428
0002a0 fe 69 b6 3e ba 0a 62 bd c5 f9 00 be 79 3f d2 bd
       0.3562774 -0.05518601 -0.1259528 -0.10266013
0002b0 e0 5e 84 be 55 d0 11 bf 96 33 88 bd eb d0 2e be
       -0.25853634 -0.56958514 -0.06650464 -0.17071883
0002c0 c4 d0 3b be fd ec 88 3d d7 67 52 bc 6b 78 03 be
       -0.18341357 0.06685827 -0.01284214 -0.12838905
0002d0 81 7e 1e bd 8a 2e 0e be 22 a3 97 bb da 58 92 3d
       -0.038694862 -0.1388494 -0.0046276012 0.07145853
0002e0 bc 08 d9 3d 47 67 03 3f 59 95 9b bc 00 9b 86 bd
       0.10597369 0.51329464 -0.018992113 -0.06572533
0002f0 99 c5 94 bd 8e cb c5 3c b9 fd 2b be e3 c8 fa bd
       -0.07264251 0.024144914 -0.16796006 -0.12245347
000300 97 e6 a4 bc 09 7b 50 be 24 17 e9 3d 41 9d ca bc
       -0.020129485 -0.20359434 0.11381367 -0.024733188
000310 8a bc 2a be 8e 26 62 3c e9 7d 5f be c1 e0 13 3e
       -0.16673484 0.0138031375 -0.21825375 0.14441206
000320 39 2e 70 3e 05 c6 fa 3d 9d 40 7a 3d 85 08 64 3e
       0.23455133 0.122448005 0.061096776 0.22268875
000330 88 e9 79 3e 9f d5 0c 3e b7 88 27 be a3 2d 91 bd
       0.24405491 0.13753365 -0.16360746 -0.07088783
000340 bf 69 93 be 91 ce 21 bf 2a 85 1e 3d 19 7d 28 bd
       -0.28791615 -0.6320582 0.038701214 -0.041134927
000350 1c 35 b4 bc c1 e5 c1 3d 58 a3 1a 3d 69 48 34 bd
       -0.02199798 0.0946765 0.037753433 -0.04401437
000360 8d 1a 8e be 96 6a e2 3c b3 93 98 3d 26 c3 0c bd
       -0.27754632 0.027638715 0.074500464 -0.034365796
000370 f8 22 63 3d 0f 1b 31 3e 99 3c 12 bf de 87 b2 bd
       0.05545327 0.17295478 -0.57123715 -0.08717321
000380 37 85 9e 3e ce a2 7f bd 8a 9d 18 3f 85 03 c3 3f
       0.3096101 -0.062411122 0.59615386 1.5235449
000390 72 38 50 bd 78 c4 97 3c 6d 5c 4b 3c a1 a4 45 bd
       -0.05083508 0.0185263 0.012412173 -0.048252705
0003a0 e5 eb 51 be c8 fc 84 be 11 c7 97 bd 29 2e 20 be
       -0.20500143 -0.25974107 -0.07411016 -0.15642609
0003b0 e3 94 57 3d 66 20 e0 3b 1a 2c 94 3d 97 c9 22 3e
       0.052632224 0.0068397997 0.07234974 0.15897213
0003c0 27 33 02 bd ab 35 8a 3d bc 6d 18 be 07 b4 b8 3d
       -0.031787064 0.067485176 -0.1488561 0.090187125
0003d0 bf 8d 9a bd 55 b5 2d be 75 c8 95 3e e5 e2 33 3e
       -0.07546567 -0.16963704 0.292545 0.17567022
0003e0 a1 43 a0 3c 4e 9d 80 bc 38 a0 da be 56 27 6e bf
       0.019563498 -0.015700009 -0.42700362 -0.9302877
0003f0 4b 09 88 3d 95 51 92 3d db 37 04 be 07 fb 18 bd
       0.066423975 0.07144467 -0.12911932 -0.037348773

bias f4 [200]
000000 70 b8 08 3d 30 8e 9d be 40 08 3a be 74 04 c7 3e
       0.03337902 -0.30772543 -0.1816721 0.38870585
000010 5e f9 39 40 7e ee 21 bf 6b 5f 03 bf 55 67 ea 3c
       2.9058452 -0.63254535 -0.5131747 0.028613726
000020 6d 7a b5 bd 37 dd 04 3f bf 1b cc 3d 2b 45 8a be
       -0.088612415 0.5190005 0.0996623 -0.27005896
000030 43 0f a8 3f 49 ef 36 40 50 f1 0b 40 db 3e 19 bd
       1.3129658 2.8583548 2.1866035 -0.03741346
000040 2f e2 2b bf ff 22 63 bf 1c 1a 8e be 4e 8a d7 be
       -0.67142004 -0.88725275 -0.27754295 -0.42097706
000050 11 52 4c bd 80 ff cb be ac 30 bd be 74 8b 52 bd
       -0.049882952 -0.3984337 -0.36951196 -0.051402524
000060 70 ee ff 3e 36 77 30 bf c9 f3 1d be da 4d a2 be
       0.499866 -0.689319 -0.15425028 -0.3170002
000070 3c ce a7 be 08 ff 78 bf 24 0d be be f0 c4 18 40
       -0.32774532 -0.97264147 -0.371194 2.38702
000080 46 11 f2 be 43 97 41 3f 96 45 90 bf 7a 5c 41 bf
       -0.47278804 0.7562143 -1.1271236 -0.75531733
000090 0f 1f 00 bf 95 12 40 3f 7c de ff be ae 36 e0 be
       -0.5004739 0.75028354 -0.4997443 -0.43791717
0000a0 a1 2a 30 3f 92 3b c5 3f 07 8a 03 bf f6 a8 1f c0
       0.68815047 1.5408804 -0.5138249 -2.4946876
0000b0 30 13 36 40 72 7d bd bd 58 ba 0c 40 53 ee 04 bf
       2.844921 -0.092524424 2.1988735 -0.51926154
0000c0 39 e7 f7 3f 84 33 49 be 65 40 d4 3d 7a e4 29 40
       1.9367439 -0.19648558 0.10363845 2.65457
0000d0 58 94 d7 bd 02 22 66 3f 41 dd 50 be c5 52 f6 3c
       -0.10526341 0.8989564 -0.20396902 0.030068764
0000e0 12 d9 62 bf cf 9f b4 3f ef ae 57 be 39 fd be be
       -0.88612473 1.411127 -0.21062826 -0.3730257
0000f0 7a 69 ad 3f 76 79 9e bf 49 f4 0f bf 14 82 d0 be
       1.3547814 -1.2380817 -0.56232125 -0.40724242
000100 3a 59 5d bf 62 f4 48 be fd e4 69 c0 24 82 70 bf
       -0.86464274 -0.19624475 -3.6546013 -0.9394858
000110 ee 48 8a be 63 4c 82 be e9 a5 9d be bf 13 07 bd
       -0.27008766 -0.25448903 -0.30790642 -0.032977816
000120 d9 4c 02 bf 4e 73 f7 3d 48 e6 2a 40 8f 0f b6 be
       -0.5089851 0.120825395 2.6703053 -0.35558745
000130 ad 24 a9 be b8 7f e6 bd e1 2b 4a bd c7 59 f9 3d
       -0.33035794 -0.11254829 -0.049358252 0.12175327
000140 58 f1 dd bd 59 35 b7 3b 27 b5 3a 3e 07 49 99 3f
       -0.10837048 0.0055910763 0.18233167 1.1975411
000150 d4 62 0f bf f0 dc 6b be c1 82 0d 3d 14 5b ae be
       -0.56010175 -0.230335 0.034548525 -0.34053862
000160 d6 2b 5c be d3 d8 89 be 09 e9 83 3e 01 34 fc 3f
       -0.21501097 -0.26923236 0.2576373 1.970337
000170 6d 57 01 bf 69 a6 b2 be f0 4c 1f be f1 24 3f bf
       -0.50524026 -0.34892586 -0.15556693 -0.74665743
000180 74 de 49 3d 74 af 8c bf 11 f9 24 be a0 4a ca bd
       0.049284413 -1.0991044 -0.16110636 -0.09877515
000190 a0 c8 0a bf bd 6b b4 bc 54 81 dd be b3 0c 8c bf
       -0.5421238 -0.02202403 -0.43262732 -1.0941375
0001a0 66 d7 1b 40 b6 37 b8 be 3b ea a6 be b3 bd a0 bc
       2.4350219 -0.35980004 -0.3260058 -0.019621706
0001b0 65 12 1c c0 e2 c7 ec 3e 89 56 34 bd 24 fd 16 bd
       -2.4386227 0.46246248 -0.04402784 -0.036862507
0001c0 97 23 05 40 0c 3a 68 be 67 b4 e8 be 78 0c aa 3f
       2.0802972 -0.22678393 -0.45450136 1.3285055
0001d0 87 f2 b8 be cf 5f ff be e4 66 98 3e eb 77 2e bf
       -0.36122534 -0.49877784 0.29766 -0.6815173
0001e0 a7 01 2a 40 e1 1a 32 be db 0a 87 3c 1d 0a 2b 40
       2.6563509 -0.17393066 0.016484668 2.6724923
0001f0 31 4d de be 1d d2 1b be 21 54 c6 3e b6 d2 bf be
       -0.43418267 -0.1521687 0.3873606 -0.37465447
000200 54 45 7d bf ed b8 4e bf d7 82 8a be 69 17 19 be
       -0.9893391 -0.80750924 -0.27052948 -0.14950337
000210 f1 85 cd be 6c e2 fe 3f 99 1f 55 bf 6b 10 02 be
       -0.40141252 1.9912848 -0.8325134 -0.12701575
000220 6d 12 85 be d5 7d 96 3f 91 8a 9f be 85 f8 97 3e
       -0.2599062 1.1757151 -0.31160405 0.29681793
000230 d0 ca fe 3f a8 ff 28 bf 2d 33 31 c0 33 49 92 3d
       1.9905643 -0.660151 -2.7687485 0.07142868
000240 5b 81 bf 3f d4 c0 18 bf 76 88 8d bd d8 58 48 bf
       1.4961351 -0.5966923 -0.069107935 -0.78260565
000250 b0 04 9f bf 82 25 d3 bf 34 c7 1c 3e e7 14 60 be
       -1.2423306 -1.6495821 0.15310365 -0.21882974
000260 f8 52 1f bf a8 3d 8a be c8 73 ee be d1 9b 01 be
       -0.62235975 -0.27000165 -0.4657271 -0.12657095
000270 b7 50 af 3f ed f0 ab bf a1 cd 67 be 49 cd 34 40
       1.3696507 -1.34329 -0.22637035 2.8250296
000280 98 51 f7 3c 1c 01 0e be 95 69 70 3d bb 14 75 3e
       0.030190274 -0.1386761 0.05869444 0.2393369
000290 98 90 52 bf e5 8a 19 40 1b af 60 bf ce 34 c1 be
       -0.8225188 2.3991024 -0.8776719 -0.377356
0002a0 03 b8 0e bf 63 2a 07 bf 6e e7 23 c0 23 a2 03 be
       -0.5574953 -0.5279905 -2.5610003 -0.12854819
0002b0 99 53 03 be 8f 9d 10 3c 89 d4 5a 3b 12 8d 8e 3d
       -0.12824859 0.008826627 0.003339084 0.06960501
0002c0 e3 bb be 3f 2f 83 4c 3d 39 3d 37 40 42 13 f2 be
       1.4901088 0.049929794 2.8631117 -0.47280318
0002d0 1d d0 2c be 58 86 06 be b2 62 a4 bf a8 25 1b 3d
       -0.16876264 -0.13137186 -1.284262 0.03787771
0002e0 e2 df 45 be fb b8 6a 3e 6d 84 9d be 67 18 8f 3f
       -0.19323686 0.22922127 -0.30765095 1.1179322
0002f0 c7 42 69 bf d5 59 66 be 40 5b 89 be 90 54 bf 3f
       -0.9111752 -0.22495206 -0.2682743 1.4947681
000300 10 d5 05 40 5f 71 5a be 04 9e b3 3f b1 f8 fa bd
       2.0911293 -0.2133231 1.4032598 -0.12254465
000310 c8 aa d7 be 5e 47 dd bc 97 b1 23 be 14 47 d2 be
       -0.42122483 -0.02701157 -0.15985714 -0.41069853

weight f4 [200, 4]
000000 1f fc 86 bf 86 96 c2 be f0 f5 65 bf 1e 38 c9 be
       -1.0545691 -0.38005465 -0.89828396 -0.39300627
000010 eb 06 4b bf 42 4a 16 bf bd b4 5e bf c3 92 79 bf
       -0.7930743 -0.5870706 -0.86994535 -0.97489566
000020 a3 ea f4 bf 74 4a 6a be d5 54 48 bf 8f d7 3c bf
       -1.9134105 -0.22879964 -0.78254443 -0.73766416
000030 ee 9d 33 c0 ad f8 97 bd 1e 26 98 bf d4 d0 72 40
       -2.8065143 -0.07420478 -1.1886632 3.7939959
000040 43 15 41 bf 37 2e e6 3e 3f 0f f3 bf c0 37 c6 bf
       -0.7542307 0.44957134 -1.8989028 -1.5485764
000050 22 56 84 40 7e cc 7b 3e a6 78 60 3f 21 84 5c c0
       4.1355143 0.24589726 0.87684095 -3.4455645
000060 24 4b b8 bf 97 d0 0c bf 4a b5 b8 bf 8d b9 77 bf
       -1.4397931 -0.5500578 -1.4430325 -0.96767503
000070 ce 30 55 bf 4c 7f d9 bc e1 f0 16 bf 65 c9 97 bd
       -0.83277595 -0.026549958 -0.589613 -0.0741146
000080 c2 ec ac bf 5f c9 ac be 7c 81 76 bf 2e cb 30 bf
       -1.3509753 -0.33747384 -0.9629133 -0.6906003
000090 39 be 60 bd 02 91 9f be 89 51 2c 3e 76 2e af bf
       -0.05486891 -0.3116532 0.16827978 -1.3686054
0000a0 f2 51 5e bf b2 f0 db be 49 3f 5b bf 8b 8c 15 bf
       -0.8684379 -0.42957073 -0.8564344 -0.58417577
0000b0 6e 28 2f bf 2a f0 ce 39 34 ba 60 bf 1a 40 42 bf
       -0.68421066 0.00039470318 -0.87784123 -0.7587906
0000c0 56 59 a2 c0 9b 7c 66 bf 43 92 1b c0 54 ed 82 3f
       -5.0734053 -0.9003388 -2.430802 1.0228677
0000d0 55 2a 3b c0 ba d0 a5 bf 36 30 73 c0 75 f5 cc c0
       -2.9244587 -1.2954323 -3.7998176 -6.404963
0000e0 1b f3 3c 40 82 70 6f 3e 1c b4 a0 3f 08 02 4d bf
       2.952338 0.23382762 1.2554965 -0.80081224
0000f0 76 e3 29 bf 05 5b bf be 28 30 12 bf 72 c9 10 bf
       -0.663627 -0.3737413 -0.5710473 -0.5655738
000100 d6 d8 01 be fc 92 0e bf 2c 61 34 40 a6 9f 05 bf
       -0.12680373 -0.5569303 2.818431 -0.5219673
000110 05 79 8a 40 0b 89 9a 3e 9d e8 fb 3e 87 e8 4e c0
       4.327273 0.3018268 0.49200907 -3.2329423
000120 14 6c da 3e 10 68 6f bf e9 de 1f bd d4 67 d1 3e
       0.42660582 -0.9351816 -0.039030943 0.40899527
000130 22 e8 cf bf 72 7e 4d be 2f cf 7b bf 1c 94 37 bf
       -1.6242716 -0.20067766 -0.9836301 -0.7171037
000140 30 68 bd bf 4e b9 ba be 55 09 31 bf 2d 45 87 bf
       -1.479742 -0.364695 -0.69154865 -1.0567986
000150 0d ac bb be 98 07 46 bf 5d 69 fd bf c1 70 90 bf
       -0.36654702 -0.7735534 -1.9797779 -1.128441
000160 fc e5 8e bf 1c 48 8a be a8 9c 1e bf 79 bf 1c bf
       -1.1163936 -0.2700814 -0.6195779 -0.61229664
000170 f4 85 5c bf 21 69 cf be 4c 9a 55 bf 03 24 49 bf
       -0.86141896 -0.40509894 -0.83438563 -0.78570575
000180 ad bb 5e c0 b4 31 af bd 8e e6 fd 3c 0f a8 44 40
       -3.4802048 -0.08554402 0.030993726 3.0727575
000190 54 da cc 3f d2 e5 4d be 2f 53 d2 be d2 9b 86 3f
       1.6004128 -0.201072 -0.4107909 1.0516303
0001a0 18 2e 40 bf 5b be 96 be b0 85 71 bf 90 9d 6b bf
       -0.75070333 -0.29442105 -0.94344616 -0.92037296
0001b0 7a 31 bc bf b6 d1 27 bf 49 51 cf bf b1 8f 83 bf
       -1.4702599 -0.6555437 -1.6196681 -1.0278226
0001c0 6f b8 ff 3e 1b 6c 2e bd 4e 16 17 3f 4f 60 fc bd
       0.499454 -0.042583566 0.5901841 -0.12323057
0001d0 40 4d 87 40 93 fe f3 3e 07 72 0f 3f 0d ff 3f c0
       4.22818 0.47655162 0.56033367 -2.999942
0001e0 08 a8 93 3e 72 60 03 bf 28 a9 40 3f 3b f4 d4 3c
       0.28839135 -0.5131904 0.7525811 0.025995364
0001f0 fd 86 50 40 c8 4c 6d 3e 92 70 92 be a8 fe 5c bf
       3.258239 0.23173821 -0.2860151 -0.86326075
000200 35 02 94 bf 3f 38 28 bf 60 a8 98 bf ff ab 88 bf
       -1.1563174 -0.65710825 -1.1926384 -1.0677489
000210 6d bf ee bf df 65 26 bf 29 6d 74 40 c4 61 f4 3f
       -1.8652169 -0.6499919 3.8191626 1.9092336
000220 95 04 97 40 92 a9 e0 3e 0b 0d 4e 3f 25 5d 1a c0
       4.7193093 0.43879372 0.8048865 -2.411935
000230 ad e1 2b bf 51 ce 62 bf b4 96 14 c0 d6 94 9c bf
       -0.6714123 -0.88596064 -2.3216982 -1.2232921
000240 dc f1 b9 bf a7 75 04 bf c0 09 a6 bf 4f 1a 83 bf
       -1.4526935 -0.51742023 -1.2971725 -1.0242404
000250 eb 89 15 bf 7b a2 ad bf 59 df 94 bf ed b9 3f c0
       -0.5841357 -1.356521 -1.163066 -2.995723
000260 67 d7 07 c0 21 c4 2b bf ae 95 c9 bf c0 da 8e bf
       -2.122522 -0.67096144 -1.5748804 -1.1160507
000270 09 44 77 3f 21 8f ba be e5 4f 55 3f 01 9e ff bd
       0.9658819 -0.36437324 0.83325034 -0.12481309
000280 a0 82 ca bf fe a5 11 bf f6 45 7f bf b8 39 c2 be
       -1.5821114 -0.5689391 -0.99716127 -0.3793466
000290 3f 30 c8 3f e5 e6 04 c0 68 37 c9 bf da 2d c5 3f
       1.5639724 -2.0765927 -1.5720034 1.5404618
0002a0 40 bd bc bf da d9 8b be 87 e5 ac bf af fd 38 bf
       -1.4745255 -0.27314645 -1.3507546 -0.7226209
0002b0 2d 21 25 c0 7d 4d 05 be 51 a5 52 bf 5e 8f b2 3f
       -2.58015 -0.1301784 -0.822835 1.3950002
0002c0 b1 77 d7 3f 75 a5 3d be e3 c1 a5 be fd c6 2b c0
       1.6833402 -0.18520148 -0.32374486 -2.6840203
0002d0 e3 6a 82 bf 05 ee 85 be 63 6a 8a bf db ac 15 bf
       -1.0188869 -0.26158157 -1.0813717 -0.5846688
0002e0 af ca 50 40 ed e5 44 3e e4 97 c2 be ed bf d6 be
       3.2623708 0.19228335 -0.38006508 -0.41943303
0002f0 d7 13 40 bd a5 42 50 bf c7 cd ba 3f 6e 9f 8b bd
       -0.04689392 -0.8135169 1.4594048 -0.06817518
000300 ee 04 8d c0 cc 8f 8f bf 94 f7 5e bf f2 bb bd be
       -4.406852 -1.1215758 -0.87096524 -0.37057453
000310 c6 e0 6d 3e a6 22 1f bf a3 90 d0 3e 63 f9 d6 3e
       0.23230276 -0.62162244 0.4073535 0.41987142
000320 18 b9 39 be fe e0 7a be 78 72 c4 bd e9 90 d0 be
       -0.18137014 -0.2449989 -0.09592146 -0.40735558
000330 8f 9a d3 3f ac b4 da bd 1e 3a 63 be 83 8c 14 c0
       1.6531543 -0.10678992 -0.22190139 -2.3210762
000340 7d 9d 1a bf a9 a7 62 be b3 7e 8c bf 7d 25 3a bf
       -0.6039656 -0.2213427 -1.0976166 -0.7271345
000350 cf c1 d7 3e 97 ce c4 3f b7 15 8b bf c4 6e 47 40
       0.42140052 1.5375546 -1.0866002 3.1161356
000360 e5 36 a6 3f 62 3f 61 bf a8 c8 c6 3f aa 0e 95 bf
       1.2985502 -0.8798734 1.5529985 -1.16451
000370 b2 b8 74 bf fc 14 31 bf 05 8a 87 bf 95 3f 05 c0
       -0.9559432 -0.69172645 -1.0588995 -2.0820057
000380 64 ac a3 bf c1 a8 77 bf 3e 76 1b c0 6e a7 ce bf
       -1.2786984 -0.96741873 -2.429092 -1.6144845
000390 9b 68 80 40 68 63 1d 3f 60 c0 20 40 e1 2d d3 3e
       4.012769 0.61479807 2.5117416 0.4124594
0003a0 b7 94 35 bf 84 71 d7 be 92 c3 98 bf b6 25 28 bf
       -0.70930046 -0.42078793 -1.1934683 -0.6568254
0003b0 2a 32 32 3f b4 a1 bb be be 9f df be 69 6d 85 3f
       0.69607794 -0.36646807 -0.4367656 1.0424014
0003c0 4f e9 73 3f 29 9b 3d 3e 4a 91 93 40 c3 03 48 3e
       0.95277876 0.1851622 4.6114855 0.19532685
0003d0 d5 5d 9d 40 77 79 ae 3e 60 18 55 3f 38 a9 5b c0
       4.917704 0.34077045 0.8324032 -3.4322033
0003e0 7b e4 e7 bf d1 9c d5 be 3b ea 6e be 7c f4 15 bf
       -1.8116602 -0.41721204 -0.2333154 -0.5857618
0003f0 2a c2 53 bd 0f 23 67 be 47 d2 81 bf f4 93 46 be
       -0.05169884 -0.22571968 -1.0142297 -0.19392377

bias f4 [200]
000000 8b 18 9e be 6d 01 81 be fa 12 bf be ca 42 4c 3d
       -0.308781 -0.251964 -0.37319165 0.049868383
000010 67 c2 4b 40 c1 ed 70 bf 57 5f a8 be 43 a6 65 be
       3.1837404 -0.94112784 -0.3288524 -0.22426705
000020 78 89 19 bf 06 04 74 3f 81 c5 a1 3e 6b 01 1f bf
       -0.59975386 0.9531864 0.31595996 -0.6211154
000030 b3 5f ca 3f a1 4a 4a 40 68 85 23 40 f0 1e ad 3e
       1.5810455 3.160805 2.5550175 0.33812666
000040 54 e0 84 be e9 f9 85 bf e1 bf 6e be cc b5 47 bf
       -0.259524 -1.0466892 -0.23315383 -0.78011775
000050 69 19 30 be 3f 79 18 bf 46 34 ee be 02 d0 f3 be
       -0.17197193 -0.59560007 -0.46524256 -0.47619635
000060 31 32 26 3f d8 0b 31 bf 7b 94 b9 bd 0c c9 1a bf
       0.64920336 -0.691587 -0.090615235 -0.60463023
000070 76 f3 d1 bd 1b bd 9a bf 18 8d 2f be d6 ac 0e 40
       -0.102515146 -1.208896 -0.17143667 2.229299
000080 e2 37 ea be eb da 78 3f 80 10 c6 bf f2 8b 1b bf
       -0.4574576 0.9720904 -1.5473785 -0.60760415
000090 3d f5 2d bf 25 b5 2b 3f 71 44 9f be 7e 00 7a be
       -0.6795233 0.6707328 -0.31106904 -0.2441425
0000a0 e1 fc 90 3f 7b b2 d4 3f f6 65 57 bf be db 39 c0
       1.1327173 1.6616968 -0.84139955 -2.904037
0000b0 2a 23 58 40 f2 21 13 bf d9 cd 15 40 0c 68 bf be
       3.3771462 -0.5747367 2.340689 -0.3738407
0000c0 bc a4 10 40 99 d7 09 bf 30 9b 06 be fe de 3c 40
       2.2600546 -0.538446 -0.13145137 2.9511104
0000d0 8f 6d f4 be 4b 4f a5 3f 81 3b a8 bd 3f 77 b5 3e
       -0.47739837 1.2914823 -0.082144745 0.3544254
0000e0 7d d7 18 bf f5 c3 e9 3f 35 fd 22 bf 3d f4 66 bf
       -0.5970381 1.8262926 -0.63667613 -0.9021643
0000f0 dd ed d9 3f 44 02 86 bf 1d 30 2a bf 5c c4 3e bf
       1.7025715 -1.0469441 -0.66479665 -0.7451837
000100 1e 7f 5e bf 08 6e 12 bf 91 2c 60 c0 64 c3 97 bf
       -0.86912715 -0.57199144 -3.50272 -1.1856503
000110 9d 2a 2c bf 5f 48 44 3d bb 1a d2 be 5b 19 93 be
       -0.6725252 0.04792058 -0.4103602 -0.28730282
000120 9b d8 0f bf 72 82 bb 3d 8c 19 47 40 d0 c6 84 be
       -0.5618989 0.0915574 3.1109343 -0.25932932
000130 df d0 cf be af cf fe be 71 6d 89 3e 36 08 68 3e
       -0.40589043 -0.49767825 0.2684131 0.22659382
000140 20 f1 8e 3d cc ac d5 bd 97 69 53 be d5 2d ca 3f
       0.06979585 -0.10433349 -0.20645748 1.5795237
000150 de e1 43 bf 6c 19 5c be a4 4e b4 bc 08 5f 52 bf
       -0.7651652 -0.21494073 -0.022010155 -0.82176256
000160 0a f5 51 3e 99 fd 7e bd f4 50 73 bd f9 45 11 40
       0.20503631 -0.06225357 -0.059403375 2.2698958
000170 f4 87 3c bf 56 93 69 bd 8c 09 d7 bc 4d a3 28 bf
       -0.7364495 -0.057025276 -0.02624967 -0.6587418
000180 ef 20 59 be 21 52 83 bf 03 ae 19 bf cc 3b 25 bf
       -0.2120397 -1.0259439 -0.60031146 -0.6454437
000190 65 88 42 bf 75 a4 d9 bd 43 63 1d bf 3f a8 27 bf
       -0.7598937 -0.10627071 -0.61479586 -0.654911
0001a0 30 1b 2f 40 69 a1 e9 bd 9e f2 1e be 59 44 fc be
       2.7360344 -0.1140774 -0.15522239 -0.49270895
0001b0 6f 76 22 c0 36 fd a0 3e b8 e4 25 bc f2 7f e3 bd
       -2.5384786 0.31443185 -0.010125332 -0.11108388
0001c0 8e 7b fc 3f 21 6f 04 bf 40 db ec be 80 29 d0 3f
       1.9725206 -0.5173207 -0.46261024 1.6262665
0001d0 ba e7 0c bf a0 a9 83 be d7 e2 e9 3e dd ab fd be
       -0.55041087 -0.2571535 0.45680878 -0.49545184
0001e0 3c 39 0b 40 4b a3 e9 be 3d bf 8b 3e 83 cb 42 40
       2.1753683 -0.45632395 0.2729434 3.0436714
0001f0 c3 15 d8 be 6b a7 bc be b9 22 1c 3f 51 41 11 bf
       -0.42204103 -0.3684648 0.6099048 -0.5674029
000200 4a 02 61 bf eb 6d 99 bf 3e ca b8 bb 63 ce 28 bf
       -0.8789412 -1.1986669 -0.0056393435 -0.6593992
000210 e1 f7 87 be 38 a0 15 40 74 1c 23 bf 06 80 8e be
       -0.26556304 2.337904 -0.6371529 -0.2783205
000220 ef 78 02 bf 09 a8 b0 3f 84 0a b6 bd 08 13 95 3e
       -0.5096578 1.380128 -0.088887244 0.29116082
000230 45 0a 04 40 5e 39 94 bf 12 d0 1b c0 75 69 a4 be
       2.0631268 -1.1580007 -2.4345746 -0.32111707
000240 5b 5e f3 3f 18 44 3e bf 74 2d 6d 3e 0e a5 3d bf
       1.901317 -0.7432265 0.2316187 -0.7407998
000250 50 3c 54 bf e4 6b 89 bf 03 1b fe 3e fc 27 88 be
       -0.8290453 -1.0736051 0.49629983 -0.26593006
000260 5e 2d 9c be 35 4f 00 bf fc d7 49 be 26 e7 86 be
       -0.30503362 -0.5012086 -0.19711298 -0.26348227
000270 07 b3 e0 3f 6d 7e cc bf ad c0 ca be a7 48 4e 40
       1.7554635 -1.5976082 -0.39600125 3.2231843
000280 f4 78 bc be 63 7b 9c be d4 00 77 3d 9b 8f 5a bc
       -0.3681103 -0.30562887 0.060303524 -0.013339902
000290 21 15 9a bf fd 7e 23 40 18 b3 87 bf c6 c4 f1 bd
       -1.2037698 2.5546257 -1.060153 -0.1180511
0002a0 cd 28 23 bf e5 83 3c bf 94 c4 0e c0 48 72 0d be
       -0.6373413 -0.73638755 -2.2307482 -0.13813126
0002b0 70 f1 7b be ce a0 87 3e 58 0b 08 bd 81 1c 36 3d
       -0.2460382 0.26489872 -0.033213943 0.044460777
0002c0 8d b2 8e 3f 71 c6 ef 3e 9b 9d 4d 40 42 ff 33 bf
       1.1148239 0.46831086 3.2127445 -0.7031137
0002d0 05 ce db be 19 4a bf 3e 34 91 90 bf e5 0d 68 be
       -0.42930618 0.3736122 -1.1294312 -0.2266155
0002e0 92 3c 4b be 85 00 c5 3d 03 12 a0 be ac 5a 8e 3f
       -0.19847324 0.0961924 -0.31263742 1.1121421
0002f0 83 a9 56 bf ee 66 1f be 51 d7 35 bf 54 99 ec 3f
       -0.83852404 -0.15566608 -0.7103167 1.8484292
000300 ec a7 e7 3f 59 d0 e9 be d4 7d ed 3f 4b fd a2 3e
       1.8098121 -0.4566677 1.8554025 0.31833872
000310 1d 73 18 bf 5a 8b c2 be b8 a5 cd 3e 33 4b 94 bc
       -0.5955065 -0.37996942 0.40165496 -0.018102264

weight f4 [10, 200]
000000 82 3d db 3d 65 dd f9 bc 54 3e 80 3d 54 54 39 bd
       0.10705091 -0.030501077 0.06261888 -0.045246437
000010 fd 9f 6d bd a3 f4 d2 bd a7 ad 13 be 88 63 e5 bc
       -0.058013905 -0.10300567 -0.14421712 -0.028001562
000020 38 25 d3 bd 77 6e a4 bc ee 59 3b bc d9 57 a2 bd
       -0.10309833 -0.020072205 -0.011435015 -0.07926912
000030 b3 b3 cd bd fc e5 7c bc 6d c6 1a bd 83 20 08 be
       -0.100440405 -0.015435692 -0.03778689 -0.13293652
000040 d8 f1 f3 bd e5 6d 21 bd 9f 82 e1 bd 75 3d 07 bd
       -0.119113624 -0.039411444 -0.11011242 -0.033017594
000050 f1 48 e0 bd 2a d0 e6 bd 83 c4 b5 bd e4 53 87 bd
       -0.109514125 -0.11270173 -0.08875372 -0.06607798
000060 c2 8e 98 bd a9 24 48 bd 8c 7b 92 bc 95 c0 91 bc
       -0.07449104 -0.048863087 -0.017881177 -0.017792026
000070 98 fc 0f 3d 97 4c 25 3d 0d e1 e9 bc 6f 1d 11 be
       0.035153 0.040356245 -0.028549695 -0.14171384
000080 0a ac 86 bd fa 46 0b be 5d e7 02 bc d0 8c 04 be
       -0.065757826 -0.13601294 -0.007989732 -0.1294434
000090 e1 d6 23 bd bc 6f 25 bd 99 cc 0a bd 42 1e 3f bd
       -0.039999846 -0.04038976 -0.033886526 -0.046659715
0000a0 35 4c 3b bd c1 11 36 bd 74 1f 8a bd 54 99 09 be
       -0.045726974 -0.044450525 -0.067442805 -0.13437396
0000b0 64 5d 5f bd 28 6f 91 bd e4 97 97 bd ad 5f 69 bd
       -0.054532424 -0.071012795 -0.07402018 -0.05697601
0000c0 33 a7 ba bd f2 8c 04 be f5 17 da bd 90 86 96 bd
       -0.09113922 -0.12944391 -0.10649101 -0.073498845
0000d0 62 8c e8 bc c6 6b 46 bd 33 ea dd bd 30 e6 90 bd
       -0.028387252 -0.048442625 -0.108356856 -0.07075155
0000e0 62 56 66 bd 89 dc 8f b9 9d 7f a6 bd f7 da a3 bd
       -0.056234725 -0.00027439397 -0.08129809 -0.080007486
0000f0 2f b4 89 bd a0 a1 35 3c b1 65 71 bd f8 9d db bc
       -0.067238204 0.011085898 -0.05893487 -0.026808724
000100 8b be e5 bd b8 b6 c4 bd 6e d8 01 bd 1c 66 1a bd
       -0.11217984 -0.09605163 -0.031700544 -0.037695035
000110 5f 72 06 be 10 23 9b 3c 27 32 99 bd 77 ec 0c be
       -0.13129567 0.018937618 -0.07480269 -0.13762079
000120 6d cc a2 bc ea e6 9c bd 50 21 df bd 34 a9 a2 bd
       -0.019872868 -0.07661231 -0.10895026 -0.07942429
000130 00 1a cc bc c9 36 ca 3c e4 1d ea bd 04 cc cc bd
       -0.024914742 0.024684327 -0.114314824 -0.099998504
000140 f8 b9 5f ba 06 c3 78 3d 5f d3 95 bd ba 77 90 bd
       -0.00085344864 0.060732864 -0.073157065 -0.07054086
000150 e6 27 82 bd 95 6d cb bc 8e ba 9f bd 4d f9 89 bd
       -0.06355266 -0.024832526 -0.07799254 -0.067370035
000160 ca 00 13 bd d7 a1 82 3c 2e 9b ea bd e0 95 13 bc
       -0.035889424 0.015946312 -0.114553794 -0.009007901
000170 d2 d6 da bd 44 7d a2 bd 79 0b 0b be 4e 99 17 bd
       -0.10685505 -0.07934049 -0.13578595 -0.037011437
000180 86 3b ca bd 6d 62 a5 bd a6 28 eb bd 3e 6d ee bd
       -0.098746344 -0.08075414 -0.114823624 -0.1164193
000190 44 e2 9f bd f2 5f dd bc 0f 33 2f bc b8 83 9b bc
       -0.078068286 -0.02702329 -0.010693326 -0.018983707
0001a0 d0 6a 8e bc cc ab f3 bd 63 0b bf bd e8 3b 37 bd
       -0.017384917 -0.11898002 -0.09328344 -0.044734865
0001b0 43 6c 9e bd 5d 5f ea bd ce 39 8d bd 04 6d 1f bd
       -0.07735493 -0.1144397 -0.06895791 -0.038922325
0001c0 55 13 e6 bd 3f 13 e4 bd 9b 4c 26 bd 21 c8 18 be
       -0.11234156 -0.111364834 -0.0406004 -0.14920093
0001d0 71 a1 79 bd f8 5b b1 bd dd 9a 00 be f3 fe 39 bd
       -0.06094498 -0.0866012 -0.12559076 -0.045409154
0001e0 cb 91 09 be fb 03 c2 bd 9c cd 9a bd ab 36 17 be
       -0.13434522 -0.094734155 -0.07558748 -0.14766948
0001f0 3e 40 86 bc 50 7b 43 bd 6d 9a 0d be 9f 83 fc bb
       -0.016388055 -0.04772502 -0.1382844 -0.00770612
000200 7e 39 bf bc 06 7a 4c 3d a5 bd a0 bd c6 26 3c 3d
       -0.023342844 0.049921058 -0.07848672 0.045935415
000210 6c ba 06 be 7e 18 6e bb 68 ce 0c be d1 d2 da bd
       -0.13157052 -0.0036330516 -0.13750613 -0.10684741
000220 d9 61 93 bd a2 7c ba bd 95 87 b3 bd 1f 81 09 be
       -0.07196397 -0.09105803 -0.087660946 -0.13428162
000230 76 08 43 3d e8 b8 fe ba 29 52 ec 3c f7 b6 97 bd
       0.04761549 -0.0019433768 0.02884777 -0.07407945
000240 6b 1d cc 3a 11 70 b8 bc 75 37 46 bd 37 29 cb bd
       0.0015572732 -0.022514375 -0.04839273 -0.099199705
000250 90 2f be bd bb f1 3f bd 1f de 0d bd 91 9a 75 bd
       -0.092864156 -0.04686139 -0.03463566 -0.05996186
000260 1e e2 b3 bd 1d 1a 4a bd 88 0c 9e bd d8 c4 06 be
       -0.08783363 -0.04934131 -0.07717234 -0.13161027
000270 12 5a 77 ba 6e 99 f9 bc ba b2 04 bc 79 98 b5 3c
       -0.0009435724 -0.030468669 -0.008099252 0.022167431
000280 7a a9 3f bd 4b 80 c9 bb 45 53 61 bd cf 85 b4 bc
       -0.046792485 -0.006149327 -0.055011053 -0.022036461
000290 8a 2f f6 3b c9 36 9f bd 66 a8 ec bc a0 bc 0b be
       0.0075129913 -0.07774121 -0.028888892 -0.13646173
0002a0 48 1e 7e bd f6 36 a4 bd 10 f3 8a bd e7 7e 99 bd
       -0.062040597 -0.080182955 -0.06784642 -0.07494908
0002b0 30 58 18 bc f9 5e f4 bd 25 3a 90 bd c0 8e a2 3d
       -0.009298369 -0.11932177 -0.0704234 0.07937384
0002c0 d3 3f c8 bd 2b e6 a2 bc 35 5f ab 3c 7c fe ad bd
       -0.097777985 -0.019885143 0.020919422 -0.08495805
0002d0 9f f2 cf bd ad 48 3b bd dd 14 b9 bc ae 80 05 be
       -0.10153698 -0.045723606 -0.022592956 -0.13037369
0002e0 c3 86 9d bd a5 96 fa bd ef a9 3d bd 28 2b dc bd
       -0.076917194 -0.122357644 -0.04630464 -0.10750419
0002f0 b2 7c 76 bd 36 2d bd bc 1c eb b6 3c 68 e8 4e bc
       -0.060177512 -0.023092847 0.022328906 -0.012628652
000300 d8 a1 51 bd 75 51 61 bd 56 1e 86 bd 02 fc 0d be
       -0.051179737 -0.055009324 -0.06548755 -0.13865665
000310 00 e8 63 bc 6e 6f 9f 3d 35 3f 5d bd 70 a8 60 3c
       -0.013910294 0.077849254 -0.054015357 0.013712034
000320 f9 ac 20 bd 80 b0 10 bd 96 44 e3 bc 02 74 ae bd
       -0.03922746 -0.035324574 -0.027742665 -0.085182205
000330 e3 8c 06 bd 34 0e 05 bd 12 e6 be bc 7d 37 dc 3c
       -0.032849204 -0.03248425 -0.023303065 0.026881928
000340 9c dd d1 bc 8f 41 bb bb dd 70 0f be 1b d7 ba 3c
       -0.025618367 -0.0057146023 -0.14007898 0.022807648
000350 15 fa f9 bd a5 d6 92 bd 18 e4 20 bc 9f 6b b5 bc
       -0.122059025 -0.071698464 -0.009820007 -0.022146044
000360 52 bc a8 3c 3c 49 b9 bc a2 cc a4 3c 1d 1f ed 3c
       0.02059761 -0.022617929 0.020117108 0.0289455
000370 fd b0 7f 3d 6a 2f 7b bd bd 1a 17 3c 27 00 38 bd
       0.06242465 -0.061324514 0.0092226835 -0.04492202
000380 18 db be bd 01 a5 94 bc ea 21 e4 bc 7f fc e1 bd
       -0.093191326 -0.018145086 -0.027848203 -0.11034488
000390 af 35 2a bd 5c 18 71 bd 6c d8 fe bd 5b cb cc 3c
       -0.041555103 -0.05886112 -0.12443623 0.024999311
0003a0 1a 3c dc 3c 22 5c e0 bd 1d be 48 3c 4f fc 08 be
       0.026884127 -0.10955073 0.012252358 -0.13377498
0003b0 d9 78 ef 3b d0 45 f7 bd 9c 02 9d bb c4 c0 1b bd
       0.0073081073 -0.120738626 -0.004791571 -0.038025633
0003c0 27 16 19 bd 50 6c b4 bd 9c 8b c2 3c 63 f1 08 bc
       -0.03737464 -0.088097215 0.023748212 -0.008358332
0003d0 9f 00 0f 3c 93 12 83 bd 5c c9 99 bd d6 6f 02 bd
       0.008728175 -0.06400027 -0.075091094 -0.031844936
0003e0 6f 93 e1 bc 63 b7 08 bd 50 49 74 bc 4f 4f 8f bd
       -0.027536122 -0.033378016 -0.014910057 -0.06997549
0003f0 29 44 c7 bd 93 48 1f bd 01 09 c1 bd c4 85 71 bd
       -0.097297974 -0.03888757 -0.094255455 -0.05896546

bias f4 [10]
000000 58 24 d2 bc 9b 7c 43 bd 91 34 09 be 7b 0e 36 bf
       -0.025652096 -0.047726255 -0.13398959 -0.71115845
000010 bb 33 d6 bd 07 5c 74 bc 3e f1 b3 3a 11 ce 5c bf
       -0.104590856 -0.014914519 0.0013728512 -0.8625193
000020 4a 0b c6 bf 3a a8 3b 3c
       -1.5472195 0.011453683

weight f4 [1, 10]
000000 df 9a ff 3d c0 11 0b be 70 03 ea 3d 38 62 17 be
       0.12480711 -0.1358099 0.11426437 -0.14783561
000010 c8 16 57 be 3e c1 cf bd 3f 5a b6 3d d7 ed c6 3d
       -0.21004784 -0.1014428 0.08903932 0.09713333
000020 01 59 4d 3e 44 8f 73 be
       0.20053484 -0.2378512
