Gibbs_MINE/model_ori6000.pth (torch, 4183 bytes, 5 tensors)

weight f4 [32, 6]
0	0x3f2b08da	0.6681038
1	0xbe477aa1	-0.19480373
2	0x3ebe17c6	0.37127513
3	0x3edb2833	0.42804107
4	0xbb507da3	-0.0031813167
5	0xbf55b2bb	-0.83475846
6	0xbdf32247	-0.11871772
7	0xbd660ff9	-0.056167576
8	0xbe1ce4d4	-0.15321666
9	0x3ab35a20	0.0013683476
10	0xbe77d3d0	-0.24201894
11	0x3ef64f95	0.4810759
12	0xbdfdbeb4	-0.12389889
13	0xbb4e9e23	-0.0031527362
14	0x3d4c7c91	0.049923483
15	0xbdb05cb7	-0.08611434
16	0x3e108cd9	0.14116229
17	0x3e3f7d39	0.18700112
18	0x3df4c199	0.11950988
19	0xbda1cc8f	-0.079003446
20	0x3ef0c6eb	0.47026762
21	0xbecb0db0	-0.3965888
22	0x3f231cc0	0.63715744
23	0xbfd1a6be	-1.6379011
24	0xbe05bb04	-0.13059622
25	0xbdc23c79	-0.094841905
26	0x3d8cfb97	0.068839245
27	0x3e85d53e	0.26139253
28	0x3dc2ab5e	0.09505342
29	0xbf8f6568	-1.1202822
30	0xbeda61f6	-0.42652863
31	0x3e54c18a	0.20776954
32	0x3e2b75b4	0.16744119
33	0xbe657f7a	-0.2241191
34	0x3eea3bb2	0.4574867
35	0xbf84a485	-1.0362707
36	0x3f98573c	1.1901622
37	0xbe769bc8	-0.24082863
38	0x3ebe5b11	0.37178853
39	0xbf3ef34a	-0.7458998
40	0xbc8a7c32	-0.016904924
41	0xbf413dc5	-0.7548488
42	0x3f0b2c82	0.5436479
43	0xbee01954	-0.43769324
44	0xbec525b6	-0.38505334
45	0x3e7df646	0.24800977
46	0xbf411106	-0.754166
47	0x3fc98cf7	1.5746144
48	0x3f91474d	1.1349884
49	0xbe626dd7	-0.22112213
50	0x3ede3200	0.43397522
51	0xbf3abb47	-0.7294201
52	0x3d9b385d	0.0757911
53	0xbf73e140	-0.9526558
54	0x3f5eda11	0.8705149
55	0xbc21e83c	-0.009882029
56	0x3eee2729	0.46514252
57	0x3da6fb3a	0.081533864
58	0x3d3ddbf4	0.04635234
59	0xbf8f7fce	-1.1210878
60	0xbe5d1d41	-0.2159319
61	0x3e9d1507	0.30680105
62	0x3edc163d	0.42985716
63	0xbf464218	-0.774446
64	0x3f63bc39	0.8895908
65	0xbf9d4e69	-1.2289554
66	0x3db4f1fb	0.088352166
67	0xbedafa8f	-0.42769286
68	0xbe31dbd0	-0.17369008
69	0x3f22662d	0.6343716
70	0xbdbf9f90	-0.09356606
71	0x3f963542	1.1735003
72	0xbeccc1ee	-0.39991707
73	0x3e0cbd54	0.13744098
74	0x3dd3f2eb	0.10349067
75	0xbd38b706	-0.04509642
76	0x3e8e8cc8	0.27841783
77	0xbf4856c1	-0.78257376
78	0x3d96bad8	0.07359856
79	0x3d1ee839	0.038795684
80	0xbdfb5157	-0.12271374
81	0xbe9292fe	-0.2862777
82	0xbefe8d76	-0.497173
83	0x3eb87854	0.36029303
84	0xbf2938fe	-0.6610259
85	0x3ef745c4	0.48295414
86	0x3ea57094	0.32312453
87	0xbf1a16a3	-0.6019079
88	0x3f0f4b70	0.55974483
89	0xbfae4962	-1.3616145
90	0x3f14127d	0.5784071
91	0xbdd4e325	-0.10394887
92	0x3e1c8574	0.15285283
93	0xbf3b02a9	-0.73050934
94	0x3e97ca73	0.29646644
95	0xbfbfd006	-1.4985359
96	0xba9d8ee6	-0.0012020736
97	0x3d2e5b50	0.04256755
98	0x3df8211a	0.121156886
99	0xbdfa590c	-0.122240156
100	0xbd875279	-0.06607527
101	0x3f960ead	1.1723229
102	0x3e1b4752	0.15163925
103	0xbd6d62d1	-0.057955567
104	0xbd2a6e0d	-0.04160886
105	0xbd6b7fab	-0.0574948
106	0xbea0b000	-0.31384277
107	0x3f8cad24	1.0990338
108	0x3d10b466	0.03532829
109	0x3e584c0e	0.21122763
110	0xbe3b842f	-0.18312143
111	0xbe89ca1f	-0.2691202
112	0xbe1c593f	-0.1526842
113	0x3f30eee3	0.6911451
114	0x3e30e858	0.17276132
115	0xbdbc601c	-0.09198019
116	0xbdff33ba	-0.12461038
117	0xbe984db8	-0.29746795
118	0xbe71a9e1	-0.2359996
119	0x3fbd7615	1.4801661
120	0xbcbfd2c1	-0.023415925
121	0xbe228d27	-0.15874158
122	0xbe4d1f2f	-0.20031427
123	0x3e978fd3	0.29601917
124	0xbe15dc0e	-0.14634725
125	0x3f84c68e	1.0373094
126	0xbd7d3bba	-0.061824538
127	0x3ebcc6a1	0.36870292
128	0x3ea6df9c	0.32592475
129	0xbf1e58cf	-0.6185426
130	0x3c8e157c	0.017344229
131	0xbfa3cb06	-1.2796333
132	0x3d5a5eaa	0.053312935
133	0x3e945bd8	0.2897632
134	0x3e8d91d1	0.27650312
135	0xbe68e78b	-0.22744577
136	0x3f031555	0.51204425
137	0xbf0c8eb2	-0.54905236
138	0xbf9ed5c4	-1.2408986
139	0x3eb55f50	0.3542428
140	0x3ebaa8db	0.36456951
141	0x3e957f39	0.29198626
142	0x3f7b7b33	0.9823486
143	0xbfdf193c	-1.7429576
144	0xbd854235	-0.065067686
145	0x3e735be0	0.23765516
146	0x3e0b516e	0.13605282
147	0xbc34e8bd	-0.011041817
148	0xbc143197	-0.009045026
149	0xbf250437	-0.64459556
150	0xbd51d96a	-0.051232733
151	0x3d37eb4c	0.04490213
152	0x3e95ba98	0.29243922
153	0x3d649002	0.0558014
154	0x3f07def1	0.53074557
155	0xbf0d0ee3	-0.5510084
156	0xbf3b13f3	-0.73077315
157	0xbe377361	-0.17915107
158	0x3d92f14e	0.071749315
159	0x3f006940	0.501606
160	0x3f0c42fb	0.54789704
161	0xbf90b5f8	-1.1305532
162	0xbe8564c8	-0.26053452
163	0x3d985964	0.07438925
164	0xbee8b8c4	-0.45453465
165	0x3db97e49	0.0905729
166	0xbf4c2494	-0.79743314
167	0x3f8f6a22	1.1204264
168	0xbea5d698	-0.32390285
169	0xbe059d8e	-0.13048384
170	0xbf089db7	-0.53365654
171	0x3e33872a	0.1753203
172	0xbf5c1b07	-0.8597874
173	0x3fe08932	1.7541869
174	0x3f81e53f	1.0148085
175	0xbefe1114	-0.49622405
176	0xbec759b2	-0.3893562
177	0xbebbefe3	-0.36706457
178	0xbf3eb22d	-0.74490625
179	0x3fb76d39	1.4330207
180	0x3f04dc53	0.5189869
181	0xbe6f6c57	-0.23381172
182	0x3e8c81cc	0.27442777
183	0xbf0d9274	-0.55301595
184	0x3ee910ea	0.45520717
185	0xbfc9b448	-1.5758142
186	0x3d12c3aa	0.03583113
187	0x3e34e1bc	0.17664236
188	0x3edb1f06	0.42797107
189	0xbf3f9d61	-0.74849516
190	0x3f0e4675	0.5557626
191	0xbfac8f54	-1.348124

bias f4 [32]
0	0x3f910d30	1.133215
1	0xbf48ba85	-0.78409606
2	0x3f0a0e99	0.53928524
3	0xbe2244e8	-0.15846598
4	0x3f21c25d	0.631872
5	0xbe04ecc8	-0.1298095
6	0x3f47d8c9	0.7806516
7	0xbf2339c6	-0.6376003
8	0xbea795db	-0.32731518
9	0xbdd42c0d	-0.103599645
10	0x3f2572bf	0.64628214
11	0xbdc8699e	-0.0978577
12	0xbf87ddd0	-1.0614567
13	0xbebe2358	-0.3713634
14	0xbe285a52	-0.16440704
15	0xbee15d3d	-0.44016448
16	0x3f4e83e1	0.8066998
17	0xbf71a501	-0.943924
18	0xbd483b59	-0.048884723
19	0xbdf4d7f4	-0.11955252
20	0xbf018eb8	-0.50608397
21	0xbf24eb2f	-0.6442136
22	0xbe9289ed	-0.28620854
23	0x3ebbf9dd	0.36714068
24	0x3f9e7a96	1.238116
25	0xbf8a057c	-1.0782924
26	0xbf06f5aa	-0.52718604
27	0xbf656949	-0.8961378
28	0x3e47397d	0.19455524
29	0xbe277012	-0.16351345
30	0x3e0462f4	0.12928373
31	0xbeba7d66	-0.36423796

weight f4 [32, 4]
0	0xbd55c0ba	-0.05218575
1	0x3d8d2356	0.068915054
2	0x3ec2beaf	0.38036105
3	0xc0157500	-2.335266
4	0x3fd52449	1.6651698
5	0xbe1d0286	-0.15332994
6	0xbff7de5b	-1.9364733
7	0x3e5de40d	0.21669026
8	0xbfb90feb	-1.4457983
9	0x3f8408b2	1.0315154
10	0x3fe3dfd7	1.7802685
11	0xbe96c146	-0.2944433
12	0xbfac09c9	-1.3440486
13	0x3e39e419	0.18153419
14	0x3fc3248f	1.5245532
15	0x3fd4105a	1.656749
16	0xc01b2d77	-2.42465
17	0x3e15d757	0.14632927
18	0x3f64a735	0.8931764
19	0xbfbca3cb	-1.4737486
20	0xbf2da147	-0.67824215
21	0x3ce5345f	0.027979074
22	0x3ff9f40d	1.9527603
23	0x3fd508cb	1.6643308
24	0xbf1e0360	-0.617239
25	0x3e46af55	0.19402821
26	0x4030c10e	2.7617831
27	0xbee73b52	-0.45162445
28	0xbf53b66f	-0.82700247
29	0x3f4422a3	0.7661535
30	0x401d543d	2.4582665
31	0x402083d9	2.5080473
32	0x3f159963	0.58437175
33	0x3f55e973	0.8355934
34	0xbed7e71a	-0.42168504
35	0x3f9af138	1.2104864
36	0x3f6bdba5	0.92132026
37	0x3f085d69	0.5326753
38	0x4030a80f	2.7602575
39	0x3fbc6a16	1.4719875
40	0xc03243b3	-2.785382
41	0x3eead7d6	0.45867795
42	0xbfb72a8e	-1.4309862
43	0xbfefa753	-1.8722938
44	0x3eaa26fb	0.33232865
45	0xc032a6ec	-2.791438
46	0xbffbd5c7	-1.9674615
47	0x3f8aa85a	1.0832627
48	0x3facdffd	1.3505856
49	0xbdc096c1	-0.09403754
50	0xc009fa5a	-2.1559052
51	0xbea7982d	-0.32733288
52	0xbdbde222	-0.09271647
53	0x400fcd6f	2.2469137
54	0xbd8ffcb6	-0.07030623
55	0xbdf1f17b	-0.11813637
56	0x3f5d5eb4	0.8647263
57	0x3f0963b4	0.5366776
58	0xbfa9f231	-1.3277036
59	0x3fd6f36a	1.6793034
60	0x3faf55b8	1.3698034
61	0xbdfe1f0c	-0.124082655
62	0x3ff9c8b9	1.9514381
63	0x3e0a5060	0.13507223
64	0xc03c4078	-2.9414349
65	0xbf4f0690	-0.8086939
66	0xbf125df5	-0.5717462
67	0xbfe28bfd	-1.7698971
68	0x400583f0	2.0861778
69	0xbf77727d	-0.9665907
70	0xbfa8f85d	-1.3200794
71	0x3ee6b829	0.45062378
72	0xbfb0d32d	-1.3814446
73	0x3f8937fe	1.0720212
74	0xbeff6899	-0.4988449
75	0xc0017e57	-2.0233362
76	0xc0096ab5	-2.1471379
77	0x3fbad324	1.4595685
78	0x3f8732ab	1.0562338
79	0x3f82d1fc	1.0220332
80	0xbf38aa19	-0.7213455
81	0x3fc1d346	1.51426
82	0x3f211dd5	0.62936145
83	0x3f4aa381	0.7915574
84	0xbe984982	-0.29743582
85	0x40249259	2.5714324
86	0xbefd4a11	-0.4947057
87	0x3f666922	0.9000417
88	0x3f28f716	0.66002023
89	0x3f1a4305	0.60258514
90	0x3fc7778b	1.5583357
91	0x3ff15d7d	1.8856655
92	0xbf930f9d	-1.148914
93	0x3e2880b8	0.16455352
94	0xbffa1042	-1.9536211
95	0x3f94b3c7	1.1617364
96	0xbf977fdb	-1.1835893
97	0xbf759bbb	-0.9594075
98	0x3f07399a	0.5282227
99	0x3f883b94	1.0643182
100	0x3f8407e7	1.0314912
101	0x3fde5566	1.7369812
102	0x3e77ff85	0.24218567
103	0x3d0e62a8	0.034762055
104	0x3f04ceae	0.5187787
105	0xbda1ef5d	-0.07906983
106	0xbfe7830c	-1.8086867
107	0x4008a4cc	2.1350584
108	0x3f1d4725	0.6143668
109	0x3f423029	0.75854737
110	0xc0076352	-2.115437
111	0xbffbdef2	-1.9677413
112	0xbfb84ac8	-1.4397821
113	0xbf7e59dc	-0.99355865
114	0x3e63ccd6	0.22246107
115	0x3f5072d6	0.81425226
116	0xbf3a0481	-0.7266312
117	0xbf6e220f	-0.9302072
118	0xc039df40	-2.904251
119	0xbc9f6a8c	-0.019459985
120	0xbfc5fa3d	-1.5466992
121	0xbe481570	-0.19539428
122	0xc03f899c	-2.992774
123	0xbf4eafd9	-0.8073707
124	0x3f9d4409	1.2286388
125	0xbffeeb2f	-1.9915522
126	0xbfccdb12	-1.6004355
127	0x3f1274e1	0.57209593

bias f4 [32]
0	0x3f652c3b	0.89520615
1	0xbf4dd1cf	-0.8039827
2	0x3f4d69a9	0.8023935
3	0xbe781482	-0.24226573
4	0x3ed4f2d3	0.4159151
5	0xbeb8136d	-0.3595232
6	0x3f3efb05	0.74601775
7	0xbf3e367a	-0.74301875
8	0xbe5bf956	-0.21481833
9	0x3f24501d	0.64184743
10	0x3f5f047d	0.87116224
11	0xbf2107d5	-0.62902576
12	0xbeef6e28	-0.4676373
13	0xbebff070	-0.37488127
14	0xbf1d8a99	-0.6153961
15	0xbf941f5c	-1.157207
16	0x3f3ccde7	0.7375168
17	0xbf6ebb73	-0.93254775
18	0x3e35c959	0.1775259
19	0xbe0c73ff	-0.13716124
20	0xbf46a94d	-0.7760208
21	0xbc983956	-0.018582027
22	0xbe5a2fac	-0.21307248
23	0x3f5b4d6a	0.85665
24	0x3f2c5bde	0.6732768
25	0xbfc1077e	-1.5080411
26	0xbce96222	-0.028489176
27	0xbf5df8e3	-0.86707896
28	0xbe7faeb1	-0.24968983
29	0xbe81eee9	-0.25377586
30	0x3e6ac07a	0.22924986
31	0xbeb9bf72	-0.36278874

weight f4 [1, 32]
0	0x3fa44259	1.2832748
1	0xc019b8e3	-2.4019096
2	0x3fa23197	1.2671384
3	0x4017d693	2.3724716
4	0xc007320c	-2.1124296
5	0xc0318456	-2.7737021
6	0xbf7716e0	-0.9651928
7	0xbfe44917	-1.7834805
8	0x3f59790c	0.8495033
9	0xbf832a3c	-1.0247264
10	0x3fb9cb18	1.4515104
11	0xc00534f2	-2.0813565
12	0x4030fb69	2.7653449
13	0x3fcb63ae	1.5889795
14	0x3f8e6f3b	1.1127695
15	0x3f84681f	1.0344275
16	0xc01b9846	-2.431169
17	0x3ffcaf74	1.9741044
18	0xc022d981	-2.5445254
19	0xbfd2f393	-1.6480583
20	0x40196c4c	2.397235
21	0xbfaf5282	-1.3697054
22	0x3f4ead63	0.8073332
23	0xbfaaf8d7	-1.335719
24	0x3fd93b08	1.697114
25	0xc01c9025	-2.446298
26	0x3f76e9c0	0.96450424
27	0xbfd06916	-1.628207
28	0x3fb3e28d	1.4053513
29	0x3fb48d78	1.4105673
30	0xbfc5cebc	-1.5453715
31	0xbfee5ebc	-1.8622661
