Gibbs_MINE/pw_result_trained_twice/model_lk_b=10_s=0.5_p=20_[2].pth (torch, 197823 bytes, 5 tensors)

weight f4 [400, 20]
000000 90 d3 68 be 24 1b 6f 3e e7 a4 b5 3e 56 10 7a bd
       -0.22736955 0.23350197 0.35477373 -0.061050735
000010 f8 e4 28 3d 4c ba e4 3e fc c0 d6 bd 23 15 4e be
       0.041233987 0.44673383 -0.104860276 -0.2012525
000020 10 9e 0a be bb 33 04 bf 5f f7 4e 3e 3b df 25 be
       -0.13536859 -0.51641434 0.20211552 -0.16198437
000030 cb 2c 01 3e 0c 66 77 3d e1 75 59 bd 0c 33 ea bd
       0.12614743 0.060400054 -0.053090934 -0.11435518
000040 de 0e 8a 3e be 47 d9 bd f5 36 fb be 97 43 26 be
       0.26964468 -0.10609387 -0.49065366 -0.16236721
000050 b5 0b 2b be df 30 ef 3c df a2 53 3e 2a 4b ae 3b
       -0.16703685 0.029198108 0.20667599 0.005319019
000060 6a 11 c5 be fd 93 7f 3e b2 72 c9 3e c6 87 dc be
       -0.38489848 0.24958797 0.39345318 -0.43072337
000070 00 21 c6 3e 33 33 bc be 79 49 74 3e 45 06 66 3e
       0.38697052 -0.36757812 0.23856153 0.22463329
000080 85 b2 6f 3d 61 55 4c 3e 03 ff a8 3e ae b5 d7 bd
       0.05851986 0.19954444 0.33007059 -0.105326995
000090 12 25 f5 3c 22 a3 20 3d 35 28 23 3c d2 26 83 be
       0.029924903 0.039218076 0.009958317 -0.25615555
0000a0 2c 38 82 3d de 3e 8f 3e fb 79 10 3e f8 c1 ad 3d
       0.0635837 0.2797765 0.14109032 0.08484262
0000b0 4d 45 a2 be 54 a5 96 be 65 68 01 3f 37 58 97 be
       -0.31693497 -0.2942301 0.5054992 -0.2955949
0000c0 bc 62 3f 3e ad bf 96 3d ee 52 72 3e aa be 61 3d
       0.18690008 0.07360778 0.23664448 0.055113472
0000d0 fa e3 e1 3c 0e 62 84 3e 33 74 80 3e 3f 44 c7 bd
       0.027574528 0.2585606 0.25088653 -0.09729814
0000e0 05 e4 07 3e a6 e7 93 3d 5b f5 83 be 94 ff b8 3d
       0.13270576 0.07221918 -0.2577313 0.09033123
0000f0 9f 8d 0e bd 01 4b 39 be ce 43 bd 3d be b1 3a be
       -0.03480303 -0.18095018 0.09241448 -0.18231866
000100 bd 64 3b 3e 35 47 17 be 14 ad 2d 3e 63 43 07 be
       0.18300147 -0.14773257 0.16960555 -0.132093
000110 d6 95 c2 3d a3 5e 9d bb f2 dc 98 3c 1b 49 9a 3e
       0.09501235 -0.0048025413 0.018660042 0.301339
000120 d9 5a bc 3e 15 0e 04 3e 98 db c5 bd 8a b7 8a 3d
       0.3678806 0.12895997 -0.09661025 0.067732885
000130 1e 8a 16 3e 64 8b cd bd 60 15 b1 3e cd c9 da be
       0.14701125 -0.10036352 0.3458662 -0.42732087
000140 60 5d 7d 3e ba a8 97 bc c0 7c 7f be c7 8f 5e bd
       0.24742651 -0.018513072 -0.24949932 -0.054336336
000150 fc 09 0d be f8 56 50 bd c0 b7 90 3e a9 17 ad 3e
       -0.1377334 -0.05086419 0.2826519 0.33807114
000160 5d 8b 83 3e e5 56 a7 3e 47 91 27 3d 4a 4e e6 bd
       0.25692263 0.32683483 0.04091003 -0.11245401
000170 71 2a 1b 3e 3e fb 34 3d 30 9c 07 be ee 09 16 be
       0.15152909 0.044184916 -0.13243175 -0.14652225
000180 b6 32 27 bd 2a 74 b5 3e 7c 84 45 3e 9e 4a 98 3d
       -0.040819846 0.3544019 0.1928882 0.07436107
000190 44 cf d3 be 58 eb 14 be 69 bd 0e be d8 32 71 be
       -0.4136907 -0.14542902 -0.13939442 -0.23554552
0001a0 43 95 a7 3e cf b6 df 3d c0 36 24 be 90 a0 79 be
       0.32731065 0.1092354 -0.1603651 -0.24377656
0001b0 4b 2d 01 bc 21 12 07 3e 54 16 11 3e e9 09 a7 bd
       -0.007884334 0.1319051 0.14168674 -0.08156187
0001c0 1f 94 97 3e 97 81 9b bd be 5f d0 bd f4 dd bb 3e
       0.29605195 -0.07593077 -0.101745114 0.36692774
0001d0 a9 95 1d 3e dc a8 3b be 20 fd 1a 3c a4 e7 50 be
       0.15389122 -0.18326133 0.009459764 -0.20400864
0001e0 d5 a8 6c 3d 28 62 b9 3d cf 64 97 be e5 b8 2e be
       0.0577782 0.09051925 -0.29569098 -0.17062719
0001f0 91 e2 10 be 10 4d 9e be 6f 0b e1 3d cf 87 2d be
       -0.14148928 -0.3091817 0.10988509 -0.16946338
000200 94 22 83 3e d3 a8 01 3f 8b f0 88 be 24 6a 16 3c
       0.2561232 0.5064823 -0.2674602 0.009180579
000210 68 e6 6c 3e ef 1b 39 3e b6 7b 7d be 10 a8 40 be
       0.23134768 0.18077062 -0.24754223 -0.18814111
000220 6a 4a 02 bd c1 99 96 3e 6f 60 01 be 8d 9f 0a 3f
       -0.031809248 0.2941418 -0.12634443 0.54149705
000230 f9 c3 e4 3d 26 ad 44 3e 22 30 45 be ca d7 ef bd
       0.11170191 0.19206676 -0.19256642 -0.1171108
000240 f6 ca c2 be f6 df 2f 3e cc 87 0a be 59 50 e9 be
       -0.38045472 0.17175278 -0.13528365 -0.45569113
000250 db f7 a2 3c 60 40 6c bb 81 fa 03 3e 0d 86 f5 3b
       0.019893577 -0.0036049113 0.12888528 0.0074927867
000260 3e c8 34 be 36 0e c2 bc 1a 68 06 3e 6d db 08 3e
       -0.17654511 -0.023688417 0.13125649 0.13364954
000270 a6 30 c5 3e 34 1c bd bd 8f 65 4a 3e 46 bb 20 3d
       0.38513678 -0.09233895 0.19765304 0.039241098
000280 18 c3 68 be b5 99 6e 3d bc c1 7f 3e c0 49 24 3e
       -0.22730672 0.058252055 0.24976248 0.16043758
000290 29 4c 2d be af 46 d0 3d dc 9d f7 3d 62 6d 05 bd
       -0.16923584 0.10169732 0.12090656 -0.03257502
0002a0 75 8c 08 3e cd fb 05 bf 7d d7 76 3e 63 96 81 3d
       0.1333483 -0.5233734 0.2410564 0.06327512
0002b0 47 12 22 bd 58 6a c2 bd af 5c d1 3e cd ab cd 3e
       -0.039568212 -0.0949294 0.40891024 0.40170136
0002c0 89 57 31 bb 8a ea 3d bc 0b 20 a9 be ab 7c 97 be
       -0.0027060232 -0.011591563 -0.3303226 -0.29587302
0002d0 2e 03 87 3d ed 6b 95 3c 69 d6 a5 3d 87 04 95 3e
       0.06592403 0.01823994 0.08097536 0.29105017
0002e0 2e 1f 32 be b6 bd dd 3e 1a e1 05 3e 39 0d 93 3d
       -0.17394707 0.433088 0.1307415 0.071802564
0002f0 a7 b3 0b 3e b4 2a 9e be 62 4d f5 3e 81 06 31 3d
       0.1364275 -0.30891955 0.479106 0.043219093
000300 a3 0d 8c be ab 7c 33 3e 9a 5b 95 3e c8 43 08 3c
       -0.27354154 0.17528026 0.2917145 0.008316942
000310 bc 50 34 bd 82 df c0 3c e1 a4 4e be 0a 0c c1 be
       -0.044022307 0.023544077 -0.20180084 -0.37704498
000320 5c d3 4b b9 2c 3c 49 3e d4 c4 ef bd 39 5d 9b 3d
       -0.00019438326 0.1965186 -0.11707464 0.0758614
000330 7d 4a a2 be 11 f2 96 be 78 7a ba 3e 15 98 1b 3c
       -0.31697455 -0.29481557 0.3642156 0.009496708
000340 16 e0 3f 3e db 3f ed 3d ec 9b 4b 3e 35 77 1b 3d
       0.18737826 0.11584445 0.19883698 0.03795548
000350 f3 cc 9c 3e 08 6c b4 3e eb a6 65 bd 4b 84 e8 bd
       0.30625114 0.3523867 -0.05606739 -0.11353358
000360 87 1c 82 be 1e b5 e7 bd 13 2c 0d bd ce be a9 3d
       -0.2541239 -0.11313842 -0.03446586 0.08288346
000370 6c 1e 32 bd 76 8a b8 bd 99 f5 ae be 8c b9 e4 bd
       -0.043486044 -0.09010784 -0.3417175 -0.11168203
000380 6d b1 17 be a2 2d 00 3e 2c 8d c8 3c 11 0d f1 3d
       -0.14813776 0.12517408 0.024481378 0.1177007
000390 98 bf 8b bd e1 8f 02 bf 08 3c b3 3c 21 1f ce 3e
       -0.06823653 -0.5100079 0.021879211 0.40258124
0003a0 8e 0a bd bd e2 48 50 bd 9e 67 f9 3c 75 89 d6 bd
       -0.09230529 -0.050850756 0.030444916 -0.104754366
0003b0 16 d4 44 bb b3 59 88 be 1a 24 10 3d 75 65 b6 be
       -0.003003364 -0.26630935 0.03519068 -0.3562428
0003c0 c6 27 05 3e d3 1c 5b 3e 96 1a 09 3e 28 8e 82 3e
       0.13003454 0.21397714 0.13389048 0.25499082
0003d0 98 bb 4e be 9a 62 c8 bc 12 a7 53 be 79 a3 db 3d
       -0.20188749 -0.02446108 -0.20669201 0.10724539
0003e0 f6 62 81 be 05 33 62 3d be 4c 3e 3e 15 57 4e 3d
       -0.25270814 0.055224437 0.18583962 0.050376017
0003f0 31 d1 ec bd ca 14 a7 3d fa 2b cd bd 2a 47 56 be
       -0.115633376 0.08158262 -0.100181535 -0.20925584

bias f4 [400]
000000 84 43 4c be 90 4b 13 3e 0c a7 ca bd cd 4d 96 bd
       -0.1994763 0.14384294 -0.09895143 -0.07339058
000010 07 84 c1 be b0 70 12 3e ac 9b 83 be 27 d5 ca bc
       -0.3779604 0.143008 -0.25704706 -0.024759842
000020 c8 f5 84 bd e9 82 f5 bd bc 5c 4e be a3 3d 1f be
       -0.064921916 -0.1198786 -0.20152563 -0.15550856
000030 e4 fc 01 be ca f3 4e be f7 63 89 be ff 6f a3 be
       -0.12694126 -0.20210186 -0.2683408 -0.31921384
000040 c0 ed 2b be 09 33 97 be ce dd e5 be 7e c2 74 be
       -0.16789913 -0.29531124 -0.44895786 -0.23902318
000050 25 e1 69 be 00 2a 3f bd 0d ed c8 be c4 c8 28 be
       -0.22839792 -0.046670914 -0.39243355 -0.16482836
000060 4e ce aa be e6 99 ba be 3e 29 ce be da a1 17 be
       -0.33360523 -0.3644554 -0.4026584 -0.14807835
000070 81 bb 70 3d 09 df 81 be a6 5d 14 be 1b e6 0e be
       0.058772568 -0.25365475 -0.14488849 -0.13954966
000080 2f e7 ec bd d3 60 ee bc 9a 22 31 be 12 2e 58 bb
       -0.11567532 -0.029098904 -0.17298356 -0.0032986444
000090 87 38 51 be 1e bf af be cf bd 3d be 84 33 8f be
       -0.2043172 -0.34325498 -0.18529437 -0.2796899
0000a0 d5 e1 8a be f2 b0 91 be de 96 94 3b 80 ac ad be
       -0.2712542 -0.2845531 0.0045345863 -0.3392067
0000b0 42 cb 1e be b3 24 d7 be f2 35 bf be fe 99 55 bc
       -0.15507224 -0.42020187 -0.37345845 -0.013037203
0000c0 22 ad 1f be f3 57 6e bc 2d f7 4a 3d b9 cc 48 3e
       -0.15593389 -0.014547336 0.04955213 0.19609345
0000d0 fc ff 2a be 5d 2f 83 bd 4a df d9 be 05 67 4b be
       -0.16699213 -0.06405518 -0.4255317 -0.19863518
0000e0 3b 17 f1 bd d8 18 b9 be 8d 3a df be b5 61 51 be
       -0.11772009 -0.36151767 -0.43599358 -0.20447429
0000f0 0a b8 a1 bd 30 fc 03 be d7 da 65 3e d6 55 01 bf
       -0.07896431 -0.1288917 0.22446762 -0.505216
000100 78 97 27 be 7e 0c 37 be 60 ae 3b be e6 57 83 be
       -0.16366374 -0.17875859 -0.18328238 -0.25653
000110 3c 1c a1 be 60 e6 70 be d1 ba d2 be f7 ea c4 be
       -0.31466854 -0.23525381 -0.41158155 -0.38460514
000120 01 c5 d7 bd 5f 4e c8 be 1e 5d 45 be 9b 11 fd be
       -0.105356224 -0.39122292 -0.19273803 -0.49427494
000130 44 cd 06 bd 5d 94 a7 be 23 7f a3 be 07 8c d4 be
       -0.0329106 -0.3273038 -0.31932935 -0.41513082
000140 35 55 eb be bc 0c ec be f6 c1 c4 be 07 e4 00 be
       -0.45963445 -0.46103466 -0.3842923 -0.12586986
000150 75 00 fe be 93 a6 97 be fa d4 54 be fe 27 ae be
       -0.49609724 -0.29619274 -0.20784369 -0.34014887
000160 5b 64 99 be a3 bf ee be 8d 38 36 3d f2 44 f9 3b
       -0.29959378 -0.46630582 0.044487525 0.007607096
000170 d7 d2 94 be eb bf b6 be 9c d4 56 be c6 34 30 be
       -0.29067108 -0.35693297 -0.20979542 -0.17207631
000180 2f b0 a7 3d df a3 e2 be 15 08 aa be c5 6d e9 be
       0.08187901 -0.4426565 -0.3320929 -0.4559156
000190 f6 25 77 be d7 a1 38 be 79 62 6d be 83 6d 5d 3e
       -0.24135575 -0.18030487 -0.23182096 0.21623807
0001a0 e0 02 56 bd 63 88 2b 3b 3a 4e e5 be 15 d7 ad be
       -0.052248836 0.0026173822 -0.44786245 -0.33953157
0001b0 b0 84 c6 3d 8f b1 a0 be ab fa 81 be fd 24 ca be
       0.09693277 -0.31385466 -0.25386557 -0.39481345
0001c0 1b d8 c6 be fe 22 13 bf 86 f2 a7 bc 66 dd 7a be
       -0.3883675 -0.5747527 -0.020501386 -0.2449852
0001d0 0e fe 80 be ed a4 fb be 8b 0a 62 be 9a 0e 22 3e
       -0.25193828 -0.49149266 -0.22074334 0.15825883
0001e0 47 a6 c7 be 83 9d dd be 0a 40 6a bd 2f 03 5a 3c
       -0.38994047 -0.43284234 -0.05718998 0.013306423
0001f0 4e 7d 87 be 15 55 e3 be 37 06 9b be e9 45 8c bd
       -0.26462787 -0.4440085 -0.3027818 -0.06849272
000200 e3 2a 50 be 10 0c 48 be e4 f0 b2 bd 61 b4 3f be
       -0.2032886 -0.19535851 -0.087373525 -0.18721153
000210 c6 65 b1 be 39 28 ca be 95 c3 33 3d 4c e8 e6 be
       -0.3464796 -0.39483812 0.043887693 -0.45099103
000220 3e 4b 74 be 01 f1 91 be 93 9d a5 be 6b 0c 29 be
       -0.23856828 -0.28504184 -0.32346782 -0.16508643
000230 c3 80 c5 be ef 9a 50 be d4 3f e0 be f4 ff e7 bd
       -0.385748 -0.20371602 -0.43798697 -0.11328116
000240 42 27 b9 be 96 3c 69 bc 1e 3b 79 be 4a e6 6b be
       -0.36162764 -0.014235636 -0.24338958 -0.23037067
000250 a3 32 0b bd 53 77 b8 be ab 5b 2b 3e a8 8b 80 bd
       -0.033983838 -0.36028537 0.16734187 -0.06276637
000260 e4 c5 92 be 7b 6b eb be 56 91 14 bf 1c 04 01 3d
       -0.28666604 -0.4598044 -0.58034265 0.03149806
000270 91 13 e9 bd ed b9 e6 be 04 9d 00 be 34 85 1f be
       -0.11380685 -0.45063725 -0.12559897 -0.15578157
000280 f8 aa 4a be d8 80 46 be 7e 82 9c 3d 62 56 6f be
       -0.19791782 -0.19385087 0.07642077 -0.23372796
000290 52 8c 5e be ac 07 b0 be b3 33 76 be 35 69 26 3e
       -0.21733215 -0.34380853 -0.24043159 0.16251071
0002a0 a4 b0 64 bd 1c 94 75 be 0d 80 a8 be 34 96 82 be
       -0.05583252 -0.2398228 -0.32910195 -0.2550522
0002b0 53 61 2c be 68 44 3e be 24 6b a3 be 5a 3f df be
       -0.16834001 -0.18580782 -0.3191768 -0.4360302
0002c0 65 8f f0 bd 27 aa b1 be be c0 7a be 31 da 49 be
       -0.117461 -0.34700128 -0.24487588 -0.1971214
0002d0 a0 85 0f bf b4 2d 08 be a5 95 64 be f1 04 57 bd
       -0.5606327 -0.13298684 -0.2232271 -0.052494947
0002e0 8b d3 e2 be 9b 77 5a be b4 24 90 be 55 b1 30 3e
       -0.4430202 -0.21334688 -0.28153002 0.17255147
0002f0 12 62 84 be 6f 14 89 be d5 1f 83 be 3f 45 a7 be
       -0.25856072 -0.26773402 -0.25610223 -0.32670018
000300 21 61 5d be b6 f3 88 bb 11 ac 88 be 9f 45 ae 3d
       -0.21619083 -0.004179443 -0.26693776 0.08509373
000310 24 65 09 be c8 e7 03 be 7d 45 0a 3e e6 f8 99 be
       -0.13417488 -0.12881386 0.1350307 -0.30072707
000320 77 c4 46 be d9 d9 c9 be 59 ed 37 be 81 b0 a4 be
       -0.19410883 -0.39424017 -0.17961635 -0.32165912
000330 28 7f be bd 61 94 c2 bd 51 6d ee 3d be dc b1 3d
       -0.09301597 -0.09500957 0.11641944 0.08684681
000340 35 94 4b be 4b 0a a5 be c7 02 a0 be e0 f6 02 be
       -0.19880755 -0.32234415 -0.3125212 -0.12789488
000350 34 dd ab be 9a d9 64 be 77 2b 50 be d4 88 e9 be
       -0.33567202 -0.22348633 -0.2032908 -0.45612204
000360 c1 66 71 bd f9 ec da be e9 bf 8a be 19 dd ec bd
       -0.058935884 -0.4275892 -0.2709954 -0.115656085
000370 47 6a 60 be 02 dc 91 bd 10 b1 aa be 85 0e a6 be
       -0.21915542 -0.07122041 -0.33338213 -0.32432953
000380 6e fc 9a be f7 10 b9 be 31 4c 76 be 41 85 ce bd
       -0.30270714 -0.36145756 -0.24052502 -0.1008401
000390 2b ba 6a be 30 e6 37 be fa 30 d4 bd 61 e3 4a be
       -0.2292258 -0.17958903 -0.10360904 -0.198133
0003a0 ff a7 74 be 91 f9 eb bd f9 23 9e be 54 dd 89 be
       -0.2389221 -0.115222104 -0.3088682 -0.26926672
0003b0 43 7d 33 be dd 53 0b bd c6 9f 3f 3e ac 8c c0 be
       -0.17528252 -0.034015525 0.18713292 -0.37607324
0003c0 e2 22 27 be 7a 11 c8 be 56 4d 06 be 5c c5 9d be
       -0.163219 -0.39075834 -0.13115439 -0.30814636
0003d0 ee 93 14 be 07 f0 c4 be 0b 1c 6f be e7 a4 ec be
       -0.14509556 -0.38464376 -0.23350541 -0.4621956
0003e0 c5 76 79 be 6b 61 2a be 08 d5 a3 be 9f 09 cb bc
       -0.24361713 -0.16638725 -0.31998467 -0.024784861
0003f0 f8 df 73 be f9 fe e3 be 1e 78 8d be 2a b1 97 be
       -0.23815906 -0.44530466 -0.27630705 -0.29627353

weight f4 [100, 400]
000000 98 7d ff 3b c7 cd 10 3e 3a 26 97 bd c7 11 6c bd
       0.0077969544 0.14140998 -0.07380338 -0.05763414
000010 bf 83 26 be f6 4c c5 3d 0b d7 91 3d d3 13 28 3e
       -0.16261195 0.0963382 0.07121094 0.16413812
000020 26 17 f8 3d f6 fe c5 bc 22 1a e5 3d 70 fb 31 3e
       0.1211379 -0.024169426 0.11186625 0.17381072
000030 cf 0a bf bc 2d d1 42 bd 36 74 df 3d 96 80 3f 3d
       -0.023320584 -0.047562767 0.10910837 0.04675349
000040 a3 87 e6 3d 05 bd 4b 3d b5 b4 55 3c 61 54 84 3d
       0.112563394 0.04974081 0.013043572 0.064614065
000050 24 1c a6 3d 32 b7 b6 bd 8b b8 2b bd 99 0e e4 3c
       0.08110836 -0.089216605 -0.04192404 0.027838992
000060 57 6a 01 3e 43 f9 ca 3d 92 03 08 3e ba bc 7c bd
       0.12638222 0.09910824 0.13282612 -0.06170342
000070 0a a7 d2 3d 0e ab 14 3d 44 89 31 bd 2a cb 46 be
       0.102857664 0.036295943 -0.043343797 -0.19413438
000080 67 c2 41 3d a7 53 2d 3d f1 b5 29 3e 42 6e ef 3c
       0.047304537 0.042316105 0.16573311 0.02922738
000090 e0 37 9b bb 54 f3 d9 bd df 7b 01 be 52 45 42 3e
       -0.0047368854 -0.10642114 -0.1264491 0.18971756
0000a0 de 17 96 3d 54 8a 4f bd fa 31 23 3d ba 6d a1 3c
       0.07328771 -0.05066903 0.039842583 0.019705642
0000b0 d2 e9 9f bd 48 7e a2 bd 8c 34 86 3e be eb f9 bd
       -0.078082696 -0.079342425 0.26211965 -0.122031674
0000c0 3f 60 46 3c 33 dd 5c 3e 83 f9 c9 3d ac 43 7f 3d
       0.012107908 0.21568756 0.09862044 0.062320396
0000d0 69 b4 b8 3d b7 6b 0b 3d 9d dc 98 bd d7 c4 80 3c
       0.090187855 0.03403827 -0.07463954 0.01571886
0000e0 35 f4 e2 bd b3 05 03 3e 96 f9 3a 3e 4e 3f 79 3e
       -0.11081735 0.12795143 0.18259272 0.24340555
0000f0 2b 5c 98 3d d7 3f 7c 3c ef e0 c7 3d c5 8c bc bb
       0.07439455 0.01539608 0.097596996 -0.0057540857
000100 9e 47 3f 3d 5f 1a af bd 2f d7 4e 3d 9d 14 04 3d
       0.04669916 -0.08549952 0.050498184 0.03224622
000110 bb 59 a1 bd 16 55 b9 3d 15 b4 2b 3e d5 a6 ef bb
       -0.07878443 0.09049432 0.16767915 -0.007313589
000120 8e 99 94 bd 88 a3 c8 3d 7f 56 eb 3d 51 a5 ec bd
       -0.07255851 0.09796816 0.11491107 -0.11554969
000130 45 63 ed bc 87 6a c8 3c 52 19 0a bc 83 13 86 3c
       -0.028978 0.024464859 -0.008428888 0.016366726
000140 a6 3b b9 bd ca df 6f 3e e4 25 84 bd 23 4b 24 3d
       -0.0904458 0.23425213 -0.064525396 0.04011072
000150 c7 9e ef 3d fd d5 62 be 97 6c 9f 3c 59 13 4f 3c
       0.11700206 -0.22151943 0.01946096 0.01263889
000160 c0 ad 16 be bf 2c 81 3d 06 a9 d2 3d d0 cd 1d 3a
       -0.14714718 0.06307363 0.10286145 0.0006019743
000170 11 45 06 3e 1b 74 4a 3e f1 ec 16 3d b5 3e 38 3e
       0.13112284 0.19770853 0.03684706 0.17992671
000180 db 3e 75 3e bd 9a 22 be 75 c1 0d 3e 90 49 a9 bc
       0.23949759 -0.1587934 0.13843329 -0.02066496
000190 f3 03 c7 bd 36 c1 a9 3d 6c ff 3c 3d c8 45 c3 3d
       -0.0971755 0.08288805 0.046142027 0.09534794
0001a0 1f 74 72 bc 4e 90 cf 3c 22 35 3c be 2b 24 05 3e
       -0.014798193 0.025337365 -0.18379644 0.13002078
0001b0 31 47 0f 3e 6b 33 4d be 70 af 12 bd 61 96 03 3d
       0.13992001 -0.20039146 -0.03581184 0.032125834
0001c0 90 78 16 bd 96 59 ed bd e3 31 ab bd 06 73 31 3d
       -0.03673607 -0.11589353 -0.083591245 0.043322586
0001d0 b0 70 2c bd 96 38 b4 3c 2d d4 97 bd ba d9 06 3d
       -0.042099655 0.021999639 -0.07413516 0.032922484
0001e0 6e 31 bd bd cb bb c7 bd 88 7f 29 3d 04 cf e3 bb
       -0.092379436 -0.097526155 0.04138139 -0.0069521684
0001f0 c7 01 05 bd 5f 33 02 3e 3a 79 11 bc 80 3b c3 3d
       -0.032472398 0.12714909 -0.008879 0.09532833
000200 e4 a7 6a bd 41 34 a8 bc f8 74 a5 3d 84 01 45 3d
       -0.05728902 -0.02053273 0.08078951 0.04809715
000210 a6 a0 ff bd 1e 03 78 3e 70 28 ce 3d 3d ba 86 bd
       -0.12481813 0.24219939 0.100663066 -0.06578491
000220 ae dc 29 bc fa f2 f5 3c f8 d2 48 be f1 15 73 bd
       -0.010367556 0.030023087 -0.19611728 -0.059347097
000230 9d 5a 6a 3d 1b fe 1c bd 74 36 df 3d 90 96 90 3c
       0.05721532 -0.03832827 0.10899058 0.017649919
000240 b5 7c ba 3d 97 77 ca 3d 5c f8 0d be 3a 88 05 bd
       0.09105817 0.09886091 -0.13864273 -0.03260062
000250 4a cb 05 bc c4 17 75 3d c2 2d 21 3d 38 f9 a0 bd
       -0.008166144 0.059837118 0.03935028 -0.07860035
000260 a5 e0 c7 bb 38 c3 51 3d 53 87 bf bd 8e 81 75 bc
       -0.0060997778 0.051211566 -0.09351983 -0.0149845015
000270 71 78 2e bd c7 c0 31 3e 6f 64 cb bc 8e 0f 2a bd
       -0.04259533 0.17358695 -0.024828164 -0.04151874
000280 8a c8 b5 3d a0 a5 d9 bc 4a db b9 bb cc d5 a6 3b
       0.088761404 -0.026568234 -0.0056718932 0.0050914045
000290 16 85 e9 3d df 9c 03 3e d6 8a 77 3d 60 42 3b 3d
       0.11402337 0.1285281 0.06043514 0.045717597
0002a0 cc 11 9e bb 0f 97 07 3d c3 72 84 bd 31 b9 03 be
       -0.004823899 0.033103045 -0.064672016 -0.12863614
0002b0 8e f5 01 3e 75 fc 16 bc e1 86 9a 3d 33 61 20 bd
       0.12691328 -0.009215464 0.07545257 -0.039155196
0002c0 d4 f5 36 be 38 3d 0e be 3b 6a 1e be ba 3f 01 be
       -0.17867213 -0.1389054 -0.15470211 -0.12621966
0002d0 34 1e 56 be 24 1c 49 3e e6 5d 4f bc f1 6a c6 3d
       -0.20909959 0.19639641 -0.0126566645 0.09688366
0002e0 a7 4f 2b bd 0b 03 eb bd 26 fa 5c 3d 92 99 7c 3e
       -0.04182401 -0.1147519 0.053949498 0.24667957
0002f0 fa 07 6b be a6 66 55 3b f9 60 8a 3d 03 3e ce bc
       -0.22952262 0.0032562404 0.06756777 -0.025176054
000300 99 f4 7a 3d 48 f4 44 bd 3c 4b 80 3e c0 c5 a0 bd
       0.061268423 -0.048084527 0.250574 -0.07850218
000310 73 1e 1b 3e a7 88 44 3b c5 c5 3a 3c d9 ab 2f bd
       0.15148334 0.0029988678 0.011399691 -0.042888496
000320 50 e0 33 bc 6a 40 36 be bf 84 c9 bd 71 55 bc 3c
       -0.010978773 -0.1779801 -0.098397724 0.02298996
000330 37 5a 98 3e e1 ae 4a 3d 43 a4 3a 3e ca 5c 78 bd
       0.29756328 0.049483184 0.18226723 -0.060635366
000340 f6 af c0 bd 90 b6 43 bd 3a 58 29 bc bb ee 06 3d
       -0.09408562 -0.047781527 -0.010335976 0.032942515
000350 2f d9 0a bd 88 d8 a7 3d 42 59 95 3d 09 db 41 bd
       -0.03389853 0.08195597 0.07292415 -0.04732803
000360 bf 40 65 3d fb 76 b9 bd c7 f2 72 3d f3 2c 89 3d
       0.05596995 -0.09055897 0.05931356 0.066980265
000370 ac 73 a8 bc 03 fe d2 3d 91 a7 1f 3e 4e 34 95 be
       -0.02056297 0.10302355 0.15591265 -0.29141468
000380 a3 74 40 3c b7 5b 43 3d 6c bf 36 3d 69 6f e4 3a
       0.011746558 0.047694888 0.044616148 0.0017428222
000390 37 d6 e7 bd 1a f1 5c 3d 26 9f 57 be c0 5e 0d bc
       -0.11320155 0.05394087 -0.21056804 -0.008628547
0003a0 94 6e 7d bd 02 46 96 3d ad 12 18 3d 92 6a 47 3c
       -0.061873034 0.07337572 0.037127186 0.012171404
0003b0 e7 8d 4e 3d d7 d8 2a 3b 7b 32 2d 3d 43 ec 88 bc
       0.050428297 0.0026069188 0.04228447 -0.01671422
0003c0 26 68 e1 3d dc 50 8e 3c c0 ce 83 bc 30 65 7d be
       0.11006193 0.017372541 -0.016089797 -0.24745631
0003d0 0b ab 00 bd 85 99 82 3c dd 91 11 3e f8 f1 46 3e
       -0.03141312 0.015942344 0.14215799 0.19428241
0003e0 7f c1 8a 3d 60 c5 c1 b9 da 9e 80 3c b2 f8 89 3d
       0.06775188 -0.00036958884 0.015700746 0.06736888
0003f0 13 53 48 3d 4a e1 68 3d 83 85 1d 3d 4f 5f 77 3d
       0.04890735 0.056855477 0.038457405 0.060393628

bias f4 [100]
000000 1b a5 fa 3e 7c 99 10 bd ed 3b 76 be bf 8f a1 bd
       0.4895409 -0.035302624 -0.24046297 -0.078887455
000010 79 dc 4f 3f e2 b7 96 3b 63 68 84 bd a2 12 10 3f
       0.8119579 0.0045995573 -0.06465223 0.5627843
000020 e1 a1 b8 bc db 20 c1 bd b4 d0 16 bd 65 12 18 bd
       -0.022538127 -0.09430095 -0.03682013 -0.037126917
000030 5e df 34 bd 68 da f0 bd 87 38 84 bd 39 f1 52 3f
       -0.044158332 -0.11760408 -0.06456094 0.82399327
000040 d0 5c 61 3f 48 8a 29 3f db 50 88 bd 6b b3 b7 bd
       0.88032246 0.66226625 -0.06656047 -0.08969768
000050 a4 7d 87 bd 07 11 bb bf 1e f0 4f 3e 43 93 53 3f
       -0.06615761 -1.4614571 0.20306441 0.8264658
000060 a7 27 b1 bd eb 4d 6e 3f 55 f5 44 be 47 b5 76 bd
       -0.08650141 0.93087643 -0.19234212 -0.060231473
000070 6b 72 84 3d d9 b0 ea bd fa f5 cb bd 43 31 aa bc
       0.06467136 -0.11459512 -0.09959026 -0.020775443
000080 16 9e b4 bd fe e8 64 bd 38 62 91 bd c7 4f 3d 3c
       -0.08819215 -0.05588626 -0.07098812 0.011554665
000090 df 87 02 be c7 91 f6 bd 5c c2 1c bd 00 f2 57 be
       -0.12747143 -0.120395236 -0.038271293 -0.2108841
0000a0 5d 12 4c 3f 22 97 5c 3f 84 31 27 be a6 67 02 be
       0.7971552 0.8616811 -0.16327482 -0.12734851
0000b0 b6 75 60 3f fd 02 41 bd 87 fd 65 3f 4e 82 3e 3f
       0.8767961 -0.04712199 0.8983998 0.7441758
0000c0 30 5c 00 3d 3f 19 bc bd 08 c0 1d be 00 df 83 3f
       0.031337917 -0.09184503 -0.15405285 1.0302429
0000d0 8f c7 ba 3d dd 1d 7e bd f1 ec 21 be 9c 49 cf bd
       0.09120094 -0.0620402 -0.15813042 -0.10121462
0000e0 5b 38 76 bd 33 13 04 be ab d0 d7 bd f9 2a 14 bf
       -0.06011234 -0.12897949 -0.10537847 -0.5787807
0000f0 60 28 a0 bd c2 bf c9 bc 94 88 af bf d1 f8 69 bd
       -0.07820201 -0.02462757 -1.3713555 -0.057122055
000100 dd ae d8 bb e3 be 19 bd 37 1c 12 be c5 3d e5 3e
       -0.006612642 -0.03753556 -0.14268576 0.4477369
000110 c5 d5 43 bd 76 c5 77 bd 62 8f cc bd 26 aa 0f be
       -0.04781129 -0.060491048 -0.099882856 -0.1402975
000120 e1 45 68 3f a6 52 57 3f 21 d3 fc 3e 1a 0c 2f 3f
       0.90731627 0.84110487 0.4937983 0.6837784
000130 45 ce 5d 3f c5 d7 41 3f 3a 72 51 3f 97 6c a0 bd
       0.8664287 0.75719863 0.8181492 -0.07833212
000140 4a 39 17 be 54 ba 1c be 97 90 90 bd 8a 00 0a be
       -0.14767948 -0.15305454 -0.07058828 -0.13476768
000150 11 2b d2 bd 64 6c 30 3f b6 fd 58 bd 65 4f 69 be
       -0.102621205 0.6891539 -0.052976333 -0.22784193
000160 4a 5d 4e 3f a5 89 71 bb 13 d8 74 bd ea 89 6d bd
       0.806111 -0.0036855724 -0.059776377 -0.057992853
000170 b9 2f 9e be 2f 8a c2 be c9 c9 65 3f 11 5b 03 be
       -0.30895784 -0.3799605 0.89761025 -0.12827708
000180 df 53 a7 bd ec b1 f6 bd b6 b1 23 be c4 49 1f bd
       -0.08170294 -0.12045655 -0.1598576 -0.038888708

weight f4 [1, 100]
000000 64 39 86 3c f6 b1 e7 bc cb 4b 72 bd bf 39 87 bc
       0.016384788 -0.0282831 -0.059154313 -0.016507028
000010 dd 8d 69 be eb 31 8e 3d 79 16 b0 bc 2e a1 b4 bd
       -0.22808023 0.06943115 -0.02149509 -0.08819805
000020 ae bc 3a bd 22 96 7d bd 37 59 f8 bc cf 8f 90 ba
       -0.045590095 -0.061910756 -0.030315978 -0.0011029186
000030 11 ee 88 3c d6 d7 47 bd 5d c2 82 bb f0 e8 75 be
       0.016715081 -0.04878982 -0.003990455 -0.2401464
000040 60 40 75 be be 52 e7 bd d0 6f 1d bd f9 88 d9 bc
       -0.23950338 -0.11295079 -0.03843671 -0.026554571
000050 ac cc 22 bd 76 de 57 bd 46 58 13 3d 6e 9a 67 be
       -0.03974597 -0.05270239 0.035972856 -0.22617504
000060 86 12 9c bc 85 2b 8d be 7b cb ad 3c b3 bd 7e bd
       -0.019051801 -0.27572265 0.021215191 -0.06219263
000070 15 fd 51 3d fd a1 a5 bc 1c 23 28 bd 72 aa 5f 3b
       0.05126675 -0.020218844 -0.041049108 0.0034128693
000080 64 fc 31 3b f4 47 df bc 90 8a 8f 3c de 57 6e 3b
       0.0027158493 -0.02725599 0.017522126 0.003636829
000090 be 90 9d bc eb ec a2 3c f8 cd df 3b 41 46 4a 3d
       -0.019234058 0.019888362 0.0068299733 0.049383406
0000a0 46 94 4d be 1b 6a 96 be c5 78 6c bd bd 66 2d bb
       -0.20076093 -0.29377827 -0.057732362 -0.0026458942
0000b0 49 fd 80 be 31 aa 4e bd 52 ad 8d be f6 b1 0a be
       -0.2519324 -0.050455276 -0.27671295 -0.13544449
0000c0 94 0e bb 3c ff c2 51 bd 75 10 d1 bc e6 e2 4f be
       0.0228341 -0.051211353 -0.025520543 -0.20301399
0000d0 19 6d 1b bc 91 bb 3f bd 49 64 e8 bb e2 fa 05 3d
       -0.00948646 -0.046809737 -0.007092033 0.032709964
0000e0 9a dc cb 3c ec 2f 6e bd 4d 5b 5b bd 7a 66 3a bd
       0.024885464 -0.05815117 -0.053553868 -0.045507886
0000f0 24 cf 6b bc b7 fd 06 bd 3a 30 30 be 0a 7c 60 3d
       -0.014392648 -0.032956805 -0.17205897 0.054805793
000100 dc 43 73 3b 67 21 25 3c 12 5f b9 bc 6c f4 1b bd
       0.0037119305 0.0100787645 -0.02262834 -0.038074896
000110 11 60 5c 3d 3d 12 32 bd 07 d6 57 bc 74 75 c2 bc
       0.053802554 -0.043474425 -0.013173587 -0.023737647
000120 0c 6a f2 bc b2 00 51 be 06 75 a2 bc d6 26 fc bd
       -0.029591583 -0.20410421 -0.019831192 -0.12312095
000130 5f dc 5a be 1f 5b 2a be 2e 87 66 be 30 47 61 bd
       -0.21373127 -0.16636322 -0.22512504 -0.05499953
000140 0c 81 1f bd 68 36 dc 3c 35 4a 9d bd 4f dc 51 3d
       -0.038941428 0.026881412 -0.076801695 0.051235493
000150 3d 57 6f bd ae d3 be be 66 f8 fd 3c 45 83 a2 bc
       -0.058432806 -0.37270874 0.031002235 -0.019837985
000160 c1 6f 67 be 29 b9 c5 ba 7c 1f 4c 3d 91 91 39 bd
       -0.22601224 -0.0015085089 0.049834713 -0.04530484
000170 36 c0 66 3d b5 51 56 bd ed f0 95 be 1a 20 10 3d
       0.05633565 -0.052324016 -0.29285374 0.035186864
000180 7d c5 5c 3d b0 86 ab b8 95 06 a9 bc 0b 11 ce bc
       0.053899277 -8.179003e-05 -0.020633021 -0.025154611
