Gibbs_MINE/pw_result_trained_twice/model_lk_b=10_s=0.5_p=26_[2] copy.pth (torch, 207423 bytes, 5 tensors)

weight f4 [400, 26]
00000000: 81a1 a73d b877 0d3e c1e5 dd3d 5bfd 8dbe
00000010: 982b 503e 1a98 6f3e a86c 083d dc4b 39be
00000020: b0e7 83be 37e2 8fbe 30f3 bc3e 3d00 40be
00000030: bde5 4cbd 2a9d 523e bf32 913d d082 c1b9
00000040: 66c1 693e 5d0c edbc 6d51 06be 8ad1 a0be
00000050: 7b83 0e3e 06d5 30be 092c 233e 8fed bb3d
00000060: ef3f 79be 848e 583e f011 723e 4d00 95be
00000070: 37fd 813e 9efa 963d 70c3 103e 60d6 3c3e
00000080: 8266 8f3e 0e17 373e 2eca 573e 58d7 88be
00000090: 05c5 c03d c4eb 40be 90c7 babe dfd3 a8bd
000000a0: 21fa 4a3e 6a21 413e 795d 70be 5637 253e
000000b0: effa e3bd af2e 6fbe 0aab 613e 87e3 b7be
000000c0: fbfc 97bd 5dfb 453d e73b febc ea38 8dbd
000000d0: 4ebf d53d d639 723e 2aaa aa3b c5c7 11bd
000000e0: 2059 e7bc 0230 97be 5ce5 a6bd 8aff e2bd
000000f0: c500 d73e 1ebd f1bd 3d27 d7bd c2f0 03be
00000100: 12f9 8e3e 97e0 1cbe 37d6 7f3e 688f 463d
00000110: 6206 1b3e 03b9 85be ee77 803e 05b7 70be
00000120: 41d7 913e 2926 653e 7664 0dbd 9f65 ce3d
00000130: 3ef5 b93d 52ad a7be 0f5b 8c3d b7de a8be
00000140: 2dbb 8a3e 3f1f b63d 5272 82be 1c7f 37be
00000150: 1248 6fbe db44 d03d 0058 773e 423e 9e3e
00000160: 429c 493e d974 273e 0a41 ad3d ae80 87be
00000170: c2f1 f43d 4815 9ebd 9f0f 013c f419 e4bd
00000180: a212 3fbe e791 b53d 9451 333e 7a3a ba3d
00000190: fe09 433c dcf7 9cbc 9d8c 443e e706 e6bd
000001a0: eaaf c23d cc2c 96bc 8c6e 7dbe 1600 48be
000001b0: 6e20 69be ba77 d43d c40b f93d 5afe ccbd
000001c0: 6c82 af3e df5d 52be d6db 783d 2927 413e
000001d0: fd62 8e3e 27f0 77be 2799 393d d3c9 aebe
000001e0: 9c1c 9bbd e74b 1b3d da0c 16be ffeb 5bbe
000001f0: 52df 763c fb27 2cbd 1a19 90bd d072 e1be
00000200: d690 ac3c 234b c43e 860c 34be ce01 5fbe
00000210: dd0f 87bd 99ea 6d3e 51a8 e3bd 359b 66bc
00000220: fca7 50be a7a2 253e b98b 81be fa61 2c3e
00000230: 8055 243e a6d5 523d 5265 53bd 5243 4a3d
00000240: 5f73 d2be c650 0a3e f760 b2bd 35c3 bcbe
00000250: 9c3a 553e 341e d63d dd92 0a3e 1e38 dbbd
00000260: 45c2 28be a907 1f3e c169 223e 284e be3d
00000270: f299 9f3e 8dd0 a53d fb3c 9abd 1a2a 14be
00000280: cc53 90be b51f 0b3e 1743 3a3e aa40 863e
00000290: 016c 1abe 49c4 c9bc 13fb aabb 8f6f 7e3e
000002a0: cbd2 f13d a681 debe 78df 013d 98ed 4b3c
000002b0: b4f7 1c3e 99f5 6fbe e311 08bb 6875 d83d
000002c0: 1c4a d83d 11b9 07be be77 0dbe 79a8 27be
000002d0: 5c81 dc3b a673 dfbd 8907 9f3b da0a 093d
000002e0: 8349 3fbe 6f7b 563e b88d 653e 62a0 debd
000002f0: 76eb fc3d 48a7 ec3c c401 723e 8ae8 153e
00000300: 0b1f 68be 0c4e 773c 9e65 f23d 34d1 1f3d
00000310: 1297 89be 345a 22be 0337 0cbd 1b9c bcbe
00000320: aef1 5e3e 6b68 10bd 734f 41be d388 b73e
00000330: 3ec4 6fbe 3f9f 26be be01 8c3e fe30 273e
00000340: 3d9f fb3d da06 6a3e a859 443e 1de3 5abe
00000350: 4715 8b3e e821 2d3e 67fb a2be a6e4 7b3d
00000360: e38c 60be fd45 f7bd b551 aa3d 09a9 473e
00000370: d846 f73d 96cb 5a3e 36e5 c03b 305f be3a
00000380: f83c 353d c224 e4ba fa35 da3c d1b8 a63d
00000390: d9af f03c 9865 bdbd 5b1f 20bd 7636 da3d
000003a0: a7ff 0c3f b650 b8be b6f1 983e cc06 89be
000003b0: 8bc9 87be bcab a0bc 0e71 b9bb c9aa 93be
000003c0: 89ad c33d a949 a03d 572f 3f3e ba06 943d
000003d0: ae38 90be 7e1f c2bc 3661 03bc de8a 2abc
000003e0: 8906 adbd e583 273d 3416 24bc 5ea7 dc3d
000003f0: e5b3 6f3e 3d92 9a3c 20ea 71be b8e1 f9bd
0.08185101 0.138152 0.10834838 -0.27732357 0.2032913 0.23397866 0.033306748 -0.18095344
-0.257627 -0.28102276 0.36904287 -0.18750091 -0.050023783 0.20567766 0.07089757 -0.00036909292
0.22827682 -0.02893656 -0.13116999 -0.31409866 0.13917343 -0.17268762 0.15934767 0.0917617
-0.24340795 0.21148115 0.23639655 -0.29101792 0.253885 0.0737202 0.14137053 0.18441153
0.28007895 0.17879888 0.21073219 -0.26726794 0.094125785 -0.18839937 -0.3648038 -0.08243536
0.19821979 0.18860403 -0.23473157 0.1613439 -0.11131846 -0.23357652 0.22037902 -0.35915777
-0.07421299 0.04833542 -0.031034423 -0.06895621 0.10436879 0.23654875 0.0052082734 -0.035590906
-0.02824074 -0.29528815 -0.081492156 -0.110838965 0.41992775 -0.11803649 -0.10505531 -0.1288481
0.279244 -0.15320049 0.2498406 0.048476607 0.15139154 -0.26117715 0.250915 -0.23507316
0.28484538 0.22377838 -0.034519635 0.100779764 0.09079979 -0.3274942 0.068533055 -0.32982418
0.2709593 0.088926785 -0.25477844 -0.17919582 -0.23367336 0.10169383 0.24154663 0.30906874
0.19688514 0.16353168 0.08459671 -0.26465362 0.11960174 -0.07718903 0.0078772595 -0.11137763
-0.18659452 0.08865719 0.17511588 0.09093185 0.011904238 -0.019161157 0.19194265 -0.11231785
0.09506209 -0.018331908 -0.24749202 -0.19531283 -0.22766277 0.103743985 0.12160447 -0.10009451
0.34279191 -0.20543621 0.060756527 0.18862595 0.27809897 -0.24212705 0.045312073 -0.34138355
-0.07573816 0.037914183 -0.1465334 -0.21476744 0.015067892 -0.042030316 -0.07036038 -0.44032907
0.021065157 0.38338575 -0.17582902 -0.21778032 -0.065948226 0.23234023 -0.11116088 -0.01407509
-0.20376581 0.16175328 -0.25301912 0.1683425 0.1604824 0.051473282 -0.0516103 0.049380608
-0.41103646 0.13507375 -0.08709901 -0.3686768 0.20823139 0.104549795 0.13532586 -0.10704063
-0.16480358 0.15530266 0.15860654 0.09292251 0.31172138 0.080964185 -0.07531162 -0.14469185
-0.28188932 0.13586314 0.18189655 0.2622121 -0.15080263 -0.024629729 -0.0052179187 0.24847244
0.11807784 -0.4345829 0.031707257 0.0124467835 0.15328866 -0.23433532 -0.0020762614 0.105692685
0.1056101 -0.13254191 -0.1381521 -0.16372861 0.006729288 -0.1091073 0.004853193 0.033457614
-0.18680386 0.20945524 0.22417343 -0.10870434 0.12349598 0.02888836 0.23633486 0.14639488
-0.22668092 0.015094291 0.11835788 0.03901787 -0.2687307 -0.15854722 -0.03423215 -0.3683785
0.21771881 -0.03525583 -0.18877964 0.35846576 -0.23414704 -0.16271685 0.2734508 0.16327283
0.12286232 0.22854176 0.19174826 -0.213757 0.2716467 0.16907465 -0.3183243 0.061497353
-0.21928744 -0.12073896 0.08316366 0.19498076 0.12074059 0.21366724 0.005886699 0.0014524218
0.044247597 -0.0017405974 0.026637066 0.0814072 0.029380726 -0.09247893 -0.039092403 0.10654919
0.55077595 -0.35999078 0.2987191 -0.26762998 -0.26520953 -0.01961314 -0.005659229 -0.28841236
0.095545836 0.078265496 0.18670402 0.072278455 -0.28168243 -0.023696657 -0.008018782 -0.010409085
-0.08448512 0.04089727 -0.010015059 0.1077411 0.23408468 0.01886856 -0.23624468 -0.122012556

bias f4 [400]
00000000: e606 90be a004 72be f430 74be 41ff b5be
00000010: 2a54 82be 3c13 8bbe 2682 fcbe 29ba 1bbe
00000020: 8fa6 4ebe cc48 d8be 4844 5cbe cc6e bfbe
00000030: 13d3 a7be b092 dabd 87f1 3fbc a70c b8be
00000040: 8e5c e2bd 44c2 a43e 2b06 33be 83e4 34be
00000050: 2b8e c7be 9e04 9cbe 26f8 7abe 1188 d4be
00000060: b273 78be 4f91 babe 1073 203e ee86 9ebe
00000070: 98c4 49be dfc3 03bf 63c2 08be 7f3e c3be
00000080: bd35 75be ea4d 51be 2273 afbe c81d c2be
00000090: 26fd a23c d8e2 2fbe 4bfc 4abe 700f d6be
000000a0: 67b1 eebd 6810 393d 62bf 76be 3f1f eebe
000000b0: e59b abbe 53df 86be a6d4 5bbe 763c 0bbe
000000c0: 464a 84be 26ce c2be e4f8 fdbd dee7 46bd
000000d0: 3f7c 8ebe f0f0 aabd 00ff bbbe 831a 78be
000000e0: 2741 c3be 458e f7be 9679 56be 94d8 5fbe
000000f0: ebf3 b2be 8b9d 83be 5974 9dbe e7ba 55be
00000100: 7a88 a8be 3c47 8dbe e5d4 8dbe 02f0 11be
00000110: d084 ecbd a57b bfbe 1b0c 1abd 71d3 81be
00000120: a0dd 96be 33cb bbbd 2822 e6be 0b59 d9be
00000130: cf31 b4be 9822 7cbe d6e3 5ebe 47b9 6cbe
00000140: 6ff1 aabe 18a9 b5be 01c5 2dbe e988 9fbe
00000150: 1add 25be 9ee2 4cbd effd bcbe 7342 bebe
00000160: 2f2b 8cbe 8cbb 94be e0e3 b8be ae37 8fbe
00000170: a7df 9fbe 30e0 b9bd aa4f c3bd 4065 b3be
00000180: 62af aebe 6e6d 7ebe 2224 49be 1f19 86be
00000190: dbba ecbd 094b 6bbe 2439 d2be b000 7ebe
000001a0: eb4a 8bbd 3008 64be 0f63 46be d475 96be
000001b0: a8ad 27bd d6cd a2be 8219 4ebe 70b5 c9be
000001c0: 609b afbe df44 08bf 091a e1be d6a2 aebe
000001d0: 1c66 d8bd f196 f5bd ea61 9dbe a50d 93be
000001e0: e701 edbe ab03 2cbd 0d2d 68be 65fe 5fbe
000001f0: 9f60 87be dd36 76be cbe3 d7be 0f1b b5be
00000200: 6315 69be c4d5 84be 8ef7 b5be 8e53 20be
00000210: abcb 3f3d 0296 a9be b9bf a5be 956b b1be
00000220: 1fe7 a6be e567 e1be 7204 87be bdb4 aabe
00000230: 7a1e 8abe a672 3ebe 81d8 dfbe a347 82be
00000240: e56b 7ebe eddc eebe 93fd c2be f1f5 8dbe
00000250: d3fe bfbe fdc7 d93e 982c 91bd 721b 63bd
00000260: c360 41be e91e 2abe dce4 52be 12aa 76be
00000270: 8dce 86be 7924 eabe 5600 11be d548 46be
00000280: 2085 60be 4e8c cebe 647c 6dbe 908e 40be
00000290: 1ec4 68be 3d12 31bd b610 203d d088 d1be
000002a0: 8937 7cbe d196 8bbe db23 8abb f333 0fbe
000002b0: 893f 38be 0caf 84be 1872 b1be 9bb2 8dbe
000002c0: 2e25 9abe c1fa f0bd 2b2c 53be 1b1e b1be
000002d0: a66a b3be 8cba 6cbe db7d d1be ff48 b6be
000002e0: 429f 6cbe 4f1f c3be 96ab 61be 3c97 3cbe
000002f0: 01f8 b2bd fcc1 cb3c 0404 f8be f890 69be
00000300: 4523 81be af62 67be 13e2 88bd 6385 c5bd
00000310: 887a 8ebe 2f46 d6be 070e 8bbe 948a 45be
00000320: dea0 acbe dac9 2fbe 0c8e 61be 91a4 f8bd
00000330: a2ec cd3c dc5c 65be 1a7e 4abd fa89 e3be
00000340: fbdd 9dbe 548f bcbd 12c4 c3be ebd3 8bbe
00000350: 3ff9 dbbe 6321 21be c2ee e9bd cb52 afbe
00000360: 213b 97be f9c2 99be 00ed 29be e833 b7be
00000370: e289 47be e915 98be 7adb 9abe 77cd 4fbe
00000380: 75c1 79be 45da b2be 3593 babe edb2 54be
00000390: abc5 9abe 22bb b5be 9872 71be 18af a0bd
000003a0: 7b77 a8be e229 d5be 833d 7cbe f5a6 3bbe
000003b0: e549 a1be 1e46 0cbe d7fe c3be e3fe d5bd
000003c0: 42a0 b7be c885 7abe 4743 9cbe cf3e 663e
000003d0: a96c 7cbc fe27 cfbe d8f3 cabe 1242 c7be
000003e0: cd1b d0bd c6ff 77be 03ef 05be e2d6 85be
000003f0: 228f 46bc 3dc6 6bbe cc4c 67be 8e93 8fbe
-0.28130263 -0.23634577 -0.23846799 -0.35546306 -0.25454837 -0.27163112 -0.49318045 -0.15207733
-0.20180725 -0.4224304 -0.21510422 -0.3738922 -0.32778224 -0.1067251 -0.011715299 -0.35947153
-0.1105281 0.32179463 -0.17482822 -0.17665295 -0.38975653 -0.30472273 -0.24508724 -0.4151006
-0.24262884 -0.36438987 0.15668893 -0.30962318 -0.19703901 -0.5147075 -0.13355403 -0.38133618
-0.23946281 -0.20439878 -0.34267527 -0.37913346 0.019896101 -0.17176378 -0.19822805 -0.41808653
-0.116549306 0.04518166 -0.24096444 -0.46508214 -0.33517376 -0.26342258 -0.21467838 -0.13597283
-0.25837916 -0.38047904 -0.12400988 -0.04856097 -0.27829167 -0.083467364 -0.36717987 -0.24228863
-0.38135645 -0.4835073 -0.20944819 -0.21859962 -0.3495172 -0.25706133 -0.3075283 -0.20872079
-0.32916623 -0.2759341 -0.27701488 -0.14251712 -0.115487695 -0.3739902 -0.0376092 -0.2535663
-0.2946596 -0.091696166 -0.44947934 -0.42450747 -0.3519425 -0.24622571 -0.217666 -0.23117553
-0.33387324 -0.3548057 -0.16969682 -0.31159142 -0.16197625 -0.050020806 -0.36912486 -0.37160072
-0.27376696 -0.29049337 -0.36111355 -0.27972168 -0.3122532 -0.090759635 -0.09536679 -0.35038185
-0.3411818 -0.24846432 -0.1964269 -0.2619104 -0.11559077 -0.22977842 -0.4105922 -0.2480495
-0.06801399 -0.22268748 -0.19373725 -0.2938677 -0.040937096 -0.31797665 -0.20126918 -0.39396238
-0.3429823 -0.5323009 -0.43965176 -0.3410861 -0.10566351 -0.119916804 -0.30738765 -0.28721347
-0.46290514 -0.041995686 -0.22673436 -0.21874388 -0.26440904 -0.24044366 -0.4216598 -0.35372207
-0.22762065 -0.2594434 -0.35540432 -0.15656874 0.046825092 -0.3312226 -0.32372835 -0.3465239
-0.32598206 -0.44024578 -0.2637058 -0.33341017 -0.26976377 -0.18598422 -0.43719867 -0.2544528
-0.24845846 -0.46652928 -0.38084087 -0.277267 -0.37499103 0.4253539 -0.07088584 -0.055446096
-0.18884568 -0.16613354 -0.20595115 -0.24088314 -0.2632946 -0.4573095 -0.14160284 -0.1936372
-0.21925783 -0.4034142 -0.23191983 -0.18804383 -0.22731063 -0.043230284 0.039078437 -0.40924692
-0.2463056 -0.272635 -0.0042157 -0.13984661 -0.17992987 -0.259148 -0.3465736 -0.27675328
-0.3010649 -0.117665775 -0.20622317 -0.3459328 -0.35042304 -0.23118037 -0.40916333 -0.35602567
-0.23107627 -0.38109824 -0.22038111 -0.18417066 -0.08738709 0.024872772 -0.48440564 -0.22809207
-0.2522222 -0.22596239 -0.06683745 -0.09644582 -0.2782786 -0.4185042 -0.2715914 -0.19291145
-0.33716482 -0.17166844 -0.22026843 -0.121407636 0.02513725 -0.22398704 -0.049436666 -0.44441205
-0.3083342 -0.09207025 -0.38235527 -0.27310118 -0.42963597 -0.15735392 -0.114224926 -0.34242854
-0.295373 -0.30031565 -0.16594315 -0.3578179 -0.19486192 -0.29704216 -0.30245572 -0.20293222
-0.24390204 -0.3493215 -0.36440435 -0.2077138 -0.30228934 -0.35494334 -0.2357887 -0.078458965
-0.32903656 -0.41633517 -0.2463284 -0.18325408 -0.3150169 -0.13698623 -0.38280365 -0.104490064
-0.35864455 -0.24465096 -0.3052008 0.22484897 -0.015406766 -0.404602 -0.39639163 -0.38917595
-0.101615526 -0.24218664 -0.13079457 -0.26140505 -0.012119086 -0.2302484 -0.2258789 -0.28042263

weight f4 [100, 400]
00000000: b3c8 02be 9b6f 32be 3578 01be c0c4 debd
00000010: c1a2 33be 56ac a5bd 5379 06be 6318 f2bc
00000020: 12bd 01be fc8f 3fbe b662 52bd b971 79bd
00000030: 5a3d 45bd 16ba 1ebd a80e d6bd 72c2 2dbd
00000040: e1ff 21bd 13db 78bd 724d 14bd 4797 aebd
00000050: d267 83bd 645f f5bd 13a7 1cbe d42d 70bd
00000060: 9906 ab3d c3f5 c8bd f877 95bd 5493 b0bd
00000070: a8a7 2ebe 745b 4abd af97 e3bd 9303 46be
00000080: d2a7 2cbd ba97 bfbd 168b e63d 9725 57bd
00000090: 7177 28be 4d0b 77bd 9428 b7bd 5238 03be
000000a0: a502 d0bd 59e0 f5bc 2605 02be 320e 45bd
000000b0: 140b e8bd 62d3 2abd 9a30 e8bd 8dd5 41be
000000c0: d8ca 2fbe 8a43 08bd e3f4 3ebd 8f65 0dbb
000000d0: 5d48 003e d28c a0bd 22da 22be be64 0abe
000000e0: 902f bdbd 62f3 48bd 66fb 14be ce64 cbbd
000000f0: 7d65 28be 60f4 0ebe 1888 473b c96e 23be
00000100: 5262 c3bd 800b 06be 9e51 75bd 1022 4ebe
00000110: 1eec 82bd bec8 f6bd e8b2 6dbd 5452 a3bb
00000120: 26ee 93bd 99e5 cbbd 09ed 95bd 0e9e 1c3d
00000130: 1966 35be a5c4 773d df18 c2bc e393 40be
00000140: 483f b8bb d548 a6bd c7bc 04be 100d 82bd
00000150: 806e 52be 9291 67bd 9a79 71be 4209 3bbe
00000160: 01ba 0dbe 28e6 08bd 2ba0 d5bd 4f4a b4bd
00000170: 0b54 2fbe 57da 17bd ea5a 29be fce6 81bd
00000180: 6dd6 3dbe af1d 19be 7c94 02be 1de1 063d
00000190: 5423 fabc bce6 f3bd 1966 613d 6251 ca3c
000001a0: 6d9f b5bd 4e5b 263c 2400 10be 42cf 3f3d
000001b0: a098 f7bd e4c5 e4bd 6630 84bb 2c34 40be
000001c0: 0f6b 5ebd 2133 29bd 639b 23bd 3144 8abc
000001d0: 2890 f6bd 51c9 1bbe 8e3f 44be 6512 2abe
000001e0: cfb0 3dbd 82e4 a9bd ee10 f5bb 300d 94bd
000001f0: 2edc 663b bc0a ecbd d004 b0bc 02dd 2cbe
00000200: 62b7 00be 23a8 213b 743f c4bd 5e39 adbd
00000210: 03c3 0cbe 7a2c 51bd 7ac2 d1bd 646a 0abe
00000220: 6364 4bbd f097 4abc 1e11 36bd dbfe 953d
00000230: 3445 c4bd a059 e6bd 2c39 23be cac2 50bd
00000240: 27c4 b9bd b6e1 0abd 56ba f13c 2256 f4bd
00000250: 3a55 0fbd e9aa 08be ad0d 88bd f396 80bd
00000260: 67c7 99bd f7c5 41bd a2c1 02be 0164 76bd
00000270: b673 15be 5933 b6bd 9ebf 95ba e9b8 a4bd
00000280: c9b9 99bd c0bb eaba 4b1b d1bd 1bfe 08be
00000290: 50c7 26bd e1a4 a4bd 88a5 01be 1e26 a3bd
000002a0: c692 f1bd 6dbe afbd ee9c bbbc 05b2 9dbd
000002b0: ec45 293d 15ac e7bd e57f 98bb 90ae e33c
000002c0: 8695 fbbd d3f4 2bbe 3545 3bbe 88eb ffbd
000002d0: d691 0dbe e00d c0bd 2a31 78bd 1877 a5bd
000002e0: aec4 aebc 704d eebc e367 32be c792 92bd
000002f0: 980c c2bd 9325 67bd d4e2 26be 2828 e2bd
00000300: 67bd dabd 2d1a 1fbe c241 a7bd 6e08 e7bd
00000310: d211 77bd 3678 dabc 6223 b6bd 9474 69bd
00000320: c898 0dbe 6e94 acbd 739f 8bbd 4c7b 07be
00000330: 28d8 5abe aa40 01be eefa 9fbd 07c9 f7bc
00000340: 28bb a6bd e593 24be 97b5 d5bd 99da 15bd
00000350: 7c53 31be 01cb 1fbe b460 67be 8fea 523d
00000360: e633 b33d a795 d0bd 0f4e 8bbd f43f 50bc
00000370: fa4f 4b3d a957 99bd 2f56 52bd ffeb f1bd
00000380: 4c08 7d3b 3dc9 47bd 277d 23be 3c76 eabd
00000390: c64b 6f3b 68eb 57bd c1da 7dbd 0b48 d83c
000003a0: 5b11 e23b 927c c1bd 37e6 15bd c747 aebd
000003b0: 93bd 9dbd 94ba c5bd 47eb 24be 69a4 c8bd
000003c0: 14d1 2fbb 6cd7 65bd 2689 a5bd 3d86 32be
000003d0: 6883 20be b032 bbbd 6eab 30bd 3108 15be
000003e0: b782 e93c eb04 01be 800d 42bc bf80 0ebd
000003f0: 63bc 2ebe 1326 1fbe 4826 27bc 9936 1bbc
-0.12771873 -0.17425387 -0.12643512 -0.10877371 -0.17542554 -0.08089511 -0.13132219 -0.029552644
-0.12669781 -0.1870727 -0.05136367 -0.06089947 -0.048154213 -0.038751684 -0.10452014 -0.042421766
-0.039550666 -0.0607558 -0.03620667 -0.085249476 -0.064162865 -0.11981085 -0.15298109 -0.058637455
0.08350868 -0.098125 -0.07298273 -0.086218506 -0.17056143 -0.049403623 -0.11112916 -0.19337301
-0.042152233 -0.093551114 0.11256997 -0.052526083 -0.16451813 -0.06031351 -0.089432865 -0.12814453
-0.101567544 -0.030014204 -0.12697276 -0.04810924 -0.11330238 -0.041705497 -0.11337395 -0.1892912
-0.17167222 -0.033267535 -0.04662026 -0.0021575426 0.12527604 -0.07839359 -0.15903524 -0.13514993
-0.092375875 -0.049060233 -0.14549026 -0.09931336 -0.16444965 -0.13960409 0.0030446108 -0.1596023
-0.095402375 -0.13090324 -0.05989229 -0.20130181 -0.06392692 -0.12050007 -0.058031946 -0.0049841795
-0.072231576 -0.09955902 -0.073206015 0.03823667 -0.17714728 0.06049027 -0.0236935 -0.18806414
-0.005622778 -0.0811936 -0.12962638 -0.06350148 -0.20549965 -0.05653531 -0.23581544 -0.1826525
-0.13840486 -0.03342262 -0.1043094 -0.08803236 -0.17121904 -0.03707346 -0.16538587 -0.06342885
-0.18538828 -0.1495273 -0.12751955 0.03292953 -0.030534424 -0.119092435 0.05502901 0.02469701
-0.08868299 0.010153605 -0.14062554 0.046828516 -0.12089658 -0.11170557 -0.00403409 -0.18769902
-0.054301318 -0.041308526 -0.03994311 -0.01687822 -0.120392144 -0.15213515 -0.19164869 -0.1660858
-0.046311196 -0.082955375 -0.007478825 -0.07229078 0.0035226452 -0.11525485 -0.02148667 -0.16881183
-0.12569955 0.0024666868 -0.09582415 -0.084582075 -0.13746266 -0.051067807 -0.102421716 -0.13517147
-0.049656283 -0.012365326 -0.044449918 0.073240004 -0.09583512 -0.11247563 -0.15939778 -0.050967015
-0.09070616 -0.03390666 0.029507797 -0.11930491 -0.034993388 -0.13346447 -0.066432334 -0.06278791
-0.07508736 -0.047307935 -0.12769178 -0.060153965 -0.14594921 -0.088965125 -0.0011424904 -0.08043081
-0.07506139 -0.0017908737 -0.10210284 -0.13378184 -0.040717423 -0.08039261 -0.12660801 -0.07966255
-0.11795573 -0.08581243 -0.022901978 -0.0769997 0.04132645 -0.11312119 -0.004653918 0.027793199
-0.12284379 -0.16792612 -0.18288119 -0.12496096 -0.13825163 -0.093776464 -0.06059376 -0.08079356
-0.021334019 -0.02908966 -0.17422442 -0.07156902 -0.09475058 -0.056432318 -0.16297466 -0.110428154
-0.10680657 -0.15537329 -0.08166839 -0.11280905 -0.06031973 -0.02666865 -0.088934675 -0.056995943
-0.13827813 -0.08426748 -0.06817522 -0.13230628 -0.2137152 -0.12622324 -0.07811533 -0.030247224
-0.08141166 -0.16072042 -0.10435026 -0.036585424 -0.17317003 -0.15604784 -0.22595483 0.051493224
0.08750133 -0.10184794 -0.06801998 -0.01271056 0.04963682 -0.07487423 -0.051351722 -0.11812591
0.0038609682 -0.0487759 -0.1596571 -0.11448333 0.003651367 -0.052714735 -0.061976198 0.02640154
0.0068990416 -0.09447588 -0.036596503 -0.08509784 -0.07702174 -0.096547276 -0.16105376 -0.09796984
-0.00268275 -0.056113645 -0.080827996 -0.1743402 -0.15675128 -0.09140527 -0.043132238 -0.14553906
0.028504713 -0.12599532 -0.011844039 -0.03479075 -0.17064051 -0.15541868 -0.010201998 -0.009473466

bias f4 [100]
00000000: c4a6 19be dd8f 33be 5497 9ebd 870f 2f3f
00000010: a47c f73e a606 c4be 3567 60bd 8e84 02c0
00000020: 6657 e7bd f607 07be a3f9 f8bd 16ab b8bf
00000030: 54eb 36be b71c b8bd 03a0 603d 029d 97bd
00000040: 0456 2f3f b05a cf3e bc4f 023f de86 1dbe
00000050: 6ae5 debd d04a a0bd fc28 84bd cd0a a2bd
00000060: 34c4 06be 959b 2abe c7f6 86bc c49d a0bc
00000070: 69d9 68bd 27fb 163f 3b1c c9bc 4c0f 18be
00000080: 3f68 a13e 75b1 2cbe 9f92 ccbc 8e67 1fbe
00000090: 7ecd 253f fb16 d63e e3df 40be 4031 5bbe
000000a0: e812 07bd ae69 d9bd d5c0 13be dced 54bd
000000b0: da17 e3bd 7552 07bd a31a 353f 4087 463f
000000c0: e90a cebd 2813 bebd 806f 373f 8ed6 babd
000000d0: 75f3 d4bd 7275 fbbd b47e af3e f1d5 f2bd
000000e0: a8a7 45be 0042 bcbd 32c1 4ebd 6433 c8bd
000000f0: b3cb bbbd e62c 473f bc45 f03e 28c4 85bd
00000100: 9567 16be 5675 1cbe e172 26be e57c 1ebe
00000110: 0d02 17bd 5dd7 693e 5c34 13be 8202 0bbe
00000120: c8c8 dfbd bd76 48be d67e c83e 98f2 acbd
00000130: c168 0ebe 97ed 44bd ce3f 273f b3d5 6abe
00000140: 1e38 d8bd 27a1 4c3d 896f d5bd 6d94 55bc
00000150: 92ce c0bd d47b a2bd cede dabd fc9c 0ebd
00000160: faef 47be 173a 07be 9393 bebd 5b78 f53e
00000170: 6e25 d4bd 9f17 1f3c bf43 febd 05b6 6dbd
00000180: b24c 123f cca6 e83e 5b1e 1abe 3a48 3b3f
-0.15005022 -0.17535348 -0.07743707 0.6838307 0.4833728 -0.38286322 -0.054785926 -2.0393405
-0.11295967 -0.1318663 -0.121569894 -1.4427211 -0.17863208 -0.08989852 0.0548401 -0.07402994
0.68490624 0.40498877 0.50902915 -0.15383479 -0.10883601 -0.07826769 -0.0645313 -0.07912216
-0.13160783 -0.16660912 -0.016475094 -0.019606479 -0.056847963 0.5897698 -0.024549594 -0.14849585
0.31524846 -0.1686457 -0.024972258 -0.15566847 0.6476668 0.41814408 -0.18835406 -0.21405506
-0.032977015 -0.1061586 -0.14429028 -0.051984653 -0.11088534 -0.03303762 0.7074377 0.77550125
-0.10060675 -0.092809975 0.7165451 -0.09122954 -0.10397998 -0.1227826 0.34276354 -0.11857212
-0.19302237 -0.09192276 -0.050477214 -0.09775427 -0.09169712 0.77802885 0.46928203 -0.065315545
-0.14687951 -0.15279135 -0.1625476 -0.15477331 -0.03686719 0.22836061 -0.14375442 -0.13575175
-0.10926968 -0.19576545 0.39159268 -0.084447086 -0.13907148 -0.048078146 0.65331733 -0.22933082
-0.105575785 0.049958374 -0.10421664 -0.013035876 -0.094144 -0.079337746 -0.10687028 -0.03481768
-0.19525138 -0.13205753 -0.09305491 0.47943386 -0.10358702 0.009710222 -0.12415265 -0.058034915
0.5714828 0.45439756 -0.15050642 0.73157084

weight f4 [1, 100]
00000000: 07bf 713c 10c3 323d a4ea ecbc 3fc8 5fbe
00000010: 1f5b 91bd a8ac f83c 7837 1ebc 0df9 91be
00000020: a3e7 f4bc 7418 303d 4b29 5a3d 5fa7 45be
00000030: e116 393d a7dc 7abb 7d4e 103d 37af d23b
00000040: ca5a 52be 0c2c 14bd f66f 01be b9d8 5cbd
00000050: 7587 b8bd 3326 443b ae89 8c3b cd25 713c
00000060: 3c5f 26bc ee76 a1bd f80d 903c 9a6e 1b3d
00000070: 6dc4 3b3d 9a03 15be ee5f b43c 386d 703d
00000080: a5dd d4bc c3c4 873c 1812 d33c a51b 3dbc
00000090: d7fb 4fbe 6dc2 91bd 07eb 5abd b4dc 36bc
000000a0: 4684 643c 97ce e33b 1043 18bc d9ec 523c
000000b0: bba4 5ebd 25fb 263d 9bf5 4ebe a933 78be
000000c0: 9ab7 d13c ab9a 063d a55e 9dbe bacc 11bd
000000d0: 4205 013d 159b e43c 6fc2 e7bc 2a33 833d
000000e0: ace2 223d 9bd1 ccbc f215 083d f065 973b
000000f0: 2156 6938 c08d c3be c56d e0bd d871 573c
00000100: cb0b ac3c 3e68 08bd 87c2 013c 4f5b 0d3d
00000110: 3d10 2fbc e485 5fbc 6344 8ebc b752 09bc
00000120: afc5 72bc d2bb 923d 1c4f 8dbd 4bee 183b
00000130: a581 8abd ebdc 5e3c 01f0 43be 0866 493d
00000140: 01d3 5f3d 6b08 47bd 2639 f8bb 7097 a03c
00000150: c3d9 623d ec88 113d 6954 17bd 0156 523d
00000160: 5075 d2bb 6e48 2d3d 805e 64ba 6d14 babd
00000170: 52ec 1a3d 31d2 973c 3f01 b9bc 1ec0 dabc
00000180: fc24 48be 2198 a2bd 0989 693c 06db acbe
0.014755017 0.043643057 -0.02892048 -0.21853732 -0.07097458 0.030355766 -0.0096567795 -0.28510323
-0.02989561 0.04299207 0.053262036 -0.19302128 0.045187835 -0.0038278492 0.035231102 0.0064295786
-0.20542446 -0.03617482 -0.12640366 -0.05391762 -0.090102114 0.0029929995 0.0042888736 0.014718485
-0.010154542 -0.07884012 0.017584786 0.037947275 0.045841623 -0.14552155 0.0220184 0.05869791
-0.025984595 0.016573315 0.025765464 -0.0115422355 -0.20310913 -0.07117162 -0.053446796 -0.011161018
0.013947552 0.0069521177 -0.009293333 0.012873852 -0.054356318 0.040766854 -0.20210879 -0.24238457
0.025600243 0.032862347 -0.3073627 -0.035595633 0.031499155 0.02790598 -0.028290955 0.06406243
0.039766952 -0.025002291 0.033224054 0.004620306 5.5631743e-05 -0.38194084 -0.10958437 0.013149701
0.021001717 -0.033302538 0.007919914 0.034510907 -0.010685024 -0.013642762 -0.017366594 -0.008381537
-0.014817639 0.0716473 -0.068998545 0.0023335393 -0.06763009 0.013602476 -0.19134523 0.04916957
0.05464459 -0.048592012 -0.007575172 0.019603461 0.055383455 0.03553097 -0.036945734 0.05135155
-0.006422676 0.042305402 -0.00087115914 -0.09085927 0.03782303 0.018532844 -0.022583602 -0.026702937
-0.19545358 -0.079391725 0.014253863 -0.33760852
