Gibbs_MINE/pw_result_trained_twice/model_lk_b=10_s=0.5_p=24_[2].pth (torch, 203415 bytes, 5 tensors)

weight f4 [400, 24]
0	0xbdb6cf60	-0.089262724
1	0x3e9e960f	0.3097386
2	0x3e31a2dc	0.17347282
3	0xbeb93d4b	-0.36179575
4	0x3dcff2e2	0.10153748
5	0x3ebdfd02	0.37107092
6	0x3daa377e	0.083113655
7	0xbeca0d0e	-0.39463085
8	0xbe64b556	-0.22334799
9	0xbebf39c6	-0.37348765
10	0x3db13d01	0.08654214
11	0x3e4ec1b3	0.20191078
12	0x3df7137f	0.120642655
13	0x3e117ff8	0.14208972
14	0xbc3f567b	-0.011678333
15	0xbe40403b	-0.18774502
16	0x3e570838	0.20999229
17	0x3dff2613	0.12458434
18	0xbe9287ca	-0.28619224
19	0xbe1681fd	-0.14698024
20	0x3e43186b	0.19052283
21	0xbe548f13	-0.20757703
22	0x3ddbd4a6	0.10733919
23	0x3e7e75e2	0.24849656
24	0xbed5ea6a	-0.41780406
25	0x3d768235	0.06018277
26	0x3ea2ac8c	0.31772268
27	0x3d230d1d	0.039807428
28	0xbd275aee	-0.0408582
29	0xbe277cf6	-0.16356263
30	0x3eab116e	0.33411735
31	0xbdb7ab6c	-0.08968243
32	0x3db91b78	0.090384424
33	0x3e8c9b42	0.27462202
34	0x3eb1537b	0.34634003
35	0xbdc91f2f	-0.09820401
36	0x3d6ce0d4	0.0578316
37	0x3e0637e7	0.13107263
38	0xbe8b05fb	-0.27153
39	0xbe378e91	-0.17925479
40	0x3e19ac6b	0.15007178
41	0x3e6dda6e	0.23227856
42	0xbe8b4108	-0.27198052
43	0xbe0fa166	-0.14026412
44	0xbe7d189d	-0.2471642
45	0xbe4c56b2	-0.19954947
46	0x3e1f3128	0.15546095
47	0xbe850886	-0.25983065
48	0xbdc35583	-0.095377944
49	0xbdb8a47a	-0.090157464
50	0x3d460325	0.048342843
51	0xbc51088f	-0.012758388
52	0xbe346523	-0.17616706
53	0x3e5573ab	0.20844905
54	0x3e329ad4	0.17441875
55	0xbe42143f	-0.18953036
56	0x3e80e75e	0.2517652
57	0xbea764e3	-0.32694158
58	0xbebd6b85	-0.36996093
59	0x3c99b1e4	0.018761583
60	0x3ee614cd	0.44937745
61	0x3e01d3dc	0.12678474
62	0x3dbe0bea	0.09279616
63	0xbe81a221	-0.25319007
64	0x3e130704	0.14358145
65	0x3daadc9d	0.0834286
66	0x3ea02ec0	0.31285667
67	0xbd834bb6	-0.06410925
68	0x3dbe5485	0.092934646
69	0xbbf3c192	-0.007438847
70	0x3e4e266a	0.20131841
71	0x3c3f8cc2	0.011691274
72	0x3e931172	0.28724247
73	0x3d9675a5	0.07346658
74	0xbd5f48b7	-0.054512706
75	0xbdb2806a	-0.08715899
76	0xbc699283	-0.0142561225
77	0xbe8681f6	-0.26271027
78	0x3e7cf2d8	0.24702013
79	0xbe77456a	-0.24147573
80	0x3e86930e	0.2628407
81	0xbd219398	-0.039447397
82	0xbdb63113	-0.08896079
83	0xbe4de0d7	-0.20105301
84	0xbe8feac9	-0.28108814
85	0x3e11db89	0.14243902
86	0x3ced0dd9	0.028937267
87	0x3e915b67	0.28390047
88	0x3e22fe27	0.15917264
89	0x3eb560e8	0.35425496
90	0x3da8167c	0.082074136
91	0xbe258757	-0.1616491
92	0x3db3a815	0.087722935
93	0x3d9adaf6	0.07561295
94	0xbe0b7167	-0.13617478
95	0x3ddd1802	0.10795595
96	0xbd48e87e	-0.049049847
97	0x3ec4a72a	0.38408786
98	0x3ea3cc67	0.31991884
99	0x3c615333	0.013752746
100	0xbe924b45	-0.2857305
101	0xbe38d55c	-0.1805014
102	0x3e1455e1	0.14485885
103	0xbe9833f5	-0.2972714
104	0x3d98d259	0.07461996
105	0x3d958c8a	0.07302196
106	0xbd393c73	-0.045223664
107	0xbe006d8d	-0.1254179
108	0x3d4fb7a2	0.050712235
109	0x3e9c681b	0.30548176
110	0x3e88ebfc	0.26742542
111	0xbe9822b0	-0.29713964
112	0x3e2cd637	0.16878591
113	0x3e104039	0.14086999
114	0xbbf24325	-0.007393258
115	0x3e665b1e	0.22495696
116	0x3ea48500	0.3213272
117	0xbe9efba9	-0.31051376
118	0x3d5ca7b2	0.053870864
119	0xbce0a731	-0.027423473
120	0xbdf93e0a	-0.12170036
121	0x3dcdbe0c	0.10046014
122	0xbe55ef19	-0.2089199
123	0xbe53c489	-0.20680441
124	0xbddb107f	-0.10696506
125	0xbe29424b	-0.16529195
126	0x3e03e7ab	0.12881343
127	0xbe80fe83	-0.25194177
128	0x3e9b8b09	0.30379513
129	0x3e1c4a51	0.15262724
130	0xbea6c46e	-0.3257174
131	0xbd871eaa	-0.065976456
132	0x3e47b083	0.19500928
133	0x3e83827e	0.25685495
134	0xbaff8fd4	-0.001949782
135	0xbdfdca42	-0.12392093
136	0xbd94a51b	-0.07258054
137	0x3e5ddb1d	0.21665616
138	0xbe39257b	-0.18080704
139	0x3eaec5f9	0.34135416
140	0x3de0a86e	0.109696254
141	0x3f0af2a2	0.5427648
142	0xbd81bbfc	-0.06334683
143	0x3cfef434	0.031122304
144	0xbe3a1187	-0.18170749
145	0x3eafda38	0.34346175
146	0xbec20adc	-0.3789891
147	0xbec5d378	-0.386379
148	0xbcf4bd14	-0.029875316
149	0xbe648058	-0.22314584
150	0xbdada476	-0.08478634
151	0xbe290629	-0.16506256
152	0xbb46ab29	-0.0030314422
153	0x3e645a9a	0.22300187
154	0x3e97f8ad	0.29681912
155	0xbbdf686a	-0.006817867
156	0x3e0ae0b4	0.1356228
157	0x3df85d51	0.12127174
158	0x3e28dfde	0.16491649
159	0x3e06f6c5	0.13180073
160	0xbe8fc70d	-0.2808155
161	0x3e03cd63	0.12871318
162	0xbd8a8ef3	-0.06765547
163	0x3e0a3d04	0.13499838
164	0xbebc71e9	-0.36805657
165	0xbc33cb8f	-0.010973825
166	0x3e7a0c3e	0.24418733
167	0x3ede4b8a	0.43417007
168	0x3e24f6a3	0.1610971
169	0xbe5f22dd	-0.21790643
170	0x3d91c7fa	0.071182206
171	0x3ddb7c4f	0.10717069
172	0x3e175f66	0.14782485
173	0xbe1e3230	-0.15448833
174	0xbd96726d	-0.07346044
175	0x3e6456f0	0.22298789
176	0x3e47d9fc	0.19516748
177	0x3e1e3142	0.15448478
178	0xbe408650	-0.18801236
179	0xbe119c67	-0.14219819
180	0x3eb7149c	0.3575791
181	0xbd16e79d	-0.036841977
182	0xbdeb0bef	-0.114768855
183	0x3ea36c72	0.31918675
184	0xbe737831	-0.23776318
185	0x3e7deb57	0.24796806
186	0x3e6875b2	0.22701147
187	0xbdcc52d6	-0.09976737
188	0x3d7648dc	0.060128078
189	0xbda20593	-0.079112194
190	0x3e26608f	0.16247772
191	0x3dad0e5e	0.08450006
192	0xbeadf665	-0.33977047
193	0xbcb2c86f	-0.02182409
194	0x3e32b3ae	0.17451355
195	0xbe628959	-0.22122706
196	0xbe7d91ec	-0.24762696
197	0x3c207689	0.009793886
198	0xbe28afd5	-0.16473325
199	0xbe5bc1a4	-0.21460587
200	0x3ee19133	0.4405609
201	0x3d0c6a25	0.034280915
202	0xbe3b8edb	-0.18316214
203	0x3e276532	0.16347197
204	0xbbaa6d28	-0.0052010007
205	0xbe6a8c8d	-0.22905178
206	0x3ea9951c	0.33121574
207	0x3c67a3d0	0.014138177
208	0x3ea50b5b	0.32235226
209	0x3dab1f0e	0.083555326
210	0x3eb813c1	0.3595257
211	0xbe0fd224	-0.14045006
212	0x3e745b4c	0.23862952
213	0x3e93d706	0.28874987
214	0x3d956c70	0.072960734
215	0xbebaec39	-0.3650835
216	0xbe09cc07	-0.13456737
217	0xbec716c9	-0.3888457
218	0xb9f9c118	-0.00047636847
219	0x3e3f79bc	0.18698782
220	0xbd08903d	-0.03334068
221	0x3c3f76b5	0.011686017
222	0xbe713300	-0.23554611
223	0xbe5bd336	-0.2146729
224	0xbeade82d	-0.339662
225	0x3df5ae8f	0.11996185
226	0x3c7370fe	0.014858482
227	0x3e4ee88d	0.20205899
228	0x3c2d9b35	0.010596086
229	0xbd2f1706	-0.042746566
230	0xbe3771d1	-0.17914511
231	0x3e8c409b	0.2739304
232	0x3e55493b	0.20828716
233	0xbdb27097	-0.08712881
234	0x3d6f3c9d	0.058407415
235	0xbdcf404c	-0.101196855
236	0xbe006883	-0.12539868
237	0xbe9ca110	-0.3059163
238	0x3e425b67	0.1898018
239	0xbdab9ee0	-0.083799124
240	0x3e15e2ab	0.14637248
241	0x3e427971	0.18991639
242	0x3e81ecfc	0.25376117
243	0x3da1552a	0.07877572
244	0xbeb6e945	-0.35724846
245	0x3e3a81a4	0.18213516
246	0x3cfb52f3	0.030679202
247	0x3e4916f6	0.19637665
248	0xbb3a79bb	-0.0028453905
249	0x3d4c9497	0.049946394
250	0x3e26540a	0.16242996
251	0xbd22791a	-0.039666273
252	0x3ddbcdaf	0.107325904
253	0x3d8b75e6	0.06809597
254	0xbc9fd361	-0.019509973
255	0xbeb71eea	-0.35765773

bias f4 [400]
0	0xbdbb637c	-0.091498345
1	0x3d6b2b3c	0.05741428
2	0x3cd9468f	0.026522903
3	0xbed18bd3	-0.4092699
4	0xbe8489f5	-0.25886503
5	0xbe99c2a0	-0.300313
6	0xbe8dae3c	-0.27671993
7	0xbea39d96	-0.31956166
8	0xbdde8367	-0.10864907
9	0xbea427b4	-0.3206154
10	0xbed05718	-0.40691447
11	0xbea59fb4	-0.32348406
12	0xbebd83d9	-0.37014654
13	0xbdb61ffa	-0.08892818
14	0xbe9cdbd4	-0.30636466
15	0xbf00c712	-0.5030376
16	0xbe6a9741	-0.22909261
17	0xbe5119e9	-0.2042004
18	0xbe1330f8	-0.14374149
19	0xbed4097b	-0.41413483
20	0xbe6c15ce	-0.23055193
21	0xbef43e7a	-0.47703916
22	0xbe6a621a	-0.22888985
23	0xbe8c7582	-0.274334
24	0xbe8dcec7	-0.2769682
25	0xbe760404	-0.2402497
26	0xbe930da0	-0.28721333
27	0xbdef5340	-0.116858006
28	0xbe8ef3ab	-0.2792028
29	0xbd661a03	-0.05617715
30	0xbe919ce1	-0.28440002
31	0xbeb59ef6	-0.3547284
32	0xbe8ca933	-0.2747284
33	0xbe8a0f5b	-0.2696484
34	0xbee65a62	-0.44990832
35	0xbbe0c715	-0.00685967
36	0x3d82951b	0.06376096
37	0xbc0de48f	-0.00866045
38	0xbe8e2ab6	-0.2776696
39	0xbe7ccc71	-0.24687363
40	0xbe566eaa	-0.20940652
41	0xbe5c222c	-0.2149741
42	0xbeb648e6	-0.35602492
43	0xbefc90ae	-0.49329132
44	0xbe726b26	-0.23673686
45	0xbe99fae9	-0.30074242
46	0xbee0dee3	-0.4392005
47	0xbd4c8ff2	-0.049941964
48	0xbe7da21d	-0.24768873
49	0xbd9e0837	-0.077164106
50	0xbee54d04	-0.4478532
51	0xbe2ca81e	-0.16861007
52	0xbe0a070d	-0.13479252
53	0xbe50662d	-0.20351477
54	0xbea8868b	-0.32915148
55	0xbed40ac9	-0.41414478
56	0xbee2dfbe	-0.44311327
57	0xbe4019fe	-0.18759915
58	0xbeadf2b1	-0.3397422
59	0xbea318bb	-0.31854805
60	0xbd22f702	-0.039786346
61	0xbdebe74a	-0.11518724
62	0xbee6a18e	-0.4504513
63	0xbee1f2b4	-0.4413048
64	0xbe443eb7	-0.19164549
65	0xbecbbc84	-0.39792264
66	0xbdaaa368	-0.083319485
67	0xbe01e724	-0.1268583
68	0xbead32b4	-0.33827746
69	0xbe813a48	-0.25239778
70	0xbe7f0bf7	-0.24906908
71	0xbc42cad9	-0.011889183
72	0xbe50a7b4	-0.20376474
73	0x3e385ce2	0.18004182
74	0xbe83824f	-0.25685355
75	0x3ceb2907	0.028706087
76	0xbef0ca42	-0.4702931
77	0xbe53742e	-0.20649788
78	0xbe40360c	-0.18770617
79	0xbe09bcd4	-0.13450938
80	0xbdc0940b	-0.09403237
81	0xbedfc510	-0.43705034
82	0xbe8d67da	-0.27618295
83	0xbdd53a53	-0.10411515
84	0xbe6c4294	-0.23072273
85	0xbdf9b923	-0.12193515
86	0xbe9a2462	-0.30105883
87	0xbebb4f25	-0.3658382
88	0xbe989442	-0.29800612
89	0xbecd4206	-0.40089434
90	0xbe69dcae	-0.22838089
91	0xbea94474	-0.33060038
92	0xbe52a20d	-0.2056963
93	0xbd7b7f57	-0.061400738
94	0xbeb0918c	-0.34486043
95	0xbe458f8f	-0.19293045
96	0xbe66fb0a	-0.22556701
97	0xbc77dbd5	-0.015128096
98	0xbee2abf4	-0.44271815
99	0x3ba016d9	0.004885536
100	0xbeb03363	-0.34414205
101	0xbe9d33f5	-0.30703703
102	0xbed7af6e	-0.4212603
103	0xbee42e4c	-0.44566572
104	0xbe47ed29	-0.19524063
105	0xbe038f7f	-0.12847708
106	0xbebc0fe0	-0.36730862
107	0xbeb76f72	-0.35827214
108	0xbec4ecdf	-0.38461968
109	0xbe0ac7c5	-0.13552769
110	0xbe7343fe	-0.23756406
111	0xbec5ee37	-0.38658306
112	0xbedc9783	-0.43084344
113	0xbe394e9c	-0.18096393
114	0xbe1a9ec2	-0.15099624
115	0x3b81c296	0.003959964
116	0xbec6e975	-0.3884999
117	0x3e250faa	0.16119257
118	0xbec6a5af	-0.38798282
119	0xbedca122	-0.43091685
120	0xbef62cf4	-0.48081172
121	0xbe122b67	-0.14274369
122	0xbecb8c7f	-0.39755628
123	0xbd28d1e2	-0.041215785
124	0xbf0bb4b0	-0.5457258
125	0xbd560d4e	-0.052258782
126	0xbe375f8f	-0.17907546
127	0xbea4031b	-0.3203362
128	0xbef55184	-0.47913754
129	0xbda51b52	-0.080618516
130	0xbec10871	-0.37701753
131	0xbe7c9a67	-0.24668275
132	0xbe510ac9	-0.2041427
133	0xbe46ee5a	-0.19426861
134	0xbe29a45e	-0.16566607
135	0xbb57c585	-0.0032924127
136	0xbeabe1ce	-0.33570713
137	0xbe9b1ee3	-0.30297002
138	0xbe50add5	-0.20378812
139	0xbeb23e5b	-0.34813198
140	0xbeb676ed	-0.35637608
141	0xbeece0d9	-0.46265295
142	0xbebaba2b	-0.3647016
143	0xbeaf7ebc	-0.34276378
144	0xbec5aa1a	-0.3860634
145	0xbed7a815	-0.42120424
146	0xbccf6757	-0.025317831
147	0xbe72d51b	-0.23714106
148	0xbdae73c2	-0.08518173
149	0xbe7e6d62	-0.24846414
150	0xbec3d717	-0.38250038
151	0xbd405af5	-0.046961743
152	0xbea46d0f	-0.32114455
153	0xbe070bb1	-0.13188054
154	0xbf0c2839	-0.54748875
155	0xbe13ac7a	-0.14421263
156	0xbdacda35	-0.08440057
157	0xbe5d0c69	-0.21586765
158	0xbe755a9b	-0.23960344
159	0xbeb78de2	-0.35850435
160	0xbe3cf880	-0.1845417
161	0xbe641e89	-0.22277273
162	0xbe1e6db9	-0.15471543
163	0xbe5d0c0d	-0.21586628
164	0xbe955f67	-0.2917435
165	0xbd5a7a23	-0.053339135
166	0x3da73f3b	0.08166357
167	0xbeae090a	-0.3399127
168	0xbe9d794f	-0.30756614
169	0xbd938550	-0.07203162
170	0xbec61307	-0.38686392
171	0xbe5088b4	-0.20364648
172	0xbd08e1e1	-0.03341854
173	0xbeb9edac	-0.36314142
174	0xbe8e5cf2	-0.27805287
175	0xbdc9f175	-0.098605074
176	0xbe080c99	-0.13286056
177	0xbebe3361	-0.37148574
178	0xbeb1ef42	-0.34752852
179	0xbdd31f4c	-0.10308704
180	0xbc2648e4	-0.010149214
181	0xbeaa1fa7	-0.33227274
182	0x3e069910	0.13144326
183	0xbe6cf065	-0.23138578
184	0xbf038164	-0.5136931
185	0xbec7f5cb	-0.39054713
186	0xbe6e56cc	-0.23275298
187	0xbe3b1796	-0.18270716
188	0xbe83c916	-0.25739354
189	0xbf003b52	-0.50090516
190	0xbec61443	-0.38687333
191	0xbe3abb54	-0.18235523
192	0xbe3d3182	-0.18475917
193	0xbe932eaf	-0.28746554
194	0xbe6d887c	-0.23196596
195	0xbdbffc43	-0.09374287
196	0xbdee4a49	-0.116352625
197	0xbec64ffa	-0.38732892
198	0x3bde0759	0.0067757783
199	0xbea96ced	-0.33090916
200	0xbea9f8fb	-0.3319777
201	0xbe88b699	-0.2670181
202	0x3cb24934	0.021763422
203	0xbe6602fe	-0.22462079
204	0xbe21739b	-0.15766756
205	0xbd99eb1c	-0.07515547
206	0xbe05ddc5	-0.1307288
207	0xbe09432d	-0.13404532
208	0xbebf6dad	-0.37388363
209	0xbed02dff	-0.40660092
210	0xbee3f165	-0.44520107
211	0xbf0fbdde	-0.5614909
212	0xbe9ecd89	-0.31016186
213	0xbe8bfc3c	-0.27340877
214	0xbe9ecb07	-0.31014273
215	0xbdab1287	-0.08353143
216	0xbe677d6f	-0.22606443
217	0xbeb86ae4	-0.3601905
218	0xbe616770	-0.22012115
219	0xbeac22ba	-0.33620244
220	0xbe64fcd0	-0.22362065
221	0xbe84f4f9	-0.2596815
222	0xbec250e8	-0.37952352
223	0xbe98b5dd	-0.2982625
224	0x3bb15354	0.005411545
225	0xbecc208e	-0.39868587
226	0x3e811e55	0.25218454
227	0xbeb3ebbc	-0.3514079
228	0xbe5908f5	-0.21194823
229	0xbef60e34	-0.4805771
230	0xbec69629	-0.38786438
231	0xbe4d30c3	-0.20038132
232	0xbe7dc6c0	-0.24782848
233	0xbea8fa62	-0.33003527
234	0xbe4200c0	-0.18945599
235	0x3e0b2208	0.135872
236	0xbe431373	-0.19050388
237	0xbede212e	-0.4338469
238	0xbe940fcb	-0.289183
239	0x3d94b74b	0.07261523
240	0xbe513bf8	-0.20433033
241	0xbd8b8deb	-0.06814178
242	0xbe23acc0	-0.15983868
243	0xbe88d894	-0.26727736
244	0xbea3ef61	-0.3201857
245	0xbed62f69	-0.41833046
246	0xbe943612	-0.28947502
247	0xbea7658a	-0.32694656
248	0xbdb19e27	-0.08672743
249	0xbecd0858	-0.40045428
250	0xbe41b8d9	-0.1891817
251	0xbe12eea5	-0.14348848
252	0xbec2248c	-0.37918508
253	0xbea1e23a	-0.3161791
254	0xbca46269	-0.020066457
255	0xbf0b7b6b	-0.54485196

weight f4 [100, 400]
0	0x3d8b1f16	0.067930385
1	0x3dad4652	0.08460678
2	0x3d7d0d81	0.061780456
3	0x3db2f69b	0.087384425
4	0x3e0f8080	0.14013863
5	0x3e51b8a7	0.20480596
6	0x3e2cb728	0.16866744
7	0x3dc41825	0.09574918
8	0x3df1edae	0.11812912
9	0x3d92069e	0.071301684
10	0x3e80e880	0.25177383
11	0x3e2eaa0e	0.17057058
12	0x3e6dfb63	0.23240428
13	0x3e7a387f	0.24435614
14	0x3e0f4742	0.13992026
15	0x3e69a0f7	0.2281531
16	0x3e2428b3	0.1603115
17	0x3e343968	0.17600024
18	0x3e9d03b7	0.30666897
19	0x3ddd5238	0.108066976
20	0x3e708740	0.23489094
21	0x3e8ef3d0	0.2792039
22	0x3e3e5d24	0.18590218
23	0x3e66154f	0.22469066
24	0x3e506547	0.20351134
25	0x3e8209ec	0.25398195
26	0x3dd74859	0.10511846
27	0x3da0af7e	0.078459725
28	0x3e2820e4	0.16418797
29	0x3db9a36e	0.09064375
30	0x3e2db8cc	0.16965026
31	0x3ddde9c8	0.10835606
32	0x3db5c4a1	0.088753946
33	0x3e616368	0.22010577
34	0x3da4d630	0.080486655
35	0x3c95c1f4	0.01828096
36	0x3db1ff7e	0.086913094
37	0x3daec084	0.08532813
38	0x3dd9f9cf	0.1064335
39	0x3d2bdd02	0.041958816
40	0x3de79e3d	0.113094784
41	0x3e1d18b3	0.15341453
42	0x3db25967	0.087084584
43	0x3e5ea324	0.2174192
44	0x3e234962	0.15945962
45	0x3e0f4c62	0.13993981
46	0x3dcc6fc3	0.09982254
47	0x3d949f0d	0.07256899
48	0x3dae2f37	0.08505099
49	0x3e1432e0	0.14472532
50	0x3e1c66f7	0.15273653
51	0x3d77a89d	0.060463537
52	0x3d0784ba	0.033085562
53	0x3dbcb588	0.09214312
54	0x3e04ce81	0.129694
55	0x3e206c40	0.15666294
56	0x3ed0566b	0.40690932
57	0x3ddd1b1c	0.10796186
58	0x3de6eb35	0.11275331
59	0x3e0acbe4	0.1355434
60	0x3e2986ab	0.16555278
61	0x3e422593	0.18959646
62	0x3e15d7a6	0.14633045
63	0x3e8c9e25	0.27464405
64	0x3dca1bf5	0.09868614
65	0x3e03aeec	0.12859696
66	0x3d64c99a	0.055856325
67	0x3d4e97e4	0.050437823
68	0x3dc065e1	0.09394432
69	0x3d908bbc	0.07057902
70	0x3e87548d	0.26431695
71	0x3dc73909	0.097276755
72	0x3e3a91de	0.18219706
73	0x3e6c64ea	0.2308537
74	0x3e1ae814	0.15127593
75	0x3cd76f0f	0.026298074
76	0x3e06d596	0.13167414
77	0x3e107e54	0.1411069
78	0x3debf7f4	0.11521903
79	0x3da08fe8	0.07839948
80	0x3f216717	0.6304793
81	0x3e60559a	0.21907654
82	0x3e3d160c	0.18465441
83	0x3dd9a8a3	0.10627868
84	0x3da4fcd2	0.08056034
85	0x3dd352a4	0.10318497
86	0x3e18da2a	0.14926973
87	0x3e01065d	0.12600084
88	0x3e0bcff3	0.13653545
89	0x3dc8958d	0.097941495
90	0x3e1f6729	0.15566696
91	0x3d93a96c	0.07210049
92	0x3d91f52e	0.071268424
93	0x3df959a3	0.121753
94	0x3d3f5b6d	0.04671805
95	0x3de48e92	0.11160006
96	0x3e23f6b8	0.16012084
97	0x3d0090f2	0.03138823
98	0x3e8095d1	0.251143
99	0x3e013283	0.12616925
100	0x3db1b9ac	0.08677992
101	0x3e1aa0d2	0.1510041
102	0x3e40ad7e	0.18816182
103	0x3e3bae71	0.18328263
104	0x3da48712	0.08033575
105	0x3e20d3c6	0.15705785
106	0x3e246a5a	0.16056195
107	0x3e3851c8	0.17999947
108	0x3dda6420	0.106636286
109	0x3dd290bb	0.102815114
110	0x3e07eba2	0.1327348
111	0x3e2882a2	0.16456082
112	0x3e22cd62	0.1589866
113	0x3e2f18e9	0.17099346
114	0x3e31b42e	0.1735389
115	0x3e1d86b4	0.15383416
116	0x3e52172c	0.20516652
117	0x3e731499	0.23738326
118	0x3e798ef9	0.24370946
119	0x3efd89f0	0.495193
120	0x3df0ae3b	0.11751982
121	0x3e27933a	0.16364756
122	0x3e182e1e	0.14861342
123	0x3d0e17dd	0.034690727
124	0x3edd3c31	0.43209985
125	0x3dbb9612	0.09159483
126	0x3ddee359	0.10883207
127	0x3e0e7fda	0.13915959
128	0x3e87e143	0.2653905
129	0x3e4d0589	0.20021643
130	0x3de6fd0b	0.11278733
131	0x3decaaac	0.115559906
132	0x3e83fa64	0.2577697
133	0x3d1d0d4e	0.038342766
134	0x3e18512a	0.14874712
135	0x3df4e5f7	0.11957925
136	0x3e11478e	0.14187452
137	0x3e83ced5	0.25743738
138	0x3dd5bc34	0.104362875
139	0x3d547fe1	0.051879767
140	0x3e12ce6f	0.1433656
141	0x3e897311	0.268456
142	0x3e98583e	0.29754823
143	0x3dc64e62	0.09682919
144	0x3e254768	0.1614052
145	0x3e4e1a5e	0.20127246
146	0x3e02e612	0.12783077
147	0x3e501c97	0.20323406
148	0x3deff409	0.11716468
149	0x3e2ade50	0.16686368
150	0x3ea32c0f	0.31869552
151	0x3c112d05	0.008860831
152	0x3e1d5618	0.15364873
153	0x3cb6c3a6	0.02231009
154	0x3e52edd2	0.20598534
155	0x3de017a6	0.109420106
156	0x3dd57186	0.104220435
157	0x3e5047b0	0.20339847
158	0x3de3b098	0.11117667
159	0x3e2a15a8	0.16609824
160	0x3db43936	0.087999746
161	0x3dce5e4c	0.100765795
162	0x3e829e9e	0.2551164
163	0x3e3f2fd9	0.18670596
164	0x3e16bded	0.14720888
165	0x3e66f626	0.22554836
166	0x3de59f6c	0.11212048
167	0x3e06843d	0.13136382
168	0x3e1c80b7	0.15283476
169	0x3d846830	0.06465185
170	0x3e9361f0	0.28785658
171	0x3d9f8048	0.077881396
172	0x3e3135d9	0.17305698
173	0x3e223bb7	0.15843092
174	0x3e0a2532	0.13490751
175	0x3dfb714f	0.12277471
176	0x3dad7804	0.08470157
177	0x3e093ab5	0.13401301
178	0x3d7bd4bd	0.06148218
179	0x3e3c546e	0.18391582
180	0x3e0c27a7	0.13687001
181	0x3e20c7eb	0.15701263
182	0x3ee74254	0.45167792
183	0x3eaaf232	0.33387905
184	0x3e477789	0.19479193
185	0x3d40e739	0.04709551
186	0x3e3a28dd	0.1817965
187	0x3dab41cf	0.08362161
188	0x3de999f3	0.114063166
189	0x3e8b3a72	0.27193028
190	0x3e3f4214	0.1867755
191	0x3e11d9c2	0.14243224
192	0x3dc375af	0.09543931
193	0x3dc0033e	0.093756184
194	0x3dfcbde6	0.12340908
195	0x3ecfd273	0.40590248
196	0x3ba50a30	0.005036615
197	0x3e222142	0.15833
198	0xbc559c46	-0.013037747
199	0x3dfd872e	0.12379299
200	0x3e1a0d6d	0.15044184
201	0x3f29e63a	0.6636692
202	0x39e16e76	0.00042997644
203	0x3e091ccd	0.13389893
204	0x3db784ff	0.08960914
205	0x3df27da2	0.11840369
206	0x3e154672	0.14577654
207	0x3ddb0d1f	0.10695862
208	0x3ea048dd	0.3130559
209	0x3d206748	0.039160997
210	0x3e65950b	0.22420137
211	0x3e623de8	0.22093928
212	0x3e15da41	0.14634039
213	0x3e3162fb	0.17322914
214	0x3d85c345	0.06531385
215	0x3d598db5	0.053113658
216	0x3d984c4f	0.0743643
217	0x3dad98f9	0.08476443
218	0x3e629a8b	0.22129266
219	0x3df624e5	0.12018756
220	0x3db5e753	0.08882012
221	0x3e5bfcb8	0.21483123
222	0x3e02567e	0.12728307
223	0x3e0281f1	0.12744881
224	0x3de86803	0.11347964
225	0x3e335c37	0.17515646
226	0x3e3906d6	0.18069014
227	0x3e2ab073	0.16668873
228	0x3de36fb7	0.11105292
229	0x3eed4403	0.4634095
230	0x3dcab3ac	0.09897551
231	0x3de21b4d	0.110403635
232	0x3e006f75	0.12542517
233	0x3debf7c1	0.11521865
234	0x3e86a81d	0.26300135
235	0x3e073170	0.13202453
236	0x3e2bdd9d	0.16783758
237	0x3d89819c	0.06714174
238	0x3e804860	0.25055218
239	0x3da4446e	0.080208644
240	0x3d9c81a9	0.07641918
241	0x3e71f0d7	0.2362703
242	0x3eb1adf0	0.34703016
243	0x3e1393bb	0.14411823
244	0x3d9f24f2	0.07770719
245	0x3e26c50e	0.16286108
246	0x3e0871d2	0.13324669
247	0x3e00ce59	0.12578715
248	0x3ead5d19	0.3386009
249	0x3e4f5484	0.20247084
250	0x3deb474a	0.11488207
251	0x3df3f142	0.11911251
252	0x3e836c2a	0.2566846
253	0x3e2726d9	0.16323413
254	0x3e384b93	0.1799758
255	0x3e4a79cb	0.19773023

bias f4 [100]
0	0x3f0b5574	0.54427266
1	0xbde69274	-0.112584025
2	0x3f0e36e6	0.5555252
3	0x3ebfa6c5	0.37431923
4	0x3f1ea5a2	0.61971486
5	0x3f178ad9	0.5919624
6	0xbdb956c3	-0.090497516
7	0x3e590cb5	0.21196254
8	0xbd226d59	-0.039655063
9	0xbc351ffa	-0.011054987
10	0x3e255898	0.16147077
11	0xbd880525	-0.06641606
12	0xbdcdf4e7	-0.10056477
13	0x3ec98e47	0.39366361
14	0x3ecb3f68	0.39696813
15	0xbe5ed6cc	-0.21761626
16	0xbd9467aa	-0.07246335
17	0xbd74355a	-0.059621193
18	0xbd8abf7e	-0.067748055
19	0xbd381b2d	-0.04494779
20	0x3f2490d6	0.642835
21	0xbdcfaac7	-0.10139995
22	0xbf93a9a5	-1.1536146
23	0xbdca2a61	-0.098713644
24	0xbdcb7c1b	-0.099357806
25	0x3ec6ffdd	0.38867083
26	0xbdfed13f	-0.12442254
27	0xbded1433	-0.11576118
28	0xbdacb8bc	-0.08433673
29	0x3f17f1bd	0.5935324
30	0x3f24018b	0.64064854
31	0xbddd686c	-0.108109325
32	0x3f0f30cf	0.5593385
33	0xbda13804	-0.07872012
34	0xbdb2a45b	-0.087227546
35	0x3f09fe23	0.53903407
36	0xbd4ef278	-0.050524205
37	0x3f02e3ef	0.5112905
38	0x3eba07a5	0.36333957
39	0xbda4ada7	-0.08040934
40	0xbdf454f1	-0.11930264
41	0xbde0aaea	-0.10970099
42	0xbda466ae	-0.08027397
43	0xbd92f916	-0.071764156
44	0xbdf15400	-0.117836
45	0xbd4ea091	-0.050446097
46	0xbded8887	-0.11598306
47	0xbe41eca8	-0.18937933
48	0xbe051f19	-0.13000144
49	0x3f0d10bf	0.5510368
50	0xbe196080	-0.14978218
51	0xbd3ccbea	-0.046092905
52	0xbdc21ca5	-0.0947812
53	0xbc5bb320	-0.013409406
54	0x3edcec03	0.43148813
55	0xbe1f8c59	-0.15580882
56	0xbe00bab0	-0.12571216
57	0x3f0b5d0b	0.5443885
58	0x3e7e13d7	0.24812256
59	0x3e8a4848	0.2700827
60	0x3f172ae2	0.5904981
61	0xbdca784b	-0.09886225
62	0xbde82cb4	-0.113366514
63	0x3f1dd1fc	0.61648536
64	0x3e87241b	0.26394734
65	0xbe15fee4	-0.14648014
66	0xbdd3ad77	-0.1033582
67	0xbd7b64ef	-0.061375555
68	0xbdb1b630	-0.08677328
69	0x3f2de83f	0.67932504
70	0xbe0eb6ef	-0.13936971
71	0x3e0ad5b5	0.13558085
72	0xbe014aba	-0.12626162
73	0xbdd1e428	-0.102485955
74	0xbdf62b6f	-0.12020003
75	0xbc4cd5c1	-0.012502135
76	0xbe431ef4	-0.19054776
77	0xbd5d8b68	-0.054088026
78	0xbdfbcf34	-0.1229538
79	0xbd51ae03	-0.05119134
80	0x3e5c57c7	0.2151786
81	0xbdb8ea7c	-0.09029099
82	0xbe05b20d	-0.13056202
83	0xbc9621ba	-0.018326629
84	0x3f1ca14c	0.6118362
85	0xbe01c000	-0.12670898
86	0xbc876f1f	-0.016532479
87	0x3f18b002	0.59643567
88	0xbd4b6c22	-0.04966367
89	0xbd924b43	-0.07143261
90	0x3e310c5a	0.17289868
91	0xbf8f2968	-1.1184511
92	0xbd7fc66d	-0.062445093
93	0xbd9efe9f	-0.07763409
94	0x3f29fb20	0.6639881
95	0x3f0d7049	0.5524946
96	0xbb13e5d9	-0.002256742
97	0xbd97add3	-0.07406201
98	0xbdaf72bd	-0.085668065
99	0xbd650de7	-0.05592146

weight f4 [1, 100]
0	0xbe3a49cc	-0.18192214
1	0xbce6bfb4	-0.028167583
2	0xbe5197a2	-0.20468
3	0xbdc680e9	-0.096925564
4	0xbe30215b	-0.17200224
5	0xbe1b719a	-0.15180054
6	0x3c908c54	0.017645039
7	0xbc66aa75	-0.014078726
8	0xbc3117a4	-0.010808859
9	0xbc87cf93	-0.016578471
10	0xbc04ed41	-0.008113206
11	0x3d4833a1	0.048877362
12	0xbd0f1040	-0.034927607
13	0xbdc5d2c9	-0.09659345
14	0xbd9eb67f	-0.07749652
15	0xbc802bc0	-0.015645862
16	0x3d3581a2	0.04431308
17	0xbcdaef8d	-0.026725555
18	0xbd1248f3	-0.0357141
19	0xbc5d38f2	-0.013502346
20	0xbea28d09	-0.31748226
21	0x3cf0a934	0.029377557
22	0xbce70173	-0.028198933
23	0x3ce73600	0.028223991
24	0x3d10d56c	0.035359785
25	0xbde6bbe1	-0.11266304
26	0xbd527f6d	-0.051391054
27	0xbd37fd57	-0.044919338
28	0xbbc805b3	-0.006104195
29	0xbe16d4ca	-0.1472961
30	0xbe893486	-0.26797885
31	0xbcd72119	-0.0262609
32	0xbe11bddf	-0.14232586
33	0xbc31c318	-0.010849737
34	0xbd0f0ca2	-0.034924157
35	0xbad1f675	-0.0016018884
36	0x3d109510	0.035298407
37	0xbe0b6f8d	-0.13616772
38	0xbba660f6	-0.0050774766
39	0x3d5fd929	0.05465046
40	0xbbd22268	-0.006412793
41	0xbbfbfe0d	-0.0076901973
42	0x3d301ec5	0.042998094
43	0xbc8b2006	-0.016983043
44	0xbd7216a4	-0.059103623
45	0xbd54aa45	-0.051920194
46	0x3d5bfe24	0.053709164
47	0xbc6ac145	-0.014328306
48	0x3cdc426b	0.02688714
49	0xbdbb552c	-0.091471046
50	0xbc97a60e	-0.018511798
51	0x3d16e0c1	0.036835436
52	0xbb8324c1	-0.004002184
53	0x3d22d2c4	0.039751783
54	0xbdb6b462	-0.08921124
55	0xbd504d5e	-0.050855033
56	0x3d19cc2e	0.037548237
57	0xbe332d9f	-0.17497872
58	0xbcbe04a7	-0.023195578
59	0xbd101fea	-0.035186686
60	0xbb80f88c	-0.003935879
61	0xbc46d953	-0.012136775
62	0xbcf41b2e	-0.029798117
63	0xbde96bb6	-0.11397497
64	0xbd3a1003	-0.045425426
65	0xbd8f7372	-0.07004441
66	0x3d69d6e9	0.05708972
67	0x3c5c8332	0.013459014
68	0x3c46bebb	0.012130435
69	0xbeb43a42	-0.35200697
70	0xbd5690d3	-0.05238421
71	0xbb71b5dd	-0.003688208
72	0xb945cdcf	-0.00018864054
73	0x3acb3c0f	0.001550557
74	0xbd651e3a	-0.05593703
75	0x3d5b5e62	0.053556807
76	0x3b84d149	0.004053269
77	0x3d1ee84a	0.038795747
78	0x3d55d720	0.052207112
79	0xbcfe4854	-0.031040348
80	0xbc24366c	-0.010022741
81	0xbbb14147	-0.005409393
82	0xbc7169f2	-0.014734732
83	0x3d0a624a	0.033785142
84	0xbe524579	-0.20534314
85	0xbbeacadc	-0.007165296
86	0xbd9c1e6b	-0.07622989
87	0xbbe91c30	-0.007113956
88	0xbc8f26aa	-0.017474491
89	0x3cb0707d	0.021538014
90	0xbc15bc86	-0.009139186
91	0xbe5175f1	-0.20455147
92	0xbc32671b	-0.01088884
93	0xbc2823c4	-0.010262433
94	0xbe680e44	-0.22661692
95	0xbe3f41ff	-0.1867752
96	0x3b6c61fd	0.0036069148
97	0x3d5b3e69	0.053526316
98	0x3d4fd090	0.05073601
99	0xbcb56d19	-0.022146748
