Gibbs_MINE/pw_result_trained_twice/model_lk_b=10_s=0.5_p=28_[2].pth (torch, 209815 bytes, 5 tensors)

weight f4 [400, 28]
0.021721449 0.16951126 0.36255863 -0.08628294 0.010998098 0.08440036 -0.012270399 -0.2946672
-0.27793047 -0.37832576 0.09120723 0.1646852 0.05456854 -0.123914875 0.12820695 -0.07001743
0.2333352 0.16033398 -0.27848905 -0.0028704363 0.03531225 -0.28573903 -0.07467783 0.32813233
-0.22033808 0.22013772 0.36186406 -0.031324476 0.039201718 0.0041705975 0.26783034 -0.07727617
0.32002383 0.31467745 0.26422524 -0.12776284 -0.023691706 -0.10733385 -0.31166765 -0.13189244
0.06975962 0.15026869 -0.1537135 -0.011534775 -0.33639842 -0.18286927 0.28780752 -0.2626908
-0.12101931 -0.1507134 0.2572201 -0.04040144 0.13566644 0.05938703 -0.006238231 0.040745877
0.2693807 -0.24578534 -0.0973037 -0.22150703 0.30904925 0.0014264768 0.043041717 -0.15925926
0.0027574429 -0.09284283 0.11721385 -0.0033021648 0.0055427724 -0.18462543 0.24263857 0.15310515
0.2734779 -0.029684125 -0.1814835 -0.18362585 -0.026610106 -0.24325559 0.38653597 -0.17691852
0.019759893 -0.071498945 -0.120697744 -0.18006486 -0.21096362 0.009368887 0.19265136 0.006650116
0.3355763 0.2993956 -0.055932544 -0.26968396 0.23747459 0.05764382 0.0045513716 0.13582785
-0.16062696 0.18170528 0.21972308 0.22249109 -0.08667532 0.058460068 -0.025088066 -0.5081923
-0.027400406 -0.2502907 -0.19976354 -0.19646163 0.07338558 0.10488676 0.19763307 -0.05276731
0.31212732 0.1731859 0.027882174 0.08761957 0.13030252 -0.22085294 -0.17917801 -0.040180724
-0.08974574 -0.080495454 -0.25416747 -0.30307218 -0.016167862 -0.03823002 -0.18325697 -0.09441321
0.19610408 0.26949337 -0.34867176 -0.07487331 0.0190809 -0.008391852 -0.085085794 0.07034149
-0.08026358 0.36625224 -0.23278084 0.02844001 -0.056460854 -0.04406785 0.00017356605 -0.39437678
-0.5052058 -0.016168807 -0.10180434 -0.14931399 0.14362393 -0.11676375 0.27390674 -0.2765643
0.07094873 0.06397113 0.36444098 0.097801246 0.17835458 -0.14116159 0.15013014 0.108029015
-0.106211595 -0.014587829 0.08384765 -0.08272751 -0.22032169 -0.08856875 0.32699907 0.031415727
0.31730467 -0.25497493 0.13708504 0.0033031532 0.06603823 -0.16422644 0.09786081 0.08893265
0.30340746 0.016405812 -0.3565957 -0.18459785 0.16128506 -0.045688193 0.054436177 0.16960317
-0.3293404 0.27380967 0.2555193 -0.16406439 0.04925002 0.030487642 0.060115196 0.058595426
-0.43218017 0.010365344 0.2280949 0.06064581 -0.16152805 0.050513554 -0.09490615 -0.23406328
0.0072475523 0.038233016 -0.06061337 0.109684594 -0.12674008 -0.15392186 0.535183 -0.057882275
0.1597548 0.23563005 0.28457913 0.18975636 0.009810579 0.50476533 -0.044045947 -0.00030005653
-0.13597812 -0.119500525 0.121330135 0.010740159 -0.15826961 0.059011906 -0.19354552 -0.103004724
-0.15596204 0.28177312 0.18382023 0.17691226 -0.1742351 0.059192337 -0.24244328 -0.033256985
0.26747093 -0.14844733 -0.05662673 0.14632751 -0.022843527 -0.31416214 0.11333775 -0.15781327
0.22785462 0.39847338 0.025229726 -0.056444217 -0.3030586 -0.040373944 0.066204615 0.09166318
-0.2065107 0.0728755 0.15605272 0.0035012136 0.101400726 0.23253028 -0.08937223 -0.402449
00000000: 2ef1 b13c 5c94 2d3e 49a1 b93e 1cb5 b0bd
00000010: 5e31 343c 19da ac3d c909 49bc 9fde 96be
00000020: e74c 8ebe eab3 c1be dbca ba3d 3da3 283e
00000030: 4383 5f3d 15c7 fdbd af48 033e 4c65 8fbd
00000040: 6cef 6e3e 972e 243e 1e96 8ebe ee1d 3cbb
00000050: 94a3 103d 634c 92be b1f0 98bd f600 a83e
00000060: 4ea0 61be c86b 613e 3f46 b93e 184e 00bd
00000070: fb91 203d 82a9 883b 0f21 893e f842 9ebd
00000080: 2ada a33e 671d a13e 8848 873e 43d4 02be
00000090: 1c15 c2bc d9d1 dbbd e792 9fbe d00e 07be
000000a0: 22de 8e3d 09e0 193e 1267 1dbe 5afc 3cbc
000000b0: 6a3c acbe 1542 3bbe 825b 933e 697f 86be
000000c0: f9d8 f7bd 9d54 1abe 5ab2 833e fb7b 25bd
000000d0: 25ec 0a3e d03f 733d 136a ccbb 26e5 263d
000000e0: 44ec 893e 27af 7bbe 2a47 c7bd bdd2 62be
000000f0: b43b 9e3e 9ef8 ba3a 834c 303d dc14 23be
00000100: 37b6 343b 6224 bebd d10d f03d 2269 58bb
00000110: 25a0 b53b 730e 3dbe 3f76 783e 99c7 1c3e
00000120: 4c05 8c3e 1f2c f3bc d0d6 39be 6a08 3cbe
00000130: 70fd d9bc fe17 79be 0be8 c53e 212a 35be
00000140: 80df a13c 0a6e 92bd 6130 f7bd ec62 38be
00000150: d906 58be f67f 193c 6646 453e 37e9 d93b
00000160: a8d0 ab3e 614a 993e 8619 65bd 0414 8abe
00000170: 8a2c 733e ed1b 6c3d ac23 953b 7516 0b3e
00000180: 657b 24be f310 3a3e 16ff 603e b4d4 633e
00000190: d582 b1bd d373 6f3d 7d85 cdbc e418 02bf
000001a0: d176 e0bc 1a26 80be d08e 4cbe 3d2d 49be
000001b0: 2e4b 963d dfce d63d 5360 4a3e 8922 58bd
000001c0: 27cf 9f3e a557 313e 2869 e43c e471 b33d
000001d0: 066e 053e 4627 62be 717a 37be 8b94 24bd
000001e0: 9dcc b7bd cdda a4bd 3d22 82be 472c 9bbe
000001f0: 7772 84bc 1597 1cbd b7a7 3bbe b75b c1bd
00000200: 82cf 483e 09fb 893e 1b85 b2be 2e57 99bd
00000210: 8c4f 9c3c fa7d 09bc 7641 aebd 330f 903d
00000220: 3b61 a4bd 6a85 bb3e 1a5e 6ebe 06fb e83c
00000230: 7f43 67bd 7d80 34bd 48ff 3539 c1eb c9be
00000240: 2b55 01bf 7274 84bc cb7e d0bd c4e5 18be
00000250: 2712 133e d521 efbd 813d 8c3e d699 8dbe
00000260: 914d 913d 4c03 833d 0298 ba3e 054c c83d
00000270: 95a2 363e aa8c 10be b7bb 193e 513e dd3d
00000280: 7785 d9bd ca01 6fbc 51b8 ab3d 0a6d a9bd
00000290: 029c 61be 8863 b5bd 6c6c a73e c7ad 003d
000002a0: c275 a23e 138c 82be 0560 0c3e b779 583b
000002b0: 0d3f 873d fa2a 28be 406b c83d 5222 b63d
000002c0: 3958 9b3e 7b65 863c b693 b6be 3807 3dbe
000002d0: e927 253e 8b23 3bbd 78f8 5e3d 74ac 2d3e
000002e0: 4e9f a8be c830 8c3e 6dd3 823e 7f00 28be
000002f0: 64ba 493d 38c1 f93c 5a3b 763d c201 703d
00000300: b846 ddbe 67d3 293c b691 693e be67 783d
00000310: 9c67 25be 4de7 4e3d 285e c2bd 49ae 6fbe
00000320: e07c ed3b 399a 1c3d ba45 78bd 51a2 e03d
00000330: 27c8 01be b19d 1dbe c101 093f f715 6dbd
00000340: c396 233e 0149 713e 5bb4 913e 7e4f 423e
00000350: 8dbc 203c 4d38 013f 8669 34bd e850 9db9
00000360: d93d 0bbe b1bc f4bd ef7b f83d 7ef7 2f3c
00000370: 6e11 22be 78b6 713d cc30 46be 24f4 d2bd
00000380: 83b4 1fbe 9144 903e 5f3b 3c3e 7d28 353e
00000390: b06a 32be aa73 723d 0d43 78be 7a38 08bd
000003a0: f3f1 883e 9402 18be 6ef1 67bd e1d6 153e
000003b0: 5922 bbbc dcd9 a0be 9f1d e83d cd99 21be
000003c0: b952 693e b404 cc3e 92ae ce3c 0d32 67bd
000003d0: 7f2a 9bbe 265f 25bd 4996 873d e8b9 bb3d
000003e0: 8a77 53be c03f 953d 49cc 1f3e 9e74 653b
000003f0: 2fab cf3d 6b1c 6e3e ca08 b7bd cc0d cebe

bias f4 [400]
-0.21513869 -0.27544984 -0.29498655 -0.06694244 -0.4682345 -0.20545329 -0.4017634 -0.2867175
-0.30442512 -0.20021433 -0.2676349 -0.11381214 -0.16075955 -0.20852174 -0.1923783 -0.17120092
-0.27529818 -0.22357817 -0.34370956 -0.12934202 -0.35506433 -0.18720597 -0.16040693 -0.28372625
-0.41697967 -0.42531544 -0.37806755 -0.29822987 -0.2916376 -0.5148219 -0.24207734 0.13202263
-0.19407067 -0.30609676 -0.45429114 -0.13772662 -0.26621333 -0.31281242 -0.19170372 -0.08306129
-0.09639647 -0.41278628 -0.2102745 -0.44054988 -0.24908306 -0.30907068 -0.15886824 -0.2271448
-0.3532954 -0.38719064 -0.2922076 -0.4251425 -0.45871562 -0.2986733 -0.41945577 -0.27253795
-0.19538936 -0.18076551 -0.2126462 -0.1475252 -0.22837386 -0.06909219 -0.25480562 -0.33813497
-0.46143815 -0.12568721 -0.49183685 -0.3274785 -0.17531666 -0.28937316 -0.31482708 -0.21959126
-0.35059652 -0.16156691 -0.36916965 -0.044678673 -0.26829168 -0.020814788 -0.32476544 -0.28732467
-0.34729168 -0.36712602 -0.46836573 -0.36395198 -0.3181046 -0.057199366 -0.23994519 -0.22990318
-0.023369992 0.050076444 -0.22857219 -0.14265533 -0.35974208 -0.1859743 -0.32761368 -0.19369477
-0.22069027 -0.16562437 -0.121443465 -0.20895863 -0.3219776 -0.34787643 -0.15244588 -0.45957303
-0.27582625 -0.30164033 -0.03195929 -0.34578723 -0.21996474 -0.088645145 -0.45352963 -0.34600064
-0.45890924 -0.40391156 -0.33494172 -0.27103266 -0.3654034 -0.4543105 -0.2814784 -0.36080045
-0.30697605 -0.38534045 -0.19436766 -0.46559477 -0.10999946 -0.44754508 -0.34428683 -0.068474986
-0.37280458 -0.33189338 -0.17480558 -0.09297388 -0.4240146 -0.15942855 -0.120105684 -0.37899688
-0.36168924 -0.15963335 -0.15634589 -0.48196763 -0.22821441 -0.2613305 -0.24597128 -0.424145
-0.16020997 -0.44848514 -0.29126474 -0.27795234 -0.39037406 -0.3825164 -0.1811623 -0.2494452
-0.40142208 -0.42702052 -0.17337742 -0.1591239 -0.35355058 -0.37629429 -0.22328295 -0.08830953
-0.3509897 -0.30887747 -0.19000244 -0.3784398 -0.26187697 -0.18362848 -0.24045329 -0.26566866
-0.26557553 -0.3904029 -0.35093477 -0.026394147 -0.25483274 -0.0105348155 -0.29224747 -0.2612544
-0.21915786 -0.18837483 -0.39526188 -0.17254743 -0.3056169 -0.26833278 -0.2715804 -0.5409686
-0.42245007 -0.25031263 -0.22686386 -0.2568396 -0.18852755 -0.11294204 -0.19436288 -0.34706846
-0.13872379 -0.194364 -0.43271607 -0.29867432 -0.08800542 -0.2871958 -0.15981027 -0.078520745
-0.41856724 -0.49505046 -0.16300368 -0.39819872 -0.20325868 -0.2733487 -0.30757654 -0.24365984
-0.14257996 -0.33338585 -0.34473228 -0.15883425 -0.06145412 -0.222443 -0.65393347 0.043773692
-0.3119967 -0.2720317 -0.34624994 -0.14264944 -0.36015025 -0.18135387 -0.3190296 -0.35803223
-0.19293794 -0.103785425 -0.13433012 -0.3520942 -0.20852773 -0.35610995 -0.3190657 -0.33263472
-0.3136932 -0.3363668 -0.04225174 -0.34603503 -0.426375 -0.42010486 -0.32146737 -0.25703815
-0.27731463 -0.36675483 -0.28997076 -0.22927809 -0.296615 -0.14760275 -0.20941861 -0.095241055
-0.10921921 -0.1560604 -0.24528165 -0.27352878 -0.53431374 -0.3953563 -0.20917416 -0.2985289
00000000: 514d 5cbe c307 8dbe 7a08 97be 1e19 89bd
00000010: 6fbc efbe 5962 52be efb3 cdbe a3cc 92be
00000020: 9cdd 9bbe fc04 4dbe 7107 89be 5716 e9bd
00000030: 279e 24be b986 55be d1fe 44be 4b4f 2fbe
00000040: e2f3 8cbe adf1 64be b3fa afbe 3c72 04be
00000050: feca b5be ecb2 3fbe b741 24be 9144 91be
00000060: 5c7e d5be f2c2 d9be 1292 c1be 96b1 98be
00000070: 8651 95be 5ecb 03bf 1fe3 77be f130 073e
00000080: 76ba 46be b7b8 9cbe d998 e8be 3508 0dbe
00000090: 1d4d 88be f328 a0be fb4d 44be 0a1c aabd
000000a0: 836b c5bd b958 d3be 3352 57be c18f e1be
000000b0: a10f 7fbe 833e 9ebe 5bae 22be a598 68be
000000c0: 22e3 b4be da3d c6be 3c9c 95be 47ac d9be
000000d0: c6dc eabe b5eb 98be e8c2 d6be 188a 8bbe
000000e0: 2614 48be 981a 39be edbf 59be d910 17be
000000f0: d6da 69be 3580 8dbd e275 82be 0720 adbe
00000100: 9f41 ecbe 26b4 00be 0ad2 fbbe 43ab a7be
00000110: 3686 33be b828 94be 0431 a1be 88dc 60be
00000120: 6381 b3be cc71 25be ce03 bdbe fc00 37bd
00000130: 875d 89be c683 aabc a847 a6be 381c 93be
00000140: 37d0 b1be f1f7 bbbe a2cd efbe ea57 babe
00000150: 9bde a2be e249 6abd 31b4 75be bd6b 6bbe
00000160: 6d72 bfbc f51c 4d3d d40e 6abe 3d14 12be
00000170: 1d30 b8be 0c70 3ebe fbbc a7be ec57 46be
00000180: a1fc 61be 6f99 29be 5ab7 f8bd 40f9 55be
00000190: 3fda a4be dc1c b2be c61a 1cbe 284d ebbe
000001a0: 1939 8dbe 9a70 9abe bfe7 02bd 060b b1be
000001b0: 703e 61be 968b b5bd 0935 e8be ff26 b1be
000001c0: 27f6 eabe 7fcd cebe 7b7d abbe cbc4 8abe
000001d0: 2816 bbbe 639b e8be f01d 90be d6ba b8be
000001e0: f72b 9dbe 584b c5be 5108 47be 7062 eebe
000001f0: 6647 e1bd a124 e5be 5d46 b0be 9d3c 8cbd
00000200: 3ee0 bebe eeed a9be 3c00 33be 1769 bebd
00000210: 7118 d9be 3d41 23be f8f9 f5bd e10b c2be
00000220: 552f b9be ed76 23be 2319 20be 76c4 f6be
00000230: 0ab1 69be 1ccd 85be e5df 7bbe 8929 d9be
00000240: 150e 24be d89f e5be a720 95be c54f 8ebe
00000250: 1cdf c7be 31d9 c3be 9c82 39be 906e 7fbe
00000260: 3287 cdbe 6fa2 dabe da89 31be 60f1 22be
00000270: 9504 b5be a5a9 c0be 49a4 64be a0db b4bd
00000280: ecb4 b3be 3025 9ebe 0090 42be ddc2 c1be
00000290: bd14 86be 1b09 3cbe 6339 76be b905 88be
000002a0: 84f9 87be e4e2 c7be b9ad b3be 8a38 d8bc
000002b0: 7079 82be 389a 2cbc 76a1 95be 23c3 85be
000002c0: eb6a 60be 55e5 40be c45f cabe 46b0 30be
000002d0: d179 9cbe ea62 89be 960c 8bbe eb7c 0abf
000002e0: 604b d8be fa28 80be 004f 68be 7b80 83be
000002f0: 5e0d 41be 284e e7bd 1007 47be f5b2 b1be
00000300: 9c0d 0ebe 5b07 47be f68c ddbe d7eb 98be
00000310: 303c b4bd 540b 93be 4ea5 23be 7ccf a0bd
00000320: 724e d6be 4177 fdbe 70ea 26be b4e0 cbbe
00000330: 0b23 50be 5cf4 8bbe ac7a 9dbe f781 79be
00000340: 7b00 12be 8db1 aabe c080 b0be 72a5 22be
00000350: 51b7 7bbd 19c8 63be 2f68 27bf 0b4c 333d
00000360: 08be 9fbe bd47 8bbe ac47 b1be b212 12be
00000370: 9d65 b8be d4b4 39be d957 a3be 0050 b7be
00000380: 8691 45be 748d d4bd d68d 09be b145 b4be
00000390: 4b88 55be 0b54 b6be 945c a3be 194f aabe
000003a0: 659c a0be 4538 acbe 2910 2dbd 812b b1be
000003b0: d34d dabe fc17 d7be 5f97 a4be 819a 83be
000003c0: 2ffc 8dbe 4ac7 bbbe 0c77 94be e0c7 6abe
000003d0: ecdd 97be 2d25 17be d571 56be be0d c3bd
000003e0: 52ae dfbd 4cce 1fbe 1d2b 7bbe f70b 8cbe
000003f0: c9c8 08bf 246c cabe c031 56be c8d8 98be

weight f4 [100, 400]
-0.058891907 -0.04334461 -0.043419253 -0.047252648 -0.0080822 -0.115695745 -0.08250071 -0.009218418
-0.021065095 -0.16468629 -0.030156827 -0.105347864 -0.07792385 -0.105410084 -0.02041757 -0.04067264
-0.061965644 -0.0890965 -0.08085569 0.052039903 -0.121065155 -0.058078162 -0.104978 -0.09329311
-0.09519001 -0.1474374 -0.10540904 -0.0065532452 -0.07817122 -0.08912638 -0.09594023 -0.099178486
-0.109586716 -0.08008776 -0.07717873 -0.14907132 -0.035906542 -0.089050815 -0.044111837 -0.09185393
-0.06563342 -0.0734467 -0.021295566 -0.15440223 -0.08447018 -0.18920083 -0.0822685 -0.07487351
-0.021213386 -0.12916785 -0.16572265 -0.08258465 -0.01796819 -0.114185415 -0.060141575 -0.15491685
-0.07747936 -0.08375175 -0.0775639 0.06530381 -0.04319504 -0.051253702 -0.0029871233 -0.11751011
-0.13212854 0.050344884 0.013404368 -0.039733022 -0.11559005 -0.04862456 -0.1466833 -0.07863081
-0.06846918 -0.061018996 0.038424976 -0.08140829 -0.11977999 -0.07145731 0.01955445 -0.1335442
-0.041419685 -0.14158651 -0.0318559 -0.10188092 -0.088920206 -0.10784943 -0.07637614 -0.008723267
-0.123022184 -0.12857357 0.038218338 -0.11713586 -0.14764985 -0.09938939 -0.039053798 -0.05960245
-0.11210406 -0.0812489 -0.088675894 -0.060574196 -0.11868415 -0.07720907 -0.035222404 -0.06272768
-0.0071608447 0.041946013 -0.09473478 -0.1213649 -0.002481356 -0.10618468 -0.113537066 -0.032308854
-0.13983013 -0.06327777 -0.103455454 -0.124050125 -0.12557589 0.030096164 -0.018507602 -0.12521806
-0.02665434 -0.01019502 -0.060790494 -0.012959472 0.01179771 -0.07354969 -0.10603724 -0.05373713
-0.18809727 0.026104255 -0.11793813 0.025668286 -0.016799456 -0.07554047 -0.040704023 -0.024265068
-0.0819932 -0.14099672 -0.112192646 -0.064379185 -0.010424685 -0.018801108 -0.12342736 -0.13125107
-0.06084406 -0.07713113 -0.10031611 -0.026875574 -0.054669116 -0.08754139 -0.109775595 0.007292425
0.040528696 -0.0924671 -0.0960366 -0.032512702 -0.12900877 -0.060105782 0.00963684 -0.11054325
-0.049585827 -0.0077488828 -0.09729419 -0.15900426 -0.03026858 -0.1205154 -0.06633362 -0.015025567
-0.091789626 -0.01135178 -0.101814575 -0.094847426 -0.1427719 -0.07598682 0.0019598946 -0.09517989
-0.09702776 -0.13408773 0.019743146 -0.03497828 -0.16564706 -0.013104419 -0.11201662 -0.050362635
-0.08339422 -0.000108403154 -0.11304604 -0.10541608 -0.0921491 -0.13853876 0.01134806 -0.094744846
0.025652606 -0.16590934 -0.05982026 -0.08366875 0.024535466 -0.03258413 -0.00067886285 -0.043632787
-0.11778424 -0.13936508 -0.12228341 -0.115189716 -0.0916869 -0.10050513 -0.06821128 0.022272827
-0.089379735 -0.10056546 -0.08965924 -0.13201012 0.022032045 -0.12254714 -0.10621948 -0.043791234
-0.05237332 -0.061618645 -0.021174565 -0.07726651 0.027319785 -0.12209531 -0.04164489 -0.08179109
-0.08308217 0.0012931952 -0.034611583 -0.043451805 -0.049581423 -0.11158256 -0.12727508 -0.04693717
-0.053275943 -0.15582402 -0.15152544 -0.058845274 0.009385064 -0.0032043797 -0.06044772 -0.049422387
-0.041680038 -0.099008895 -0.14346193 -0.09148988 -0.111517906 -0.1461636 -0.011440956 -0.11939303
-0.011562652 -0.039267723 -0.03668222 -0.16877201 -0.09811449 -0.02685531 -0.14289503 -0.086494744
00000000: a438 71bd 1e8a 31bd 63d8 31bd fe8b 41bd
00000010: 346b 04bc e4f1 ecbd 22f6 a8bd d908 17bc
00000020: b590 acbc 86a3 28be 730b f7bc 9fc0 d7bd
00000030: 8a96 9fbd 3ee1 d7bd bf42 a7bc 5b98 26bd
00000040: b0cf 7dbd 3a78 b6bd ab97 a5bd cb27 553d
00000050: 02f1 f7bd 5ee3 6dbd b5fe d6bd 7510 bfbd
00000060: fbf2 c2bd d4f9 16be b2e0 d7bd 9bbc d6bb
00000070: 3c18 a0bd e487 b6bd 507c c4bd 171e cbbd
00000080: 006f e0bd 0d05 a4bd e20f 9ebd 27a6 18be
00000090: bd12 13bd 4660 b6bd 9dae 34bd ea1d bcbd
000000a0: d16a 86bd 396b 96bd 0a74 aebc 9e1b 1ebe
000000b0: b4fe acbd ddbd 41be 637c a8bd 4857 99bd
000000c0: b2c7 adbc 9444 04be 33b3 29be 2422 a9bd
000000d0: 0732 93bc 0bda e9bd 0357 76bd 86a2 1ebe
000000e0: 80ad 9ebd 0a86 abbd d2d9 9ebd 01be 853d
000000f0: 48ed 30bd 67ef 51bd 9dc3 43bb 24a9 f0bd
00000100: b44c 07be 7036 4e3d ff9d 5b3c 18bf 22bd
00000110: 7aba ecbd 8c2a 47bd 2634 16be 3109 a1bd
00000120: 9239 8cbd 0eef 79bd 8263 1d3d 64b9 a6bd
00000130: 364f f5bd 3658 92bd a730 a03c d0bf 08be
00000140: b0a7 29bd 0efc 10be 557b 02bd f2a6 d0bd
00000150: cc1b b6bd 29e0 dcbd 186b 9cbd 09ec 0ebc
00000160: 0ef3 fbbd caa8 03be d58a 1c3d ede4 efbd
00000170: 8631 17be aa8c cbbd e0f6 1fbd b321 74bd
00000180: d096 e5bd d365 a6bd b59b b5bd a61c 78bd
00000190: ad10 f3bd ca1f 9ebd 5e45 10bd 5f77 80bd
000001a0: 85a5 eabb 95cf 2b3d 4f04 c2bd 298e f8bd
000001b0: 3f9e 22bb 5a77 d9bd 1f86 e8bd 4a56 04bd
000001c0: a12f 0fbe c797 81bd 74e0 d3bd fe0d febd
000001d0: f796 00be 3b8c f63c 419d 97bc 2a39 00be
000001e0: 345a dabc 0309 27bc 74ff 78bd f753 54bc
000001f0: 2f4b 413c 38a1 96bd 0d2a d9bd 771b 5cbd
00000200: 929c 40be 97d8 d53c 8c89 f1bd 4c46 d23c
00000210: 039f 89bc f6b4 9abd 43b9 26bd 89c7 c6bc
00000220: 0dec a7bd 7261 10be 42c5 e5bd 3cd9 83bd
00000230: 4ccc 2abc c804 9abc 7cc7 fcbd ae66 06be
00000240: 9f37 79bd edf6 9dbd 8872 cdbd 2a2a dcbc
00000250: b9ec 5fbd e648 b3bd 07d2 e0bd 4bf5 ee3b
00000260: 6b01 263d 645f bdbd d6ae c4bd 0a2c 05bd
00000270: e01a 04be 7b31 76bd d6e3 1d3c 8064 e2bd
00000280: 821a 4bbd 57ea fdbb 2d42 c7bd 03d2 22be
00000290: d0f5 f7bc c7d0 f6bd ecd9 87bd cc2d 76bc
000002a0: 33fc bbbd d1fc 39bc 2984 d0bd 5e3f c2bd
000002b0: cc32 12be fa9e 9bbd 9371 003b aded c2bd
000002c0: 7eb6 c6bd 4b4e 09be 61bc a13c 6345 0fbd
000002d0: 629f 29be ebb3 56bc f868 e5bd 0d49 4ebd
000002e0: 97ca aabd 8056 e3b8 af84 e7bd 63e4 d7bd
000002f0: abb8 bcbd 1bdd 0dbe 37ed 393c 9609 c2bd
00000300: 6a25 d23c 23e4 29be 1706 75bd 865a abbd
00000310: 9afe c83c f076 05bd b7f5 31ba 4bb8 32bd
00000320: dd38 f1bd b8b5 0ebe b96f fabd 96e8 ebbd
00000330: 57c6 bbbd a2d5 cdbd 5bb2 8bbd 8175 b63c
00000340: b90c b7bd 44f5 cdbd 439f b7bd a92d 07be
00000350: 8c7c b43c fff9 fabd 9989 d9bd 705e 33bd
00000360: 6885 56bd d563 7cbd 4876 adbc e73d 9ebd
00000370: becd df3c 1b0d fabd d593 2abd 1682 a7bd
00000380: fc26 aabd 6e80 a93a e0c4 0dbd 85fa 31bd
00000390: e415 4bbd 6685 e4bd 6654 02be 3141 40bd
000003a0: e037 5abd 5590 1fbe 7c29 1bbe be07 71bd
000003b0: d0c3 193c 9200 52bb 0798 77bd 216f 4abd
000003c0: b0b8 2abd 2dc5 cabd afe7 12be 0c5f bbbd
000003d0: 8063 e4bd e9ab 15be d972 3bbc 5584 f4bd
000003e0: 4771 3dbc 31d7 20bd 1840 16bd 92d2 2cbe
000003f0: 40f0 c8bd abff dbbc 1353 12be 2824 b1bd

bias f4 [100]
-0.1538271 -0.044645734 -0.17737868 -0.13258013 0.5233203 -0.07625467 -0.11535364 -0.10551594
-0.32674664 -0.25587258 -0.17965013 0.48162264 -0.10516148 -0.35590854 -0.0910872 -0.5026623
-1.790534 -0.16084854 -0.1299063 -0.14414495 -0.13260521 -0.056627993 -0.045892615 -0.022125222
0.21765058 -0.11602494 0.36034903 -0.115701675 -0.10589228 -0.12757634 -0.024535239 -0.19896033
-0.016008781 -0.16095771 0.47770533 -0.06977118 -0.078097604 -0.15827498 -0.086293876 0.464686
-0.12222846 -0.1180248 -0.06500645 0.47774756 -0.09902691 -0.04381667 0.5191712 0.1087176
-0.18718174 -0.14281519 -0.18745342 -0.06571559 -0.08176641 0.4197084 -0.10056048 0.3417355
-0.12613459 -0.0531743 0.36250946 -0.21039376 -0.08408641 -0.074805625 -0.036428005 -0.33367917
-0.056852683 -0.15008092 -0.17730005 -0.16245383 -0.26567307 -0.14546369 -0.10553475 -0.19411045
-0.078217335 -1.7089685 -0.5167185 0.36938378 -0.067410246 -0.029750468 -0.17916104 -0.13457301
0.5267052 -0.09842281 0.5955422 0.4510627 0.5325209 -0.2946227 -0.1899022 -0.09602044
-0.20301318 -0.02821886 0.21363406 -0.0784925 -0.098766774 -0.21435645 -0.10643299 -2.003772
-0.12910265 -0.11428458 0.46613446 -0.10497606
00000000: da84 1dbe 72de 36bd c2a2 35be 16c3 07be
00000010: 52f8 053f 692b 9cbd 873e ecbd be18 d8bd
00000020: 564b a7be bb01 83be 34f6 37be 3e97 f63e
00000030: e75e d7bd a539 b6be ed8b babd 7aae 00bf
00000040: 3830 e5bf 7bb5 24be 2806 05be bc9a 13be
00000050: a9c9 07be c1f2 67bd e5f9 3bbd f43f b5bc
00000060: cbdf 5e3e 7c9e edbd ab7f b83e 00f5 ecbd
00000070: 0dde d8bd 5fa3 02be 20fe c8bc 42bc 4bbe
00000080: d924 83bc 19d2 24be cb95 f43e 31e4 8ebd
00000090: a3f1 9fbd d612 22be d8ba b0bd 53eb ed3e
000000a0: ea52 fabd fdb6 f1bd 1a22 85bd 549b f43e
000000b0: 9fce cabd 1c79 33bd 67e8 043f 55a7 de3d
000000c0: 92ac 3fbe 253e 12be caf3 3fbe e595 86bd
000000d0: 2675 a7bd 05e4 d63e a7f2 cdbd f5f7 ae3e
000000e0: 6d29 01be 4bcd 59bd d79a b93e 7671 57be
000000f0: 7f35 acbd b133 99bd 8835 15bd ffd7 aabe
00000100: 5cde 68bd d0ae 19be 258e 35be 4c5a 26be
00000110: 4d06 88be 6ff4 14be 9a22 d8bd e4c4 46be
00000120: 6930 a0bd 7bbf dabf aa47 04bf df1f bd3e
00000130: 620e 8abd 41b7 f3bc fe75 37be 82cd 09be
00000140: 27d6 063f e691 c9bd 7475 183f b1f1 e63e
00000150: 4a53 083f c9d8 96be b975 42be 5da6 c4bd
00000160: b0e2 4fbe 3d2b e7bc e3c2 5a3e adc0 a0bd
00000170: 3c46 cabd 4280 5bbe 8af9 d9bd cd3d 00c0
00000180: 7c33 04be 090e eabd 2da9 ee3e b0fd d6bd

weight f4 [1, 100]
-0.019474698 -0.028982988 -0.004386423 0.040676095 -0.23024441 0.054181166 -0.01706797 -0.023175538
0.011921918 -0.032521658 -0.0457394 -0.14313787 0.011847079 -0.0106618395 0.011243542 -0.0056137615
-0.08335552 0.013369176 -0.0093631325 -0.047115352 0.014498493 -0.021452537 0.030303206 0.006602277
-0.016311415 -0.008848837 -0.12813677 0.016286528 0.047944207 -0.024442496 -0.0624251 -0.0101768
-0.017314242 0.04176833 -0.26028025 -0.039615896 0.019071747 0.0068303295 0.00080932415 -0.24953164
-0.006545386 0.03300996 0.034091886 -0.26015222 -0.023260314 -0.037260156 -0.33850408 -0.007372956
-0.025599921 -0.04140946 -0.003496691 -0.00042815888 0.0465856 -0.14335279 -0.01791769 -0.10855874
0.010959523 0.015256353 -0.08419598 0.016972655 0.035181876 0.036163546 0.003956096 0.018345976
0.03824233 -0.0062621576 -0.12098371 -0.001805749 -0.01387542 0.0042669666 -0.00031380643 0.036859475
-0.028752597 -0.104528256 -0.059063863 -0.09874716 -0.034150604 0.037211664 0.03278105 0.015808284
-0.33774135 -0.06363439 -0.2548122 -0.16554803 -0.26414254 -3.531496e-05 0.0079000285 -0.02608988
-0.021866547 -0.016803378 -0.027803462 -0.036179762 0.040499702 -0.014903284 -0.04226102 -0.10745916
0.013457623 -0.00673363 -0.18424723 0.020818999
00000000: 6789 9fbc bb6d edbc fcbb 8fbb fa9b 263d
00000010: 31c5 6bbe 12ed 5d3d 21d2 8bbc a0da bdbc
00000020: 2654 433c 6e35 05bd 3d59 3bbd bc92 12be
00000030: 401a 423c ffae 2ebc d536 383c a5f3 b7bb
00000040: 4db6 aabd 630a 5b3c d367 19bc 07fc 40bd
00000050: 168b 6d3c 3bbd afbc 6e3e f83c ea57 d83b
00000060: 849f 85bc b6fa 10bc 4936 03be 536b 853c
00000070: 2561 443d a13b c8bc 76b1 7fbd 98bc 26bc
00000080: 99d6 8dbc 4515 2b3d 7443 85be 4744 22bd
00000090: 5a3c 9c3c f5d0 df3b d328 543a 3985 7fbe
000000a0: ad7a d6bb 7435 073d efa3 0b3d ac32 85be
000000b0: 6a8c bebc 1b9e 18bd 6850 adbe d698 f1bb
000000c0: edb6 d1bc f79c 29bd bd28 65bb 837a e0b9
000000d0: 8bd0 3e3d 13cb 12be 1fc8 92bc 0b54 debd
000000e0: 928f 333c c8f5 793c f16e acbd 3d0a 8b3c
000000f0: df1a 103d 3a20 143d 23a2 813b 4d4a 963c
00000100: fda3 1c3d c932 cdbb 4fc6 f7bd e2ae ecba
00000110: bb55 63bc e9d1 8b3b 6386 a4b9 f6f9 163d
00000120: 918a ebbc e912 d6bd f3ec 71bd f33b cabd
00000130: 81e1 0bbd 426b 183d 6c45 063d 6080 813c
00000140: 6fec acbe bf52 82bd bf76 82be 6c85 29be
00000150: b13d 87be 261f 14b8 1f6f 013c 72ba d5bc
00000160: 7921 b3bc 3da7 89bc 16c4 e3bc 3b31 14bd
00000170: 04e3 253d e72c 74bc e419 2dbd 8c13 dcbd
00000180: 5d7d 5c3c c8a5 dcbb 4eab 3cbe 9b8c aa3c
