Gibbs_MINE/pw_result_trained_twice/model_lk_b=10_s=0.5_p=26_[2].pth (torch, 206615 bytes, 5 tensors)

weight f4 [400, 26]
000000 0b a2 a2 3d 2e fc 94 3e 0c 6c c5 3d b6 89 90 be
       0.079410635 0.29098648 0.09639749 -0.28230065
000010 bf a4 cd 3d 1e db 87 3e 0f 61 21 bd 92 4b 85 be
       0.100411884 0.2653436 -0.039399203 -0.26034218
000020 0e 05 b2 be f5 69 be be f1 c5 b5 3e 5b 41 d1 bd
       -0.3476948 -0.37190214 0.3550258 -0.10217544
000030 be 68 f1 bd 57 91 af 3d c9 1f 97 3d 13 da 93 3c
       -0.11787556 0.08572643 0.073791094 0.018048322
000040 eb 67 6f 3e 80 fc 24 3e 4c d8 2e be 3c 60 95 be
       0.23379485 0.16111946 -0.17074698 -0.29174984
000050 b3 e5 86 3d 11 94 57 be 42 2e 87 3d a1 39 87 3d
       0.065867804 -0.21052577 0.0660062 0.06602789
000060 04 26 9d be ee 72 48 3e eb 28 af 3e 44 dc b0 be
       -0.30693066 0.19575092 0.34210905 -0.3454305
000070 8f 61 50 3e aa 5d a5 3d 98 2d 04 3e 6c 38 26 3e
       0.20349716 0.080745056 0.12908018 0.1623246
000080 01 1e 74 3e 8f 7e 81 3e 6f 1d 3e 3e 9a ee 85 be
       0.2383957 0.2529187 0.18565916 -0.261586
000090 ec 73 65 3e 5d 34 35 be 05 32 cd be e8 e0 31 3c
       0.22407502 -0.17695756 -0.40077224 0.0108568445
0000a0 1e 86 d6 3d 32 c9 44 3e 62 b2 78 be 0a c1 79 3e
       0.104747996 0.19217375 -0.24286798 0.24390045
0000b0 83 aa 20 be 4c 00 4f be 5f 85 4f 3e cf 2a be be
       -0.15690045 -0.20214957 0.20265721 -0.37142035
0000c0 d9 1e b3 bd 55 4f f9 3c 74 dd 97 bd 56 00 ff 3c
       -0.08746118 0.030433336 -0.07415286 0.03112809
0000d0 68 cd b4 bd 90 b2 fc 3d 17 b2 81 3d 6a 89 23 be
       -0.08828241 0.123387456 0.06332796 -0.15970388
0000e0 bd 53 29 3e c2 15 63 be 81 fb 22 be a1 3c cf bd
       0.1653585 -0.22176269 -0.15916254 -0.10118986
0000f0 14 41 fb 3e ce 85 52 be 6a 83 f0 3d 98 cb aa bd
       0.49073088 -0.20558855 0.11743815 -0.08339614
000100 dd 33 8d 3e 3b a9 c0 bd c4 60 8c 3e 06 85 3d be
       0.2757863 -0.09407278 0.27417576 -0.18507776
000110 fa 6b d0 3d f6 00 34 be bc 83 7d 3e 9d ca 9e be
       0.10176845 -0.17578492 0.24757284 -0.31013957
000120 0f a9 8f 3e ad c7 b3 3e 9b 06 08 be 07 f1 bd 3d
       0.2805867 0.35113278 -0.1328377 0.09274488
000130 67 8b 19 3e e9 40 90 be ad b6 2a 3e 9d df a9 be
       0.14994584 -0.28174523 0.16671248 -0.33178416
000140 6d e8 d3 3e 08 46 a1 3d be d8 6a be 7e 37 05 be
       0.41388264 0.078746855 -0.22934243 -0.1300945
000150 f6 28 c7 be a4 8b cf 3d 42 a4 85 3e 98 4a a6 3e
       -0.38898438 0.10134056 0.2610188 0.32478786
000160 df d0 59 3d ab 5c 95 3e eb ea ca 3c 6d dd a8 be
       0.05317771 0.29172263 0.02477022 -0.32981434
000170 4f 8b 9b 3d c0 7c df 3c 3d fe 12 3d c7 03 86 bc
       0.075949304 0.027281165 0.03588699 -0.016359223
000180 a5 28 62 be 1e 28 23 3e 1d 78 dc 3d c7 52 fc 3d
       -0.22085817 0.15933272 0.10765097 0.12320476
000190 e5 87 eb 3d ed 17 8e bd 87 90 a9 3d 6a 40 73 be
       0.11500529 -0.06938157 0.082795195 -0.23755041
0001a0 77 22 3b 3d 7b 99 a8 bb d1 a0 10 be 42 40 b4 be
       0.045687165 -0.0051452494 -0.14123847 -0.35205275
0001b0 a2 34 2a be 21 21 05 3e 55 14 d9 3d a9 3d ca bd
       -0.1662164 0.13000919 0.10599581 -0.09875042
0001c0 10 d1 cd 3e eb b1 3e be 3c 98 b5 bd 91 06 88 3e
       0.40198565 -0.18622558 -0.08866927 0.2656751
0001d0 34 7f 3c 3e 3b d3 3e be 06 c9 5e 3d 5a 64 b8 be
       0.18407899 -0.18635266 0.05439093 -0.36014062
0001e0 25 3e 3e be 0b 21 1f bc e2 bc 43 be 91 ba 8e be
       -0.18578394 -0.009712468 -0.19115022 -0.27876714
0001f0 74 90 ba 3c 65 00 72 bd 92 b5 c3 bd 3f da 07 bf
       0.022773959 -0.059082408 -0.09556116 -0.5306739
000200 ee c9 78 3d ec 7c a6 3e 0b 4e b5 bd 0b a8 b4 be
       0.06073945 0.32517183 -0.08852776 -0.35284457
000210 63 65 4a 3d 0d 47 6c 3e 36 6c e1 bd ac 45 06 3b
       0.049413096 0.23073979 -0.11006968 0.0020488305
000220 3d 8f 4c be 65 2f 24 3e 34 b1 51 be 80 fe 28 3e
       -0.19976516 0.16033705 -0.20477754 0.16503334
000230 4c cf 2c 3e 72 14 15 bd 34 11 b3 bd 1f 01 67 3d
       0.16875952 -0.03639645 -0.087435156 0.056397554
000240 68 ea d2 be f4 04 9c 3d cb 02 ab bd 60 da c1 be
       -0.41194463 0.07618132 -0.08350142 -0.3786192
000250 a2 d2 9a 3e eb 00 f2 3d ff e1 be 3d 4b 38 c2 bd
       0.30238825 0.11816581 0.09320449 -0.09483393
000260 76 5b 98 be 97 48 f0 3d 3a 96 89 3e 68 1d 18 3e
       -0.2975728 0.117325954 0.26872426 0.14854968
000270 62 a6 b8 3e c8 06 89 3e a1 48 bf bd 13 56 d7 bd
       0.3606444 0.26762986 -0.09340025 -0.10514464
000280 c9 55 98 be 50 69 0e 3e e7 23 c9 3d e2 a2 3d 3e
       -0.2975295 0.13907361 0.09821301 0.18519166
000290 55 8d 8d be 4e 74 d3 bc 01 8c 66 3c 9b 9a bd 3e
       -0.2764689 -0.025812294 0.0140714655 0.37032017
0002a0 e7 9d c6 3d c1 ab d5 be f3 47 76 3d 93 f1 72 3d
       0.09698086 -0.417326 0.06012721 0.059312414
0002b0 19 5d dc 3d 8c 1b 87 be 98 80 8a bd 4f 64 ed 3d
       0.107599445 -0.26388204 -0.067628086 0.11591398
0002c0 e9 98 cd 3d ee 2a 20 be e8 f1 3f be 58 9a 6c bd
       0.10038931 -0.15641376 -0.18744624 -0.05776438
0002d0 8e af 7d 3c da 59 60 be 26 e8 8a bc 79 90 68 bd
       0.01548375 -0.21909276 -0.0169564 -0.056778405
0002e0 08 56 f0 bd d9 f4 52 3e d9 2c ae 3e 7e 6c 04 be
       -0.11735159 0.20601214 0.3401859 -0.12932011
0002f0 2f 57 b9 3d 1a 2a e2 bc 64 6e 3d 3e a5 0c aa 3d
       0.09049832 -0.027607966 0.18499142 0.08303193
000300 f2 60 28 be 4d b0 c7 3d b5 7a 31 3e 4f b7 1f 3d
       -0.16443232 0.097504236 0.17331965 0.038993176
000310 66 ba ab be 8d 84 3d be 3e 53 c5 bd fd c0 a0 be
       -0.33540648 -0.18507595 -0.09635018 -0.31397238
000320 df c4 a5 3e 20 b7 e8 3c c8 02 15 be d8 8f 62 3e
       0.32376763 0.028407633 -0.14551842 0.22125185
000330 6a a0 76 be 1f ef 76 be bb bd 9c 3e 88 96 79 3e
       -0.2408463 -0.24114655 0.30613503 0.2437383
000340 3b 87 37 3d 1c 6a e3 3d a5 85 b4 3d 78 02 8f be
       0.0448067 0.11104223 0.08814553 -0.2793157
000350 7a 74 89 3e a6 69 6c 3e 39 2f 8c be 0a 0f ae 3d
       0.26846677 0.23087177 -0.27379778 0.08498962
000360 5d f4 54 be d8 17 21 3c 2c 69 4f 3e c5 80 45 3e
       -0.20796342 0.009832345 0.20254964 0.19287403
000370 5f 7e 33 3e 73 e8 19 3e e0 99 e4 bd f9 c1 19 be
       0.17528675 0.15030079 -0.11162162 -0.15015401
000380 57 05 1a 3d a1 15 b3 3d 71 4c 62 bc ef 78 6d 3d
       0.03760275 0.0874436 -0.01381217 0.05797666
000390 7d f6 af 3d 6e 59 98 bd 46 a3 15 3d 15 2a 36 3e
       0.08591936 -0.07438932 0.036532663 0.1778949
0003a0 9e 69 e0 3e a5 89 b8 be e4 e5 a6 3e 82 07 90 be
       0.4383058 -0.36042514 0.32597268 -0.28130728
0003b0 9f e1 a5 be 02 a9 c4 3d f9 44 83 3d db 66 07 be
       -0.32398698 0.09602548 0.0640964 -0.1322283
0003c0 bc 39 fc 3d 09 b7 55 3e 16 60 79 3e 37 8c 31 3d
       0.123156995 0.20870604 0.2435306 0.04334661
0003d0 3f c1 91 be a9 82 e5 bd b3 b4 c7 3c 92 2f bf 3d
       -0.28467748 -0.11206562 0.024378156 0.09335245
0003e0 3a 29 d9 bd 48 50 46 3c 9a 39 5a 3d 38 8c 3d 3e
       -0.106035665 0.0121041015 0.05327759 0.1851052
0003f0 6c 63 e7 3e 8a 35 0d 3d 79 72 22 be 5d 3b 24 be
       0.4519304 0.034474887 -0.1586398 -0.1603827

bias f4 [400]
000000 52 91 7d be 6b 17 4a be 86 3c a8 be 1e 99 72 be
       -0.24762467 -0.19735496 -0.32858676 -0.23691222
000010 87 0b 80 be 23 c6 28 be 76 ba e3 be d2 8b 07 be
       -0.25008795 -0.16481833 -0.44478196 -0.13236931
000020 14 86 be be 10 95 ec be 5e e1 4d be 62 2c e4 be
       -0.37211668 -0.46207476 -0.20105502 -0.4456511
000030 f0 6e a7 be d4 34 21 be e9 28 eb bd 4d 20 65 be
       -0.32701826 -0.15742809 -0.11482412 -0.22375603
000040 3b 1f 0a be db 77 7e 3e 3c f7 17 be 3e 8e 3f be
       -0.13488476 0.24850409 -0.14840406 -0.18706605
000050 23 55 c0 be e5 0b a8 be 99 75 69 be f8 03 c8 be
       -0.37564954 -0.32821575 -0.22798766 -0.39065528
000060 79 2b 9b be 50 1d 9f be 00 8e 1c 3e a2 1e c3 be
       -0.30306605 -0.3107705 0.15288544 -0.38109308
000070 f6 c0 22 be fb 81 19 bf 86 d6 40 be 95 25 ca be
       -0.15893921 -0.5996396 -0.18831834 -0.39481798
000080 ef c6 5f be cf b9 86 be 97 8c b9 be f4 07 b8 be
       -0.21853231 -0.26313636 -0.36240074 -0.35943568
000090 b3 d6 e2 bd 9c 46 2e be 1f 05 68 be 80 ef f7 be
       -0.11076107 -0.17019123 -0.22658204 -0.48424911
0000a0 c3 46 79 bd 5b f7 55 bb 29 0a 6a be b7 7d eb be
       -0.0608585 -0.0032648656 -0.22855438 -0.4599435
0000b0 a5 71 91 be 49 14 bd be 29 0a 89 be 2e 0a fb bd
       -0.28407016 -0.3692954 -0.26765564 -0.12257801
0000c0 92 6b 5c be ad 9f dc be a3 03 df bd 3c 35 c2 bd
       -0.2152541 -0.43090573 -0.108893655 -0.0948281
0000d0 54 5d 8d be e2 23 e2 bd 34 bc e1 be 3b f6 96 be
       -0.27610266 -0.11042 -0.440889 -0.29484734
0000e0 40 c0 9c be 96 57 d8 be 51 e5 59 be 1f b1 ae be
       -0.30615425 -0.42254323 -0.21278884 -0.34119508
0000f0 b0 c6 6a be d4 a2 8a be 70 94 bf be ce e5 6f be
       -0.22927356 -0.27077353 -0.37417936 -0.23427507
000100 43 d3 c6 be 0e 24 57 be 39 da db be ed 01 6f be
       -0.38833055 -0.21009848 -0.42939928 -0.23340578
000110 bb a4 7e be 89 94 ca be 30 42 12 be bd bd 97 be
       -0.24867527 -0.39566448 -0.14283061 -0.29636946
000120 a1 bf 6c be 76 aa 98 be 7c 33 d3 be 45 54 03 bf
       -0.23119976 -0.2981755 -0.41250217 -0.5130046
000130 07 ae 9b be bb e4 a6 be 50 18 7a be 25 be 41 be
       -0.3040621 -0.32596382 -0.24423337 -0.1892019
000140 97 9d ae be 96 5f c3 be 8f bd 52 be e8 89 50 be
       -0.34104607 -0.38158864 -0.20580123 -0.20365107
000150 e7 57 4d be 70 b7 00 be 2a c8 98 be 4a 12 c0 be
       -0.20053063 -0.12569976 -0.29840213 -0.37513953
000160 21 fa 4e be 57 74 d8 be cd fc b4 be 5b 66 9b be
       -0.20212604 -0.4227626 -0.35349122 -0.3035153
000170 5a e7 95 be c9 a0 72 be a9 d3 be bd f9 e6 c9 be
       -0.2927807 -0.23694147 -0.09317715 -0.3943403
000180 df 9c e4 be 4a 99 cb be d9 ef 89 be 43 10 b1 be
       -0.44650933 -0.39765388 -0.26940802 -0.3458272
000190 75 cc 3d be 32 e7 83 be ea d0 e5 be 9a 83 4c be
       -0.18535025 -0.25762326 -0.4488595 -0.19972077
0001a0 1c b8 86 bd b2 c5 a1 be 9d 44 0f be 16 4d 90 be
       -0.06578085 -0.31596142 -0.13991018 -0.28183812
0001b0 b9 32 58 be 4d 39 87 be 44 44 64 be c6 8e d2 be
       -0.21113099 -0.26410905 -0.22291666 -0.41124552
0001c0 02 a4 aa be 02 2d fc be af d2 b7 be 47 d7 e4 be
       -0.33328253 -0.49253088 -0.35902926 -0.44695494
0001d0 de 07 e2 bd 99 cb ca 3c 21 18 ad be d2 2c 37 be
       -0.11036657 0.024755286 -0.3380747 -0.17888191
0001e0 4d f7 f2 be 7f d6 11 be 01 63 85 be 15 9a 4a be
       -0.474543 -0.1424198 -0.26052096 -0.1978534
0001f0 d2 32 ab be a9 4c 9e be ab c7 f4 be 63 be 85 be
       -0.3343721 -0.30917862 -0.47808585 -0.26121816
000200 ee 75 d4 be be 4f 51 be 0f a1 b3 be 0a 0f 53 be
       -0.41496223 -0.20440575 -0.35083815 -0.20611206
000210 46 c5 c0 bc 58 1c c6 be 92 05 b2 be 4d f1 91 be
       -0.023531567 -0.386935 -0.34769875 -0.2850441
000220 3a 51 99 be e7 d5 be be 33 db 4f be 0a 87 de be
       -0.29944783 -0.3727257 -0.20298462 -0.43462402
000230 9e 24 92 be 2b 1d 14 be 61 1a e3 be 61 66 a4 be
       -0.28543562 -0.14464252 -0.44356063 -0.3210936
000240 cd a3 79 be ba 66 b7 be df 9f e0 be 23 20 a3 be
       -0.24378891 -0.35820562 -0.43871972 -0.31860456
000250 d6 cf cf be b4 d3 ca 3e ea cb 40 be e2 e9 27 bd
       -0.40588254 0.39614642 -0.18827787 -0.040994532
000260 23 03 ab be 04 11 4f be db f8 a5 be 2f ce 95 be
       -0.3340083 -0.20221335 -0.32416424 -0.29258868
000270 7a 70 90 be d4 e6 ee be df f7 45 be 9b dd 75 be
       -0.28210813 -0.46660483 -0.19332837 -0.24010317
000280 75 7b 19 be e2 7e 01 bf 2f b6 7d be 35 4b 14 be
       -0.14988501 -0.5058423 -0.24776529 -0.14481814
000290 c8 2b 7a be e5 ba 92 bd 8e ee 4a 3d 78 b4 c6 be
       -0.24430764 -0.071645536 0.04954391 -0.38809562
0002a0 6c 37 c0 be 5f 93 8f be 09 7b 98 bd 45 07 2f be
       -0.37542284 -0.28042123 -0.07445342 -0.17092617
0002b0 2d a3 2a be a1 a6 31 be 7a 17 9e be a9 9c ae be
       -0.16663809 -0.1734872 -0.30877286 -0.34103897
0002c0 b0 f6 b3 be 84 38 4e be 57 b8 a1 be 78 98 b5 be
       -0.35149145 -0.20138747 -0.31585953 -0.35467887
0002d0 a6 7f c4 be bc 2f a3 be 44 84 d4 be 4b c8 bb be
       -0.38378638 -0.31872356 -0.4150716 -0.3667625
0002e0 c5 54 2c be a9 fd be be a3 af 4d be f3 0d 60 be
       -0.16829212 -0.37302902 -0.20086531 -0.21880321
0002f0 4e ee 8d bd a5 68 43 bd f9 77 fc be 48 e3 4c be
       -0.06930219 -0.04770722 -0.49310282 -0.20008576
000300 65 db 67 be 06 c3 74 be 8c a0 1e bd a2 20 28 be
       -0.22642286 -0.2390252 -0.03872733 -0.16418698
000310 2b 6c 96 be 4f 3f f8 be 7c 72 8e be 66 5f a0 be
       -0.293794 -0.484858 -0.2782172 -0.31322783
000320 13 8e e9 be 01 3d 0a be 17 42 6a be d5 2e 6a be
       -0.45616207 -0.13499834 -0.22876774 -0.22869428
000330 58 cb d5 bb 22 5b 83 be 93 6b 94 bd 8a 0a d4 be
       -0.0065244846 -0.25655466 -0.07247081 -0.4141429
000340 1a 3e a0 be 97 74 0a be df ce cf be df b0 c1 be
       -0.3129738 -0.13521038 -0.40587518 -0.37830254
000350 b0 fc a1 be f9 77 82 be b5 0b 1c be 76 40 e4 be
       -0.31638098 -0.25482157 -0.15238841 -0.4458043
000360 68 c8 b6 be 6e 8c 8c be d7 ef 4a be f2 d3 67 be
       -0.35699773 -0.2745089 -0.19818054 -0.22639444
000370 b5 b4 49 be d4 19 b6 be 1e 3a 8d be 4d 54 a0 be
       -0.1969784 -0.3556658 -0.27583402 -0.31314316
000380 79 11 52 be ec 0a d9 be 35 4b a6 be f2 85 43 be
       -0.20514478 -0.42391145 -0.32479253 -0.19094065
000390 d5 74 a0 be f8 ba 8e be 65 f2 20 be 87 53 47 bc
       -0.31339136 -0.2787702 -0.15717466 -0.012165911
0003a0 b3 51 96 be 2d b6 f4 be ad c4 95 be 7e dc 46 be
       -0.29359207 -0.4779524 -0.29251614 -0.19420049
0003b0 12 dc 95 be cb 38 16 be 0d 59 b5 be 55 4c 09 be
       -0.29269463 -0.14670102 -0.35419503 -0.13408025
0003c0 b9 60 9d be b3 9d a5 be 07 7e cb be ed c2 0e 3e
       -0.30737856 -0.32346877 -0.3974459 0.13941546
0003d0 02 f4 27 bd 5b a1 d2 be 7f 26 f0 be 7c 35 d2 be
       -0.04100419 -0.4113873 -0.4690437 -0.4105643
0003e0 fb 1a 50 be aa 12 7c be 01 17 02 be 4d 77 7a be
       -0.20322792 -0.24616495 -0.12704088 -0.24459572
0003f0 1e a2 09 3d 2c 5d 5d be 45 11 7d be ac 08 87 be
       0.033601873 -0.21617573 -0.24713619 -0.26373804

weight f4 [100, 400]
000000 2d a6 a0 bd c1 87 32 be 7f b5 e2 bd 2c 35 90 bd
       -0.078441955 -0.17434599 -0.11069774 -0.07041392
000010 0f 5e ba bd 9e 22 a6 bd ba 98 95 bd 23 14 7b bd
       -0.090999715 -0.081120715 -0.07304521 -0.0612985
000020 cc 6b 81 bd 34 6d 34 be de 21 9f bd 24 9a d4 bd
       -0.06319389 -0.17619783 -0.077701315 -0.103809625
000030 1b 4f 9e bd 5f ff a0 bd 2d 2e a8 bd 2c d9 aa bd
       -0.07729932 -0.07861208 -0.08211932 -0.083422035
000040 e6 01 76 bd da 8d 55 bd 3a c6 59 bd be f6 d1 bd
       -0.060060404 -0.052137233 -0.05316756 -0.102521405
000050 49 d8 b9 bd da 23 ce bd e6 5f 27 be 4d 57 b8 bd
       -0.09074456 -0.10065432 -0.16345176 -0.09001026
000060 9b b8 46 3d 5b be c6 bd 2a fb 9d bd c5 90 ae bd
       0.048515897 -0.09704276 -0.07713921 -0.08523706
000070 7f cf d3 bd 2b c6 47 bd a2 ee ef bd ee f2 f5 bd
       -0.10342311 -0.048772972 -0.117154375 -0.12009226
000080 0f 9a 90 bd 0b 41 bb bd 32 c8 df 3d ea 1b 79 bc
       -0.07060634 -0.09143265 0.10926856 -0.015204409
000090 d6 95 05 be d6 37 a0 bd 43 97 50 bd 48 a7 66 bd
       -0.13045439 -0.0782315 -0.050925504 -0.056311876
0000a0 10 53 42 bd 37 46 97 bc 99 4b 06 be 56 62 0c bd
       -0.047442496 -0.018466098 -0.13114776 -0.034273468
0000b0 8d bb d8 bd c9 b8 77 bd b5 78 f9 bd a6 46 1f be
       -0.105826475 -0.06047896 -0.12181226 -0.15554294
0000c0 34 16 1d be c9 d3 1b bd fa 49 b4 bd ac f2 ec bc
       -0.15340501 -0.03804377 -0.088031724 -0.028924309
0000d0 ec 18 e1 3d a7 40 c7 bd 6e 0b 15 be 94 93 b5 bd
       0.109910816 -0.09729128 -0.14555141 -0.08866039
0000e0 a1 70 95 3c 0f ad 63 ba 26 9b fd bd b3 19 b0 bd
       0.018242182 -0.00086851505 -0.12383108 -0.08598652
0000f0 cc f3 10 be cc db 0a be 1f f3 58 bc 59 29 dc bd
       -0.14155501 -0.13560408 -0.013241558 -0.10750074
000100 58 de 78 bd 89 f8 10 be 3e ae a8 bd ac 3f 19 be
       -0.06075892 -0.14157309 -0.08236359 -0.14965695
000110 45 b3 4e bd 34 31 07 be a6 da ca bd 2e 4c e2 3b
       -0.050463933 -0.13202363 -0.09904985 0.006906054
000120 d5 75 3c bd 47 52 d4 bd ba 3e 96 bd 70 c3 44 3c
       -0.04601081 -0.10367256 -0.07336183 0.012009487
000130 bc 30 ee bd f0 f2 8d 3c 25 a8 d8 bd d7 b7 dd bd
       -0.11630389 0.017327756 -0.10578946 -0.1082608
000140 22 8e 70 bd c7 0a e2 bd 6b f1 e2 bd c9 ab 75 bd
       -0.0587293 -0.11037212 -0.11081203 -0.05997828
000150 b9 36 20 be a0 2e b0 bd f5 d3 44 be b7 df 20 be
       -0.15645875 -0.08602643 -0.1922148 -0.1571034
000160 2e 44 ee bd e7 2e 7d bd 68 5d d5 bd 7a 47 e8 bd
       -0.11634098 -0.061812308 -0.104182065 -0.11341758
000170 0d 5c 03 be 5c 15 65 bd b4 06 f2 bd 04 ff 18 be
       -0.12828083 -0.055928573 -0.11817685 -0.1494103
000180 a8 25 94 bd ff ea 2b be ea 0a b3 bd 51 6a df 3b
       -0.07233745 -0.16788863 -0.08742316 0.006818094
000190 a0 31 51 3c 24 87 e4 bd 21 bf 5c 3d 5b 8c 84 bd
       0.012768179 -0.111585885 0.053893212 -0.06472083
0001a0 d4 6e ce bd e3 f6 50 bc c9 47 93 bd 80 53 38 3d
       -0.100797325 -0.012754175 -0.07191426 0.045001507
0001b0 0b 39 be bd d0 0e 03 be fe ac b4 bd c2 a9 1b be
       -0.09288224 -0.1279862 -0.08822058 -0.15201476
0001c0 1e ac 81 3d d1 77 8a bd 2f 44 27 bd ef 06 de bd
       0.06331657 -0.067611344 -0.04083651 -0.10841166
0001d0 d1 04 f1 bd a6 13 22 be 82 53 2c be 1e f2 08 be
       -0.11768497 -0.15827808 -0.1682873 -0.1337361
0001e0 0f 5f 55 bd 80 98 ca bd cb 48 1f bd 32 38 cc bd
       -0.052092608 -0.09892368 -0.03888778 -0.09971656
0001f0 ec bf d3 bd 31 49 c8 bd f9 9b 74 3d 60 22 3c be
       -0.103393406 -0.09779585 0.05971906 -0.18372488
000200 0a c9 fe bd e8 c9 2d bd ae 77 f6 bd 05 63 df bd
       -0.12440689 -0.04242888 -0.12034546 -0.10907558
000210 09 7a f8 bd 3d a0 a1 bd 39 30 99 bd 94 69 21 be
       -0.12132651 -0.07891891 -0.07479901 -0.15762931
000220 52 e8 69 bd df 99 58 bd a3 d9 07 bd 32 01 4f 3d
       -0.057106324 -0.052881118 -0.03316654 0.05053825
000230 a3 70 b4 bd a5 4c b6 bd 63 73 09 be 06 b7 a2 bd
       -0.08810546 -0.089013375 -0.13422923 -0.07945065
000240 52 68 9b bd db 57 9e bd 1b fb d4 bc 7a 50 cf bd
       -0.07588257 -0.07731601 -0.025998643 -0.101227716
000250 90 02 a8 bd 0c 41 1f be dc 26 c0 bd cb 19 25 bd
       -0.08203614 -0.15552157 -0.09382412 -0.0403078
000260 7d 06 c0 bd 42 f9 85 bd 04 75 bf bd c5 30 91 bd
       -0.093762375 -0.06541683 -0.09348491 -0.0708938
000270 64 de a9 bd 28 82 b4 bd 4d dc be bc df 63 a7 bd
       -0.08294371 -0.08813888 -0.023298407 -0.08173346
000280 06 dd cb bd f2 e4 eb bd df c4 b6 bd 90 86 f6 bd
       -0.09954266 -0.11518277 -0.08924269 -0.120373845
000290 1b 0e 5e bd f7 ca bf bd 42 7a 14 be 80 ff 92 bd
       -0.05421267 -0.09364884 -0.14499763 -0.07177639
0002a0 31 f4 91 bd 2d f7 06 be fe eb 31 bd e6 20 bc bd
       -0.07126654 -0.13180228 -0.04343795 -0.091859624
0002b0 f3 24 88 bc 48 3d 10 be 5b 1a ab bc 4d ba 07 3b
       -0.016619181 -0.14085877 -0.02088659 0.002071041
0002c0 b3 3f 14 be ce 53 00 be d1 6d 2c be aa f0 dc bd
       -0.14477424 -0.12531969 -0.16838767 -0.107880905
0002d0 31 d4 07 be a1 a1 0b bc dc 3d a8 bd 5b a9 e6 bd
       -0.13264538 -0.008522422 -0.08214924 -0.11262771
0002e0 77 5c d8 bc 96 a1 5c bd eb 36 e7 bd 21 46 06 be
       -0.026411278 -0.053865038 -0.11289772 -0.1311269
0002f0 dc bd e7 bd cc 58 90 bd 71 e3 40 be e9 74 c8 bd
       -0.1131551 -0.07048187 -0.18836762 -0.09787924
000300 a8 32 d3 bd 63 16 fa bd 4b ad b6 bd 84 0c b9 bd
       -0.10312396 -0.12211301 -0.08919772 -0.0903559
000310 55 12 8e bd 5d bf 51 bd 09 ab e1 bc 48 96 93 bd
       -0.0693709 -0.05120789 -0.027547376 -0.07206398
000320 a7 ae 11 bd e4 de cd bd 29 dd 0a be c1 96 fd bd
       -0.035566952 -0.10052279 -0.13560928 -0.1238227
000330 6a 7e 4a be fc 3a 01 be 11 86 0c bd fb dd ad bd
       -0.19774786 -0.12620157 -0.034307543 -0.08489605
000340 05 2a 06 be f0 69 c5 bd 4a e1 f4 bd cb 03 af bc
       -0.13101967 -0.096393466 -0.11957033 -0.021364113
000350 91 cc 03 be d0 f9 af bd de 0d 3e be 02 1d 68 bc
       -0.12871005 -0.0859257 -0.18559977 -0.014167072
000360 d8 d4 ca 3b de ed 00 be b6 47 ba 3c b0 11 84 bd
       0.0061899237 -0.12590739 0.022739273 -0.06448686
000370 16 1f 81 3d 50 6f 9c bd 32 68 d2 bc 82 47 88 bd
       0.06304757 -0.07638419 -0.02568445 -0.06654264
000380 8c 5a 92 ba 78 0b dc bd c3 5e f9 bd e9 25 f7 bd
       -0.0011165901 -0.10744375 -0.121762775 -0.12067778
000390 48 36 40 bd e7 26 44 bd ed a7 de bc 01 60 61 3b
       -0.046926767 -0.047888663 -0.027179683 0.0034389498
0003a0 08 6b ec 3b 33 e6 a4 bd cb 61 8a bd ee b0 e4 bc
       0.0072149076 -0.080517195 -0.06756934 -0.027916398
0003b0 67 30 b3 bd 28 9b c3 bd 15 75 f7 bd 5d 55 de bd
       -0.087494664 -0.09551078 -0.120828785 -0.108561255
0003c0 f1 34 e1 bc cd b4 be bd 9e 81 ac bd 79 fc 2b be
       -0.027491065 -0.09311829 -0.0842316 -0.1679553
0003d0 d1 51 fb bd a7 30 04 3c 1b 40 45 bd 48 de d6 bd
       -0.122714646 0.00806824 -0.04815684 -0.104916155
0003e0 fe e3 cf bc 49 50 0d be 02 59 76 3b 94 34 88 bd
       -0.02537727 -0.13800158 0.0037589674 -0.066506535
0003f0 97 01 17 be e3 f9 03 be 02 22 79 bd 90 25 0f bd
       -0.147467 -0.12888293 -0.060823448 -0.03494793

bias f4 [100]
000000 f5 f3 2f be 6e ef 33 be 54 97 9e bd 86 a6 e8 3e
       -0.17182906 -0.17571804 -0.07743707 0.45439547
000010 54 94 97 3e 3b 3f 1f be 35 67 60 bd 5d 9e 63 bf
       0.29605353 -0.15551464 -0.054785926 -0.8891352
000020 84 db 89 bd d8 fe f1 bd 14 9c 9c bd 32 5e ae be
       -0.067313224 -0.11816186 -0.07646957 -0.3405624
000030 6c c8 38 be 81 45 3a bd 2e 59 68 3d a4 40 c8 bd
       -0.18045205 -0.04547644 0.056725673 -0.09777954
000040 27 1b df 3e b1 16 88 3e 88 41 99 3e de 86 1d be
       0.43575403 0.26579812 0.2993281 -0.15383479
000050 f0 88 a8 bd d0 4a a0 bd 55 83 b9 bd f6 ad da bd
       -0.08229244 -0.07826769 -0.09058253 -0.10677712
000060 c0 0d 01 be ce 7b 47 be c7 f6 86 bc e5 17 4b bc
       -0.12602901 -0.19480821 -0.016475094 -0.012395834
000070 69 d9 68 bd bc 6f bb 3e 17 24 46 bb 41 b5 14 be
       -0.056847963 0.36608684 -0.0030233914 -0.14522268
000080 41 83 43 3e c1 c3 31 be 9f 92 cc bc 07 10 dc bd
       0.19093038 -0.1735983 -0.024972258 -0.107452445
000090 03 6c c6 3e d4 bd 85 3e 9c 01 5f be 4c a4 7e be
       0.3875428 0.2612139 -0.21777958 -0.24867362
0000a0 8d 29 99 bc 77 35 99 be e2 f1 0c be ed a9 33 bd
       -0.01869657 -0.29923603 -0.13764146 -0.043863226
0000b0 13 af e3 bd 75 52 07 bd 96 82 fe 3e fd 04 0d 3f
       -0.11117377 -0.03303762 0.49709004 0.55085737
0000c0 27 49 85 bd 6f 94 cb bd cf 34 ee 3e 37 02 ab bd
       -0.06508093 -0.09940421 0.46524665 -0.08350032
0000d0 ec a2 e0 bd cc d8 78 be b6 7c 6c 3e 4b 67 0f be
       -0.10968575 -0.24301451 0.23094448 -0.14004247
0000e0 fc fc 0d be 00 42 bc bd 32 c1 4e bd 64 33 c8 bd
       -0.13866037 -0.09192276 -0.050477214 -0.09775427
0000f0 b3 cb bb bd f8 43 06 3f d5 b6 93 3e 27 a3 84 bd
       -0.09169712 0.5244746 0.28850427 -0.06476431
000100 e2 6f 1a be 97 f9 0d be 25 45 21 be 20 a7 32 be
       -0.15081742 -0.13864742 -0.15749033 -0.17446566
000110 0d 02 17 bd ef fd 29 3e b7 68 0f be 12 37 ff bd
       -0.03686719 0.16600774 -0.1400479 -0.12461676
000120 c8 c8 df bd 85 36 f5 bd 51 41 64 3e 98 f2 ac bd
       -0.10926968 -0.119732894 0.22290541 -0.084447086
000130 5d d8 00 be 97 ed 44 bd f7 58 d9 3e e9 cf 51 be
       -0.12582536 -0.048078146 0.42450687 -0.20489468
000140 1e 38 d8 bd 34 1c 4c 3d b6 0c e3 bd d9 e6 bc bb
       -0.105575785 0.049831584 -0.11086409 -0.005764824
000150 92 ce c0 bd d4 7b a2 bd ed 6f 44 bd fc 9c 0e bd
       -0.094144 -0.079337746 -0.047958303 -0.03481768
000160 da 62 46 be a8 d6 30 be 93 93 be bd 9e 5e a8 3e
       -0.19373646 -0.17269385 -0.09305491 0.32884687
000170 6e 25 d4 bd e0 ca f6 3b 32 6c 52 bd 05 b6 6d bd
       -0.10358702 0.007531509 -0.051372714 -0.058034915
000180 c5 a4 b1 3e cd 5e 1e 3f 34 7f 1e be 11 a7 ee 3e
       0.34696022 0.61863405 -0.15478212 0.46611837

weight f4 [1, 100]
000000 e9 ad 97 3b 84 22 33 3d a4 ea ec bc 8a b0 51 be
       0.004628886 0.04373409 -0.02892048 -0.204775
000010 d1 5e 4e bd dd c5 89 3b 78 37 1e bc 9d 4b 09 3c
       -0.050383393 0.0042044953 -0.0096567795 0.008379844
000020 44 20 92 bc 5e b4 9f 3c 5b 80 b0 bc 0d 98 9c bc
       -0.017837651 0.019495185 -0.02154558 -0.019115472
000030 a2 bd 2b 3d 58 74 7e bc e2 63 fc 3c a5 55 40 bd
       0.041928895 -0.015530668 0.030809347 -0.046956677
000040 0b 67 43 be 2c 38 94 bc 15 f5 df bd b9 d8 5c bd
       -0.19082277 -0.018093191 -0.109354176 -0.05391762
000050 4d 88 e8 3c 33 26 44 3b af 4c f2 3c c0 2f f1 3c
       0.028385306 0.0029929995 0.029577581 0.029441714
000060 95 2a b4 bc 7a c4 e8 bd f8 0d 90 3c fe d3 dd 3c
       -0.021992961 -0.113656 0.017584786 0.027078625
000070 6d c4 3b 3d 4f d4 02 be 0e 80 14 3c 6e 23 5b 3d
       0.045841623 -0.12776302 0.009063734 0.053500585
000080 f2 22 15 bc c7 3c d2 3c 18 12 d3 3c c2 f7 a7 bc
       -0.00910257 0.025663747 0.025765464 -0.020503882
000090 c6 01 2a be 2d 30 70 bd 20 74 2b bd d4 fe 3d 3d
       -0.16602239 -0.058639694 -0.041858792 0.0463856
0000a0 d0 34 24 3c 41 5c 39 bc 82 9e ff bb cc 3e 28 3c
       0.010022357 -0.011313499 -0.007800878 0.010268878
0000b0 bf 1d 5f bd 25 fb 26 3d cf 6a 50 be ea 72 6a be
       -0.054471727 0.040766854 -0.20353244 -0.22895399
0000c0 f6 2b 7a 3c a4 73 45 3d 11 cb 95 be df 1a 15 bd
       0.01526927 0.048205987 -0.2925649 -0.03640258
0000d0 8b 56 b7 3b 7f e1 7a bd 51 19 8b bc 37 74 89 3d
       0.0055950335 -0.061250206 -0.016979845 0.06711619
0000e0 04 12 bb 3b 9b d1 cc bc f2 15 08 3d f0 65 97 3b
       0.0057089347 -0.025002291 0.033224054 0.004620306
0000f0 21 56 69 38 20 09 ba be 29 47 b7 bd 46 b7 fe 3b
       5.5631743e-05 -0.36335087 -0.089491196 0.0077733127
000100 50 b8 a0 3c 86 2d 3d bd 6e e9 4c 3b b5 f9 e2 3c
       0.019619137 -0.046185993 0.0031267065 0.02770696
000110 3d 10 2f bc 04 91 83 bc 7c 15 83 ba 47 35 ba bc
       -0.010685024 -0.01606036 -0.001000091 -0.022730483
000120 af c5 72 bc 64 cf 66 3c 14 20 54 bd 4b ee 18 3b
       -0.014817639 0.014087532 -0.051788405 0.0023335393
000130 62 bd c8 3c eb dc 5e 3c 3d 58 33 be 27 91 34 bd
       0.024504367 0.013602476 -0.17514129 -0.04408374
000140 01 d3 5f 3d 02 c3 41 bd 45 8c 2b bd 22 2f 6f 3c
       0.05464459 -0.047305115 -0.04188182 0.01459864
000150 c3 d9 62 3d ec 88 11 3d d3 26 96 bc 01 56 52 3d
       0.055383455 0.03553097 -0.01832906 0.05135155
000160 ff 3a 9f bc 5f cb e9 3c 80 5e 64 ba a5 45 bc bd
       -0.019437311 0.028539358 -0.00087115914 -0.09192971
000170 52 ec 1a 3d dd 33 db 3b 26 ec 88 bc 1e c0 da bc
       0.03782303 0.006689532 -0.016714167 -0.026702937
000180 33 6a 44 be 10 b0 fa bd 45 b1 99 bc c5 de a5 be
       -0.19181137 -0.122406125 -0.018761287 -0.32396522
